Our_code/Pytorch/Advanced_experiments/trained_students/ablation_beta100t-40-2-student-16-1.pth (torch_old, 718602 bytes, 69 tensors)

conv1.weight f4 [16, 3, 3, 3]
0	0xbe8bc6c9	-0.273001
1	0xc081f30d	-4.0609193
2	0xbee3f068	-0.44519353
3	0xbf44cccd	-0.76875
4	0x40e91990	7.2843704
5	0xbf9d9681	-1.2311555
6	0x3e89eb5f	0.26937386
7	0xbfa0d739	-1.2565681
8	0x3f161c5e	0.58637035
9	0xbf2f34af	-0.68439764
10	0xc080cbc3	-4.0248733
11	0xbf0120eb	-0.50440854
12	0xbfa161e5	-1.2608
13	0x40dacc2f	6.8374248
14	0xbec7c9d2	-0.39021164
15	0x3ea13eb6	0.31493157
16	0xbf0f15a1	-0.5589238
17	0x3eb185c2	0.34672362
18	0x3dfcc4b4	0.12342206
19	0xc0723987	-3.7847612
20	0xbe9e1c98	-0.3088119
21	0xbdb831fe	-0.0899391
22	0x40a2d72b	5.0887656
23	0xbf7a89c9	-0.97866493
24	0xbe4e3fbb	-0.20141499
25	0xbee35b69	-0.44405678
26	0x3e53703f	0.20648287
27	0x3fe5fb5a	1.7967331
28	0x40b2de06	5.5896025
29	0x3f917a65	1.1365477
30	0x3f2ccffe	0.6750487
31	0xbf9702b1	-1.1797696
32	0x3fab1e7a	1.3368676
33	0xbffa9ac2	-1.9578478
34	0xc0c31d7f	-6.0973506
35	0xc0034f9c	-2.051734
36	0xbf5a81d7	-0.8535437
37	0xbf4dae08	-0.80343676
38	0xbf8d97fe	-1.1062009
39	0x3f9aceba	1.2094338
40	0xbedaa57d	-0.42704383
41	0x3f82d00f	1.0219744
42	0x3fdff1e4	1.7495694
43	0x3fdcdc2d	1.7254692
44	0x3f925830	1.1433163
45	0xbfe7c03e	-1.8105543
46	0xc026cc5e	-2.6062236
47	0xbfd5f877	-1.671645
48	0xbbd79995	-0.0065795877
49	0xbfa54fa0	-1.2914925
50	0xbe592bd2	-0.21208122
51	0x3f6eaf74	0.9323647
52	0x4058bcfc	3.3865347
53	0x3fc0e2bb	1.5069193
54	0xc0b671fb	-5.7014136
55	0xc0af7ac3	-5.4837356
56	0x4029ccce	2.6531253
57	0xc04f8622	-3.2425618
58	0xc0713562	-3.7688832
59	0x40806a5e	4.0129843
60	0x400551ab	2.0831096
61	0x40a8c8d9	5.2745175
62	0x40892163	4.2853255
63	0x3f855294	1.0415826
64	0xbf075cdc	-0.5287607
65	0x400271e5	2.0382016
66	0x3fa3569e	1.2760808
67	0xc0068e64	-2.1024408
68	0x3f7f5aa4	0.9974768
69	0x3c046c50	0.008082464
70	0xbf59dd22	-0.85103047
71	0xbfde6bc1	-1.7376634
72	0x404e4cc3	3.2234352
73	0x402c68fe	2.6939082
74	0x3fc4bbad	1.5369774
75	0x40338b2a	2.805369
76	0xbf63b0bb	-0.88941544
77	0xbef81369	-0.4845231
78	0xbdc278c2	-0.09495689
79	0xc06b6cdc	-3.6785192
80	0xc0253aad	-2.5817063
81	0xc012a1f1	-2.291134
82	0x3e8f9925	0.28046528
83	0x4061117b	3.516692
84	0xc0c303f5	-6.094233
85	0x3cc4df39	0.024032222
86	0x40908e66	4.5173826
87	0xc0a8de8a	-5.2771654
88	0xbf8477a9	-1.0349017
89	0x40babbbb	5.8354163
90	0x3f5dd6aa	0.86655676
91	0x3f067b86	0.5253223
92	0xbc8ab326	-0.016931128
93	0x401c6658	2.4437466
94	0x3e961716	0.29314488
95	0xc0684168	-3.628992
96	0x3fcb31a5	1.5874525
97	0x3e53d316	0.20685992
98	0xbf28b3cf	-0.65899366
99	0x3fb2fd31	1.3983518
100	0x3f252e03	0.64523333
101	0xbfedc4fb	-1.8575739
102	0x408e593c	4.448393
103	0x3e28da73	0.16489582
104	0xc0cdd71e	-6.4325094
105	0x402df3cf	2.718006
106	0x3d8a9bfe	0.067680344
107	0xc018b02e	-2.3857532
108	0xbf2c341e	-0.67267025
109	0xbf662f1e	-0.89915645
110	0xbfd83a95	-1.6892878
111	0x3ec9acb6	0.3938958
112	0x4085dad8	4.1829643
113	0x3f95ff8b	1.171861
114	0xbec7edbd	-0.39048567
115	0x405d79ee	3.460567
116	0x3ed41394	0.41421187
117	0x3fb525a9	1.4152118
118	0xbeb80e07	-0.35948202
119	0xbf559f20	-0.8344593
120	0xbe8742b5	-0.2641808
121	0xbff2e074	-1.8974748
122	0xc04f3d80	-3.2381287
123	0x3ece9850	0.4035058
124	0xbf865536	-1.0494754
125	0xbfd29de7	-1.6454438
126	0x3dfbc273	0.122929476
127	0x3fbf8ebe	1.4965436
128	0x3fb69738	1.4264898
129	0xbcc76821	-0.024341645
130	0xbeebb2a6	-0.46034735
131	0xbcaace22	-0.020850245
132	0xbe191fd5	-0.14953549
133	0xbea8748a	-0.32901412
134	0xbf3e006d	-0.742194
135	0x3ee87ada	0.45406228
136	0xc01a110b	-2.4072902
137	0xbfe65c0b	-1.7996839
138	0x3f972783	1.1808933
139	0x409f8922	4.98549
140	0xc071b60c	-3.7767363
141	0x40534944	3.3013468
142	0x3ed167a6	0.4089939
143	0xbdcf5a3f	-0.10124635
144	0x3fc4b073	1.5366348
145	0x3fa04f47	1.2524194
146	0x3ff8a183	1.942429
147	0xbfb2b4c8	-1.396142
148	0x3fc14c86	1.5101478
149	0xbf6d0808	-0.9259038
150	0xbe5705a7	-0.2099825
151	0xc09d221d	-4.910414
152	0xbf268fde	-0.65063274
153	0xbfc072a0	-1.5034981
154	0xbf98f291	-1.1949025
155	0x3e9fa60e	0.31181377
156	0xbf9740ae	-1.1816614
157	0x405255ea	3.2864938
158	0x4007f73b	2.1244648
159	0xbdfb8bdc	-0.122825354
160	0xbf81567b	-1.0104517
161	0x3f56ea38	0.8395114
162	0xbea7278c	-0.3264736
163	0x3ddb3c47	0.10704856
164	0x3f888ec4	1.0668569
165	0xbd49e292	-0.04928834
166	0xc129ba02	-10.607912
167	0xbf30c707	-0.6905369
168	0x3f45b9e3	0.77236766
169	0x3eee5a38	0.46553206
170	0x3fa72bdc	1.306026
171	0x3f7d278a	0.98888457
172	0xbe0cec5a	-0.13762036
173	0x3fb0b60f	1.380556
174	0xbd4b2914	-0.049599722
175	0xc103fed0	-8.24971
176	0x3e6e2e9f	0.23259972
177	0xbed54c49	-0.41659763
178	0x3f01529f	0.50516695
179	0x3ee7d6d5	0.4528109
180	0x3fa3ce61	1.2797357
181	0x3e7ae87a	0.24502745
182	0xbf90322d	-1.1265312
183	0x3f9ea4e5	1.2394072
184	0xc0a017fe	-5.0029287
185	0x3e0aa9d6	0.1354135
186	0x3ef11a69	0.47090462
187	0x3cd053a0	0.0254305
188	0x3dfaa4a6	0.122384354
189	0x408db0e4	4.427843
190	0x4058e103	3.3887336
191	0x407c2a5f	3.9400861
192	0x3ff83abf	1.9392928
193	0xc0471cc8	-3.1111317
194	0x3ee1e700	0.44121552
195	0xbfd470e7	-1.6596955
196	0xc0bad10f	-5.83802
197	0xbffba34a	-1.9659207
198	0xbf859775	-1.0436846
199	0xbfabb65f	-1.341503
200	0xbe95b19a	-0.29237062
201	0xbfd37b73	-1.6522049
202	0xc01b48bf	-2.426315
203	0xbfc6d5e0	-1.553402
204	0xbff90a3b	-1.9456247
205	0xbf9e7146	-1.2378318
206	0xbfc04166	-1.5019958
207	0xc027d8cc	-2.6226072
208	0xc023ac96	-2.5574088
209	0xc029f398	-2.6554928
210	0x3f9d4c88	1.228898
211	0x407162e9	3.771662
212	0x3fab2910	1.3371906
213	0x4022ad16	2.5418143
214	0x40eae185	7.3400292
215	0x40662be0	3.596428
216	0xbe4eff9e	-0.20214698
217	0xbfaad5b7	-1.334647
218	0xbfda0c86	-1.7035072
219	0x3e760a53	0.24027376
220	0xbfcefcc3	-1.6170887
221	0xbda88eee	-0.08230387
222	0x3f13d4b5	0.5774644
223	0x3f27cbae	0.65545166
224	0xbdc01cf7	-0.093805246
225	0x3f0ff99c	0.5624025
226	0x4046a673	3.1039093
227	0x3fc4e2dc	1.5381732
228	0x3fdc202f	1.7197322
229	0x409ea60a	4.9577684
230	0x409b94ec	4.861929
231	0x3f8cddac	1.1005149
232	0x40a39fd3	5.11326
233	0x405d4b6a	3.457728
234	0x3c8e2ae7	0.017354442
235	0xbf80fd1c	-1.0077243
236	0x3e346c33	0.176194
237	0xbff7fcf4	-1.937407
238	0xc0a346b9	-5.102383
239	0xc04a59f6	-3.1617408
240	0xbfb5d564	-1.4205747
241	0xc0aa36d0	-5.319191
242	0xc0856e13	-4.169687
243	0x3fedd6f2	1.8581221
244	0xc0274984	-2.613862
245	0xc0211dd6	-2.517446
246	0x3e5cb1cb	0.21552198
247	0xc0e111a5	-7.033404
248	0xc0ad4f38	-5.4159203
249	0x3fecc063	1.8496212
250	0xc0244e21	-2.5672686
251	0xbfe796a0	-1.8092842
252	0xbf15ba52	-0.5848743
253	0x3f6dfa4e	0.9296006
254	0x3f9379f5	1.1521593
255	0x3efff278	0.49989676

layer1.0.bn1.weight f4 [16]
0	0x4035f33e	2.8429713
1	0x3feaa4c8	1.8331537
2	0x3fb0cb37	1.3812016
3	0x3fd8127b	1.688064
4	0x3fac5175	1.3462359
5	0x3fec6478	1.8468161
6	0x4091be34	4.554468
7	0x3fa9b41f	1.3258094
8	0x402e1792	2.7201886
9	0x3fea95a6	1.8326919
10	0x400bdcbe	2.185348
11	0x3ffccd7f	1.9750212
12	0x40196939	2.3970473
13	0x4018543d	2.3801415
14	0x4010e319	2.263861
15	0x40168241	2.3517

layer1.0.bn1.bias f4 [16]
0	0x3f94dbd0	1.1629581
1	0x3ff597f3	1.9186996
2	0x3ff2c954	1.896769
3	0x4020578b	2.5053432
4	0x3f7273c8	0.9470792
5	0x4098cfda	4.7753725
6	0xc1033a8b	-8.201793
7	0x3ed35c8c	0.41281545
8	0x403b13f3	2.9230926
9	0x3f8fd6dd	1.1237446
10	0x3f719466	0.94367063
11	0xbdde864f	-0.10865461
12	0x3fca62af	1.5811366
13	0xbff93454	-1.9469094
14	0x4062a7b8	3.5414867
15	0x3f4100c0	0.7539177

layer1.0.bn1.running_mean f4 [16]
0	0xbd997fd2	-0.07495083
1	0xbee6d784	-0.450863
2	0xbf57fc3b	-0.8436925
3	0xbdb6fc1b	-0.08934804
4	0x3f1b826b	0.6074588
5	0xbebfeeb8	-0.37486815
6	0x40722d49	3.784014
7	0x3f7dcf5a	0.9914452
8	0xc0195ccd	-2.396289
9	0xbedf1c0f	-0.43576095
10	0x3c04a7e2	0.008096667
11	0xc03c0471	-2.937771
12	0x3dd5884d	0.10426388
13	0x403d590c	2.95856
14	0x3f821431	1.0162412
15	0xbdcd4726	-0.10023336

layer1.0.bn1.running_var f4 [16]
0	0x424a763d	50.615467
1	0x41945e5a	18.54607
2	0x424b0608	50.75589
3	0x420c6734	35.100784
4	0x4189d0d9	17.226976
5	0x41b51eeb	22.640097
6	0x43834903	262.5704
7	0x4235bc2c	45.43376
8	0x42a36514	81.69742
9	0x42a5bae3	82.86501
10	0x423d4bd8	47.324066
11	0x42b5de38	90.93402
12	0x429bef6d	77.96763
13	0x4302b0d6	130.69077
14	0x42863350	67.10022
15	0x42666536	57.59884

layer1.0.conv1.weight f4 [16, 16, 3, 3]
0	0x3e7925e9	0.24330868
1	0xbd730ea9	-0.059340153
2	0x4005caa0	2.0904922
3	0xc0b6be7b	-5.710752
4	0x40f596d3	7.674661
5	0xc0a14014	-5.039072
6	0xc033a94f	-2.8072088
7	0xbfad6519	-1.3546478
8	0xbf9ae5d8	-1.2101393
9	0x3fafbc49	1.3729335
10	0x3f354fd3	0.7082493
11	0xbd1189b7	-0.035531726
12	0x40552311	3.3302653
13	0xbfec4f6e	-1.846174
14	0xbd1074ff	-0.035267826
15	0x3ef482e8	0.47756124
16	0xbf1d5590	-0.61458683
17	0x3e88847e	0.26663584
18	0x3fb8d1c9	1.4439021
19	0x40365353	2.8488357
20	0x3fffd293	1.9986137
21	0x4030faba	2.7653031
22	0xc09466d6	-4.637553
23	0x406a0578	3.6565838
24	0x3f885ca4	1.0653272
25	0x3f57fa59	0.84366375
26	0x3fb0aa74	1.3802018
27	0x3dfc78ea	0.1232775
28	0xbfc88783	-1.5666355
29	0xbfe6cf13	-1.8031944
30	0xc0275f2c	-2.6151838
31	0xbe8f8700	-0.28032684
32	0x3fa9a45c	1.3253284
33	0xbe12be93	-0.14330511
34	0xc01f6a38	-2.490858
35	0xbfd521c5	-1.6650931
36	0xbf99d035	-1.2016665
37	0xc0206f49	-2.5067923
38	0x3f0629c9	0.5240751
39	0xc04eaf51	-3.2294505
40	0xc02f3686	-2.7377028
41	0x3f355fbb	0.708492
42	0xbfaab776	-1.3337238
43	0xc09151bc	-4.5412273
44	0x405ff27a	3.4991746
45	0xbe273168	-0.1632744
46	0xc09c0fad	-4.8769135
47	0x3fedc744	1.8576436
48	0xbde65eab	-0.11248525
49	0x40c87b59	6.265057
50	0xbee7d5d6	-0.4528033
51	0xc024e3ba	-2.5763993
52	0xc00d134c	-2.2043028
53	0x400d224b	2.205218
54	0x3fe22e07	1.7670296
55	0xc091b662	-4.5535135
56	0x4091eee1	4.56041
57	0xc026d67a	-2.6068406
58	0xc19f3cb6	-19.904644
59	0xc194f3fa	-18.61913
60	0x3fa64486	1.2989662
61	0xc172cfbb	-15.175715
62	0x3fe18564	1.7618833
63	0xbf3b6523	-0.732012
64	0x4020bb8d	2.5114472
65	0x3f1661e2	0.5874311
66	0x3d0e487e	0.034737103
67	0x3f813fc1	1.0097581
68	0x3f1ce4ea	0.61286795
69	0x401f60ae	2.4902759
70	0x3ea50c17	0.32235786
71	0xbf01d1ec	-0.5071094
72	0xbe61c3d5	-0.2204736
73	0x3f3c9929	0.73671204
74	0x3fd99a1b	1.7000154
75	0x401a0b05	2.4069226
76	0xc017d8d4	-2.3726091
77	0x3f72cd42	0.9484445
78	0xbc43ee35	-0.011958648
79	0x3dce8408	0.10083777
80	0x3f1fcb4c	0.6241958
81	0x3f9a92f0	1.2076092
82	0x3fa875a3	1.31609
83	0xbf88b721	-1.0680887
84	0x3fe831c3	1.8140186
85	0x3e816852	0.25274903
86	0xbf7c4938	-0.9854922
87	0xbfebe62e	-1.842962
88	0xbf18ee8f	-0.5973901
89	0xbfeae25f	-1.8350333
90	0xc05c5a29	-3.443003
91	0xbffb9451	-1.9654638
92	0xc020cb0e	-2.5123935
93	0xbff9bde6	-1.9511077
94	0x4065c8b9	3.5903761
95	0xc01c818d	-2.4454072
96	0x404e79ef	3.2261922
97	0x3d139710	0.036032736
98	0xc0044cfb	-2.0671985
99	0xbf879f83	-1.0595554
100	0x3fca739f	1.5816535
101	0xbf61b01f	-0.88159364
102	0xbfa1d67c	-1.264358
103	0x40dbe6ab	6.8719077
104	0xc059cd5f	-3.4031599
105	0xc01dbc1d	-2.4646065
106	0xbfd85e7b	-1.6903833
107	0xbfa071a2	-1.2534678
108	0xbecba8e5	-0.39777294
109	0xc10f147a	-8.942499
110	0x3ed95760	0.42449474
111	0x4071ca47	3.777971
112	0xc07df49e	-3.9680552
113	0x3fe4618d	1.784227
114	0xc07d54e9	-3.9583075
115	0xc024dea1	-2.5760882
116	0x3e72c702	0.23708728
117	0xc0a0b26a	-5.021779
118	0xc0079323	-2.1183555
119	0x3eeeb812	0.4662481
120	0xbf0bdfc8	-0.5463834
121	0xc0220b53	-2.5319412
122	0x3ff548e5	1.9162871
123	0x401f82de	2.4923625
124	0x3eddcca6	0.43320197
125	0x3f3b85b7	0.7325091
126	0x3fbc5796	1.4714229
127	0xbf386a74	-0.72037435
128	0x3fcf338b	1.6187605
129	0xbceca389	-0.028886573
130	0xc0ad52a6	-5.416339
131	0x3ebea764	0.37237084
132	0x3f9d42ab	1.228597
133	0x402dd60f	2.71619
134	0xbf095ffb	-0.5366208
135	0x3e17953c	0.14803022
136	0xc0e5b1e6	-7.177966
137	0xbf6c0d2d	-0.92207605
138	0xbfbb1c16	-1.4617946
139	0xc0809d38	-4.0191917
140	0x3f3a3e88	0.72751665
141	0x3ebb09b0	0.36530828
142	0xbfe07e96	-1.7538631
143	0x3ec40ca6	0.382909
144	0xbfa5e0d9	-1.2959243
145	0xbf894b7d	-1.0726162
146	0x3f564922	0.8370534
147	0x3f4786a0	0.77939796
148	0xbebd11ae	-0.3692755
149	0xbf09c050	-0.5380907
150	0x3d9f61f3	0.07782354
151	0xbea7cb9e	-0.32772535
152	0xbfa0dd2b	-1.2567495
153	0xc088e541	-4.277985
154	0xc101a610	-8.103043
155	0x3eb270dc	0.3485173
156	0xbf007dd3	-0.5019199
157	0xc053cf88	-3.3095417
158	0xbf46e179	-0.77687794
159	0x40ebfc62	7.3745584
160	0x4114adda	9.292444
161	0xbfb7ea66	-1.4368408
162	0x40a4b6ca	5.147313
163	0x4034e463	2.8264396
164	0x3f31c68a	0.6944357
165	0x403c481d	2.9419014
166	0xbfb4ff38	-1.4140387
167	0xbfb80820	-1.437748
168	0xbfbcc07f	-1.4746245
169	0xc0d339ea	-6.6008196
170	0xbff10ed0	-1.8832645
171	0x3fa3568c	1.2760787
172	0xc06681df	-3.6016767
173	0xc099c74e	-4.805579
174	0x41267fe9	10.406228
175	0xc079f99b	-3.9058597
176	0xc0f8460d	-7.758551
177	0x404235a1	3.0345232
178	0xc0593dcc	-3.3943968
179	0xc0182d0e	-2.37775
180	0x400e0662	2.2191396
181	0x3e9a7cd8	0.30173373
182	0xc06eba70	-3.7301292
183	0x403f50b7	2.9893014
184	0x401db686	2.4642653
185	0xc01de1d6	-2.466909
186	0xc089faf4	-4.311884
187	0xc0ac6e1c	-5.388441
188	0xc0a6521b	-5.1975226
189	0x40196684	2.396882
190	0x40325ca7	2.786905
191	0x3fce6f9c	1.612781
192	0x3f7169e8	0.94302225
193	0x403840ef	2.8789632
194	0x408800c6	4.2500944
195	0xbff90f99	-1.9457885
196	0x3e4a56c1	0.19759656
197	0xbe440aee	-0.19144794
198	0xbf56ce81	-0.8390885
199	0x3f15d66a	0.58530295
200	0xbf804b14	-1.0022912
201	0xc082b988	-4.085148
202	0xbfe906dd	-1.820522
203	0xc04c7507	-3.1946428
204	0xbf0f4474	-0.55963826
205	0xc0408e1e	-3.0086741
206	0xbff2bee5	-1.8964506
207	0xbfdcede9	-1.7260104
208	0x3f535b3a	0.82561076
209	0x40604635	3.504285
210	0xc0652ce0	-3.580864
211	0xbeb5b64b	-0.3549064
212	0x404d0b7e	3.2038264
213	0xc080bec9	-4.023289
214	0x3f862bc0	1.0482101
215	0xbfa9692d	-1.3235222
216	0xbfaa8bda	-1.3323929
217	0x3ea61bf0	0.3244319
218	0xbfc1c333	-1.5137695
219	0x3f6f1e48	0.9340558
220	0x3f3ed865	0.7454894
221	0x3e212e68	0.15740359
222	0xbfe29ac2	-1.7703478
223	0xbfb4e4c2	-1.4132311
224	0x3fb33301	1.399994
225	0xc0a9db75	-5.308039
226	0xc098313e	-4.756011
227	0xc03c9ff7	-2.9472635
228	0xc10d4840	-8.830139
229	0xc098d314	-4.7757664
230	0x4029b259	2.6515105
231	0xc109962e	-8.599165
232	0xc015d0ce	-2.3408694
233	0x4089e248	4.308872
234	0x3fb67d9d	1.4257084
235	0xbf43d22f	-0.7649259
236	0xbfac6166	-1.3467224
237	0x3fd474aa	1.6598103
238	0x3f1d60a0	0.61475563
239	0x3f06ed5c	0.5270593
240	0xc00bba8e	-2.1832614
241	0xbf2ff3bd	-0.6873129
242	0xbe2e4f6e	-0.17022488
243	0xc02e2ffa	-2.7216783
244	0xbfeeb012	-1.8647482
245	0xbfa65a36	-1.299628
246	0xc03948cf	-2.895069
247	0xbfa43b7e	-1.2830656
248	0xbdddd61c	-0.10831854
249	0xbfd0022d	-1.6250664
250	0x3e662f9b	0.22479098
251	0x3fb07844	1.3786702
252	0xbf204379	-0.62602955
253	0xbf01057c	-0.50398993
254	0xbfe5c1a5	-1.7949721
255	0x3e001673	0.12508564

layer1.0.bn2.weight f4 [16]
0	0x3eceea7f	0.4041328
1	0x3f0b39c0	0.54384995
2	0x3eab13d6	0.3341357
3	0x3ecd50d9	0.40100744
4	0x3eba546d	0.36392537
5	0x3ec03985	0.37543884
6	0x3f752d3a	0.95772135
7	0x3fb31c09	1.3992931
8	0x3ea6de1c	0.3259133
9	0x3eaf4544	0.34232533
10	0x3ec4a2ae	0.38405365
11	0x3ee64a5d	0.4497861
12	0x3ef7c2e8	0.4839089
13	0x3f03f722	0.5154897
14	0x3ed165fc	0.4089812
15	0x3f0838b5	0.5321153

layer1.0.bn2.bias f4 [16]
0	0x3f0ea7c3	0.55724734
1	0x3ea40502	0.3203507
2	0x3ed9e0bb	0.42554268
3	0x3ea2243a	0.31668264
4	0x3cab170d	0.020885015
5	0x3e390fa1	0.18072368
6	0xc035c7d1	-2.8403208
7	0xbfee03f7	-1.859496
8	0x3e8b318f	0.27186248
9	0x3e8fdaed	0.28096715
10	0x3e13e6a7	0.14443456
11	0xbc6bb266	-0.014385795
12	0x3e867b3d	0.26265898
13	0x3df965d7	0.121776275
14	0x3e9d71c4	0.3075086
15	0x3e939895	0.28827348

layer1.0.bn2.running_mean f4 [16]
0	0xc26d2214	-59.28328
1	0xc2828c33	-65.27383
2	0xc20c52db	-35.080914
3	0xc2ad8b8b	-86.772545
4	0xc1efd633	-29.97959
5	0xc1c3d7df	-24.480406
6	0xc0a7f87d	-5.249083
7	0xc308b4de	-136.70651
8	0xc264aed0	-57.170715
9	0x436ef19e	238.94382
10	0xc2ae30d4	-87.09537
11	0x4114e74a	9.306467
12	0xc25d1813	-55.27351
13	0xc2a39dca	-81.80818
14	0x426a584b	58.586224
15	0xc236eff5	-45.734333

layer1.0.bn2.running_var f4 [16]
0	0x459a422d	4936.272
1	0x45ebe6f5	7548.8696
2	0x4558a2d7	3466.1775
3	0x45f600a4	7872.08
4	0x452268db	2598.5535
5	0x4532ff1c	2863.9443
6	0x44c64505	1586.1569
7	0x4591838b	4656.443
8	0x45826b20	4173.3906
9	0x459afd07	4959.6284
10	0x45a9f46d	5438.553
11	0x454990f6	3225.06
12	0x45abbade	5495.3584
13	0x45bd5ad8	6059.3555
14	0x45b758c7	5867.097
15	0x460e00e5	9088.224

layer1.0.conv2.weight f4 [16, 16, 3, 3]
0	0xbee5b6d6	-0.44866055
1	0xc0a59621	-5.1745763
2	0x3e087a9e	0.13328025
3	0x3f14f693	0.5818874
4	0x40bff5bb	5.9987464
5	0xc0136e30	-2.3036003
6	0x3dc36daa	0.09542401
7	0x3f3b1b00	0.73088074
8	0x3c0032ad	0.007824582
9	0xbd983afc	-0.074331254
10	0xbeefbfde	-0.4682607
11	0x3eadcfa3	0.33947477
12	0x3cefd74e	0.02927747
13	0x3f68fb7b	0.9100873
14	0x3f0f4740	0.55968094
15	0xbe9170cd	-0.28406373
16	0xbf11f041	-0.57007223
17	0x3ea27bb5	0.31735006
18	0xbde7775e	-0.11302064
19	0xbee9153d	-0.45524016
20	0x3ec4c540	0.3843174
21	0x3f1b0aa2	0.605631
22	0xbf4612ac	-0.7737224
23	0x3f9fd1aa	1.2485859
24	0xbf107c31	-0.564395
25	0xbfb68449	-1.425912
26	0xbf9810a0	-1.1880074
27	0xbf4f4f9d	-0.80980855
28	0x4007e662	2.1234365
29	0xbf771070	-0.96509457
30	0xbed0829d	-0.4072465
31	0x3fa7a303	1.3096622
32	0xbf6b7056	-0.91968286
33	0x3dfe6fe9	0.12423689
34	0xbea32d47	-0.3187048
35	0x3f325259	0.696569
36	0x3f347e4f	0.7050523
37	0x3f0613a7	0.5237374
38	0xbe954637	-0.29155132
39	0xbf6c346f	-0.9226751
40	0xbf2378c2	-0.63856137
41	0x3f4bf6e9	0.7967363
42	0x3ebd52be	0.3697719
43	0xbefde3e7	-0.49587938
44	0x3e357567	0.17720567
45	0xbfb67099	-1.4253112
46	0xbf035287	-0.512978
47	0xbe6ed8f8	-0.23324955
48	0x3f2896f5	0.6585534
49	0x3f9aee6d	1.2104012
50	0xbedc32c1	-0.43007472
51	0xba0b6d4d	-0.0005318716
52	0x3f3c2215	0.73489505
53	0xbe10f7a2	-0.14156964
54	0xc090d96c	-4.5265408
55	0xbfe7fb10	-1.8123493
56	0x3e762684	0.2403813
57	0x3f4c5f96	0.7983335
58	0xbfe84c95	-1.8148371
59	0xbe89f45d	-0.26944247
60	0xbf7068e4	-0.9391005
61	0x3f2a0fb1	0.66430193
62	0xbe5fbc32	-0.21849135
63	0x3f9e21e2	1.235409
64	0x4006b6cd	2.1049073
65	0x400ecf00	2.2313843
66	0xbeb145e5	-0.34623638
67	0x3fdb55f9	1.7135612
68	0x3f4b705e	0.79468334
69	0xbf36da6d	-0.7142704
70	0x3f0dd736	0.5540651
71	0x400c6b78	2.1940594
72	0xbf12de15	-0.5737012
73	0xbfbde9e0	-1.4836998
74	0xbf973983	-1.1814426
75	0xbf45c187	-0.77248424
76	0xc04c1119	-3.1885436
77	0xbe13baa1	-0.14426662
78	0x3e8d3103	0.27576455
79	0xbc760b26	-0.015017306
80	0x3eb92dfe	0.36167902
81	0x3d2727d3	0.040809464
82	0xbe81c724	-0.25347245
83	0x3daa2981	0.083086975
84	0xbe8df5e7	-0.2772667
85	0xbf4d0df0	-0.8009939
86	0xbf23af78	-0.6393962
87	0x3f61af83	0.88158435
88	0x3fb8cd85	1.443772
89	0x3fc8f749	1.5700465
90	0x3eb198e1	0.3468695
91	0x4053e465	3.310815
92	0x3f8e0fe0	1.1098595
93	0xbeafdd2b	-0.34348425
94	0xc0624c11	-3.5358927
95	0xbf4bba4c	-0.7958114
96	0xbf01f402	-0.5076295
97	0xbfa44f74	-1.2836747
98	0xbfb2831e	-1.3946264
99	0xbf4498aa	-0.76795447
100	0xbf4ba134	-0.7954285
101	0x3c969dda	0.018385816
102	0x3b92ef50	0.0044840947
103	0xbe4b5b80	-0.19859123
104	0xbf27349a	-0.6531464
105	0xbeb572b9	-0.3543909
106	0xbf7fb8a0	-0.9989109
107	0xbea39d1c	-0.31955802
108	0xbee1a5be	-0.44071764
109	0x40344fec	2.817378
110	0xbfa4d906	-1.287873
111	0x3fd8db5d	1.6941944
112	0xc0a6fc55	-5.2183022
113	0x401b168d	2.4232514
114	0x3f0ff58f	0.5623407
115	0x3f51414e	0.8174027
116	0xbf824791	-1.017809
117	0x3f8b992a	1.0906117
118	0x40010219	2.015753
119	0xbf910e28	-1.1332445
120	0xbf791f69	-0.97313553
121	0xc0aa713f	-5.326324
122	0x40394045	2.8945477
123	0xbf248b0e	-0.6427468
124	0x3fc8bd5e	1.568279
125	0xbd788803	-0.060676586
126	0xbf8b3f7e	-1.0878751
127	0xbda7eb2d	-0.08199153
128	0x3fbea344	1.4893575
129	0x3e5ab0c8	0.21356499
130	0x3f9f3adc	1.2439837
131	0xbc7533be	-0.01496595
132	0x3edc232a	0.42995578
133	0xbe02638e	-0.1273329
134	0x3dd9d170	0.1063565
135	0xbfce9cc2	-1.6141589
136	0xc0b636f7	-5.6942096
137	0x3f452f80	0.77025604
138	0x3f8fa7fa	1.1223137
139	0x408b3641	4.350373
140	0xc01d9aac	-2.4625654
141	0xbf80be0c	-1.0057998
142	0x3f5d59d5	0.864652
143	0x3feb22d3	1.8370003
144	0xbf90c624	-1.1310468
145	0x407dd280	3.965973
146	0xc00a59d7	-2.1617334
147	0x3ff9fac5	1.9529654
148	0xc08bb0c1	-4.3653264
149	0xbfd0bebd	-1.6308209
150	0xc049a112	-3.150456
151	0xbfa4bf16	-1.2870815
152	0xbfd63ffe	-1.6738279
153	0x3e1f6a1a	0.15567818
154	0x3fbcdab2	1.475424
155	0xbf460bd4	-0.773618
156	0x405b6ce6	3.4285216
157	0x400995d4	2.1497698
158	0xbfdb80b2	-1.714865
159	0x3fc0b106	1.5054023
160	0xbf8054b9	-1.0025855
161	0x3ea48551	0.32132962
162	0xbfdcf00f	-1.726076
163	0xbbd82a64	-0.00659685
164	0xbf565c38	-0.83734465
165	0xbe75d97c	-0.24008745
166	0x3e4bb494	0.19893104
167	0xc04dbf47	-3.2147996
168	0x3fdee7d7	1.7414502
169	0xbfdbea2b	-1.7180837
170	0x3f96bf91	1.1777211
171	0x3f38e08b	0.72217625
172	0x3fdaa441	1.7081376
173	0xbe166c2d	-0.14689703
174	0xc0a4f86d	-5.1553254
175	0x3dfb4e02	0.12270738
176	0xbec5a91b	-0.3860558
177	0xbff8b47f	-1.9430083
178	0xbfb846c2	-1.4396594
179	0xbbdcc94e	-0.0067378646
180	0xc00111d4	-2.0167131
181	0xbfec598b	-1.8464826
182	0xbf961aad	-1.1726891
183	0xbf5ff801	-0.874878
184	0xbf7c2818	-0.9849868
185	0xbfdb5c64	-1.713757
186	0x3f81cf81	1.014145
187	0xbf0933ce	-0.5359467
188	0xbfb19c9f	-1.3875922
189	0x3e6cd98a	0.2312986
190	0x3f879043	1.05909
191	0x3fc41ef3	1.5321945
192	0xbf58c3f5	-0.84674007
193	0x3fcf2c25	1.6185347
194	0x3f9204e4	1.1407743
195	0x3eae27e9	0.34014824
196	0x3f29b33d	0.6628912
197	0xc0295939	-2.6460707
198	0x4014486b	2.31692
199	0x3e8d31dc	0.27577102
200	0x3fdad0ad	1.7094933
201	0xc03be92c	-2.9361067
202	0xc069630c	-3.6466703
203	0xbf60aa83	-0.8776018
204	0xbfb41eee	-1.4071939
205	0xbe6bb0be	-0.2301664
206	0x3fb7dfa6	1.4365127
207	0x3faf5cfd	1.3700253
208	0xc0095163	-2.1455925
209	0xc061e959	-3.5298674
210	0xbee66214	-0.44996703
211	0x40305ab2	2.7555356
212	0x408df81b	4.4365363
213	0xc03578b7	-2.8354928
214	0x3f81c2c4	1.0137563
215	0x40434fbb	3.0517414
216	0x402b5ff9	2.6777327
217	0xc01fadc2	-2.4949803
218	0x3f814f87	1.0102395
219	0x3ec37318	0.38173747
220	0xbf022145	-0.50832015
221	0xc09d7d1a	-4.921521
222	0xbfaf7701	-1.3708192
223	0x3ef169d5	0.47151056
224	0x3ebbb690	0.36662722
225	0x3edf8028	0.43652463
226	0xc01fb55d	-2.4954445
227	0xbfd62893	-1.6731132
228	0xbfabea35	-1.3430849
229	0x3fa81a5a	1.3133042
230	0xbecac479	-0.39603022
231	0xbf465d2c	-0.7748592
232	0xbf0bafdb	-0.5456521
233	0x3ee8ea0c	0.45491064
234	0x3ee7a93f	0.45246312
235	0xbfd683bb	-1.6758951
236	0x3f6059eb	0.87637204
237	0xbf254a46	-0.6456646
238	0x401737d2	2.362782
239	0x3f07dd94	0.53072476
240	0x4076c796	3.8559318
241	0x400d88e5	2.2114804
242	0xbec02052	-0.37524658
243	0x4000f938	2.015211
244	0x3f2c30dd	0.6726206
245	0x3e8bd605	0.2731172
246	0x404001ec	3.0001173
247	0x3ebdbe1b	0.370591
248	0x3f959ccd	1.1688477
249	0x4013f38b	2.3117397
250	0xbfefb8a0	-1.8728218
251	0x3f939301	1.1529237
252	0xbe84013a	-0.25782186
253	0xc093f1e5	-4.623278
254	0xbf373cf5	-0.7157739
255	0xbfb674f8	-1.4254446

layer1.1.bn1.weight f4 [16]
0	0x409fd226	4.994403
1	0x3ffbb5d3	1.9664863
2	0x3fe137fc	1.759521
3	0x3fa4e2ad	1.2881676
4	0x402b4c71	2.6765406
5	0x3fdc4abf	1.7210311
6	0x3fc2851b	1.519687
7	0x3fb47ae1	1.41
8	0x3fb208ae	1.3908899
9	0x3fcb6ed7	1.5893201
10	0x4042f3ab	3.0461223
11	0x3f9a75ad	1.2067162
12	0x407af1f6	3.9210181
13	0x3f864773	1.0490555
14	0x3f73c98d	0.9522942
15	0x409df370	4.9359665

layer1.1.bn1.bias f4 [16]
0	0x412d3844	10.826237
1	0x40a1d86a	5.0576677
2	0x40b213d7	5.564922
3	0x406f34bf	3.7375944
4	0x3fc63b7e	1.5486906
5	0xbfab518d	-1.3384262
6	0x401327a9	2.2992957
7	0x3f01931f	0.50615114
8	0xbf8ee17d	-1.1162564
9	0x406768ad	3.615764
10	0x40a841ec	5.258047
11	0x3f00d274	0.50321126
12	0x402ad07a	2.6689744
13	0x3f890bdc	1.0706744
14	0xbe7b67f8	-0.2455138
15	0x4094a5f2	4.645257

layer1.1.bn1.running_mean f4 [16]
0	0xc04f6bae	-3.2409472
1	0xbfc24be9	-1.5179416
2	0xc11d644a	-9.836985
3	0xbee9963a	-0.45622426
4	0x404482f1	3.070492
5	0x4067ea34	3.6236696
6	0xbe284af8	-0.16434848
7	0xc0b229bb	-5.567594
8	0x41894c95	17.162394
9	0x4153ef4f	13.245925
10	0xbff3ab7f	-1.9036711
11	0xc1d5f9ea	-26.747028
12	0xbee30bfd	-0.44345084
13	0xbf4f8814	-0.81067014
14	0x40044f11	2.0673258
15	0x4095458a	4.6647387

layer1.1.bn1.running_var f4 [16]
0	0x4322b4fe	162.707
1	0x42b33a31	89.613655
2	0x4354cd83	212.80278
3	0x43514a70	209.29077
4	0x4253b0ac	52.92253
5	0x42444952	49.0716
6	0x43e11bea	450.21808
7	0x4391883f	291.06442
8	0x43a00060	320.00293
9	0x43d7563e	430.67377
10	0x431b6301	155.38673
11	0x43dbd2af	439.64597
12	0x432ad4f4	170.83185
13	0x439004ab	288.03647
14	0x43e15f61	450.74515
15	0x431d8e3d	157.55562

layer1.1.conv1.weight f4 [16, 16, 3, 3]
0	0xbfcd4856	-1.60377
1	0xbe61ed15	-0.22063096
2	0xbf5ed1ae	-0.87038696
3	0x3f87ded1	1.0614873
4	0x403790ba	2.8682084
5	0x3ff441d1	1.9082586
6	0x3e2f24d9	0.171039
7	0xc0fe9171	-7.955254
8	0xc0c949fa	-6.2902803
9	0x401fc39e	2.4963145
10	0x40233c9e	2.5505748
11	0xbcebb265	-0.028771589
12	0xc08c1037	-4.3769794
13	0xc082c4bd	-4.086516
14	0xc00f0ac9	-2.2350333
15	0x406155fd	3.5208733
16	0x4082d0d7	4.087993
17	0x3f5f5106	0.87233007
18	0xbf2dc113	-0.6787273
19	0x3ed43d87	0.41453192
20	0x3f6c699f	0.92348665
21	0xc009988e	-2.1499362
22	0xc0309002	-2.7587895
23	0xc08a703c	-4.3262005
24	0x3f0409cb	0.5157744
25	0x3f3f29a4	0.74672914
26	0x3f30933f	0.6897468
27	0x3eff04f3	0.49808463
28	0xbe96494d	-0.293528
29	0xbe084d74	-0.13310796
30	0x3f0431b6	0.5163835
31	0x3fe72605	1.8058478
32	0x40312fbe	2.768539
33	0x400f6cc8	2.2410145
34	0x406275db	3.5384433
35	0x4089243a	4.285672
36	0xbf1cf38d	-0.6130913
37	0xbf791d8f	-0.9731073
38	0xc01a5c47	-2.4118822
39	0x405a74d8	3.4133816
40	0x40266b86	2.6003127
41	0x3ea39e24	0.3195659
42	0xc030a7d2	-2.760243
43	0xbfc60dc7	-1.5472955
44	0x3f0d641c	0.5523088
45	0xc0cc4278	-6.383114
46	0xc03e71a4	-2.975686
47	0xbd7c935d	-0.061663974
48	0x4029cb43	2.653031
49	0x40b9adbe	5.802459
50	0x40a9e6ad	5.3094087
51	0xbfaf0e92	-1.3676322
52	0xc0079add	-2.118827
53	0xbf909454	-1.1295266
54	0xbec27f4e	-0.3798775
55	0x3f97a67d	1.1847683
56	0xbcef4925	-0.029209683
57	0xbd8a5d60	-0.06756091
58	0x3f625bdf	0.88421434
59	0xbdc71d32	-0.097223654
60	0xc08a90d7	-4.3301806
61	0xbfc8f728	-1.5700426
62	0xc012c8f9	-2.2935164
63	0xbfe09b3a	-1.7547371
64	0xbf5324fe	-0.8247832
65	0xc0029c9f	-2.0408094
66	0xbe2f3d78	-0.17113292
67	0x401a2ff0	2.4091759
68	0x400f7a8d	2.241855
69	0x3f8af018	1.0854521
70	0x3fbb7311	1.464449
71	0xbfe6151d	-1.7975193
72	0x3fa6382e	1.2985895
73	0x3f43d005	0.7648929
74	0x3d9fe780	0.07807827
75	0x3f47bee3	0.78025645
76	0x3f474b54	0.77849317
77	0x3f7a32c3	0.97733706
78	0xbf8b97c5	-1.0905691
79	0xbef3c68f	-0.47612426
80	0xbfd6ae8c	-1.6772017
81	0xbe94dd10	-0.29074907
82	0xbf97a6cc	-1.1847777
83	0x3db092a2	0.08621718
84	0x3edca5a9	0.4309514
85	0x3fa826f9	1.3136894
86	0x40489e00	3.1346436
87	0xbef6dce4	-0.482154
88	0xbf2c3ccf	-0.67280287
89	0x3fcb368e	1.5876024
90	0xbfdbeed8	-1.7182264
91	0xc0c7a6a2	-6.239091
92	0xc050beea	-3.2616525
93	0x3f865aca	1.0496457
94	0x4089abbf	4.302215
95	0x3eb19b07	0.3468859
96	0xbf832aa3	-1.0247387
97	0x4009d848	2.1538258
98	0x40220bba	2.5319657
99	0xbfed4753	-1.8537391
100	0xbfd003de	-1.625118
101	0x3fa0bfd2	1.2558539
102	0xbfb06ac2	-1.378258
103	0xbf570e42	-0.8400613
104	0x3feebf22	1.8652079
105	0xbc190471	-0.009339438
106	0xbeefa2c4	-0.46803868
107	0x3ecf0aa6	0.40437812
108	0x4063b459	3.5578825
109	0x404abe3b	3.1678607
110	0x3ff82262	1.9385493
111	0xc0861f22	-4.1913004
112	0xbfe0e263	-1.7569088
113	0xbfcb4a59	-1.5882064
114	0x401dbdad	2.464702
115	0x40c2fc92	6.0933313
116	0x3e7dc1a2	0.24780896
117	0x3e4eadc0	0.20183468
118	0xbf8e7523	-1.1129497
119	0x3cf8716e	0.030327525
120	0x3f8f117c	1.1177211
121	0x3f92ce57	1.146922
122	0x3f829e50	1.0204563
123	0xbeca2fbc	-0.39489543
124	0x3fc8e1ce	1.569391
125	0x3f94a44a	1.1612637
126	0xc011720c	-2.2725859
127	0x3ebaddf9	0.36497477
128	0x3f5bf106	0.8591465
129	0xbf12b88b	-0.5731284
130	0xbfc86531	-1.5655881
131	0xbfe922eb	-1.8213781
132	0xbf1162f6	-0.5679163
133	0xbe04a65b	-0.12954085
134	0x3f37aaa2	0.7174474
135	0x3f226e08	0.63449144
136	0x410a444f	8.641677
137	0x40d90b55	6.7826333
138	0x3ed1d489	0.40982464
139	0xc0d543c5	-6.6645226
140	0xc051a1a3	-3.2754905
141	0x3f462db4	0.7741349
142	0x3ea20a32	0.31648403
143	0x3fbac88e	1.4592454
144	0x3e37e916	0.17960009
145	0x3f612eb9	0.8796192
146	0x3d84a2a9	0.064763375
147	0x3f0b12ff	0.5432586
148	0x3fd742e1	1.6817285
149	0x3fa27240	1.2691116
150	0x3dbceccc	0.09224853
151	0x3f951a4a	1.1648648
152	0xbf444c3f	-0.7667884
153	0xc00ae1e4	-2.1700373
154	0x3fc1d644	1.5143514
155	0x407b1e1c	3.9237127
156	0x3f692010	0.9106455
157	0x3f873ca7	1.0565385
158	0x3eccca40	0.39998055
159	0x407b2d4c	3.9246397
160	0x40176735	2.3656743
161	0x3fa77e3d	1.30854
162	0x401ab5ec	2.4173536
163	0x403ca3e6	2.9475036
164	0xbf4da00f	-0.80322355
165	0xc001c413	-2.0275924
166	0xbfab2225	-1.3369795
167	0xc0949d6e	-4.6442175
168	0x3fc0ec6a	1.5072148
169	0x3f957dde	1.1679037
170	0xc02c2321	-2.689644
171	0x40162756	2.3461509
172	0x3fc843b3	1.564566
173	0xbe71d6eb	-0.23617141
174	0x3fbf5e46	1.4950645
175	0x3e7a73f9	0.24458303
176	0xbf42338f	-0.7585992
177	0x40799ddf	3.9002607
178	0x3fca480a	1.5803235
179	0xbf9008f3	-1.1252731
180	0x408eff2d	4.4686494
181	0x3ef98105	0.48731247
182	0x3f5718b3	0.84022063
183	0x40638b87	3.555391
184	0x3e687328	0.22700179
185	0x3f9130db	1.1343035
186	0x3fa777c3	1.3083423
187	0xc0076232	-2.1153684
188	0xbf9b9d5e	-1.21574
189	0xbf86cfb7	-1.053214
190	0x403fbd03	2.9959114
191	0x3e2f36ad	0.17110701
192	0x3ea4d9c0	0.3219738
193	0x4063b98e	3.5582004
194	0x40324149	2.7852347
195	0xbf8d882d	-1.1057183
196	0x40809468	4.018116
197	0x3db3f8bb	0.08787676
198	0xc0c011e8	-6.002186
199	0xc08a3f85	-4.320254
200	0xc0876fc5	-4.2323937
201	0xbf83a443	-1.0284504
202	0x3f700bb6	0.9376787
203	0xbc2ca728	-0.0105379
204	0xc065ca10	-3.590458
205	0xbfb7449c	-1.4317813
206	0xc01b1e82	-2.423737
207	0xc00d7a36	-2.2105842
208	0xc0616ad6	-3.5221457
209	0xc04061a7	-3.0059602
210	0xc0a74064	-5.22661
211	0xc0cf6ff4	-6.482416
212	0xc085359a	-4.162793
213	0x3f9d63ff	1.2296141
214	0x4053aaa8	3.307291
215	0x3fef032c	1.8672843
216	0x40d285fd	6.578856
217	0x41087efc	8.531002
218	0x4100e8b0	8.056808
219	0x40d7e394	6.7465305
220	0x40aae9cc	5.3410397
221	0x402b75ff	2.679077
222	0x40d8d51c	6.7760143
223	0x40995b03	4.79236
224	0x3edccb00	0.43123627
225	0xc08782a4	-4.2346973
226	0xc0799656	-3.8998008
227	0xbf8672bd	-1.0503765
228	0xc10aaeb3	-8.667651
229	0xc1085c2b	-8.522502
230	0xc01caade	-2.447929
231	0xc112685d	-9.150479
232	0xc12175c0	-10.091248
233	0xc085ea7a	-4.1848726
234	0xbfab57f7	-1.338622
235	0x3fe8c30a	1.8184521
236	0xbf8aa004	-1.0830083
237	0xbfc9aab7	-1.5755223
238	0x3ff48e1c	1.9105868
239	0xbefac0b0	-0.48975134
240	0xbde6b97b	-0.11265846
241	0xbd9991a2	-0.074984804
242	0x3f0c251c	0.54744124
243	0x40900d87	4.5016513
244	0x409c1c5f	4.8784633
245	0x4111e57a	9.118525
246	0x408ec197	4.4611316
247	0x3fe9e3ae	1.8272607
248	0x40b1718e	5.5451117
249	0x4105349a	8.325342
250	0x40855559	4.1666684
251	0x40cceb3f	6.4037166
252	0x3f80846b	1.0040411
253	0x3f247090	0.64234257
254	0x4015b2ff	2.33905
255	0x4003058a	2.047213

layer1.1.bn2.weight f4 [16]
0	0x3f311ca1	0.6918431
1	0x3f062036	0.523929
2	0x3e7c01e5	0.24610098
3	0x3f3bc180	0.7334213
4	0x3f15b01c	0.58471847
5	0x3f072c7b	0.52802247
6	0x3ec4e041	0.38452342
7	0x3f4e3751	0.80553156
8	0x3f307bf0	0.68939114
9	0x3f71cd4a	0.9445387
10	0x3f3d19c2	0.7386743
11	0x3ed3dfa8	0.41381574
12	0x3f004c08	0.50116014
13	0x3f3cab64	0.7369902
14	0x3f027c73	0.50971144
15	0x3f13a8e3	0.57679576

layer1.1.bn2.bias f4 [16]
0	0xbca46559	-0.020067858
1	0xbefef64b	-0.49797282
2	0x3f9f5344	1.2447286
3	0x3d5ed0e8	0.054398447
4	0xbe078e40	-0.13237858
5	0xbe60eafd	-0.21964641
6	0x3d8c3502	0.06846048
7	0xbd893f14	-0.06701484
8	0xbf8395fc	-1.0280147
9	0xbd2d820d	-0.042360354
10	0xbf15e414	-0.58551145
11	0xbe6b244e	-0.22963068
12	0xbe61c393	-0.22047262
13	0xbce8b472	-0.028406356
14	0xbd7c9f4a	-0.061675347
15	0xbdfcf662	-0.12351681

layer1.1.bn2.running_mean f4 [16]
0	0xc184aacf	-16.583403
1	0xc1d68d0a	-26.818867
2	0x41a8c93e	21.098263
3	0x42298b2a	42.385902
4	0x428dd6f5	70.91984
5	0x437e853b	254.52043
6	0x427f52e3	63.830944
7	0xc2b06f8d	-88.21787
8	0x4362ce24	226.80524
9	0xc28a3c0c	-69.11728
10	0x431b84e5	155.51912
11	0x42cfc40a	103.88289
12	0x43b0e457	353.7839
13	0x42d8b935	108.36173
14	0x429b2f44	77.592316
15	0xc30f007e	-143.00192

layer1.1.bn2.running_var f4 [16]
0	0x4690a506	18514.512
1	0x4659c3ec	13936.98
2	0x45a7ff7a	5375.9346
3	0x4686aeb8	17239.36
4	0x4612a252	9384.58
5	0x463aebfa	11962.994
6	0x4608b8d9	8750.212
7	0x4698eb92	19573.785
8	0x460eb979	9134.368
9	0x46baa023	23888.068
10	0x463cfdc4	12095.441
11	0x4586e81b	4317.013
12	0x465421b3	13576.425
13	0x468cae88	18007.266
14	0x4640b2bd	12332.685
15	0x469193ba	18633.863

layer1.1.conv2.weight f4 [16, 16, 3, 3]
0	0x3fa5db1f	1.2957495
1	0x3e6723fa	0.22572318
2	0xbeea0495	-0.4570662
3	0xbf0fb2ef	-0.56132406
4	0x406b6d67	3.6785524
5	0xbcb8d4dd	-0.022562439
6	0x3f6208f2	0.882949
7	0x3fc877a6	1.5661514
8	0xbdb64c09	-0.08901221
9	0x3efdb26d	0.4955019
10	0x3eee500e	0.46545452
11	0x3f2a5f91	0.6655207
12	0xbe9dda2a	-0.30830508
13	0x3da3a32a	0.079901055
14	0xbf3b4120	-0.7314625
15	0x3d64ce03	0.05586053
16	0x3d801e32	0.06255759
17	0x3f0426fb	0.5162198
18	0xbf6dc371	-0.92876345
19	0xc03789b9	-2.867781
20	0x3faee928	1.3664904
21	0xbf38e4d6	-0.72224176
22	0x3f2edc6c	0.6830509
23	0xbfd9a845	-1.7004477
24	0xbeb2dd91	-0.34934667
25	0xbfbbfd40	-1.4686661
26	0x3fbd9857	1.4812115
27	0x3f5aaf1d	0.8542345
28	0xc06793da	-3.6183991
29	0x3f3e9811	0.74450785
30	0x3d071881	0.032982353
31	0x3f9508c7	1.1643304
32	0xbfba38d0	-1.4548588
33	0xbd16ff39	-0.036864493
34	0x3f060805	0.52355987
35	0x3f20a1c9	0.62746865
36	0x3d125535	0.03572579
37	0x3f7633f4	0.96173024
38	0x3e05a5fb	0.13051598
39	0x3eefc4eb	0.46829924
40	0x3fa06f83	1.2534031
41	0xbf3bc269	-0.7334352
42	0xbf2c7e39	-0.673801
43	0x3fec5296	1.8462703
44	0xbf998129	-1.1992542
45	0xc00555cc	-2.0833616
46	0xbe16fc23	-0.1474462
47	0xbfd21cf6	-1.6415088
48	0xbdc1e37f	-0.094672196
49	0x3f9bdabb	1.2176126
50	0xc080d58b	-4.0260673
51	0xbfd8b6b1	-1.6930753
52	0x3ef3be32	0.47606045
53	0x3d1de6be	0.03855013
54	0x3f0bddd6	0.5463537
55	0x4064eb78	3.5768719
56	0x3f9c3145	1.2202536
57	0x3f8d156f	1.1022166
58	0x4003742c	2.0539656
59	0x3f6113c7	0.879208
60	0xba9c7cde	-0.0011939069
61	0xbf6f79e2	-0.93545353
62	0xbf7a90d3	-0.97877234
63	0x3e862f7b	0.262081
64	0x3ea089c3	0.31355104
65	0xbf25507f	-0.6457595
66	0x3eaa5592	0.3326841
67	0x3fbabe22	1.4589274
68	0xbddc103d	-0.10745285
69	0x3fe3ea33	1.7805847
70	0x3ea21866	0.3165924
71	0x3fdc3be0	1.7205772
72	0xc010e786	-2.264131
73	0x3fd90bb9	1.6956702
74	0x3fb5a0c8	1.4189692
75	0x3fa08013	1.2539085
76	0xc03400ef	-2.812557
77	0xbc44ac26	-0.012003934
78	0x3f8b636b	1.0889715
79	0x3fdb4753	1.7131141
80	0xc0206c68	-2.5066166
81	0xbe89bb0f	-0.26900527
82	0x40256477	2.584257
83	0xbfc1a328	-1.5127916
84	0xbe9dd485	-0.30826202
85	0xbee9958a	-0.45621902
86	0xbf0f56d0	-0.5599184
87	0xbfb4971e	-1.4108617
88	0xbf0e9983	-0.5570299
89	0xbf888f06	-1.0668647
90	0x3fde556c	1.7369819
91	0x402c926c	2.696437
92	0x400a69f5	2.162717
93	0xbfc5da62	-1.545727
94	0xbeca85ef	-0.39555308
95	0xbf8d6451	-1.1046239
96	0xbf8fc6f2	-1.1232588
97	0xbf9566bb	-1.1671976
98	0xbdfefd30	-0.124506354
99	0x3e3ce114	0.18445235
100	0x3e3d1589	0.18465246
101	0x3f16482f	0.58703893
102	0xbf85cc1f	-1.0452918
103	0xbff9d248	-1.9517298
104	0x3d83cf00	0.064359665
105	0x3f89bdad	1.076101
106	0x3f20ca5d	0.6280878
107	0xbe81fa9a	-0.25386506
108	0x3ef66b73	0.48128852
109	0xbe6d94a4	-0.23201233
110	0x3f22f841	0.63660055
111	0x3ee35f4d	0.44408646
112	0x3e5bb6bf	0.21456431
113	0xbfe10a8d	-1.7581345
114	0xbe5ee8a2	-0.2176843
115	0xbe325768	-0.17416155
116	0xbeb247ac	-0.34820306
117	0xbf4ef742	-0.80846035
118	0x3f6757ab	0.90368146
119	0xbf5b8257	-0.8574576
120	0xbfe0ea30	-1.7571468
121	0xc00e40cc	-2.222705
122	0xbed3a684	-0.4133798
123	0x3f10c5e0	0.56551933
124	0x3f6cf0e7	0.9255509
125	0xbe8819c8	-0.2658217
126	0x3f3a8b11	0.7286845
127	0x3ed74f55	0.42052713
128	0x3fa1f5ba	1.2653115
129	0x3e5c77cb	0.21530072
130	0xbf8c244c	-1.0948577
131	0xc0081272	-2.1261258
132	0xbead6364	-0.33864892
133	0x3fa5addc	1.2943683
134	0x3f20479d	0.62609273
135	0x3e9892c4	0.29799473
136	0x40228192	2.5391583
137	0xbc6872c4	-0.0141875185
138	0x4045bcf6	3.0896583
139	0x3ee00d02	0.43759924
140	0x3f39e9c1	0.72622305
141	0x3f5a08e6	0.8516983
142	0x402abc63	2.6677482
143	0x3fdb02ae	1.7110193
144	0xbff3dd93	-1.9051994
145	0x3fa14b17	1.2601041
146	0xbf95892c	-1.1682487
147	0xbf91cd52	-1.1390784
148	0x4061d1d3	3.5284317
149	0xbfdd2031	-1.7275449
150	0x3cf7e05a	0.030258346
151	0x3fab793e	1.3396375
152	0xbfa99e0e	-1.325136
153	0xbecdd3e3	-0.4020072
154	0xbff94916	-1.9475429
155	0xbfb35f06	-1.4013374
156	0x3f44323d	0.7663916
157	0xbf058870	-0.5216131
158	0x3ee77ef4	0.45214045
159	0x3f0713a1	0.52764326
160	0x3e4374e9	0.19087566
161	0x3fa5eb35	1.2962404
162	0xbed96fd5	-0.42468134
163	0xc0a80160	-5.250168
164	0x403552b8	2.8331738
165	0xbfb062bf	-1.3780135
166	0xbfad3e63	-1.3534664
167	0x405d982a	3.4624124
168	0xbe7140aa	-0.23559824
169	0x400b9b55	2.1813557
170	0x3f9848c8	1.1897211
171	0xbf43963b	-0.7640111
172	0x3f9dbf22	1.2323954
173	0xbfb0722f	-1.3784846
174	0x3ffcddf6	1.9755237
175	0xbe3dd14e	-0.18536875
176	0xbfba2a0d	-1.4544083
177	0xbffa4cdb	-1.9554704
178	0xbd92cbdf	-0.071677916
179	0xbed94c1b	-0.42440876
180	0xc026222f	-2.5958364
181	0xbf97a4d7	-1.184718
182	0xbed84138	-0.42237258
183	0xbf883fb6	-1.0644443
184	0xbf07d50d	-0.53059465
185	0xbf1c9276	-0.6116098
186	0xbff5c94b	-1.9202055
187	0xbfa5ce5d	-1.2953602
188	0x3e618d5c	0.2202658
189	0xbd8d6b5f	-0.06905245
190	0x402a9af7	2.6657083
191	0xbf22e7a3	-0.636347
192	0xc053097b	-3.2974536
193	0x3fe34c59	1.7757674
194	0xbec832d3	-0.39101276
195	0x4023052a	2.5471902
196	0xbe4dac78	-0.20085323
197	0xbf2e565e	-0.68100536
198	0xbf9624bd	-1.1729962
199	0x3f17a0eb	0.59229916
200	0x4007c58b	2.121432
201	0xbda58a64	-0.080830365
202	0x4042193b	3.03279
203	0xbf0fd166	-0.5617889
204	0x3fe2d4cb	1.7721189
205	0xbee0ef1e	-0.43932432
206	0xc00aa77e	-2.166473
207	0x3f45352c	0.7703426
208	0x3f243296	0.6413969
209	0x3fc5d817	1.545657
210	0x406f822f	3.7423208
211	0x40929242	4.5803537
212	0x4009aae8	2.1510563
213	0x40742911	3.8150065
214	0x40cb1cc9	6.347264
215	0x3f9a2702	1.2043154
216	0x3fe3e43c	1.7804027
217	0x3f09a504	0.5376742
218	0x3f46ad06	0.7760776
219	0x4011be6b	2.2772472
220	0x3f090ed9	0.5353828
221	0xbf02ce63	-0.5109617
222	0x40d0829a	6.5159426
223	0x3f5dafe2	0.865965
224	0xc041e817	-3.0297906
225	0xbf41abb8	-0.75652647
226	0x3fa13f6e	1.2597482
227	0xc044a758	-3.0727139
228	0xbeecc51e	-0.46244138
229	0x4097fa59	4.74931
230	0xbf6fd4ed	-0.93684274
231	0xbeee1eed	-0.4650797
232	0x3fe598bb	1.7937235
233	0xc002e4a7	-2.0452058
234	0xbfe025c4	-1.7511525
235	0x3e8bcce5	0.2730476
236	0x409cad4e	4.8961554
237	0x3f77e8c6	0.9683956
238	0x3fac9225	1.34821
239	0xc01c60e7	-2.4434144
240	0x3d6212bf	0.05519366
241	0x3fcae499	1.5851012
242	0xc06ac11a	-3.668036
243	0xbeec2bd3	-0.46127185
244	0xc00b62c5	-2.1779034
245	0x3e001101	0.12506486
246	0xbfcb1174	-1.5864701
247	0xbf691ab4	-0.9105637
248	0xbfcfbb8d	-1.6229111
249	0x3f0b7b45	0.5448497
250	0x3f4b038a	0.79302275
251	0x3fddb2d5	1.73202
252	0x3f4f0f53	0.8088276
253	0xbe76410e	-0.24048254
254	0xbf501f7b	-0.81298035
255	0xbf890d89	-1.0707256

layer2.0.bn1.weight f4 [16]
0	0x40a82e0c	5.255621
1	0x402bed51	2.6863596
2	0x4033e192	2.8106427
3	0x40295faf	2.646465
4	0x40aca422	5.3950357
5	0x3fe8c348	1.8184595
6	0x40656a0c	3.5845976
7	0x4014bd7d	2.3240654
8	0x3fd9e686	1.7023475
9	0x4048ee34	3.1395388
10	0x407995d3	3.8997695
11	0x40022461	2.0334704
12	0x3ff32c10	1.8997822
13	0x401d402f	2.4570425
14	0x3ffb41b6	1.9629428
15	0x407eaf4e	3.9794497

layer2.0.bn1.bias f4 [16]
0	0x3f98220a	1.1885388
1	0x3fdf259b	1.7433351
2	0x40248cf6	2.5711036
3	0x40ac21a4	5.3791065
4	0xc0083880	-2.1284485
5	0xbe98221e	-0.2971353
6	0x407fa662	3.9945302
7	0x4045b07e	3.0888972
8	0x3f3579ee	0.70889175
9	0x407e861e	3.9769359
10	0xbef4524f	-0.47719046
11	0x3f3311ee	0.69949234
12	0x40858322	4.1722574
13	0x3f8aca09	1.0842906
14	0x3f1a4572	0.60262215
15	0x402c2ff6	2.6904273

layer2.0.bn1.running_mean f4 [16]
0	0xc0b0189c	-5.503004
1	0x40b9f12a	5.810689
2	0xc0f33b5e	-7.600997
3	0xc17a162f	-15.630416
4	0xc0db9d0a	-6.86292
5	0xbf3b40c2	-0.7314569
6	0x416d8cd1	14.846879
7	0xc0dd6da8	-6.919636
8	0x422b2ffc	42.79686
9	0x418ceae6	17.614697
10	0xbfa7ca11	-1.3108541
11	0xc1f397ae	-30.449062
12	0xc163a80c	-14.228527
13	0xc08edf42	-4.464753
14	0x4189ab56	17.20866
15	0x4110dfe3	9.05466

layer2.0.bn1.running_var f4 [16]
0	0x434469bc	196.41302
1	0x4322c6fd	162.7773
2	0x438eeeca	285.86554
3	0x43943ad4	296.4596
4	0x43351ddd	181.11665
5	0x42f4a58e	122.32335
6	0x43fd77cd	506.93594
7	0x43a81358	336.15112
8	0x43de2468	444.28442
9	0x43d97d77	434.9802
10	0x43332e7c	179.18158
11	0x43e22d2d	452.35294
12	0x42e5d75c	114.92062
13	0x438fce2c	287.61072
14	0x43dd90a1	443.1299
15	0x43284718	168.27771

layer2.0.conv1.weight f4 [32, 16, 3, 3]
0	0xbede7183	-0.43445978
1	0x3f9cfc5d	1.2264515
2	0x3fc3c348	1.529397
3	0x3f1a09c2	0.6017114
4	0xbde9c0b3	-0.114137076
5	0xbf044016	-0.5166029
6	0x3f423856	0.7586721
7	0xbf108f25	-0.5646842
8	0xbf125db5	-0.57174236
9	0x408c7160	4.3888397
10	0x40c30893	6.0947967
11	0x40a5288c	5.1611996
12	0x407bdca6	3.9353423
13	0x405fd7cb	3.497546
14	0x401a176f	2.4076803
15	0x4061392b	3.5191143
16	0x403d3c2a	2.9567971
17	0x3faf2728	1.3683825
18	0xc083e898	-4.122143
19	0xbee29e5c	-0.44261444
20	0xbfea4661	-1.8302728
21	0xc0ab5315	-5.353892
22	0xc02988bd	-2.6489708
23	0x3eb38a4e	0.35066456
24	0xc0a24ca7	-5.071857
25	0xbf833cf1	-1.0252973
26	0x3e695a19	0.22788276
27	0xc08ebb44	-4.4603596
28	0xc04f3a8e	-3.237949
29	0xbf401bf6	-0.75042665
30	0xc0acfa79	-5.4055753
31	0xc00f79f4	-2.2418184
32	0x40182279	2.377104
33	0x3fe82fd0	1.8139591
34	0x400da98e	2.2134738
35	0x3fa1eaec	1.2649817
36	0x3e704814	0.23464996
37	0xbedc1ec5	-0.42992225
38	0xc004fd84	-2.0779734
39	0x3c229335	0.009922792
40	0x3fe8bf05	1.8183295
41	0x3fd64822	1.6740763
42	0x3ffc5cd4	1.9715829
43	0x4032558c	2.7864714
44	0x3fe5726b	1.7925543
45	0xbd031db5	-0.032010753
46	0xbfc5f610	-1.5465717
47	0xbfc17d70	-1.5116405
48	0x3f33c0d9	0.7021614
49	0xc008e7d7	-2.1391504
50	0xbf0e744c	-0.55646205
51	0x3ed80d3b	0.42197594
52	0xc0024c3c	-2.035903
53	0x3f4c85a5	0.79891425
54	0xc00eeb6d	-2.2331192
55	0xc099ef98	-4.8104973
56	0xbe30c1db	-0.1726145
57	0xbfa76301	-1.3077089
58	0xc023d29f	-2.5597303
59	0x402d6789	2.7094443
60	0x3f977d7e	1.1835172
61	0x3e594c2e	0.21220466
62	0x4096c320	4.711319
63	0x40184631	2.3792841
64	0x40940905	4.626101
65	0x40a9af04	5.302614
66	0x40d16edf	6.544784
67	0x40d3d3d3	6.6196074
68	0x3dfbad0f	0.12288868
69	0x4087ce79	4.243954
70	0xbfc07209	-1.5034801
71	0xbfe31be5	-1.7742888
72	0x3f19f77a	0.60143244
73	0xc07568f4	-3.8345308
74	0x3e1dbdd9	0.15404452
75	0xbffa73ad	-1.9566551
76	0xc0a4942e	-5.1430883
77	0x3ec36b86	0.3816797
78	0xc0a1cd2a	-5.0562944
79	0xc0518068	-3.2734623
80	0xbf80c304	-1.0059514
81	0xc0aa66c4	-5.3250446
82	0xbf5e0061	-0.8671933
83	0x401503b8	2.328352
84	0xbe5318dc	-0.20614952
85	0x3feae764	1.8351865
86	0x404fedcf	3.2488897
87	0x4086f1ca	4.2170153
88	0x41059fdc	8.351528
89	0x4016016b	2.3438365
90	0xbf03e77f	-0.5152511
91	0xc03e4902	-2.973206
92	0x3efca5c7	0.49345228
93	0xc06f0bcf	-3.7350957
94	0xbfc71d98	-1.5555906
95	0xbea7870d	-0.32720223
96	0xbe1ef1ff	-0.15522002
97	0xbf9df7fb	-1.2341303
98	0x40096dbb	2.1473224
99	0x406213d0	3.5324593
100	0x3fe23411	1.767214
101	0x3e2a3880	0.16623116
102	0x40117c70	2.27322
103	0xbf931cb0	-1.149313
104	0xbf94cb7c	-1.1624599
105	0xbf92daa3	-1.1472973
106	0xc03ff816	-2.999517
107	0xbf8d8f76	-1.1059406
108	0xbfc25b10	-1.518404
109	0x3fba427f	1.4551543
110	0x3f9b2d9c	1.2123294
111	0xc06c16ea	-3.6888986
112	0x3ffda306	1.9815376
113	0x3fcd5ba7	1.6043595
114	0x3ec551f9	0.38539103
115	0x409b5ec7	4.8553195
116	0x40099606	2.1497817
117	0xc02a920a	-2.6651635
118	0xc03598ab	-2.837443
119	0x3f66352d	0.8992489
120	0xc08034ed	-4.0064607
121	0xc02df508	-2.7180805
122	0x3f321cdd	0.6957529
123	0xc088118c	-4.252142
124	0xbfb3ac89	-1.4037029
125	0x40758217	3.836065
126	0xc05cfcfb	-3.4529407
127	0xc04e481e	-3.2231517
128	0x3fb4a1f8	1.4111929
129	0xc0a4d3f3	-5.1508727
130	0xbfa71bdc	-1.3055377
131	0x3e466e50	0.19378018
132	0xc017ed94	-2.3738756
133	0x40625e42	3.537003
134	0x40126ab6	2.287763
135	0x3f2ddd3d	0.6791571
136	0xc0358688	-2.8363361
137	0xc08eb181	-4.459168
138	0xc07a617f	-3.9122007
139	0xbfc4079c	-1.5314822
140	0xbf402aba	-0.75065196
141	0xbf51c79a	-0.8194519
142	0x3cbc5c79	0.022993313
143	0xbe189784	-0.14901549
144	0x40409886	3.0093093
145	0x4047baf8	3.1207867
146	0x3fa772b4	1.308188
147	0x40563316	3.346868
148	0x406f5ecb	3.7401607
149	0x3fda7101	1.7065736
150	0x3f18db46	0.59709585
151	0x4016e16a	2.3575082
152	0x3fd897fa	1.692138
153	0xbf2125cb	-0.6294829
154	0x3e228b8b	0.15873544
155	0xbead58eb	-0.33856902
156	0xbf12fc17	-0.5741591
157	0x400a0bac	2.1569624
158	0xbee06e41	-0.43834117
159	0xc05307fa	-3.2973619
160	0xbf07f78e	-0.53112113
161	0xbe0cba75	-0.13743003
162	0xc03de864	-2.967309
163	0xc0016561	-2.0218127
164	0xbfb68783	-1.4260105
165	0xc0adcfaf	-5.431602
166	0xc082b9f9	-4.0852017
167	0xc0bdf301	-5.9359136
168	0x40814543	4.039705
169	0x3fc84cf3	1.5648483
170	0xc08849bc	-4.259001
171	0x3f78fba7	0.9725899
172	0x40396eb7	2.8973825
173	0x3ea15333	0.31508788
174	0x3ecba4b0	0.39774084
175	0x4060a41f	3.5100172
176	0x4041126a	3.016749
177	0x40498cf4	3.149228
178	0x3ff2662b	1.8937429
179	0x40a772a4	5.232744
180	0xc00188a7	-2.0239656
181	0xbe0b6436	-0.13612446
182	0xbe6a2d0b	-0.22868745
183	0xc00675ed	-2.1009476
184	0xc022bfee	-2.5429645
185	0xbfbb4de6	-1.4633148
186	0x3f0bcfcf	0.54613966
187	0xbf105d3d	-0.5639227
188	0xc02bc916	-2.6841483
189	0xc0322cb6	-2.783979
190	0xbeecdf7d	-0.46264258
191	0x3e4049f3	0.1877821
192	0x3f1efa50	0.62100697
193	0xc00f7edd	-2.2421181
194	0xc07c0988	-3.9380817
195	0x4071150d	3.7669098
196	0xbee0fc33	-0.43942413
197	0x402b0d03	2.6726692
198	0xbf87fb8b	-1.062364
199	0x3fda0b2d	1.703466
200	0x400b821c	2.1798162
201	0xbf9c132f	-1.2193354
202	0x3f9f5966	1.2449157
203	0x3f14a32b	0.58061475
204	0x3df04a99	0.117329784
205	0xbe50eb35	-0.20402224
206	0x40287d3f	2.6326444
207	0x4088d86c	4.2764187
208	0x40a70cc8	5.22031
209	0xbfed7f46	-1.8554466
210	0x408c9022	4.3925943
211	0x40b45399	5.635205
212	0x3fd55bfa	1.6668694
213	0x40238dd8	2.5555325
214	0x40982c33	4.7553954
215	0x40b01a6a	5.5032244
216	0x400fe4f2	2.2483487
217	0x404d46ac	3.2074385
218	0x40829c7b	4.0816016
219	0x401fff98	2.4999752
220	0xbf400ef4	-0.75022817
221	0x40007bc7	2.0075548
222	0xbf03d982	-0.51503766
223	0xc090cbd2	-4.5248804
224	0xc081ec2d	-4.06008
225	0xc0d0a790	-6.5204544
226	0xc10a30ff	-8.636962
227	0xc06d2ed6	-3.7059836
228	0xbfe4a846	-1.7863853
229	0xc0b99a62	-5.8000956
230	0xc0a684ec	-5.203726
231	0x404dcdc3	3.2156837
232	0x3f197494	0.5994351
233	0x3f8adfb5	1.084952
234	0xbfc8534d	-1.5650421
235	0xbfb4e91e	-1.4133642
236	0xbf2eff56	-0.6835836
237	0xbfe8969e	-1.8170965
238	0xbba90145	-0.005157622
239	0xc00c1649	-2.1888602
240	0x3fc4b302	1.5367129
241	0x3f82f39c	1.0230594
242	0x3e0f67b8	0.1400441
243	0x3e2b349d	0.16719289
244	0xbff6d19c	-1.9282718
245	0xc03a5072	-2.91116
246	0x40470859	3.1098845
247	0x3f4252ed	0.75907785
248	0x3f41833f	0.7559089
249	0x3f52d0f7	0.82350105
250	0x3fcbd127	1.5923203
251	0x40a0db3c	5.026762
252	0xbf709905	-0.9398349
253	0x40a1a0c6	5.0508757
254	0x4029c773	2.6527984
255	0xc03cd964	-2.9507685

layer2.0.bn2.weight f4 [32]
0	0x3fc5412d	1.5410515
1	0x3fc7c981	1.5608369
2	0x3fa1bb6f	1.2635325
3	0x3ff4572d	1.9089104
4	0x401accaa	2.4187417
5	0x3f71c1c7	0.94436306
6	0x3fc38e6d	1.527784
7	0x3fc08fdb	1.5043901
8	0x3fead1a7	1.8345231
9	0x3fbacd74	1.4593949
10	0x3f7173ee	0.9431752
11	0x3ff1b190	1.8882313
12	0x3f717165	0.9431365
13	0x3fa39789	1.278062
14	0x3fd00c6f	1.6253794
15	0x3fa1eb84	1.2649999
16	0x3f869e3a	1.0517037
17	0x3fa7497c	1.3069301
18	0x3f8b0fff	1.0864257
19	0x3f9a78ef	1.2068156
20	0x3fa814d4	1.3131356
21	0x3fa223f6	1.2667224
22	0x3fb8eac8	1.444665
23	0x3fbcdba7	1.4754533
24	0x3fd0b5d1	1.6305486
25	0x3f88a706	1.0675972
26	0x3f972304	1.1807561
27	0x3f56b244	0.8386576
28	0x4015c8e7	2.340387
29	0x3f9f394a	1.2439358
30	0x3fb12682	1.3839877
31	0x3fbbafe0	1.4663048

layer2.0.bn2.bias f4 [32]
0	0xbe39c234	-0.18140489
1	0xbdc76ced	-0.09737573
2	0xbf0ccc08	-0.54998827
3	0xbf8f817d	-1.1211392
4	0xbfc18739	-1.5119392
5	0x3fc51279	1.5396262
6	0x3f039140	0.5139351
7	0xbf2aabac	-0.666682
8	0xbea05d80	-0.31321335
9	0x3d3583f7	0.044315305
10	0x3e4f4f5e	0.2024512
11	0xbf633a9f	-0.88761324
12	0x3fd5ebd9	1.67126
13	0x3ce28cbd	0.027655
14	0xbe0a1f52	-0.1348851
15	0x3e7d9b11	0.24766184
16	0x4077bd95	3.8709462
17	0x3e2513ec	0.16120881
18	0x3ee426fe	0.44561
19	0x3f04da85	0.51895934
20	0xbf0d3317	-0.5515608
21	0x3ef12a72	0.47102696
22	0xbe66e9e2	-0.22550157
23	0xbf17b583	-0.5926134
24	0xbde9c152	-0.11413826
25	0xbe5984ea	-0.21242109
26	0x3f19440b	0.5986945
27	0x3ee5df02	0.44896704
28	0xbef01546	-0.4689123
29	0x3fab0687	1.3361367
30	0xbe54a8bc	-0.20767492
31	0xbe323866	-0.17404327

layer2.0.bn2.running_mean f4 [32]
0	0x4253fa04	52.994156
1	0x430bd706	139.83994
2	0x43397062	185.439
3	0x43bb6e77	374.863
4	0xc2ce5d66	-103.18242
5	0xc2d489aa	-106.268875
6	0x42b60adf	91.02123
7	0x420fe43d	35.97289
8	0x42700cd0	60.012512
9	0x439243fd	292.53116
10	0xc363dcd0	-227.86255
11	0xc37273a6	-242.45175
12	0x43810f20	258.11816
13	0x430d7ea8	141.49475
14	0xc2e67b00	-115.240234
15	0x42b21100	89.0332
16	0xc362b496	-226.70541
17	0xc2c6cc6c	-99.39926
18	0xc1a4f74e	-20.620754
19	0xc1bc3839	-23.527452
20	0x42bcd3ab	94.413414
21	0x4286f5c2	67.479996
22	0x430d3988	141.22473
23	0x420d437c	35.315903
24	0xc24ecd45	-51.70046
25	0xc211e6c0	-36.47534
26	0xc2d9ce76	-108.903244
27	0x41e2a700	28.331543
28	0xc240337a	-48.05027
29	0x42cea6c9	103.32575
30	0x422f21a8	43.782867
31	0xc2af2bb7	-87.58538

layer2.0.bn2.running_var f4 [32]
0	0x4697e203	19441.006
1	0x46958d38	19142.61
2	0x4660068b	14337.636
3	0x4706e0d7	34528.84
4	0x4643051a	12481.275
5	0x4668788a	14878.135
6	0x467b3768	16077.852
7	0x4629108e	10820.139
8	0x468f3378	18329.734
9	0x46a1052a	20610.582
10	0x4613d57e	9461.373
11	0x46ba19f0	23820.969
12	0x45a9e5b5	5436.7134
13	0x4686e2ad	17265.338
14	0x467c5f60	16151.844
15	0x463a0d55	11907.333
16	0x46a31d88	20878.766
17	0x4620a48c	10281.137
18	0x463285c7	11425.444
19	0x46615f38	14423.805
20	0x4627ad4a	10731.322
21	0x463e3f9e	12175.904
22	0x4658400c	13840.012
23	0x460de207	9080.507
24	0x46492243	12872.565
25	0x461d9c55	10087.083
26	0x46169faf	9639.921
27	0x45bf8e33	6129.775
28	0x468eb829	18268.08
29	0x46470e62	12739.596
30	0x466ea572	15273.361
31	0x46bb08e1	23940.44
