Our_code/Pytorch/Advanced_experiments/trained_students/ablation_beta2500t-40-2-student-16-1.pth (torch_old, 718602 bytes, 69 tensors)

conv1.weight f4 [16, 3, 3, 3]
0	0xbec7f4c8	-0.3905394
1	0xbf245ded	-0.6420582
2	0x3e7bfc5a	0.24607983
3	0x3f4978c3	0.7869989
4	0x40836366	4.1058836
5	0x3f3c4e75	0.73557216
6	0x3f206e63	0.62668437
7	0x40343e48	2.8163013
8	0x3fc40ae9	1.531583
9	0x3f952fcc	1.1655211
10	0xbf5d3fa6	-0.86425245
11	0x3dfa9010	0.12234509
12	0xbef63774	-0.48089182
13	0xc07fbd4d	-3.995929
14	0xc02f32e5	-2.7374814
15	0xbbdd83ca	-0.0067600952
16	0xc0908fdc	-4.517561
17	0xbfee627a	-1.8623803
18	0xbf463fae	-0.7744092
19	0x3f56cab2	0.8390304
20	0x3d71abb1	0.05900163
21	0x3e052aea	0.13004652
22	0x402f1509	2.735659
23	0x3fc8ac1f	1.5677527
24	0xbe7d7c3c	-0.24754423
25	0x3fa0e498	1.2569761
26	0x3f7e3711	0.99302775
27	0x3e94e729	0.2908261
28	0x3f127383	0.57207507
29	0x3eafcca6	0.34335822
30	0x3eea6477	0.45779774
31	0xc0aa82ea	-5.3284807
32	0xbf8d4307	-1.103608
33	0x3f0f4ba2	0.5597478
34	0xbddfab7b	-0.10921379
35	0x3c7a5c4d	0.015280795
36	0x3f8c15db	1.094417
37	0xbd713075	-0.058884103
38	0x3f95c549	1.1700832
39	0x3e8d4b57	0.27596542
40	0xc0ed4954	-7.415201
41	0xc01beccb	-2.4363277
42	0x3f1d3574	0.6140969
43	0xbf419570	-0.7561865
44	0x3e918089	0.28418377
45	0x3e82d906	0.255562
46	0x3e4aca58	0.1980375
47	0x3fa7a640	1.309761
48	0xbf2be753	-0.6714985
49	0xc09bd6d8	-4.869976
50	0xbf4ee9ee	-0.808257
51	0xbf3f6d7c	-0.74776435
52	0xbfacaf53	-1.3491005
53	0x3e7e7dc8	0.24852669
54	0x404a1462	3.157494
55	0x410284f1	8.157456
56	0x40ce8d8e	6.4547796
57	0x3ee2a26c	0.44264543
58	0xbf3a89f1	-0.7286673
59	0x3fb09480	1.3795319
60	0xc0798934	-3.8989992
61	0xc1006618	-8.024925
62	0xc09b2312	-4.848031
63	0x3d06d568	0.032918364
64	0xc0385436	-2.8801398
65	0xbfd85ec2	-1.6903918
66	0x3edde829	0.43341187
67	0xbf159bed	-0.5844105
68	0x3eeddf32	0.46459347
69	0x3fcb748f	1.5894946
70	0x40270c05	2.6101086
71	0x3f9bbe79	1.2167503
72	0xc0002b64	-2.0026484
73	0xc0da9be9	-6.831532
74	0xc08a9882	-4.3311167
75	0xbee52a14	-0.44758666
76	0xbfadf948	-1.35917
77	0x3e9fa6c9	0.31181934
78	0x4025fad7	2.593435
79	0x40c1edcb	6.0602775
80	0x40805ba4	4.0111866
81	0xc08e3dea	-4.445058
82	0xbf48f751	-0.78502375
83	0x404b6024	3.177743
84	0xc0e0a416	-7.02003
85	0x3fd749c8	1.6819391
86	0x41025741	8.146302
87	0xc0b3f455	-5.6235757
88	0xbf33eeb4	-0.7028611
89	0x409f286b	4.973684
90	0x3fcd85be	1.605644
91	0x3da3419a	0.07971497
92	0xbf76c328	-0.96391535
93	0x400bdfe9	2.1855414
94	0xbe02e7a8	-0.12783682
95	0xc020a292	-2.5099225
96	0x40029987	2.0406206
97	0xbe16c1c9	-0.1472236
98	0xbee6f71e	-0.4511041
99	0x40366f3a	2.8505387
100	0x3e934c10	0.2876897
101	0xc02152db	-2.520682
102	0x409517dd	4.659163
103	0xbed9524f	-0.4244561
104	0xc0b88d70	-5.7672653
105	0x405b0a63	3.422509
106	0xbf67b5e0	-0.90511894
107	0xc03ce2a6	-2.9513335
108	0xbe6fae58	-0.2340635
109	0xbfc4d741	-1.537819
110	0x3f8b4eb4	1.0883393
111	0xc0681f4a	-3.6269097
112	0x40ae8452	5.4536524
113	0x3e25c214	0.16187316
114	0xbe20a980	-0.15689659
115	0xbfaf116b	-1.367719
116	0x3f8446fb	1.0334162
117	0xbf5dad29	-0.86592346
118	0x3f17ae7e	0.5925063
119	0x3fe96747	1.8234643
120	0xc07faac0	-3.9947968
121	0x40c9f7b5	6.3114877
122	0x3e707c0d	0.23484822
123	0xbf53367d	-0.8250502
124	0xc00f434d	-2.2384827
125	0xbeda808c	-0.42676198
126	0xbfb958f2	-1.4480269
127	0xbeef5502	-0.46744543
128	0x3ef6b0bc	0.48181713
129	0xc04331b1	-3.049908
130	0x4058ab84	3.3854685
131	0xbee37ddb	-0.44431958
132	0x3f3ed3e1	0.7454205
133	0xbea44510	-0.3208394
134	0x3d6c41b4	0.057679847
135	0xbed72f62	-0.42028338
136	0xbf8ea1ce	-1.1143129
137	0xbf83a0bb	-1.0283426
138	0xbea0d8d6	-0.31415433
139	0x3f77da0f	0.96817106
140	0xbf0cf71b	-0.55064553
141	0x3e3b55b4	0.18294412
142	0x3f1810f7	0.59400886
143	0xbe7c0697	-0.24611889
144	0x3ec110ec	0.37708223
145	0x3f90b94d	1.1306549
146	0x3f862167	1.0478944
147	0x3fbeb78d	1.4899765
148	0x4086ab35	4.2083993
149	0x404ecb92	3.231175
150	0x3f7eec4f	0.9957933
151	0x4035c66b	2.8402355
152	0x4029467b	2.6449268
153	0x3ef2e535	0.47440496
154	0xbedc020e	-0.42970318
155	0x3ee3a3fa	0.44461042
156	0xbfabe7a6	-1.3430068
157	0xc08e5e22	-4.448991
158	0xc03d2dc2	-2.9559178
159	0xbf0dcf76	-0.55394685
160	0xc089e95e	-4.309737
161	0xc01caf17	-2.4481866
162	0xbf9ff64c	-1.2497039
163	0xbfdeb542	-1.7399065
164	0xbfcbc4de	-1.5919454
165	0xbf236bbb	-0.6383626
166	0xbfbbd9c3	-1.4675831
167	0xbf1dc7e3	-0.6163313
168	0x3faf4141	1.3691789
169	0x407ad323	3.9191368
170	0x3ff3d857	1.9050397
171	0xbf5fd4bb	-0.87433976
172	0xc024078f	-2.5629613
173	0xbf88cdb0	-1.0687771
174	0xbf8b5ed5	-1.0888315
175	0xbfacb756	-1.349345
176	0x3e1184b8	0.14210784
177	0x3ed6dcf4	0.4196545
178	0x408a64c6	4.3248014
179	0x402af004	2.6708994
180	0xbe23e979	-0.16007032
181	0xbfb36d9e	-1.4017828
182	0xbf83cb40	-1.0296402
183	0xbf3632bc	-0.71171165
184	0xbfc30c7b	-1.5238184
185	0xbf8d694c	-1.1047759
186	0x3fc9ea77	1.5774678
187	0x4046dc43	3.1071937
188	0x3fb348fb	1.4006647
189	0xbe79e254	-0.24402744
190	0xbfa4b4ca	-1.2867672
191	0xbe2e6b31	-0.17033078
192	0x3f9e6971	1.2375928
193	0xbf83acd4	-1.0287118
194	0xbe675b9e	-0.22593543
195	0x3e7e461c	0.24831432
196	0x3efacd24	0.48984635
197	0xbb28283f	-0.0025658754
198	0xbf42dab3	-0.7611496
199	0x3f0df460	0.5545101
200	0x3f8c56f6	1.0964038
201	0xbee3d4e6	-0.44498366
202	0x3f9b4847	1.2131432
203	0x3f945664	1.1588864
204	0xbf960a20	-1.172184
205	0x3fede97e	1.8586881
206	0x3f457e72	0.77146065
207	0x3ef773da	0.48330575
208	0xbe3bf6f2	-0.18355921
209	0xbd6bf94d	-0.0576108
210	0x3f259ec6	0.64695394
211	0xbf3de3a0	-0.74175453
212	0xbf976f22	-1.183079
213	0xbf566e90	-0.83762455
214	0xbfb1fdfd	-1.3905636
215	0xbf6e7195	-0.9314206
216	0x3f5e13fb	0.8674924
217	0xbdf44bb3	-0.11928501
218	0xbf428983	-0.75991076
219	0x40240558	2.5628262
220	0xc0d6571d	-6.698134
221	0x3fca04f1	1.5782758
222	0xbde8ca79	-0.113667436
223	0x402a36b5	2.659589
224	0x3e671755	0.22567494
225	0x3ee37fa9	0.44433334
226	0x403243b9	2.7853835
227	0x3fa258fa	1.2683403
228	0x3fde8673	1.7384781
229	0xc0c8c654	-6.27421
230	0x3fb00edb	1.3754534
231	0x3f6ebd01	0.9325715
232	0x3e81787b	0.25287232
233	0xbf7cf88c	-0.9881675
234	0xbfb277b9	-1.3942786
235	0x3f09a0e4	0.53761125
236	0xbcc120fb	-0.023575297
237	0xbeca28ff	-0.39484403
238	0xc053af73	-3.3075836
239	0x3fb811db	1.4380449
240	0xbf57d7c5	-0.84313613
241	0x3fc7cf97	1.5610226
242	0x3eed047e	0.4629249
243	0x3faefc18	1.3670683
244	0x3f23acae	0.63935363
245	0x3f8dec54	1.1087747
246	0x3e4e9657	0.20174538
247	0xc080800d	-4.015631
248	0xc05b4069	-3.4258063
249	0xbee4e213	-0.4470373
250	0xc0c6d6a5	-6.2137017
251	0xc039ac82	-2.901154
252	0xbf4dec01	-0.8043824
253	0x3f85320e	1.04059
254	0xbee9e02a	-0.45678836
255	0x3f359f7e	0.7094649

layer1.0.bn1.weight f4 [16]
0	0x40590cbf	3.391403
1	0x4054ee95	3.327062
2	0x401adec7	2.4198472
3	0x401f4ce4	2.489068
4	0x4053174f	3.2982976
5	0x405f45b6	3.4886298
6	0x403c20ff	2.939514
7	0x3f954de8	1.16644
8	0x402f56f5	2.7396824
9	0x4016561b	2.3490055
10	0x403e4325	2.9728482
11	0x400690b3	2.1025817
12	0x3fc90283	1.5703892
13	0x40595244	3.395646
14	0x4014c459	2.324484
15	0x4066ff3c	3.6093283

layer1.0.bn1.bias f4 [16]
0	0x40e7194b	7.2218375
1	0xbde8a9a1	-0.11360479
2	0x40185b7a	2.3805833
3	0x4058effb	3.3896472
4	0x4007fbda	2.1247468
5	0x400e20e5	2.2207577
6	0x3e83ce5d	0.2574338
7	0x3eaadba3	0.33370695
8	0x4116b44f	9.419021
9	0x40561821	3.3452227
10	0xbd2a3515	-0.04155453
11	0x4025edc1	2.5926363
12	0x3f4cecdd	0.80048925
13	0x3f1087f2	0.56457436
14	0x3fa88692	1.3166068
15	0xbf8e52ff	-1.1119078

layer1.0.bn1.running_mean f4 [16]
0	0x3f142e4c	0.57883143
1	0x409de078	4.933651
2	0xbf7dfc34	-0.99212956
3	0xbeb9f378	-0.36318564
4	0xbecea227	-0.40358087
5	0xc07ad659	-3.9193327
6	0xbe53bf25	-0.20678385
7	0xbf39365b	-0.72348565
8	0xbec69f02	-0.38793188
9	0xbf936738	-1.1515875
10	0x3ddbc37f	0.10730647
11	0x4042e346	3.0451217
12	0x3e9e55b0	0.3092475
13	0xbe43cacb	-0.19120328
14	0x3e4d5d60	0.20055151
15	0x3d4d746e	0.050159864

layer1.0.bn1.running_var f4 [16]
0	0x41c166bd	24.175165
1	0x434f6554	207.39581
2	0x42653d89	57.310093
3	0x423c2123	47.03236
4	0x421b970b	38.897503
5	0x422d54a7	43.33267
6	0x42a1751f	80.72875
7	0x408beea5	4.3728814
8	0x418a0ca4	17.256172
9	0x42167a5c	37.61949
10	0x430aa7be	138.65524
11	0x41ea6d0e	29.30325
12	0x41d5b3da	26.712818
13	0x4250659c	52.099228
14	0x41990864	19.129097
15	0x41be0bb9	23.755724

layer1.0.conv1.weight f4 [16, 16, 3, 3]
0	0x4007c71d	2.121528
1	0xbed83874	-0.4223057
2	0xbfed8421	-1.8555948
3	0x407c6782	3.9438176
4	0xc006d3cc	-2.106677
5	0xbb23f53a	-0.0025017993
6	0x3fea9099	1.8325378
7	0xbf0576e5	-0.52134544
8	0x3f90ac09	1.1302501
9	0xbec55faf	-0.38549563
10	0x3fcdd510	1.6080647
11	0x4086b64a	4.209752
12	0xbf6c5070	-0.9231024
13	0x4033e7dc	2.8110266
14	0x40119476	2.2746863
15	0xbf0552e2	-0.52079594
16	0xbfc30844	-1.5236897
17	0xc0058d20	-2.0867386
18	0x40890dee	4.2829504
19	0x3ed3a6e6	0.4133827
20	0x3ef16216	0.47145146
21	0x3eaef59a	0.34171754
22	0xbcb28b61	-0.021794977
23	0x3eec8d94	0.46201766
24	0xbee873d7	-0.4540088
25	0x3fc296c3	1.5202259
26	0x3fe6c611	1.8029195
27	0xbe83e153	-0.25757846
28	0x3f0a2092	0.5395595
29	0x3fca34f4	1.579741
30	0x3c77f7f1	0.015134797
31	0x40180251	2.3751414
32	0x3e8c6302	0.27419287
33	0xbf654705	-0.8956149
34	0x3f2236b1	0.633647
35	0xbffaacba	-1.9583962
36	0xbfb2c52e	-1.3966424
37	0xc00ff621	-2.2493975
38	0xbf5051a3	-0.8137457
39	0xc0b7c31d	-5.7425675
40	0xc0ae2d66	-5.443042
41	0xc0658409	-3.5861838
42	0xbdd01c58	-0.10161656
43	0xc080422a	-4.0080767
44	0x3f0657a5	0.52477485
45	0x401bde96	2.4354606
46	0xbb92c825	-0.0044794255
47	0xbd561147	-0.05226257
48	0x3fd4bdb1	1.6620389
49	0xbfb37c10	-1.4022236
50	0x3eefd613	0.46843013
51	0xbf332b22	-0.6998769
52	0x3eab6ee0	0.33483028
53	0xbfced944	-1.6160054
54	0x40d40f07	6.6268344
55	0x40a36def	5.1071696
56	0xc09ae238	-4.8401146
57	0xc0a7995a	-5.2374697
58	0xc1041911	-8.25612
59	0xc0a3be1f	-5.116958
60	0x3fedc5a6	1.8575943
61	0x4016a63a	2.3538957
62	0x40620a4f	3.5318792
63	0xc0dc564b	-6.885534
64	0xbff7b443	-1.9351887
65	0xbf88c939	-1.0686408
66	0xc004a2ee	-2.0724444
67	0x40626806	3.537599
68	0xc0103753	-2.2533767
69	0x3f426d73	0.75948256
70	0x3e80849e	0.2510118
71	0x3e2eb163	0.17059855
72	0xc083fee4	-4.1248646
73	0x4014d638	2.3255749
74	0xbfaf7eb2	-1.3710539
75	0xbf9f472b	-1.2443594
76	0x412522c8	10.3209915
77	0x3ff3e067	1.9052857
78	0x3ec31bc2	0.38107115
79	0xc097b32e	-4.7406225
80	0xbfa4a40c	-1.2862563
81	0x4046a3ce	3.1037478
82	0xc03f770e	-2.9916415
83	0x3e849649	0.25895908
84	0x40947176	4.63885
85	0xbfedf9fa	-1.8591912
86	0x3e864644	0.26225483
87	0xbec86f96	-0.39147633
88	0xbfaf7533	-1.3707641
89	0x3f8ec3e8	1.1153536
90	0x3eca69a3	0.3953372
91	0xbbb408b1	-0.0054942
92	0x3f8d158d	1.1022202
93	0x3fcf994b	1.6218656
94	0xc0873152	-4.2247705
95	0xbfb186e5	-1.3869292
96	0xc0c66ced	-6.2007966
97	0xc09192d4	-4.5491734
98	0xc0074667	-2.113672
99	0x3ee491f5	0.44642606
100	0xbeec91e7	-0.46205065
101	0x3f6ac903	0.9171297
102	0x3d9b7798	0.0759117
103	0x3f690d55	0.9103597
104	0x3f1f0864	0.6212218
105	0xbfa3258d	-1.2745835
106	0xbf8320cc	-1.0244384
107	0xbe1e38e9	-0.15451397
108	0xbcff9fec	-0.031204186
109	0x3f2a8b75	0.66619045
110	0x4030cc9d	2.7624886
111	0xc040406b	-3.0039318
112	0xbfea094f	-1.8284091
113	0x3fe5b2a1	1.7945138
114	0xbed7b872	-0.42132908
115	0xc027c43d	-2.6213524
116	0x407b21ad	3.9239304
117	0xbe5151d9	-0.20441379
118	0x3fb685cd	1.4259583
119	0xc0937663	-4.6082015
120	0x406649b7	3.5982492
121	0x40de93bd	6.9555345
122	0xbfffe11e	-1.9990575
123	0xbf291348	-0.66045046
124	0x3e779e75	0.2418154
125	0xbf2cadaa	-0.6745249
126	0xc05471a4	-3.319436
127	0x3fd32130	1.6494503
128	0x400a6b2f	2.162792
129	0x39be2c60	0.00036272686
130	0x4025b4c2	2.5891576
131	0xbf9c02d7	-1.2188367
132	0xbff47eb5	-1.9101168
133	0xbfd9575a	-1.6979783
134	0xc0820844	-4.063509
135	0xc01eea82	-2.4830632
136	0xbfcec24b	-1.6153044
137	0xbf9f0884	-1.2424474
138	0xc0bc09e5	-5.876208
139	0x40fef86e	7.967826
140	0x3df9a6d9	0.12190027
141	0xc08476e5	-4.1395135
142	0xc11e7d3f	-9.905578
143	0xbfb8fbc5	-1.4451834
144	0xbfe0f255	-1.7573954
145	0xbfcd5d28	-1.6044054
146	0xbe8e992a	-0.2785123
147	0x3f55b023	0.8347189
148	0xc07c86c9	-3.9457266
149	0xbf851717	-1.0397671
150	0xbe8c9b80	-0.27462387
151	0x3fea41b7	1.8301305
152	0x3fcea45d	1.614391
153	0x3f09021e	0.53518856
154	0x40fb1c6a	7.8472185
155	0x3e16a46a	0.14711156
156	0x409b25d8	4.8483696
157	0x418af424	17.36921
158	0x40c49ad0	6.143898
159	0xbe0f21de	-0.13977763
160	0x405f4c13	3.4890182
161	0xc016f511	-2.3587077
162	0x3f241322	0.64091694
163	0xbd390afd	-0.045176495
164	0x3f009447	0.50226253
165	0xbe461b14	-0.19346267
166	0x3fe1c192	1.7637198
167	0x3f0743bd	0.52837735
168	0xc0418224	-3.0235682
169	0xbf89c6db	-1.0763811
170	0xc01af05a	-2.42092
171	0xbf446cc4	-0.76728463
172	0x3fc54371	1.5411206
173	0xbe460c08	-0.19340527
174	0xbfc5e022	-1.5459025
175	0x3ea194b9	0.3155878
176	0xbf05746a	-0.5213076
177	0x3f1233b7	0.5711016
178	0x3f1551a0	0.58327675
179	0x3f43d030	0.76489544
180	0x3e0946f5	0.13405974
181	0x4033e0e5	2.8106015
182	0xbf10ba7b	-0.56534547
183	0xbf60e408	-0.8784795
184	0x40d21827	6.5654483
185	0xbfb4d60a	-1.412782
186	0xbf9d2ffd	-1.228027
187	0x40146af5	2.3190281
188	0xc001953d	-2.0247338
189	0x3eedf822	0.46478373
190	0x400522d7	2.0802515
191	0xbfa40f43	-1.2817158
192	0xbea0ba36	-0.31392068
193	0x3fc9ba2b	1.5759939
194	0xbfadb94b	-1.3572172
195	0xbf57760f	-0.8416452
196	0xbe49830a	-0.19678894
197	0xbfa86e72	-1.3158705
198	0xc065a0b0	-3.5879326
199	0xbfd2c0c4	-1.6465077
200	0x3f13e0e0	0.57765007
201	0x3f7a1078	0.9768138
202	0x404847f1	3.129391
203	0xc01ff8e8	-2.499567
204	0xbe23e177	-0.16003977
205	0xbdf53226	-0.11972456
206	0xbf93df88	-1.1552591
207	0xc0456287	-3.0841386
208	0x3fa3f21a	1.2808259
209	0x408ab94d	4.3351197
210	0xbfccfbe6	-1.6014373
211	0x3fda55ed	1.7057472
212	0x41015877	8.084098
213	0x3f8a63f9	1.0811759
214	0xc01543c3	-2.3322608
215	0x3fa0bf15	1.2558314
216	0xbf954310	-1.1661091
217	0xc000aed8	-2.0106716
218	0x3f2c2aca	0.6725279
219	0xc026301a	-2.596686
220	0x40f6c40c	7.7114315
221	0x3e241550	0.16023755
222	0xbff6b5c7	-1.9274224
223	0xbfa95e85	-1.323197
224	0xbff8428e	-1.9395311
225	0xbebc63ff	-0.3679504
226	0xc051a4cb	-3.2756832
227	0xbf1e5299	-0.61844784
228	0x3e041790	0.12899613
229	0xbfb09739	-1.379615
230	0x3ff0d0e7	1.8813752
231	0xbf952ff7	-1.1655263
232	0xbf844253	-1.033274
233	0x3fb74f0d	1.4320999
234	0xc070c9b7	-3.7623117
235	0x3f92111c	1.1411471
236	0xbe07cbda	-0.13261357
237	0x40454e33	3.082898
238	0x40ee2fc8	7.4433327
239	0xbf9650d5	-1.1743418
240	0xbf9635dd	-1.1735188
241	0x3f89c116	1.076205
242	0x3f1d0db2	0.6134902
243	0x3f863021	1.0483438
244	0x3f0cc16b	0.5498263
245	0xc02d03da	-2.70336
246	0x40486b77	3.1315591
247	0x401d7670	2.4603539
248	0x3f3deeaf	0.7419233
249	0x40072dfe	2.1121821
250	0x3f483930	0.7821226
251	0x3fa8c148	1.3183985
252	0xc045bc05	-3.0896008
253	0x3e9e5254	0.30922186
254	0xbebc32c5	-0.36757484
255	0x40788482	3.8830876

layer1.0.bn2.weight f4 [16]
0	0x3ea1ab72	0.31576115
1	0x3f92e8e8	1.1477327
2	0x3ea85df1	0.32884172
3	0x3ee174c5	0.440344
4	0x3e952789	0.29131725
5	0x3eab8961	0.3350325
6	0x3f00ba7b	0.50284547
7	0x3e9e3366	0.3089859
8	0x3e779034	0.24176103
9	0x3f01f0d8	0.50758123
10	0x3e8a32b6	0.26991814
11	0x3e99adb2	0.30015332
12	0x3e928ac2	0.2862149
13	0x3e919045	0.2843038
14	0x3ea9d35f	0.33169076
15	0x3ebd9311	0.37026265

layer1.0.bn2.bias f4 [16]
0	0x3e7e1072	0.24810961
1	0xc05c7b8f	-3.4450414
2	0x3e8f633c	0.28005397
3	0x3e3e37a8	0.18575919
4	0x3e1c36ad	0.15255232
5	0x3eb56813	0.35430965
6	0x3c82186e	0.01588079
7	0x3e0e6519	0.13905753
8	0x3e924943	0.2857152
9	0xbf14073e	-0.5782355
10	0x3f098b20	0.5372791
11	0x3f046ba2	0.51726735
12	0x3efc22ea	0.49245387
13	0x3ef24652	0.47319275
14	0x3d9ca327	0.07648306
15	0x3e9ff317	0.3124015

layer1.0.bn2.running_mean f4 [16]
0	0x3f9b0713	1.2111534
1	0x4224789c	41.117783
2	0xc2d29bf6	-105.30461
3	0x4050283c	3.2524557
4	0xc3441b08	-196.10559
5	0x43434ca9	195.29945
6	0xc2e0ce65	-112.403114
7	0x42dce447	110.445854
8	0xc2b627ec	-91.07797
9	0xc30a8e73	-138.55644
10	0xc2139b67	-36.90176
11	0xc347e681	-199.9004
12	0xc2acbb88	-86.36627
13	0xc37c7b14	-252.48077
14	0x43363eb4	182.24493
15	0x4348970f	200.59007

layer1.0.bn2.running_var f4 [16]
0	0x46168ab3	9634.675
1	0x4614e9f9	9530.493
2	0x45f7ba40	7927.2812
3	0x46371378	11716.867
4	0x46424a81	12434.626
5	0x46244f42	10515.814
6	0x46147fab	9503.917
7	0x46409a79	12326.618
8	0x45d97f1e	6959.8896
9	0x466a2408	14985.008
10	0x45e9b066	7478.05
11	0x45f1616a	7724.177
12	0x45ba4aeb	5961.3647
13	0x4617cbff	9714.999
14	0x4633266d	11465.606
15	0x4651e2fc	13432.746

layer1.0.conv2.weight f4 [16, 16, 3, 3]
0	0x3f70065b	0.937597
1	0xc05b84c3	-3.4299781
2	0x3eb95067	0.36194155
3	0xbfc329f0	-1.5247173
4	0xbfe4bae4	-1.7869534
5	0xbeb71e29	-0.35765198
6	0xbfb3f43c	-1.405891
7	0xbce1892e	-0.027531233
8	0x3ccad949	0.024761813
9	0x3f8dea72	1.1087172
10	0xbf886bfb	-1.0657953
11	0x3de2ef54	0.110808045
12	0xbf9eef4a	-1.2416775
13	0x3ff31acc	1.8992553
14	0xbf87f67a	-1.0622094
15	0x3ffa5248	1.955636
16	0xbf42dd2e	-0.76118743
17	0x3ffe3b73	1.9861892
18	0x3fd9eb8b	1.7025007
19	0x3fc884a3	1.5665478
20	0xbf3b5081	-0.73169714
21	0x3fd31cad	1.6493126
22	0x408cb2a9	4.396809
23	0x3f9a02c6	1.2032096
24	0x3e9d506c	0.3072542
25	0x40106001	2.2558596
26	0x3f877753	1.058329
27	0x3f46ef65	0.7770904
28	0xc0082355	-2.1271565
29	0xbff8a0b0	-1.9424038
30	0x405be8ee	3.436092
31	0xc0785125	-3.8799527
32	0xc018d9cd	-2.3882935
33	0x3ff6347a	1.9234765
34	0x3ee788a1	0.45221427
35	0xc0256aaf	-2.5846364
36	0xbe8ccae2	-0.27498537
37	0x3f9589f3	1.1682724
38	0x3e4bde6c	0.19909066
39	0xbf9ea739	-1.2394782
40	0x3f0f8e3b	0.560764
41	0x3e846dad	0.25864926
42	0x3f3c1821	0.7347432
43	0x40168533	2.3518798
44	0x4016861b	2.3519351
45	0xc06cb0aa	-3.6982827
46	0xbf2431e5	-0.64138633
47	0x400bb1d9	2.18273
48	0xc07151fc	-3.770629
49	0xbf8050c7	-1.0024651
50	0x3fbecfc9	1.4907161
51	0xbf64eeba	-0.8942677
52	0xbf4f2904	-0.8092196
53	0x40621b80	3.5329285
54	0x3f09aae1	0.53776366
55	0xc0038032	-2.0546994
56	0x4008f6ed	2.1400712
57	0xbef57755	-0.47942606
58	0x404ab44f	3.1672552
59	0xbea1d8ae	-0.31610626
60	0xbeafeb4c	-0.34359205
61	0xbea194a3	-0.31558713
62	0xbf255942	-0.6458932
63	0xbe48af6b	-0.19598167
64	0x3f91f8b8	1.1404028
65	0x3f1dbea6	0.6161903
66	0xbfc75af6	-1.5574634
67	0x3fae8793	1.3635124
68	0x3f88a1b9	1.0674354
69	0x3eb3491b	0.35016713
70	0x3f9b92bb	1.2154154
71	0x3fa24a41	1.267891
72	0x3e3c1bf8	0.18370044
73	0xbd1ab0e7	-0.037766363
74	0x3f684d68	0.9074311
75	0x3f49e602	0.7886659
76	0x3fc4ea38	1.5383978
77	0x3c865d0a	0.016401786
78	0xbfb0e0a1	-1.3818551
79	0x3e70f8ec	0.23532456
80	0xc016bfff	-2.3554685
81	0x3fe4ab4c	1.7864776
82	0xbd1a24a4	-0.0376326
83	0xbf9fa395	-1.2471796
84	0xbd8084dc	-0.06275341
85	0xc00a535a	-2.1613374
86	0xbf94216f	-1.1572703
87	0x3f8972ad	1.0738121
88	0x3fd633d6	1.6734569
89	0xbf1d4bd1	-0.6144381
90	0x3fa13550	1.2594395
91	0x3f6450da	0.8918587
92	0xc06af56b	-3.6712291
93	0x40316ac8	2.7721424
94	0xbdf564fb	-0.11982151
95	0xc08f5587	-4.4791903
96	0x3fd00de3	1.6254238
97	0x3f255473	0.64581984
98	0x3f48ba5e	0.78409374
99	0xbf866e1d	-1.0502354
100	0x3f2e2c3d	0.6803625
101	0x3fd70d6e	1.6800973
102	0xc086ef23	-4.2166915
103	0xc0185c22	-2.3806233
104	0xbff0002b	-1.8750051
105	0xbf7669a0	-0.9625492
106	0xbf2d6a95	-0.67740756
107	0x3fa17615	1.2614161
108	0xc05b0cae	-3.422649
109	0xc04c67f8	-3.1938457
110	0x3c178ced	0.009249908
111	0xc0130e65	-2.2977536
112	0x3fcf49d9	1.6194412
113	0xbfac4a26	-1.3460128
114	0x403f8d61	2.993004
115	0x408859e7	4.2609744
116	0x40434f2e	3.0517077
117	0xbfc07f35	-1.503882
118	0xbf29c7ea	-0.6632067
119	0x406453c1	3.567612
120	0xc0952c28	-4.66164
121	0x3f3c6f8a	0.73607695
122	0x405c44f2	3.441708
123	0xbf919793	-1.1374382
124	0x3f681c9f	0.9066867
125	0x40908ba9	4.5170484
126	0xbfc78560	-1.5587578
127	0x3f4ed3c7	0.80791897
128	0x3dd365e2	0.10322167
129	0xbe8def97	-0.27721855
130	0xbff8e0b1	-1.944357
131	0x3f0ceada	0.55045855
132	0xbe0bb873	-0.1364458
133	0xbf463c38	-0.77435637
134	0x3fe682d6	1.8008678
135	0xbfb48d0a	-1.4105542
136	0xbfc17039	-1.5112373
137	0x3e6d3a26	0.23166713
138	0xbf71267a	-0.94199336
139	0xbfda676f	-1.7062815
140	0xbfc0a809	-1.505128
141	0x3f6e13c5	0.92998916
142	0xc04bdab6	-3.185224
143	0x3f1dc3ee	0.6162709
144	0x3fd55033	1.66651
145	0xbe02cfa0	-0.12774515
146	0xc036dbf5	-2.857175
147	0x3d1264e7	0.03574076
148	0xbf8b2439	-1.0870429
149	0xbf8efd2c	-1.1171012
150	0x3fe851fe	1.8150022
151	0xbf85990a	-1.0437329
152	0xbfb870e2	-1.4409449
153	0x3f1727a1	0.59044844
154	0x3fda5b91	1.7059194
155	0x3ff13d4b	1.884683
156	0x3fce602c	1.6123099
157	0x3f8587fa	1.0432122
158	0x3df6ae3f	0.120449536
159	0x3fc0c9a4	1.5061536
160	0x3fc26abd	1.5188824
161	0x3fe71124	1.8052106
162	0x3f785d58	0.9701743
163	0x3f3d5177	0.7395243
164	0xbf845811	-1.0339376
165	0xbde84d02	-0.11342813
166	0x4011b260	2.2765121
167	0x3ea6de04	0.3259126
168	0x3e562bf4	0.20915204
169	0x401d35cb	2.4564083
170	0x3ddffe10	0.109371305
171	0x3f144fc6	0.57934225
172	0x3f8766db	1.0578264
173	0x3f2d1c3a	0.67621195
174	0xbf0c2b63	-0.547537
175	0x3fb1645e	1.3858755
176	0x3ecc87de	0.39947408
177	0x3fa23ec3	1.2675403
178	0x3e85387e	0.26019663
179	0x3f4444b8	0.76667356
180	0x3d84e23a	0.06488462
181	0xbf6bc1db	-0.92092675
182	0x3f3a635c	0.7280786
183	0x3fb819fa	1.4382927
184	0x3fc2a71a	1.5207245
185	0x3fafba57	1.3728741
186	0x3f2fc765	0.68663627
187	0xc0202624	-2.502328
188	0x3f23e860	0.6402645
189	0xbe5b1072	-0.21392992
190	0xbebeb0ba	-0.37244207
191	0xbf8dd9b1	-1.1082059
192	0xbecc6e65	-0.39927974
193	0xbf09796c	-0.537009
194	0xbfaf6a53	-1.3704323
195	0xbfafe1b9	-1.374076
196	0x3e4a1521	0.19734623
197	0xbf4ba568	-0.79549265
198	0xbf846857	-1.0344342
199	0xbe9482bc	-0.29005992
200	0xbf6a76e9	-0.9158769
201	0xbfd2b29f	-1.6460761
202	0x3f7e092c	0.99232745
203	0xc04d56b2	-3.2084165
204	0xc00f43cf	-2.2385137
205	0xc01d74b1	-2.4602473
206	0xbee04ac2	-0.43807036
207	0xbe2c41bb	-0.16821949
208	0x3f41d82c	0.7572048
209	0xbf97ee1d	-1.1869541
210	0x3fc1f49a	1.5152771
211	0x408687be	4.20407
212	0x3fb26dd5	1.3939768
213	0x3f8138ff	1.0095519
214	0x40200999	2.5005858
215	0xc002b34a	-2.042193
216	0x3dc0ecfe	0.09420203
217	0x3ad63975	0.0016344028
218	0x3fa7dede	1.3114889
219	0xbdd80723	-0.10548236
220	0xbf4fdce6	-0.8119644
221	0x3ec435b1	0.38322213
222	0x3fda0cc4	1.7035146
223	0x3fa17e51	1.2616674
224	0x401dd1e9	2.465937
225	0xbf29301f	-0.6608905
226	0xbf94b389	-1.161729
227	0xbf174cc6	-0.5910152
228	0x3ed293be	0.41128343
229	0x3ddbda1d	0.10734961
230	0x3f4ec46b	0.8076846
231	0xbebf2824	-0.37335312
232	0xbe20e59f	-0.15712593
233	0xbfad4520	-1.353672
234	0x402118f0	2.517147
235	0x3f291e2c	0.66061664
236	0x3f8888df	1.066677
237	0x3fa63f94	1.2988153
238	0xc011b476	-2.2766395
239	0xbfbe3241	-1.4859086
240	0x3f093326	0.5359367
241	0x3e851af1	0.25997117
242	0x3f893111	1.0718099
243	0x3faaab3c	1.3333507
244	0x3ff4e53c	1.9132457
245	0xbe8ce453	-0.27517948
246	0x3f7bc73a	0.9835087
247	0xbf24d8f4	-0.64393544
248	0xc005756f	-2.0852926
249	0x3f4b7952	0.79481995
250	0xbe4c9113	-0.19977216
251	0x3f96277b	1.1730798
252	0x3f828764	1.0197568
253	0x3effd8c4	0.49970067
254	0x3f6577d5	0.89635974
255	0xbf8b8650	-1.0900364

layer1.1.bn1.weight f4 [16]
0	0x3f99dadb	1.2019914
1	0x40652939	3.580641
2	0x3fcb61e1	1.5889245
3	0x3fe814d5	1.8131357
4	0x4098860a	4.766362
5	0x3fa8e2d0	1.3194218
6	0x400ae5d7	2.1702783
7	0x3ff16d54	1.8861489
8	0x40839513	4.1119475
9	0x4007f6c3	2.1244361
10	0x4026fac6	2.609056
11	0x3fc799af	1.5593776
12	0x3f7a6988	0.9781728
13	0x40338802	2.8051763
14	0x40144bab	2.3171184
15	0x40a7f4b5	5.2486215

layer1.1.bn1.bias f4 [16]
0	0x40856751	4.168862
1	0xc0967991	-4.7023396
2	0x3f53e27b	0.82767457
3	0x3f0658f0	0.5247946
4	0x40568dcd	3.3524048
5	0x40c37f86	6.109317
6	0x3f80c2e0	1.0059471
7	0x3f36bc7c	0.71381354
8	0x3ff96428	1.948369
9	0x4102931a	8.160913
10	0x40542012	3.3144574
11	0x40a0919f	5.017776
12	0x4002dc02	2.0446782
13	0x404d4d2a	3.2078347
14	0xbf74bf19	-0.9560409
15	0x3ff66f79	1.9252769

layer1.1.bn1.running_mean f4 [16]
0	0xbfe4cf48	-1.7875757
1	0x4122febd	10.187192
2	0xc111ea02	-9.119631
3	0xc1744c9c	-15.268703
4	0xbfd52134	-1.6650758
5	0x409de939	4.9347196
6	0x3f0059ea	0.501372
7	0x41c23948	24.27797
8	0x40b7e364	5.7465076
9	0xc108768a	-8.52894
10	0xc0a53d39	-5.1637235
11	0x40939d15	4.612925
12	0xc1837826	-16.433666
13	0xc0f16ccc	-7.544531
14	0x3f3b00ea	0.7304827
15	0x3fc661aa	1.5498555

layer1.1.bn1.running_var f4 [16]
0	0x42befa0c	95.48837
1	0x439d267b	314.30063
2	0x43b05fbb	352.7479
3	0x439b9b5a	311.21368
4	0x427708b7	61.75851
5	0x43890216	274.0163
6	0x431160ce	145.37814
7	0x42419b17	48.401455
8	0x42572d0d	53.793995
9	0x43b91519	370.16483
10	0x43590562	217.02103
11	0x439726a0	302.30176
12	0x430fa984	143.66217
13	0x42db6151	109.69007
14	0x426a8635	58.63106
15	0x4287575d	67.67063

layer1.1.conv1.weight f4 [16, 16, 3, 3]
0	0x410817f2	8.505846
1	0x40ac52a5	5.3850884
2	0x406cba2e	3.6988635
3	0x3d230c4a	0.03980664
4	0x3fdf6dd9	1.7455398
5	0xc02b7676	-2.6791053
6	0xbf13471b	-0.57530373
7	0xbeb72252	-0.35768372
8	0xbffcb20a	-1.9741833
9	0xbef67a9f	-0.48140427
10	0xbebd31e8	-0.36952138
11	0x3f2d6bf3	0.6774284
12	0xbf22ce1b	-0.6359574
13	0x3f4939d4	0.78603864
14	0x3f7dcfe5	0.99145347
15	0x3fd12156	1.6338298
16	0x4050f083	3.2646797
17	0xc0130af5	-2.2975438
18	0xc02f8f09	-2.7431052
19	0x3f80ae38	1.0053167
20	0xbf8bec19	-1.0931426
21	0x4044f4b5	3.0774357
22	0x401fff81	2.4999697
23	0x3fbc1678	1.4694357
24	0x3ff0b06b	1.8803838
25	0x402c3584	2.6907663
26	0x3fdd48e4	1.728787
27	0x40051a63	2.0797355
28	0x3fc3df28	1.5302477
29	0xbf852c72	-1.0404189
30	0x40ba1068	5.8145027
31	0x405123cc	3.2678099
32	0xbff790ba	-1.9341042
33	0x3efea259	0.49733236
34	0xbea4d1f7	-0.3219144
35	0x3e1345d8	0.14382112
36	0x403f9048	2.9931812
37	0x3f3a0999	0.72670895
38	0x3e8161aa	0.25269824
39	0xbedbf20d	-0.42958108
40	0xbd552dc1	-0.052045587
41	0xbef8be3f	-0.48582646
42	0x3ce12714	0.027484454
43	0x3e07ba5a	0.13254681
44	0x3ede6559	0.43436697
45	0xc0b991a3	-5.799028
46	0xc058194b	-3.3765438
47	0xbec98c3a	-0.39364797
48	0xc06c2192	-3.689549
49	0xbf89a0df	-1.0752219
50	0x3f36adaa	0.7135874
51	0xbf3ad190	-0.72976017
52	0x3f921d05	1.1415106
53	0x3fe7c917	1.8108243
54	0xbff37e92	-1.9023001
55	0xc02cb0e8	-2.6982975
56	0xbfd50e93	-1.6645073
57	0xbf00ac9e	-0.5026339
58	0x3d193fa2	0.0374142
59	0xbf08b492	-0.5340053
60	0x402e2a26	2.7213225
61	0x3f6dcaec	0.9288776
62	0x3eafaeb7	0.34312984
63	0xbfddbc4a	-1.7323086
64	0xbfc52eef	-1.5404948
65	0xbf676efb	-0.9040372
66	0xbf997b30	-1.1990719
67	0x3fdaedd3	1.7103828
68	0x3f6435e5	0.89144737
69	0xc0316f11	-2.772404
70	0x3ec4732a	0.38369113
71	0xbfd11c0b	-1.6336683
72	0xbf79ac6a	-0.9752871
73	0x3cbd8734	0.023135759
74	0xbf037dbe	-0.5136374
75	0x3eb22dff	0.34800717
76	0x3f5bf3c0	0.8591881
77	0xbfcefd5c	-1.6171069
78	0x3f9cf507	1.2262276
79	0x3f28f57c	0.6599958
80	0x3f9d293b	1.2278208
81	0xc0e59cb2	-7.175378
82	0xc0a21495	-5.0650125
83	0x3f9e773e	1.238014
84	0xc0a00e09	-5.0017133
85	0xc0a8815e	-5.265792
86	0x3f35b149	0.7097364
87	0x40d96327	6.7933536
88	0x408a1685	4.315249
89	0x408c52e2	4.3851175
90	0xbfd45e41	-1.6591264
91	0xbed0acc0	-0.40756798
92	0xbdaeb357	-0.085303
93	0x3ff5281b	1.9152864
94	0x3fbf3afb	1.4939874
95	0xbe05b159	-0.13055934
96	0x3f978c6a	1.1839726
97	0x3fafcf38	1.3735113
98	0x3fc7ad8a	1.5599835
99	0x4176a29e	15.414701
100	0x40d7f7cd	6.748999
101	0xbe78cf06	-0.24297723
102	0x40f11008	7.533207
103	0x40388710	2.8832436
104	0xc0017fc1	-2.0234225
105	0xc0bac41c	-5.836439
106	0xc099a1fb	-4.801023
107	0xc0a2c4ea	-5.0865374
108	0x4030886d	2.7583268
109	0x3ea22f6f	0.31676814
110	0xbdab685b	-0.083695136
111	0x40c2286d	6.067435
112	0x4099c2db	4.805036
113	0x3ffa67b3	1.9562896
114	0x4089c5fe	4.305419
115	0x4001bdf7	2.0272195
116	0x3fbdc41b	1.4825472
117	0xc01af5f4	-2.4212618
118	0xbf73dc3c	-0.95257926
119	0xbd9c1e9c	-0.07623026
120	0xc050479b	-3.2543705
121	0xc0293435	-2.6438115
122	0x3f62191a	0.8831955
123	0x3e54f879	0.2079791
124	0x3ff87d2d	1.9413201
125	0x3f796242	0.97415555
126	0x3ff150b1	1.885275
127	0xbfbde519	-1.483554
128	0x4006e49b	2.107703
129	0x3eccad73	0.3997608
130	0xc03db5b8	-2.9642162
131	0x40848796	4.141551
132	0xc01fb7d1	-2.4955943
133	0xc0496a6e	-3.147121
134	0x3e6f975d	0.23397584
135	0x3f2b239b	0.66851205
136	0xbe820f1c	-0.25402153
137	0x3fc8e63b	1.5695261
138	0xbf4ab7ad	-0.79186517
139	0x3f7b214b	0.98097676
140	0x3fc40ccc	1.5316405
141	0x3f818206	1.0117805
142	0x400700f8	2.1094341
143	0x3f2af5f2	0.6678153
144	0x401b705b	2.4287326
145	0x3f515a81	0.81778723
146	0x3fd9079a	1.6955445
147	0x3ea70278	0.3261907
148	0xbf84c2bc	-1.0371928
149	0x3fc572f2	1.5425704
150	0xc0753313	-3.8312423
151	0xc033dd09	-2.810366
152	0x40726172	3.7871976
153	0xc0759dd0	-3.837757
154	0xbffc730c	-1.972261
155	0x3db91595	0.090373196
156	0x3eef0b22	0.4668818
157	0x3ef51292	0.4786573
158	0x3ec7db57	0.3903453
159	0x40d8d931	6.7765126
160	0x40518fdd	3.2744057
161	0x3f77ecb6	0.9684557
162	0x40a09f3a	5.019437
163	0x406e02b7	3.7189157
164	0xbd61815f	-0.05505502
165	0x401a15b6	2.4075751
166	0xc022f0bf	-2.545944
167	0xbfa1d0cc	-1.2641845
168	0x40b5d9ff	5.682861
169	0x407fef85	3.998994
170	0x40e438db	7.1319404
171	0x4034bf3b	2.8241718
172	0xbd6c3c12	-0.057674475
173	0x3f9f08d1	1.2424566
174	0x4107c8b0	8.486496
175	0x3fba523a	1.4556344
176	0xc059c0c1	-3.4023898
177	0x41477a7a	12.4674015
178	0x4067dbe3	3.6227958
179	0x405ae275	3.4200718
180	0xbfbda0a5	-1.481465
181	0x3f9b7d68	1.2147646
182	0x3f265305	0.6497043
183	0x401321af	2.298931
184	0x3eb7586e	0.35809654
185	0x3f46cbc6	0.77654684
186	0xbf8148b4	-1.0100312
187	0xc00260b9	-2.0371535
188	0x3fb4a14c	1.4111724
189	0x4057b888	3.370638
190	0x3f8ac53f	1.0841445
191	0x401ac2ff	2.4181516
192	0x4018d054	2.3877153
193	0x3f940c99	1.1566344
194	0x3f6da702	0.9283296
195	0x40720953	3.781819
196	0x400d1716	2.204534
197	0xbdcb6ac6	-0.09932475
198	0xbfa4e8c0	-1.288353
199	0xc032b5cb	-2.7923458
200	0xc08340b0	-4.1016464
201	0xbf9b2070	-1.2119274
202	0xc0b4acd4	-5.646097
203	0xc04c42d6	-3.1915793
204	0x3f33b10e	0.7019204
205	0xbfc3b073	-1.5288223
206	0xbf4ccf68	-0.80003977
207	0x408a6119	4.3243527
208	0xc082a011	-4.0820394
209	0x3fa1a7ac	1.2629294
210	0x3f8609fd	1.0471798
211	0x3b859ca3	0.0040775104
212	0x40b92a42	5.7864084
213	0xc0129460	-2.290306
214	0x3e63cb7c	0.22245592
215	0x40526a80	3.2877502
216	0x3fcf72ee	1.6206949
217	0xbe9f2b6c	-0.31087816
218	0x3f2ff899	0.68738705
219	0xc0478e1a	-3.1180482
220	0x40158ff9	2.3369124
221	0xbef338fc	-0.47504413
222	0xbb3fc102	-0.0029259329
223	0x3e5e07a3	0.216826
224	0xbf31f26f	-0.6951055
225	0xbfef03f4	-1.8673081
226	0xbf80df0b	-1.0068067
227	0xc0472609	-3.1116965
228	0xc12087c9	-10.033151
229	0xc117ef3e	-9.495909
230	0xc0dcb447	-6.8970065
231	0xc0b73d55	-5.726237
232	0xbfe3da20	-1.7800941
233	0x3fcc3c6b	1.5955938
234	0xc00eb1ad	-2.2295945
235	0xc06ada7e	-3.6695857
236	0x40179c03	2.3688972
237	0x3f8841f8	1.0645132
238	0xc03165c3	-2.771836
239	0x3f2dd725	0.6790641
240	0x3fb539a4	1.4158216
241	0x3f023adb	0.50871056
242	0xbfff8f00	-1.9965515
243	0xbc1c6828	-0.009546317
244	0x3fdb34e6	1.7125518
245	0x3e692a01	0.2276993
246	0x4008486a	2.1294198
247	0x4042fcd0	3.0466805
248	0x3fd0005e	1.6250112
249	0x3f5c9ae5	0.8617385
250	0x401cf6f8	2.4525738
251	0x400cf177	2.2022378
252	0xc02ce252	-2.7013135
253	0xbec83ef7	-0.39110538
254	0x3f9d73db	1.2300981
255	0x406db6bc	3.7142782

layer1.1.bn2.weight f4 [16]
0	0x3ed39f8f	0.4133267
1	0x3f10d449	0.5657392
2	0x3f6fb9c5	0.93642837
3	0x3ecde20e	0.4021153
4	0x3eec7481	0.46182635
5	0x3ea23b3e	0.31685823
6	0x3f2626aa	0.64902747
7	0x3f1d6c0a	0.6149298
8	0x3f0c1af5	0.54728633
9	0x3f34f3d4	0.7068455
10	0x3eac7e05	0.33689895
11	0x3edc8dbc	0.43076885
12	0x3e8c4b96	0.27401417
13	0x3f08d1ce	0.53445137
14	0x3f4d1422	0.80108845
15	0x3f4bbbb4	0.7958329

layer1.1.bn2.bias f4 [16]
0	0xbdd9f2bd	-0.10642002
1	0xbf1c9093	-0.611581
2	0xc02a3e1e	-2.6600413
3	0xbce034bf	-0.027368901
4	0xbe25616d	-0.16150446
5	0x3d725092	0.05915887
6	0xbbaa9ecb	-0.005206918
7	0x3d12a2fe	0.035799973
8	0xbd915990	-0.07097161
9	0x3cc7c508	0.024385944
10	0x3e30098a	0.17191139
11	0xbe864e7d	-0.26231757
12	0x3e907bc7	0.28219435
13	0xbe4a6bcc	-0.19767684
14	0xbf126131	-0.5717955
15	0x3c26345b	0.010144318

layer1.1.bn2.running_mean f4 [16]
0	0x42e176ea	112.732254
1	0xc2bb3e77	-93.622
2	0xc2fda047	-126.81304
3	0x420f2a09	35.79105
4	0x43559cdc	213.61273
5	0x4386c30d	269.52383
6	0xc221ab3a	-40.417213
7	0x429400ba	74.00142
8	0x42a12398	80.56952
9	0x41b769e0	22.926697
10	0xc2df6334	-111.693756
11	0x42a7bb4d	83.86582
12	0x43580230	216.00854
13	0x43a6c811	333.56302
14	0xc1d2adc1	-26.33484
15	0x427a946a	62.644936

layer1.1.bn2.running_var f4 [16]
0	0x45f00595	7680.6978
1	0x46253df2	10575.486
2	0x450aac5a	2218.772
3	0x45d51417	6818.511
4	0x45e1f571	7230.68
5	0x459b9e53	4979.7905
6	0x463ec6a9	12209.665
7	0x467f82c9	16352.696
8	0x465b40db	14032.214
9	0x46a03dbd	20510.87
10	0x45c704bb	6368.5913
11	0x45e278db	7247.107
12	0x45caea39	6493.278
13	0x46532ee8	13515.727
14	0x46246e62	10523.596
15	0x468bd948	17900.64

layer1.1.conv2.weight f4 [16, 16, 3, 3]
0	0xbf0261d2	-0.5093051
1	0xbf8be01f	-1.0927771
2	0xbf1f83e2	-0.6231061
3	0xbd526672	-0.05136723
4	0xbf2e415e	-0.6806849
5	0xbfe79185	-1.8091284
6	0xbf8bcd06	-1.0921943
7	0xbfd5c2cb	-1.6700071
8	0xbf62f7d2	-0.88659394
9	0x3f0701d0	0.5273714
10	0x3f4d809c	0.8027437
11	0xbe0752ec	-0.13215226
12	0x3ea198da	0.3156193
13	0x3f25a818	0.64709616
14	0xbf311698	-0.691751
15	0xbf880f8d	-1.0629746
16	0x3dfbe20b	0.12298974
17	0x3ec006a9	0.3750508
18	0x3beea13a	0.0072824033
19	0xbedd4710	-0.4321828
20	0x3ec6a8a1	0.3880053
21	0x3fd8dfc2	1.6943285
22	0xbe40e294	-0.18836433
23	0xbf41a140	-0.7563667
24	0xbcf9287d	-0.030414814
25	0xbf503d85	-0.8134387
26	0xc015e863	-2.3423088
27	0x3fbcc8fd	1.4748837
28	0x3ff64ac7	1.924157
29	0xbf8575da	-1.042659
30	0x3f96d011	1.1782247
31	0x3d348f3a	0.044081904
32	0x3fa7249d	1.3058048
33	0x3ffecc2d	1.990606
34	0x3fd51893	1.6648124
35	0x3f884bff	1.0648192
36	0x3d8e34e6	0.06943683
37	0x3eb5c48d	0.3550152
38	0x3e03c8f3	0.12869625
39	0x3e8320a5	0.25610843
40	0x40196657	2.3968713
41	0x3f3e9094	0.7443936
42	0xbf3637a7	-0.7117867
43	0x3f286f9c	0.657953
44	0x3e664e93	0.22490911
45	0xbf811c7f	-1.0086821
46	0x3e587650	0.21138883
47	0xbda19b5c	-0.078909606
48	0x3fb89489	1.4420329
49	0x3f3e4c3e	0.74335086
50	0xbfa9ac74	-1.3255754
51	0xc010db88	-2.2633991
52	0xbf3b4938	-0.731586
53	0xbf4c4447	-0.7979168
54	0x405d3f5d	3.4569924
55	0x4024ae8e	2.573154
56	0x3f902470	1.126112
57	0x40a10be0	5.0326996
58	0x410d9eec	8.851299
59	0x4067944d	3.6184266
60	0x4004c430	2.0744743
61	0x404e438f	3.2228734
62	0x3fc2e596	1.5226314
63	0xbf59752a	-0.84944403
64	0xbfdc7986	-1.7224586
65	0xbf2578ba	-0.6463734
66	0xc065006f	-3.5781515
67	0xc058ff9e	-3.3906016
68	0xc0388c9e	-2.8835826
69	0xbeb3d46d	-0.35123006
70	0xbff9e8fa	-1.9524224
71	0xbfa2eb66	-1.2728088
72	0xbe826f99	-0.25475767
73	0x3f3e57fb	0.74353
74	0x3e31b1f4	0.1735304
75	0xbf8e0212	-1.1094382
76	0x3ee4e32c	0.44704568
77	0xbfacb17a	-1.3491662
78	0xbed6ffd0	-0.41992044
79	0xbfd688dd	-1.6760517
80	0xc00ffe28	-2.2498875
81	0x3fe3f9be	1.781059
82	0x3fe74ce7	1.8070344
83	0x40070bc9	2.1100943
84	0x40babcbb	5.8355384
85	0x409d53d3	4.9164824
86	0x3fcecc62	1.6156123
87	0x408eb6cf	4.4598155
88	0x40c8abee	6.2709875
89	0x3fb1d92c	1.3894401
90	0x3ea092a2	0.31361872
91	0xbf0e19da	-0.55508196
92	0xbeb4661c	-0.35234153
93	0x3dc155cb	0.09440192
94	0x3fe404c8	1.7813959
95	0x3f5e715e	0.86891735
96	0x3fe40957	1.781535
97	0x3fa29063	1.2700313
98	0x3fb28e32	1.3949645
99	0xbff9bd90	-1.9510975
100	0xbfb69300	-1.4263611
101	0x3e89ab98	0.26888728
102	0xbfc5e06a	-1.5459111
103	0xbe89f8f0	-0.26947737
104	0xc0001119	-2.0010436
105	0xbf73d54c	-0.9524734
106	0xbf8d0974	-1.101851
107	0xbfc0539e	-1.5025518
108	0x40473f0d	3.1132233
109	0x40020628	2.0316257
110	0x3f096859	0.53674847
111	0x3f9dd1a1	1.2329599
112	0x3f10ee0a	0.5661322
113	0xbf0b03fa	-0.5430294
114	0x3febe4ee	1.8429239
115	0xbdde181e	-0.10844444
116	0xc0177a9d	-2.3668587
117	0xbeaab076	-0.33337754
118	0x3d532b22	0.051554807
119	0x3e1f494d	0.15555306
120	0xbf680cc6	-0.9064449
121	0xbf03a2c9	-0.51420265
122	0xbfa25443	-1.2681965
123	0xbfab7108	-1.3393869
124	0xbfae6495	-1.3624445
125	0xbf84ace3	-1.0365261
126	0xbf6c296f	-0.9225072
127	0x3f0baf19	0.5456405
128	0xbf6ac590	-0.91707706
129	0xbf7adf5c	-0.9799707
130	0x3c7a4a3f	0.015276491
131	0xbf12df04	-0.57371545
132	0xbf6aceb2	-0.9172164
133	0xbea31adf	-0.3185644
134	0xbdf05c18	-0.117363155
135	0x3f9fb06a	1.2475712
136	0xbe4b98b0	-0.19882464
137	0x3f085d49	0.5326734
138	0x4026b2fb	2.604674
139	0x40400ae8	3.0006657
140	0xbf6e8fa6	-0.9318794
141	0x40323d52	2.7849927
142	0xbe31d470	-0.17366195
143	0xbd3c20a7	-0.045929577
144	0x3eaf0b1c	0.34188163
145	0xbeb16f42	-0.34655195
146	0xbb7b7160	-0.0038367137
147	0x3f9fe8a8	1.2492876
148	0xbe5c5135	-0.21515353
149	0xbf8d7cbc	-1.1053691
150	0xbf164c6a	-0.5871035
151	0xc00781db	-2.1173007
152	0xbfab5706	-1.3385932
153	0xbdd41f9f	-0.10357594
154	0x3fdf3c50	1.7440281
155	0x3fcf149d	1.6178166
156	0xbf525018	-0.82153463
157	0xbfb742b9	-1.4317237
158	0xbe582e2f	-0.21111368
159	0xbe60ddce	-0.21959612
160	0xbea698a2	-0.32538325
161	0x3f19dae7	0.60099643
162	0x3fb7e168	1.4365664
163	0xbfb7f089	-1.437028
164	0x3f1f071e	0.62120235
165	0xbfd41192	-1.6567862
166	0xc0fabd1f	-7.835586
167	0xc08a15e6	-4.315173
168	0xbf9057f6	-1.1276844
169	0xc0ae44a4	-5.445879
170	0xc00eca70	-2.2311058
171	0x3b9091a2	0.004411892
172	0x3eeb8d7e	0.46006387
173	0xbe588069	-0.21142735
174	0xbd0cb69f	-0.03435385
175	0x3fc28a20	1.5198402
176	0x3f708fca	0.93969405
177	0xbf8866d5	-1.0656382
178	0xbe245a1d	-0.1605
179	0xbf2b585a	-0.6693169
180	0x3ec65747	0.38738462
181	0x3fb7cfd7	1.4360303
182	0x3ece79f0	0.40327406
183	0xbe0c2fd7	-0.13690124
184	0x4015c258	2.3399868
185	0x3feb7a3e	1.839668
186	0x3fcacafa	1.5843194
187	0x3fca47b6	1.5803134
188	0x3f48650d	0.7827919
189	0x40009c35	2.0095341
190	0xbf811892	-1.0085623
191	0x3f84ecaf	1.038473
192	0xbf03d11e	-0.5149096
193	0x3f956f44	1.167458
194	0xbdbede52	-0.09319748
195	0x3d8f9777	0.070113115
196	0xbf946b99	-1.1595336
197	0xbf85d6de	-1.0456197
198	0xbe7aacb3	-0.24479942
199	0x3ea965a7	0.33085367
200	0x3fa72401	1.3057863
201	0x3f06d72d	0.5267208
202	0x3f508e5f	0.8146724
203	0x3f8ffa6c	1.1248298
204	0x3f69f682	0.91391766
205	0x40015dbf	2.0213468
206	0x3ebdd367	0.3707535
207	0xbf1daab1	-0.6158858
208	0x3e83c642	0.25737196
209	0xbf2fcb73	-0.68669814
210	0xbefb9fa5	-0.49145237
211	0xc03c0ee7	-2.9384096
212	0xbf8ab75a	-1.0837204
213	0x3f2b00d1	0.6679812
214	0xbf9db572	-1.2320998
215	0xbf8d6858	-1.1047468
216	0x3f23f768	0.64049387
217	0x3f29229d	0.6606844
218	0x3f1b5c53	0.6068775
219	0x3fbd3102	1.4780581
220	0x3fa4ebbd	1.2884442
221	0x3f0ea1dd	0.55715734
222	0x3e7c65c0	0.2464819
223	0x3f1ddadd	0.61662084
224	0x3ec64d09	0.38730648
225	0xbe588493	-0.21144323
226	0x3efe2b53	0.4964243
227	0xbeb62105	-0.35572067
228	0x3de9421b	0.11389562
229	0x3ec11543	0.37711534
230	0xbf54be8e	-0.83103263
231	0x3fa967ab	1.3234762
232	0x3e09539c	0.134108
233	0xbf80633a	-1.0030282
234	0xbffd8782	-1.9806979
235	0x3d8acc21	0.06777216
236	0x3f32c233	0.69827574
237	0xbed506f0	-0.41606855
238	0xc01fba2f	-2.4957387
239	0xbf6e1453	-0.9299976
240	0xc0545d38	-3.3181896
241	0xc09b1ee4	-4.847521
242	0xbfd3d064	-1.6547971
243	0x3ed897e6	0.4230339
244	0x3e6a551e	0.22884032
245	0x3dc04ebf	0.093900196
246	0xbf27c4fb	-0.65534943
247	0x3f951bf8	1.164916
248	0xbecc9494	-0.39957106
249	0xbf1d435e	-0.6143092
250	0x3f9eed9c	1.2416263
251	0x3f1f17c9	0.6214567
252	0xbf41fcca	-0.7577635
253	0x3e1a7cd2	0.15086678
254	0x3f51ce46	0.81955373
255	0x3f36fb06	0.7147678

layer2.0.bn1.weight f4 [16]
0	0x40194eff	2.3954465
1	0x4047deae	3.1229663
2	0x4040bfe1	3.0117114
3	0x4039aa97	2.901037
4	0x401dcf7c	2.4657888
5	0x4027d9eb	2.6226757
6	0x403a16fd	2.907653
7	0x3fecd3b1	1.8502103
8	0x3fb68f13	1.4262413
9	0x40124a79	2.2857955
10	0x403e7e59	2.9764616
11	0x400897ff	2.134277
12	0x400217b5	2.032697
13	0x405cae77	3.4481485
14	0x3fe45504	1.7838445
15	0x4029a7f3	2.6508758

layer2.0.bn1.bias f4 [16]
0	0x40cf105e	6.470748
1	0xbfbd168d	-1.4772507
2	0x3e8bf968	0.2733872
3	0x3f79465b	0.9737298
4	0x401d324b	2.4561946
5	0x40707033	3.756848
6	0x402fd499	2.747351
7	0x403f4a24	2.9889002
8	0x4050a9d8	3.2603664
9	0x40f294e9	7.5806775
10	0x4084ee1a	4.154065
11	0x4109186b	8.568461
12	0x40cbfa86	6.3743315
13	0x3f9ff447	1.2496423
14	0x3f97ee7c	1.1869655
15	0x3e9c5596	0.30534047

layer2.0.bn1.running_mean f4 [16]
0	0x4153a85b	13.228602
1	0x411523d3	9.321246
2	0xc0fd1c6a	-7.9097185
3	0xc18a9b2e	-17.325771
4	0xc15de016	-13.8672085
5	0xbe68c2b2	-0.2273052
6	0x405a9e48	3.4159107
7	0x41ea9ded	29.327112
8	0x40cd6466	6.4185057
9	0xc1842dd1	-16.522371
10	0x3f932477	1.1495503
11	0xc12d760b	-10.841319
12	0xc19d2960	-19.645203
13	0xc0be956a	-5.955739
14	0x3e6cacf3	0.2311285
15	0x4070dcad	3.763469

layer2.0.bn1.running_var f4 [16]
0	0x4327deab	167.8698
1	0x4391daf2	291.7105
2	0x43bbc8cc	375.56873
3	0x43cbbc08	407.469
4	0x42cc8d5a	102.27608
5	0x43bdf963	379.94833
6	0x430fd1ef	143.82005
7	0x427152d0	60.33087
8	0x42867796	67.23357
9	0x43d0d9a6	417.70038
10	0x43316635	177.39925
11	0x43cb7e97	406.98898
12	0x433376bd	179.46382
13	0x42df70f6	111.72063
14	0x42628b59	56.63608
15	0x42aee534	87.44766

layer2.0.conv1.weight f4 [32, 16, 3, 3]
0	0x3f6f0099	0.93360287
1	0xbf9938b5	-1.1970431
2	0x40636484	3.55301
3	0xc0a40fb6	-5.126918
4	0xc0ebda29	-7.370381
5	0x4019abdf	2.4011152
6	0xc0a0df54	-5.0272617
7	0xc1201a3d	-10.006406
8	0x3eb76bf3	0.35824546
9	0x3ffe82ad	1.9883629
10	0xbf42241f	-0.75836366
11	0x3faaf6ee	1.3356607
12	0x3faa6ce6	1.3314483
13	0xbe4124ec	-0.18861741
14	0x3fff84d6	1.9962413
15	0xbf404cca	-0.7511717
16	0xbf01ee55	-0.5075429
17	0x405ae639	3.4203017
18	0x3f87d70c	1.0612502
19	0x3d341c9a	0.04397259
20	0x3e34a8ef	0.17642568
21	0xbf11fc3d	-0.5702551
22	0x3ebced25	0.36899677
23	0xbf41101f	-0.75415224
24	0xbf3ae94f	-0.7301225
25	0xbf136a8b	-0.57584447
26	0xbf0e7629	-0.5564905
27	0x3fa76503	1.3077701
28	0xbf0eaad2	-0.557294
29	0x3f913410	1.1344013
30	0x3fb8568f	1.4401416
31	0xbe7200fc	-0.23633188
32	0x3fc8f8cc	1.5700927
33	0xc0139f79	-2.3066084
34	0xbfaa28d4	-1.329371
35	0x4007bc4b	2.1208675
36	0xbff95e56	-1.9481914
37	0xc05b18a3	-3.4233787
38	0xc0102fe7	-2.2529237
39	0xbc5722f7	-0.013130895
40	0x4001e54f	2.029621
41	0xc012a619	-2.2913878
42	0xbf043865	-0.5164855
43	0x3fbbcdfb	1.4672235
44	0xbf076365	-0.5288604
45	0x3fa6de2a	1.3036549
46	0x3f9b36f8	1.212615
47	0xbfb4405c	-1.4082141
48	0x3f9b216b	1.2119573
49	0x400bb777	2.1830728
50	0x3f4b5814	0.7943127
51	0xbff659f3	-1.92462
52	0x3f094dbf	0.53634256
53	0x3daeb8ca	0.085313395
54	0xbfa48558	-1.2853193
55	0x3fe0b43c	1.7555003
56	0x3faa589e	1.3308294
57	0xbfea7c51	-1.8319188
58	0x3f4137ff	0.7547607
59	0x3f090fd0	0.5353975
60	0xc01c15ee	-2.4388385
61	0xbe17ece2	-0.14836457
62	0x3f353114	0.7077801
63	0x3f52523a	0.8215672
64	0x3fed6bff	1.8548583
65	0xc005eb2f	-2.0924795
66	0x40c5a048	6.1758156
67	0x40439ac2	3.0563207
68	0xc0631063	-3.5478752
69	0x400646d3	2.0980728
70	0x40e41a5e	7.1282187
71	0xc09f1e70	-4.9724655
72	0x40911ff0	4.5351486
73	0xc0500aa4	-3.2506495
74	0xbe0c93b3	-0.13728218
75	0x404dcef9	3.2157576
76	0xbfe3e51d	-1.7804295
77	0x40355c68	2.833765
78	0x40947685	4.6394677
79	0xbfb1ffc2	-1.3906176
80	0x4052e2dd	3.2950966
81	0xc01a5074	-2.4111605
82	0x3f321465	0.6956237
83	0xbf0e7c45	-0.5565837
84	0x400c5fd3	2.1933486
85	0x408e42db	4.445661
86	0x3fcf234a	1.6182644
87	0x3ffa819f	1.9570807
88	0x408e345c	4.4438915
89	0xbd5754e9	-0.05257121
90	0xc096a429	-4.707539
91	0x3f845407	1.0338143
92	0x401a5879	2.41165
93	0xc04ac537	-3.168287
94	0xc01433db	-2.315665
95	0xbff41fd3	-1.9072212
96	0xc0a25081	-5.072327
97	0x3dc18374	0.09448901
98	0x3f9459ca	1.1589901
99	0xbea5aedb	-0.32359967
100	0x3fb48d8a	1.4105694
101	0xc0424c73	-3.035916
102	0x40dc6561	6.8873754
103	0x4111aa21	9.104035
104	0x3f27ae3d	0.6550024
105	0x40f7807a	7.734433
106	0x412e7254	10.902912
107	0x403b4618	2.9261532
108	0x400eced0	2.2313728
109	0x3f5cb890	0.8621912
110	0xbe9e14b4	-0.3087517
111	0x400cb584	2.1985788
112	0x4022bf9c	2.542945
113	0xbd066475	-0.032810647
114	0x402fe864	2.748559
115	0x40208fd9	2.5087798
116	0xbf21acd3	-0.63154334
117	0xbef6df27	-0.48217127
118	0xbf41f4ca	-0.75764143
119	0x4019af74	2.4013338
120	0xbed923d0	-0.42410135
121	0xbfa0bb73	-1.2557205
122	0x3f97a425	1.1846968
123	0x3f87e4ef	1.061674
124	0xc039ee8c	-2.9051847
125	0x400d6367	2.209192
126	0xbfa6dbb5	-1.3035799
127	0xbe6ca2ad	-0.23108931
128	0x3fa4ed65	1.2884947
129	0xbf8e240f	-1.1104754
130	0x403e666c	2.9750013
131	0x3f8c88af	1.0979213
132	0xc0bd9847	-5.9248385
133	0x3f20e8f2	0.62855446
134	0x3eae5298	0.3404739
135	0xbfbffdb8	-1.4999304
136	0x3f710525	0.94148475
137	0xbf859988	-1.0437479
138	0xbf57cded	-0.8429859
139	0xbef3800a	-0.47558624
140	0x3fe32f28	1.7748766
141	0xbf9fb64b	-1.2477506
142	0x3e27f2a8	0.1640116
143	0x3f9c934a	1.2232449
144	0xbfb54571	-1.4161817
145	0xc034dc07	-2.8259294
146	0xbffa38a2	-1.9548533
147	0xc12427b2	-10.259691
148	0xc0d092f4	-6.5179386
149	0xbeb3f892	-0.35150582
150	0xbf56e065	-0.8393615
151	0x4082971a	4.080945
152	0x4015a069	2.3379157
153	0xc073c890	-3.8091164
154	0xbf38e21d	-0.7222002
155	0xbe341da9	-0.1758944
156	0xc02d7add	-2.710624
157	0x4005bdbc	2.0897055
158	0x402699e6	2.6031432
159	0x3fba7c46	1.4569175
160	0x409579a6	4.6710997
161	0x40bde9bf	5.9347835
162	0xbf57da4f	-0.8431749
163	0xbf8af972	-1.0857375
164	0xbe2eff52	-0.17089584
165	0xbfa2fd4e	-1.2733552
166	0x402cf03b	2.7021625
167	0x3fdcc6cd	1.7248169
168	0xbe3aedb9	-0.18254746
169	0x3f8c030b	1.0938429
170	0x3ed48d1d	0.4151391
171	0xc029cfc9	-2.6533072
172	0xc06414d1	-3.5637705
173	0xc035d750	-2.8412666
174	0xbf22a7f5	-0.6353753
175	0x3d510045	0.051025648
176	0x40003f25	2.003854
177	0xc041ce89	-3.028231
178	0xbfa88ec2	-1.3168566
179	0x3fa28ebf	1.2699813
180	0x409558a5	4.667071
181	0x40fe5336	7.9476576
182	0x40571796	3.3608146
183	0x401050d2	2.2549329
184	0xc0206a6b	-2.5064952
185	0xc01efecb	-2.4843013
186	0xc0997498	-4.7954826
187	0xc05f2d2d	-3.4871323
188	0xc05bd426	-3.4348235
189	0xc01641cc	-2.347766
190	0x3dc1985a	0.09452887
191	0x3f832ad6	1.0247447
192	0xbf709457	-0.9397635
193	0x40306e25	2.7567227
194	0x3fa5699e	1.2922857
195	0x3fc0eb77	1.5071858
196	0x40037088	2.0537434
197	0x3fd30a32	1.6487486
198	0xc0a14fdd	-5.040999
199	0xbf69460b	-0.911225
200	0xbe18906b	-0.14898841
201	0xc016f358	-2.3586025
202	0x3fb5788c	1.4177413
203	0xbfa690a2	-1.3012888
204	0x404e0164	3.2188349
205	0x40a71ff5	5.222651
206	0x40561576	3.3450599
207	0xbfe12910	-1.7590656
208	0xbf0e3456	-0.5554861
209	0xbf213a5b	-0.6297967
210	0x3fba05ba	1.4532998
211	0x40866132	4.1993647
212	0xbe8d770b	-0.27629885
213	0xc01bebc6	-2.4362655
214	0x3f7d0b5d	0.98845464
215	0x3f76ad60	0.963583
216	0x3fe9510e	1.8227861
217	0x3f5b5065	0.8566955
218	0xbfa97084	-1.3237462
219	0x3f0ba0bf	0.54542154
220	0xbf183c15	-0.5946668
221	0xc0544dfd	-3.31726
222	0xbf604369	-0.8760286
223	0xc04781bc	-3.1172934
224	0xbd7649c8	-0.060128957
225	0x3fc9022b	1.5703787
226	0x3ee3beb8	0.44481444
227	0x3fa23598	1.2672606
228	0x3fa36142	1.2764056
229	0x3f981a98	1.1883116
230	0x400efa38	2.2340221
231	0x3c852f95	0.01625804
232	0xbfa5dcff	-1.2958068
233	0xbe97c197	-0.29639885
234	0xc0b7ed00	-5.7476807
235	0xbfbe5f33	-1.4872802
236	0xbf4c3286	-0.7976459
237	0xc0942c45	-4.630404
238	0xbf819384	-1.0123143
239	0xbf988ad6	-1.1917369
240	0x40100680	2.2503967
241	0x40db1232	6.845971
242	0x3fb0b7fb	1.3806146
243	0x40b0cb78	5.5248375
244	0x409fba8a	4.991521
245	0x3fac9073	1.3481582
246	0x3ffb2a27	1.9622239
247	0x408f5618	4.4792595
248	0xbd46cde4	-0.048536196
249	0xc04af2b2	-3.171063
250	0xc05a96cb	-3.4154537
251	0xbe195cb7	-0.14976774
252	0xbd5ea6ad	-0.054358173
253	0xbec235c9	-0.3793166
254	0xbf82f00a	-1.0229504
255	0xbb3e7ce5	-0.0029066142

layer2.0.bn2.weight f4 [32]
0	0x4002e778	2.0453777
1	0x3f92a1e5	1.1455656
2	0x3f9fcadd	1.2483784
3	0x3fcee8e3	1.6164821
4	0x3f82a899	1.0207702
5	0x3f827d54	1.0194497
6	0x3f9106b1	1.1330167
7	0x3fa17667	1.2614259
8	0x3f741b9c	0.9535463
9	0x3f9cc88f	1.2248706
10	0x3f96707e	1.175308
11	0x3f72d6ea	0.9485918
12	0x3f5a9fec	0.8540027
13	0x3fe9b5d1	1.8258611
14	0x3f74bc56	0.9559988
15	0x3f823680	1.0172882
16	0x3f88a80c	1.0676284
17	0x3f4d128d	0.8010643
18	0x3fa39f5b	1.2783006
19	0x3f89df5e	1.0771291
20	0x3fa4e727	1.2883042
21	0x3f697b67	0.9120392
22	0x3fcc7607	1.5973519
23	0x3fc25af8	1.5184011
24	0x3faa4fea	1.3305638
25	0x3f565b98	0.8373351
26	0x3f98d0f2	1.1938765
27	0x3f87f132	1.0620482
28	0x3f567021	0.83764845
29	0x3f4a2079	0.789558
30	0x3fa94bfa	1.3226311
31	0x3f82f23b	1.0230173

layer2.0.bn2.bias f4 [32]
0	0xbfc5c316	-1.545016
1	0xbec37e12	-0.38182122
2	0x3ebd255b	0.36942562
3	0xbeffa181	-0.49927905
4	0x3fbccf1e	1.4750707
5	0x3f3836a2	0.71958363
6	0xbd46d863	-0.048546206
7	0xbd095090	-0.033524096
8	0x3f85cae3	1.0452541
9	0xbe1275ec	-0.14302796
10	0x3e45a6ba	0.19301882
11	0xbd53eb8e	-0.051738314
12	0x3f4e0fd8	0.80492926
13	0xbfae50ef	-1.3618449
14	0x3e1b46ba	0.15163699
15	0x3ed0f518	0.40811992
16	0x3f2c3b83	0.6727831
17	0x3ee77143	0.452036
18	0xbeb40411	-0.35159352
19	0x3f186889	0.5953451
20	0x3db4d310	0.088293195
21	0x3db0fb15	0.0864164
22	0xbf4d35df	-0.80160326
23	0xbb987d6c	-0.0046536233
24	0xbeb4c055	-0.35302988
25	0x3e9606f5	0.29302183
26	0xbe267976	-0.16257271
27	0xbd6a4d75	-0.057202775
28	0x3f5bd351	0.8586932
29	0x3f0ee3c8	0.55816317
30	0xbe2d0c24	-0.16899163
31	0x3eb61d79	0.3556936

layer2.0.bn2.running_mean f4 [32]
0	0x43b35a30	358.7046
1	0x421e770c	39.616257
2	0x4360d810	224.844
3	0xc2016c60	-32.355835
4	0x432a60d5	170.37825
5	0xc303e6d1	-131.90163
6	0x430d7561	141.45851
7	0xc00024d6	-2.0022483
8	0x4216c3fc	37.69139
9	0xc1ac73b8	-21.556503
10	0x4286c3f4	67.38272
11	0x43e4d5fd	457.67178
12	0x4297875e	75.76439
13	0x42b9db05	92.92777
14	0x42d26182	105.190445
15	0x4266a885	57.66457
16	0xc32fb71a	-175.71524
17	0xc31976cb	-153.46404
18	0x4360a9f7	224.66393
19	0x42beea93	95.45815
20	0xc23b3ec0	-46.81128
21	0xc30f0bbc	-143.04584
22	0x4280a4a0	64.32153
23	0x43b7108c	366.12927
24	0x42bc2f96	94.09294
25	0x4402672a	521.61194
26	0x42fb9c0a	125.80476
27	0xc1abbe3f	-21.467894
28	0x4268ba87	58.182156
29	0x40aeebf3	5.4663024
30	0x43564c7d	214.29878
31	0xc37a0fdc	-250.06195

layer2.0.bn2.running_var f4 [32]
0	0x45decd98	7129.699
1	0x45e1b0df	7222.109
2	0x460c5f17	8983.772
3	0x463a5865	11926.099
4	0x460e5ff3	9111.987
5	0x46200c7e	10243.123
6	0x46185b97	9750.897
7	0x4625c7d8	10609.961
8	0x45b8e894	5917.0723
9	0x4610432c	9232.793
10	0x4653e1f4	13560.488
11	0x45e70124	7392.1426
12	0x46236398	10456.898
13	0x45f5dba1	7867.4536
14	0x46184ab4	9746.676
15	0x45d1d2e6	6714.3623
16	0x460b5faa	8919.916
17	0x45d433bb	6790.4663
18	0x46290c46	10819.068
19	0x4649aef3	12907.737
20	0x462151ed	10324.481
21	0x462715b3	10693.425
22	0x463c6d83	12059.378
23	0x465c5127	14100.288
24	0x464275d5	12445.458
25	0x45c61379	6338.434
26	0x4645093a	12610.307
27	0x462d2255	11080.583
28	0x461511a4	9540.41
29	0x45e03569	7174.6763
30	0x460cb813	9006.019
31	0x4613c08f	9456.14
