Our_code/Pytorch/Advanced_experiments/trained_students/ablation_beta1000t-40-2-student-16-1.pth (torch_old, 718602 bytes, 69 tensors)

conv1.weight f4 [16, 3, 3, 3]
-0.40143174 -0.97278136 0.64948785 -2.4752114 3.2928662 -0.57862604 -0.732357 0.97101593
0.3839802 0.072631195 -1.3247937 -0.5106619 -2.282742 3.2988865 0.08667449 -0.15049496
0.58694905 0.20738316 -0.8188478 -0.30377027 -0.005310609 -2.059551 3.168156 -0.15753224
-0.8949566 0.52702457 0.27799827 0.7270175 -0.17367889 -0.7066794 5.0897903 -0.752756
-3.6065965 1.2142203 -0.4055374 -0.6785592 -0.07987359 -1.3956461 -0.26685157 5.6998134
-1.9947221 -2.6155884 1.784858 -0.49749303 -0.2347407 0.027643776 -0.55286187 -0.35020006
5.0226226 -1.1054555 -2.442267 1.0823069 -1.1058853 -0.8714104 0.5800524 0.97520864
2.505473 -0.25553557 -7.66653 1.1064873 0.25723043 -0.63842934 0.76738834 0.5811541
0.9173824 1.7440693 0.5811101 -6.275971 0.3766243 -0.57975686 0.2728793 0.639101
1.3791364 0.059359737 0.9059507 0.3804791 -3.8461528 0.57545125 0.25745302 0.01690291
0.25343823 -0.5483966 -0.645138 -0.89204055 0.10559466 -0.45652455 -0.6825063 0.24162005
0.24108678 -0.035261147 0.109444045 1.401281 0.2763068 2.185563 4.4199014 3.4458706
1.6914546 4.0093756 2.5340343 0.4733479 -0.48695543 0.55529803 -1.9173492 -4.316482
-2.3919077 -1.7014352 -4.7610774 -2.676105 -0.68128574 -3.3924186 -1.1059427 -1.5241197
-4.502517 -2.2865434 1.1508788 0.280102 0.9153466 2.0661297 3.6648824 2.0476604
1.4093504 2.3208513 1.7764435 -0.25569913 -0.35403004 0.20039797 -1.236794 0.8554151
-0.6211132 0.24445415 1.265749 0.3998779 -0.6941381 -0.87716025 -0.403683 0.11574308
-0.6485546 -1.3939673 6.5296407 -2.4667306 -5.865604 5.6259255 0.34629804 -2.2388933
0.9714482 0.4573875 0.5629489 0.8946712 -1.1818756 0.39830118 -0.76096034 -0.8190516
-0.0079868715 -1.0226376 -0.20193283 1.8173234 -3.9685047 -0.75501806 3.913108 -3.407396
0.318795 2.802337 0.022649871 0.64931536 -0.803346 -0.12400205 5.856103 0.50965947
-0.6990714 -3.0769765 -1.605417 -0.20494865 1.3846173 0.15707344 -0.18187927 5.0138392
0.50920933 -0.66210264 -3.4393942 -2.1150413 -0.036723018 0.33578295 -0.16184302 -0.37839058
2.334485 -1.1570414 -0.17632318 -0.18735087 -1.1425992 -1.8270506 -0.9973628 -0.80090296
2.1505613 5.4492955 2.000378 -0.37087473 1.1780748 0.10027862 -0.5568347 0.45732003
-0.9876521 1.9639677 2.8636427 0.8387562 -0.65745896 -1.5637102 -0.7572353 -0.0459828
0.22608972 -0.330515 0.98901474 0.96154046 -0.2634059 0.1944678 -1.6227988 -1.1014377
-0.7536606 -1.4960988 -1.0602125 -1.2148272 -2.9730048 -0.9210639 1.0356054 5.8571196
0.9897491 0.051170237 -1.711237 -0.5252166 -1.0592501 -2.7963886 -1.0389769 0.77911484
5.5976596 1.2818741 -0.31056806 -1.8617684 -0.9725662 -0.6203698 -1.4697891 -0.8023096
0.8928657 4.4428415 0.66478914 2.0567791 6.3466377 4.686015 0.4146243 -0.95400864
2.4649904 -3.105637 -6.4077296 -3.7236001 0.30988127 -1.334678 -1.7767811 1.1229475
00000000: 7688 cdbe 3308 79bf d644 263f dd69 1ec0
00000010: 52be 5240 d620 14bf c07b 3bbf 8094 783f
00000020: 0e99 c43e aabf 943d d792 a9bf bdba 02bf
00000030: 7218 12c0 f520 5340 6582 b13d 5a1b 1abe
00000040: 4b42 163f 405c 543e 02a0 51bf c787 9bbe
00000050: 9e04 aebb afcf 03c0 11c3 4a40 2250 21be
00000060: e01b 65bf 15eb 063f ca55 8e3e d21d 3a3f
00000070: e1d8 31be f1e8 34bf 90df a240 9eb4 40bf
00000080: 7ad2 66c0 926b 9b3f 99a2 cfbe 0eb6 2dbf
00000090: c494 a3bd 88a4 b2bf c5a0 88be df64 b640
000000a0: 0e53 ffbf cd65 27c0 3a76 e43f 68b7 febe
000000b0: de5f 70be 3375 e23c 5b88 0dbf 6c4d b3be
000000c0: 53b9 a040 917f 8dbf 1a4e 1cc0 0889 8a3f
000000d0: a68d 8dbf c114 5fbf 507e 143f 46a7 793f
000000e0: ab59 2040 8fd5 82be 3754 f5c0 60a1 8d3f
000000f0: b5b3 833e 1b70 23bf 9073 443f 84c6 143f
00000100: 93d9 6a3f aa3d df3f a2c3 143f c1d4 c8c0
00000110: e6d4 c03e f26a 14bf d6b6 8b3e 209c 233f
00000120: 8b87 b03f 3223 733d 63ec 673f 28ce c23e
00000130: 5e27 76c0 c650 133f e2d0 833e f977 8a3c
00000140: a8c2 813e b863 0cbf c427 25bf c55c 64bf
00000150: 0342 d83d 96bd e9be bcb8 2ebf 3f6b 773e
00000160: 74df 763e fe6d 10bd 3324 e03d 2d5d b33f
00000170: 1678 8d3e 44e0 0b40 d56f 8d40 2589 5c40
00000180: 9681 d83f ce4c 8040 9e2d 2240 a85a f23e
00000190: 3952 f9be 0328 0e3f b36b f5bf 9f20 8ac0
000001a0: 0415 19c0 a1c8 d9bf bf5a 98c0 4e45 2bc0
000001b0: be68 2ebf 631d 59c0 888f 8dbf 5b16 c3bf
000001c0: 9f14 90c0 ba56 12c0 ff4f 933f 8869 8f3e
000001d0: 2854 6a3f 783b 0440 6f8d 6a40 de0c 0340
000001e0: 9865 b43f d488 1440 8062 e33f ffea 82be
000001f0: 6d43 b5be 2035 4d3e 444f 9ebf 7cfc 5a3f
00000200: 4601 1fbf 3052 7a3e 1004 a23f ccbc cc3e
00000210: 09b3 31bf 938d 60bf 8aaf cebe b50a ed3d
00000220: ad07 26bf 856d b2bf d1f2 d040 eade 1dc0
00000230: 07b3 bbc0 9507 b440 fa4d b13e 074a 0fc0
00000240: d4b0 783f b22e ea3e 6b1d 103f 2c09 653f
00000250: b347 97bf 22ee cb3e 4cce 42bf 5ead 51bf
00000260: 5edb 02bc cae5 82bf 7bc7 4ebe 0e9e e83f
00000270: fbfb 7dc0 dd48 41bf 5d70 7a40 c712 5ac0
00000280: 1939 a33e 7d59 3340 398c b93c 8839 263f
00000290: 15a8 4dbf c9f4 fdbd 3265 bb40 0b79 023f
000002a0: 58f6 32bf 2fed 44c0 4e7e cdbf 0fde 51be
000002b0: 243b b13f dcd7 203e 8f3e 3abe 5f71 a040
000002c0: 8b5b 023f 8f7f 29bf 091f 5cc0 d65c 07c0
000002d0: e06a 16bd beeb ab3e 2dba 25be 69bc c1be
000002e0: 3468 1540 ef19 94bf 108e 34be e8d8 3fbe
000002f0: b140 92bf cbdc e9bf 2b53 7fbf fa07 4dbf
00000300: cca2 0940 a160 ae40 3106 0040 4be3 bdbe
00000310: 28cb 963f e15e cd3d b88c 0ebf da25 ea3e
00000320: c5d6 7cbf 4b63 fb3f ec45 3740 bab8 563f
00000330: 3b4f 28bf a827 c8bf 2cda 41bf 7658 3cbd
00000340: 1084 673e 4339 a9be 1230 7d3f 8427 763f
00000350: 23dd 86be 9122 473e dfb7 cfbf e9fb 8cbf
00000360: e7ef 40bf 2a80 bfbf 0bb5 87bf 757f 9bbf
00000370: b645 3ec0 d8ca 6bbf b88e 843f 866d bb40
00000380: 3260 7d3f e297 513d d009 dbbf 9874 06bf
00000390: 8295 87bf 08f8 32c0 32fd 84bf 1274 473f
000003a0: 0720 b340 7314 a43f c702 9fbe 6d4e eebf
000003b0: 19fa 78bf 8ed0 1ebf 0d22 bcbf 2964 4dbf
000003c0: d992 643f c22b 8e40 9f2f 2a3f 45a2 0340
000003d0: a817 cb40 d6f3 9540 a349 d43e e939 74bf
000003e0: 67c2 1d40 c2c2 46c0 1f0c cdc0 774f 6ec0
000003f0: c2a8 9e3e bbd6 aabf 906d e3bf bebc 8f3f

layer1.0.bn1.weight f4 [16]
2.1978521 2.415879 3.2775562 2.2850375 1.6557187 1.568586 2.256842 2.1982403
2.6493888 1.8648868 2.0240517 2.239753 1.3935534 1.8393618 4.476011 2.4107769
00000000: 9ca9 0c40 c39d 1a40 7bc3 5140 0e3e 1240
00000010: 97ee d33f 6dc7 c83f 1970 1040 f8af 0c40
00000020: 968f 2940 9cb4 ee3f 108a 0140 1d58 0f40
00000030: f55f b23f 3570 eb3f 7b3b 8f40 2b4a 1a40

layer1.0.bn1.bias f4 [16]
1.147108 0.13678233 -5.0586605 2.6687965 2.6540728 2.4196875 3.6474674 -3.6833313
-0.067315765 2.3340526 5.0303655 6.263987 1.4089121 2.6609354 -3.5530002 4.296963
00000000: 6fd4 923f ab10 0c3e 8ce0 a1c0 90cd 2a40
00000010: 54dc 2940 29dc 1a40 1b70 6940 b3bb 6bc0
00000020: d9dc 89bd 1e61 1540 c1f8 a040 9572 c840
00000030: 3b57 b43f c44c 2a40 5b64 63c0 b980 8940

layer1.0.bn1.running_mean f4 [16]
0.06113449 -0.17708673 0.90495723 -1.5124574 0.046625234 -0.024384242 -0.19743893 -2.0751715
0.13433072 -0.59805787 -0.18371125 -0.266603 1.5572054 -0.16707839 3.0006642 -0.2995234
00000000: 2968 7a3d 3956 35be 47ab 673f 3498 c1bf
00000010: 1afa 3e3d 76c1 c7bc 6e2d 4abe 9ccf 04c0
00000020: fe8d 093e 521a 19bf cd1e 3cbe 3080 88be
00000030: 8252 c73f 9916 2bbe e20a 4040 225b 99be

layer1.0.bn1.running_var f4 [16]
22.071642 110.4479 61.60794 39.633 21.80672 27.030514 37.58322 65.9703
83.32982 25.967058 18.939232 14.539933 36.192307 20.480116 163.63724 41.81933
00000000: b992 b041 53e5 dc42 886e 7642 3188 1e42
00000010: 2a74 ae41 7e3e d841 3855 1642 cbf0 8342
00000020: dea8 a642 89bc cf41 8c83 9741 91a3 6841
00000030: ecc4 1042 47d7 a341 22a3 2343 fe46 2742

layer1.0.conv1.weight f4 [16, 16, 3, 3]
1.9702382 -0.9638296 -7.613977 2.6269276 4.999143 -5.3094935 -0.52739483 -1.1528909
-5.253309 -4.213505 -6.170927 -4.127346 -1.929031 -7.3083115 6.3126407 -2.8892229
-2.3169796 1.0678898 1.7251165 -1.3696117 4.170874 -4.161171 2.0601428 -0.7170601
-3.6886818 -1.2848166 2.8981695 -0.0059950743 1.3576119 1.533472 1.0072868 -0.3972779
1.2562362 -1.4909589 -0.73086786 0.16538955 -1.1553696 -0.23789226 -1.1479653 -0.8856448
0.753173 -0.4558377 0.67892885 3.474791 2.3905673 0.8957235 1.1614914 0.5586729
-0.09498372 -1.3983043 0.8381184 -1.5487858 0.95751345 1.4361778 -3.4776013 -6.5526156
-2.9519234 -4.6271415 0.7344965 -6.1316843 0.3771986 0.674762 -0.39834192 -0.45010728
-2.4840295 1.4416152 -0.8443642 5.8552046 -4.272472 1.6952324 3.0336351 -1.8787017
-2.3977358 0.31829217 -2.4412096 -6.083972 -10.783875 -0.8234111 -1.4100279 -2.0342903
-1.183727 0.70307237 0.6963969 -1.0396192 1.409259 -3.2464144 1.2226123 -0.5130839
-1.8668283 0.70145553 -0.089199945 -4.320924 -1.7111965 1.0369729 -10.074612 -1.1864985
-0.39674515 0.08037291 -3.058313 0.071712516 -0.079402484 5.943852 0.74680704 9.97517
-0.33267057 -3.23594 -7.1344314 -1.4745413 1.8659372 0.1608583 -2.3620334 -2.7254603
0.45741454 -0.5037578 -0.26862776 -1.1257834 1.6886044 0.6846053 0.57312876 0.47058016
-0.027997857 0.7166376 0.74611676 -1.582505 -0.85808194 2.118568 -0.26362598 2.888772
-2.8216364 0.88421816 1.6072263 -0.010211998 -1.3896288 0.9764232 0.37931713 2.6391056
0.42851526 0.4174668 0.8801939 -3.4708867 0.99693114 1.6202084 -1.1130735 1.745926
1.5990058 1.1303512 -4.324458 2.8778298 3.4770062 0.5401228 -2.8061292 2.1606128
-0.3626331 0.53226656 -2.6164799 -1.2107979 1.9311173 1.2069079 3.1662064 -3.3312387
-2.218234 -4.275726 -0.15646194 1.4288163 2.379542 -2.2342343 -0.66554093 -0.6412894
1.2149498 4.1654997 1.8139957 -5.195094 -5.8675156 -1.1822546 -4.7246103 -9.178694
-6.1857142 1.0400225 -1.7343446 0.6964787 0.9425115 0.18977141 -0.16426738 -1.3315033
-1.1207031 -1.1437398 -1.2826502 -1.823373 0.2806948 3.7877042 0.7819298 0.62188727
6.2616158 -1.0702665 -3.0840087 4.2851257 -1.5694512 0.09912531 -0.7831141 1.0703884
4.209518 -4.832162 -1.1868709 -0.87205714 -3.9285395 2.1330235 -1.8821796 -2.132003
8.436837 0.692838 0.5421377 2.5945945 -1.141363 1.9691589 3.611751 -3.7567036
-1.1485424 -1.0126522 0.61905307 -0.13617598 2.3732314 -0.7314606 -3.8304148 0.43817794
-0.40171823 0.11106006 4.4447756 1.5968966 -0.626919 1.3406397 0.3418053 -4.0930657
-4.7878656 -5.724963 -4.5091844 -0.70709175 1.738144 -2.4627628 0.9503677 -0.225197
-4.2804723 -0.14675118 1.5927771 -1.5580776 -0.68777764 1.9012634 -1.6177933 1.5285606
1.8387973 -0.77119255 -1.9892024 1.4886868 0.4143896 1.8652785 1.7956582 -1.0456523
00000000: c430 fc3f 89bd 76bf b3a5 f3c0 951f 2840
00000010: fbf8 9f40 5fe7 a9c0 5903 07bf ee91 93bf
00000020: 1b1b a8c0 08d5 86c0 3c78 c5c0 3813 84c0
00000030: 7dea f6bf b0dd e9c0 2701 ca40 07e9 38c0
00000040: 6549 14c0 9db0 883f 9ed0 dc3f 704f afbf
00000050: cd77 8540 5028 85c0 61d9 0340 4091 37bf
00000060: 5d13 6cc0 df74 a4bf 9c7b 3940 5472 c4bb
00000070: 3ac6 ad3f cf48 c43f c6ee 803f 0268 cbbe
00000080: 59cc a03f bed7 bebf 281a 3bbf e15b 293e
00000090: 27e3 93bf 079a 73be 87f0 92bf 9eb9 62bf
000000a0: f2cf 403f 8f63 e9be 48ce 2d3f fa62 5e40
000000b0: 0eff 1840 234e 653f c0ab 943f 3005 0f3f
000000c0: d386 c2bd a3fb b2bf ed8e 563f 9d3e c6bf
000000d0: 9a1f 753f add4 b73f 0591 5ec0 07af d1c0
000000e0: 50ec 3cc0 8b11 94c0 f607 3c3f c236 c4c0
000000f0: 2d20 c13e 34bd 2c3f 79f3 cbbe 7674 e6be
00000100: 57fa 1ec0 d986 b83f 4128 58bf d65d bb40
00000110: 17b8 88c0 60fd d83f 1427 4240 4c79 f0bf
00000120: 8174 19c0 31f7 a23e c73c 1cc0 e6af c2c0
00000130: c18a 2cc1 12cb 52bf cb7b b4bf d031 02c0
00000140: 5e84 97bf 8dfc 333f 1147 323f 3e12 85bf
00000150: 9962 b43f 41c5 4fc0 8f7e 9c3f 7759 03bf
00000160: 3bf4 eebf 9792 333f 76ae b6bd 0245 8ac0
00000170: 7d08 dbbf 87bb 843f 9c31 21c1 2fdf 97bf
00000180: 2e22 cbbe 8d9a a43d 66bb 43c0 03de 923d
00000190: c59d a2bd 0934 be40 bf2e 3f3f 4c9a 1f41
000001a0: cc53 aabe a419 4fc0 434d e4c0 c5bd bcbf
000001b0: 08d7 ee3f 0ab8 243e 8e2b 17c0 f16d 2ec0
000001c0: 3d32 ea3e 45f6 00bf 9489 89be ac19 90bf
000001d0: 3024 d83f 4b42 2f3f 91b8 123f e2ef f03e
000001e0: c35b e5bc 9075 373f 8201 3f3f 868f cabf
000001f0: 42ab 5bbf 9e96 0740 fcf9 86be a4e1 3840
00000200: b195 34c0 1f5c 623f 97b9 cd3f 3950 27bc
00000210: 5bdf b1bf dff6 793f db35 c23e 1be7 2840
00000220: 5a66 db3e 35be d53e 6354 613f 0223 5ec0
00000230: e136 7f3f fd62 cf3f 3179 8ebf 817a df3f
00000240: 39ac cc3f 59af 903f f661 8ac0 5d2e 3840
00000250: 4587 5e40 7d45 0a3f 9f97 33c0 7b47 0a40
00000260: 0cab b9be 9f42 083f 6874 27c0 6dfb 9abf
00000270: da2e f73f f57b 9a3f 20a3 4a40 0433 55c0
00000280: 8cf7 0dc0 bfd2 88c0 8f37 20be 74e3 b63f
00000290: 6b4a 1840 b2fd 0ec0 e460 2abf 8b2b 24bf
000002a0: 7a83 9b3f c64b 8540 0331 e83f 363e a6c0
000002b0: b0c2 bbc0 1e54 97bf 0230 97c0 eedb 12c1
000002c0: 5ff1 c5c0 751f 853f 01ff ddbf 6e4c 323f
000002d0: 6f48 713f 7053 423e b535 28be b36e aabf
000002e0: 3373 8fbf 1166 92bf e22d a4bf 4964 e9bf
000002f0: 3bb7 8f3e bf69 7240 8d2c 483f 0134 1f3f
00000300: 285f c840 7efe 88bf 6660 45c0 c01f 8940
00000310: c7e3 c8bf 3602 cb3d 2a7a 48bf 7d02 893f
00000320: 5fb4 8640 12a1 9ac0 63eb 97bf 233f 5fbf
00000330: 316d 7bc0 7583 0840 43eb f0bf bd72 08c0
00000340: 49fd 0641 d55d 313f 89c9 0a3f d60d 2640
00000350: 2f18 92bf 660d fc3f ee26 6740 d56d 70c0
00000360: 7003 93bf 969e 81bf 437a 1e3f b771 0bbe
00000370: 06e3 1740 0041 3bbf 8425 75c0 dc58 e03e
00000380: 03ae cdbe 7573 e33d 9a3b 8e40 1c67 cc3f
00000390: c37d 20bf 159a ab3f 1b01 af3e 65fa 82c0
000003a0: 3236 99c0 e632 b7c0 3d4b 90c0 f703 35bf
000003b0: 817b de3f e89d 1dc0 4c4b 733f 0b9a 66be
000003c0: a1f9 88c0 f145 16be 1fe0 cb3f 166f c7bf
000003d0: 3212 30bf 995c f33f da13 cfbf e0a7 c33f
000003e0: b65d eb3f e06c 45bf 2f9e febf 4a8d be3f
000003f0: e02a d43e 72c1 ee3f 21d8 e53f efd7 85bf

layer1.0.bn2.weight f4 [16]
0.5090987 0.33481973 0.334655 0.32057214 0.32633284 0.30722833 0.34843597 1.157551
0.282545 0.406455 0.34552905 0.2569502 0.49609217 0.47110397 0.4474622 0.24808007
00000000: 4b54 023f 7e6d ab3e e657 ab3e 0822 a43e
00000010: 1915 a73e 084d 9d3e 3366 b23e a22a 943f
00000020: bda9 903e df1a d03e 2fe9 b03e fa8e 833e
00000030: cbff fd3e 8a34 f13e c419 e53e b408 7e3e

layer1.0.bn2.bias f4 [16]
0.1014745 0.13223198 0.31369457 0.373927 0.45409006 0.7644826 0.3146424 -3.679945
0.23222658 0.28260684 0.22092423 0.13876939 -0.06018655 0.14542805 0.16664514 0.13773786
00000000: ddd1 cf3d d267 073e 939c a03e 5c73 bf3e
00000010: 7e7e e83e 22b5 433f cf18 a13e 3884 6bc0
00000020: cecc 6d3e d8b1 903e f639 623e 9019 0e3e
00000030: 2c86 76bd 17eb 143e 06a5 2a3e 270b 0d3e

layer1.0.bn2.running_mean f4 [16]
-167.67146 -149.99423 84.399796 9.717425 126.5856 151.85892 -113.792534 74.36877
-16.12293 113.679016 78.67829 28.753008 -170.3435 37.10865 -65.50445 -191.27135
00000000: e5ab 27c3 86fe 15c3 b2cc a842 937a 1b41
00000010: d42b fd42 e2db 1743 c795 e3c2 cfbc 9442
00000020: c3fb 80c1 a85b e342 495b 9d42 2906 e641
00000030: f057 2ac3 426f 1442 4702 83c2 7745 3fc3

layer1.0.bn2.running_var f4 [16]
6619.4897 10139.515 5846.658 3346.749 8881.934 2805.841 4894.777 2257.6519
2684.5745 6847.981 5581.297 4039.6714 7668.874 8413.508 7160.1387 3709.952
00000000: ebdb ce45 0f6e 1e46 44b5 b645 fc2b 5145
00000010: bcc7 0a46 755d 2f45 37f6 9845 6e1a 0d45
00000020: 31c9 2745 d9ff d545 606a ae45 be7a 7c45
00000030: fea6 ef45 0876 0346 1cc1 df45 3bdf 6745

layer1.0.conv2.weight f4 [16, 16, 3, 3]
-0.7352885 -2.7327456 -0.80530584 -3.7847364 4.4594507 2.3272135 -0.39756656 0.081250936
-1.3367621 0.13998498 0.20599589 0.7298664 -0.5878092 -0.7157651 -0.1234316 -0.55814725
-0.44636372 1.6943492 0.50186175 -1.2702028 0.03401233 -0.17196411 0.3362757 -0.37234667
-0.14476667 0.7085673 0.036860876 -0.26058498 1.8356574 -1.8417062 0.23684879 -1.3433982
-0.06782824 -0.49354032 1.1236831 0.0049965093 -0.6294402 0.53719944 -0.035005666 -1.8944434
0.14658947 -0.42170033 0.31305665 0.24435635 -0.9142318 0.004700691 1.8662138 -0.59660643
-0.4966865 -1.377816 -0.9548232 -0.42885774 0.5204877 0.22388579 0.5468298 0.4041039
-0.5062689 -1.369826 0.7741697 0.36167666 0.6776644 0.594007 -0.07133651 0.049327176
5.0609245 4.86622 1.5387585 3.2747262 2.5877314 -0.6729513 0.21267493 0.12776183
-0.8615104 -0.7737219 0.38329393 -0.002330354 0.05154343 0.754819 -0.25411505 0.6833409
-0.58303106 -1.0003059 -0.72860634 -0.27224776 -0.6447276 -0.165337 0.37837282 -0.6346078
-0.5501092 0.79133016 -2.2694924 0.39852092 -1.0235714 1.205818 1.9997121 0.65005314
-0.8265179 -1.027581 -0.82484144 1.0475154 0.31925607 -1.1087443 2.3297937 -0.8738057
-1.0719707 -0.88196194 1.3756292 -1.8632284 -0.5082403 -2.068049 0.21542186 2.0669918
-0.81347257 -1.9768 -1.2495397 -1.8249487 1.182165 0.24842553 -0.89764524 0.6955119
2.5256746 -1.9040129 -2.079472 -2.9441152 -1.1211088 -1.2727181 0.41041684 0.30450085
-1.1535378 2.47136 0.6914398 2.0962322 -0.63681835 -0.4793134 -0.98660815 0.4644559
0.7228629 0.175512 -0.8195066 -1.2463524 -2.453408 1.3930137 -3.7018147 0.12737045
0.6731114 -1.0308349 -0.948618 6.7099037 -2.4106112 -3.0815008 2.4625866 -1.1423888
-1.2458318 -0.44244623 1.2961489 -0.7308107 -0.8693628 0.7200636 0.7619448 -0.20626332
-0.0063021826 0.26629916 -0.9541059 -0.38549203 0.70019007 1.6374596 0.41821322 -0.31484666
0.78776324 -0.79801536 -0.7239331 0.3153404 -1.1224177 -1.1521369 -2.605879 1.229694
0.19933735 -0.485881 1.888488 -0.7631226 -0.9953142 -0.44978145 -1.5425818 0.34428427
0.46105736 -0.9929127 -0.7996729 -0.32620105 0.66667664 -1.4707861 0.38557652 0.6870367
-0.88436043 -0.124435015 -0.55461174 0.3100763 0.6304273 -0.4000927 -0.23453024 1.0736165
0.7198769 -1.2462016 -1.020757 -0.19134587 0.9097572 1.3777076 -1.018054 6.714742
-2.125196 -0.784565 1.991303 -1.8915625 -0.70214534 1.1556916 -0.1195686 -0.10900667
-0.87049216 -0.18009755 -0.10823008 -2.0657294 1.929975 0.40768656 0.49787703 -0.18295285
-0.14993605 -0.40802068 -0.9143174 0.30790153 0.46900892 -1.2135894 -0.79883957 0.500028
0.38837987 0.29884872 -0.020390105 0.95237577 -0.15320927 -0.5249098 2.384089 -0.84655774
0.14397477 1.5318829 -0.43895805 1.5240237 -0.64848804 0.7068443 -0.4020865 0.09518173
0.45799938 2.2488542 -1.4392179 -0.0062893247 2.9949803 0.6149648 -0.19669424 -2.1646712
00000000: de3b 3cbf 4ee5 2ec0 8628 4ebf 1f39 72c0
00000010: d2b3 8e40 11f1 1440 d88d cbbe e466 a63d
00000020: 051b abbf 3958 0f3e 96f0 523e 86d8 3a3f
00000030: aa7a 16bf 623c 37bf b5c9 fcbd bde2 0ebf
00000040: c989 e4be 6fe0 d83f 037a 003f 0196 a2bf
00000050: 8350 0b3d 5c17 30be 542c ac3e 39a4 bebe
00000060: b73d 14be ab64 353f 6efb 163d 656b 85be
00000070: d2f6 ea3f 07bd ebbf 7d88 723e 79f4 abbf
00000080: 88e9 8abd 51b1 fcbe d9d4 8f3f c2b9 a33b
00000090: fe22 21bf e785 093f 1a62 0fbd 1f7d f2bf
000000a0: 8d1b 163e 1be9 d7be f648 a03e 8d38 7a3e
000000b0: 180b 6abf 4108 9a3b 18e0 ee3f 33bb 18bf
000000c0: b14d febe 465c b0bf 4b6f 74bf 3e93 dbbe
000000d0: af3e 053f 5142 653e 0afd 0b3f b5e6 ce3e
000000e0: d79a 01bf 7556 afbf fc2f 463f af2d b93e
000000f0: 6a7b 2d3f d810 183f e018 92bd 4b0b 4a3d
00000100: 18f3 a140 13b8 9b40 0af6 c43f 1d95 5140
00000110: 649d 2540 8946 2cbf 75c7 593e ffd3 023e
00000120: f28b 5cbf a312 46bf 1a3f c43e dab8 18bb
00000130: 341f 533d d13b 413f 5e1b 82be 6eef 2e3f
00000140: 8641 15bf 060a 80bf f285 3abf 0f64 8bbe
00000150: de0c 25bf 1a4e 29be 15ba c13e a875 22bf
00000160: f5d3 0cbf 9d94 4a3f 5d3f 11c0 ef0a cc3e
00000170: 6304 83bf 3f58 9a3f 91f6 ff3f e269 263f
00000180: ad96 53bf c687 83bf cf28 53bf fc14 863f
00000190: 8875 a33e 55eb 8dbf 571b 1540 bbb1 5fbf
000001a0: 5636 89bf 42c8 61bf 9e14 b03f 457e eebf
000001b0: 091c 02bf ea5a 04c0 8c97 5c3e 9849 0440
000001c0: bd3f 50bf c807 fdbf ebf0 9fbf eb97 e9bf
000001d0: 2f51 973f 4363 7e3e 14cc 65bf 110d 323f
000001e0: a7a4 2140 b2b6 f3bf 1216 05c0 626c 3cc0
000001f0: 7e80 8fbf 6de8 a2bf 2822 d23e 89e7 9b3e
00000200: 20a7 93bf c32a 1e40 3302 313f ab28 0640
00000210: 8706 23bf 9168 f5be 5a92 7cbf 2acd ed3e
00000220: 8b0d 393f 6bb9 333e 2fcb 51bf 7a88 9fbf
00000230: a304 1dc0 464e b23f 88ea 6cc0 666d 023e
00000240: 0751 2c3f 66f2 83bf a1d8 72bf 88b7 d640
00000250: 7447 1ac0 4f37 45c0 059b 1d40 cc39 92bf
00000260: 6b77 9fbf 5088 e2be 35e8 a53f 6916 3bbf
00000270: 8f8e 5ebf 1756 383f d00e 433f b136 53be
00000280: 8a82 cebb 5d58 883e 4940 74bf 365f c5be
00000290: a83f 333f 4798 d13f 0b20 d63e 9533 a1be
000002a0: daaa 493f bc4a 4cbf ae53 39bf 4c74 a13e
000002b0: 62ab 8fbf 3979 93bf b9c6 26c0 9d66 9d3f
000002c0: 171f 4c3e 65c5 f8be fab9 f13f 015c 43bf
000002d0: e9cc 7ebf c149 e6be 5273 c5bf 0746 b03e
000002e0: b60f ec3e 872f 7ebf 5db7 4cbf d303 a7be
000002f0: 52ab 2a3f b842 bcbf 496a c53e a3e1 2f3f
00000300: 7265 62bf c9d7 febd 09fb 0dbf 52c2 9e3e
00000310: af63 213f f3d8 ccbe b228 70be 446c 893f
00000320: da49 383f 8983 9fbf 2aa8 82bf 2cf0 43be
00000330: d9e5 683f b958 b03f 984f 82bf 2bdf d640
00000340: 3603 08c0 40d9 48bf 04e3 fe3f b81e f2bf
00000350: ccbf 33bf b4ed 933f 62e0 f4bd e43e dfbd
00000360: 93d8 5ebf 7e6b 38be bba7 ddbd e934 04c0
00000370: 6c09 f73f 4bbc d03e bde9 fe3e fe57 3bbe
00000380: d688 19be 16e8 d0be b510 6abf 45a5 9d3e
00000390: f021 f03e e656 9bbf c080 4cbf d601 003f
000003a0: bad9 c63e b302 993e 2609 a7bc e6ce 733f
000003b0: e4e2 1cbe 7d60 06bf ea94 1840 02b8 58bf
000003c0: 1f6e 133e bd14 c43f 1cbf e0be 3513 c33f
000003d0: 5003 26bf bff3 343f 48de cdbe a4ee c23d
000003e0: e57e ea3e 3aed 0f40 4b38 b8bf ae16 cebb
000003f0: c2ad 3f40 556e 1d3f 376a 49be f989 0ac0

layer1.1.bn1.weight f4 [16]
4.8204045 4.771672 2.8936508 1.592295 1.1353925 1.4217868 4.57964 1.3082464
5.4176188 1.8299532 5.433684 4.357878 1.4588058 0.6216357 2.1385489 1.1078428
00000000: c140 9a40 89b1 9840 9331 3940 53d0 cb3f
00000010: 8b54 913f 1cfd b53f 698c 9240 9e74 a73f
00000020: 225d ad40 e83b ea3f bde0 ad40 bd73 8b40
00000030: 26ba ba3f 8423 1f3f fcdd 0840 cbcd 8d3f

layer1.1.bn1.bias f4 [16]
-0.7254091 3.9842281 0.8407194 -1.0055186 0.8924949 0.5572919 1.6064773 0.9265621
3.1402862 -0.24851246 4.686813 3.0738802 1.6008009 7.9087057 -0.37783664 -0.5155591
00000000: 69b4 39bf 98fd 7e40 6339 573f d5b4 80bf
00000010: 8c7a 643f afaa 0e3f 0ca1 cd3f 2c33 6d3f
00000020: 73fa 4840 0d7a 7ebe 5ffa 9540 74ba 4440
00000030: 0be7 cc3f 1e14 fd40 ce73 c1be aefb 03bf

layer1.1.bn1.running_mean f4 [16]
-6.426473 -2.5969682 23.836725 7.1459336 -10.297242 -6.4961934 0.69076645 17.879963
5.0315075 -15.409399 1.0431169 -6.1476135 9.611955 -17.159458 11.5960245 20.118273
00000000: aba5 cdc0 ba34 26c0 9db1 be41 7dab e440
00000010: 81c1 24c1 d1e0 cfc0 12d6 303f 2a0a 8f41
00000020: 1c02 a140 e68c 76c1 db84 853f 40b9 c4c0
00000030: 91ca 1941 9246 89c1 5189 3941 39f2 a041

layer1.1.bn1.running_var f4 [16]
53.908943 205.23325 134.17685 573.9896 178.34546 233.61655 98.095985 191.04958
204.9565 250.85965 85.60537 66.27096 366.38693 294.05078 244.60524 363.85028
00000000: c2a2 5742 b63b 4d43 462d 0643 567f 0f44
00000010: 7058 3243 d69d 6943 2531 c442 b10c 3f43
00000020: ddf4 4c43 12dc 7a43 f335 ab42 bb8a 8442
00000030: 8731 b743 8006 9343 f19a 7443 d6ec b543

layer1.1.conv1.weight f4 [16, 16, 3, 3]
1.0139498 0.09159432 -0.58066577 0.938401 3.681391 0.863963 0.95238703 -0.31743905
2.511436 -0.12943551 0.068416424 -0.056339804 -0.8453189 0.29555798 3.8800418 0.06326267
-3.1526043 -3.524301 -0.18238133 -1.2658234 2.1433482 -6.8222237 -6.3779674 -8.304268
-2.205254 -1.1245648 -0.93424 0.0018696113 -0.38207734 -2.0364609 -0.97819185 -1.1775668
-0.55595297 3.1096683 -0.35662735 0.028450932 1.1218699 0.98715407 -2.5459244 1.8127315
0.7790905 -1.8424932 -0.62219304 3.8109396 -2.6751983 4.1681185 0.551645 1.0184562
-1.6627072 -4.6497526 -2.7691555 -0.6810546 1.5471042 0.12744251 -6.0338883 -1.6527159
-0.27870852 -0.66784453 8.325648 1.025547 -0.11619366 0.19001263 2.146644 0.38080204
2.681696 2.6891596 0.05321966 2.9606042 2.1193597 -4.5993757 -2.1066 1.3960749
-2.8274698 4.149524 -1.6805016 -9.315372 5.2990713 -2.4758167 1.3760216 2.2631083
0.88958025 -1.7125905 4.83427 -0.16743079 -2.139792 0.17071912 -2.0670629 -0.62808466
-0.19728376 -2.2331345 1.9622111 1.2768419 -1.385703 7.2657022 0.305081 0.89271545
-2.728368 -0.2970182 -0.107364036 -1.2447817 -1.012951 -1.7395114 -1.1137888 -1.7155116
-3.432619 -0.11748206 -1.3228091 0.46446258 0.14271076 -0.65809834 -1.1716772 3.0359316
1.7126336 3.2589214 0.7614339 -2.7040524 0.28577393 -0.32144594 -0.4661989 -1.7691464
-2.3191211 -1.1011168 0.32992733 -1.2350816 -4.531416 -1.5772462 -2.4019737 5.740779
-0.2615262 -0.63934165 4.842505 -1.0902193 -2.7285824 4.3052325 2.0274856 -3.8126101
-3.544256 -2.087053 0.2386614 1.9755185 4.461623 -3.3542264 -0.9998817 2.0586436
0.27721977 2.321004 1.1354808 -0.081785575 5.1386433 7.4141755 0.6586129 -3.9548259
-2.9446027 -1.1790963 2.559358 -3.7710001 1.7691116 5.7325826 -6.420682 0.278919
-2.8554401 -1.8303967 -1.5264044 0.35330558 2.8187375 -0.83688027 1.3617426 2.7844481
1.1036347 -2.6836627 -0.8308481 0.020335937 2.56288 -0.6989608 -0.544459 0.92099696
1.6115911 -1.8777876 -3.7562847 3.3128278 5.877436 1.4949945 3.3300989 -0.17559177
-3.111967 -1.3826113 1.8358374 -0.002017371 -0.1078412 2.386991 -1.0704466 1.1535622
4.1332445 0.8797957 -3.202808 4.0733414 -3.9269278 -3.3617468 -0.2798 5.6807036
-0.013178251 1.0088457 -4.0666237 -1.0577217 1.7549845 -1.5987021 -0.5968606 -1.379802
-0.08904098 -1.7043253 1.9262127 1.6937299 1.7861376 0.8039469 -0.885682 -0.2656097
-0.7305849 -0.48131758 0.65395504 -0.26692635 -4.159498 1.0149713 0.52202356 0.2940822
0.095134355 -1.2039938 1.0015869 -0.9210621 -1.8779383 3.1546986 -0.18130976 1.0771695
0.102195635 -0.19383104 -6.1486363 -0.94009554 -3.5638828 -10.594265 2.4873915 -4.6270323
-1.6476969 -2.3327672 -1.5267434 0.3202875 4.4088106 -2.7618606 -3.770359 -2.019366
4.8600035 -1.3128115 3.2284112 0.6359833 1.3270828 -2.25917 -0.56087625 0.95879966
00000000: 1bc9 813f ce95 bb3d 83a6 14bf 0c3b 703f
00000010: e99b 6b40 ae2c 5d3f a3cf 733f 5f87 a2be
00000020: 5ebb 2040 be8a 04be e91d 8c3d 91c4 66bd
00000030: d266 58bf 6053 973e 9b52 7840 dc8f 813d
00000040: 45c4 49c0 268e 61c0 2cc2 3abe 8006 a2bf
00000050: 9e2c 0940 a84f dac0 4f18 ccc0 48de 04c1
00000060: e222 0dc0 bdf1 8fbf 5a2a 6fbf bf0d f53a
00000070: a49f c3be 6055 02c0 c86a 7abf 82ba 96bf
00000080: ef52 0ebf ce04 4740 dc97 b6be ee11 e93c
00000090: 6f99 8f3f 21b6 7c3f 6df0 22c0 9607 e83f
000000a0: 7a72 473f d1d6 ebbf 0b48 1fbf 6fe6 7340
000000b0: 7336 2bc0 3a61 8540 9b38 0d3f c65c 823f
000000c0: 97d3 d4bf c6ca 94c0 d839 31c0 9859 2ebf
000000d0: 8307 c63f 4a80 023e 9d15 c1c0 328c d3bf
000000e0: e2b2 8ebe dcf7 2abf db35 0541 2045 833f
000000f0: f1f6 edbd ac92 423e 9e62 0940 7cf8 c23e
00000100: e8a0 2b40 311b 2c40 dcfc 593d 8a7a 3d40
00000110: 97a3 0740 162e 93c0 89d2 06c0 95b2 b23f
00000120: 44f5 34c0 e7c8 8440 ad1a d7bf c40b 15c1
00000130: fe91 a940 c873 1ec0 7a21 b03f c4d6 1040
00000140: 88bb 633f 2a36 dbbf 57b2 9a40 fa72 2bbe
00000150: 5af2 08c0 fed0 2e3e c24a 04c0 28ca 20bf
00000160: c104 4abe adeb 0ec0 bc29 fb3f 8e6f a33f
00000170: b75e b1bf a280 e840 9433 9c3e 0089 643f
00000180: 959d 2ec0 c512 98be ade1 dbbd 0255 9fbf
00000190: 61a8 81bf 4fa8 debf a290 8ebf e295 dbbf
000001a0: 08b0 5bc0 6f9a f0bd cf51 a9bf 0ace ed3e
000001b0: c522 123e 2279 28bf 85f9 95bf b44c 4240
000001c0: 9437 db3f 2b92 5040 55ed 423f 320f 2dc0
000001d0: f650 923e 9094 a4be 9fb1 eebe 6473 e2bf
000001e0: 7b6c 14c0 65f1 8cbf 3cec a83e 2717 9ebf
000001f0: 5c01 91c0 34e3 c9bf f0b9 19c0 76b4 b740
00000200: c3e6 85be e5ab 23bf cdf5 9a40 4e8c 8bbf
00000210: 18a1 2ec0 77c4 8940 53c2 0140 ce01 74c0
00000220: 17d5 62c0 4792 05c0 a763 743e cadd fc3f
00000230: 9ec5 8e40 a5ab 56c0 3ff8 7fbf d1c0 0340
00000240: c0ef 8d3e 548b 1440 6f57 913f 327f a7bd
00000250: c46f a440 ed40 ed40 db9a 283f de1b 7dc0
00000260: 5f74 3cc0 a1ec 96bf 85cc 2340 1158 71c0
00000270: 4072 e23f 5171 b740 3a76 cdc0 79ce 8e3e
00000280: 88bf 36c0 704a eabf 3861 c3bf 78e4 b43e
00000290: 3266 3440 c93d 56bf 954d ae3f 6634 3240
000002a0: e743 8d3f 21c1 2bc0 76b2 54bf 8d97 a63c
000002b0: 3a06 2440 18ef 32bf aa61 0bbf 75c6 6b3f
000002c0: 9e48 ce3f 585b f0bf f866 70c0 5f05 5440
000002d0: f513 bc40 fb5b bf3f 5720 5540 54ce 33be
000002e0: 782a 47c0 68f9 b0bf b8fc ea3f de35 04bb
000002f0: d9db dcbd 76c4 1840 6504 89bf eda7 933f
00000300: 8a43 8440 4a3a 613f cefa 4cc0 d058 8240
00000310: c952 7bc0 dc26 57c0 f241 8fbe 53c8 b540
00000320: 97e9 57bc db21 813f c821 82c0 6d63 87bf
00000330: 55a3 e03f 45a2 ccbf dbcb 18bf 5a9d b0bf
00000340: 1e5b b6bd 5527 dabf 238e f63f 24cc d83f
00000350: 28a0 e43f 77cf 4d3f 0ebc 62bf fffd 87be
00000360: 9d07 3bbf 426f f6be 9969 273f 92aa 88be
00000370: 9c1a 85c0 94ea 813f 56a3 053f f191 963e
00000380: cdd5 c23d 781c 9abf 0034 803f baca 6bbf
00000390: 4860 f0bf 95e6 4940 44a9 39be b1e0 893f
000003a0: f24b d13d a57b 46be a1c1 c4c0 1aaa 70bf
000003b0: a816 64c0 1c82 29c1 6c31 1f40 a610 94c0
000003c0: bbe7 d2bf 0f4c 15c0 546c c3bf b9fc a33e
000003d0: fa14 8d40 53c2 30c0 904d 71c0 4b3d 01c0
000003e0: 2685 9b40 350a a8bf 4a9e 4e40 cdcf 223f
000003f0: d9dd a93f 3e96 10c0 9695 0fbf e573 753f

layer1.1.bn2.weight f4 [16]
0.69718593 0.48917943 0.5717282 0.29164407 0.43988132 0.38061833 1.2342339 0.7475249
0.5769066 0.5920558 0.654252 0.66143316 0.8066455 0.5870622 0.49789333 0.5594558
00000000: c77a 323f ba75 fa3e c85c 123f 5f52 953e
00000010: 2038 e13e 68e0 c23e 60fb 9d3f cb5d 3f3f
00000020: 27b0 133f f890 173f 0f7d 273f af53 293f
00000030: 5280 4e3f b549 163f e0eb fe3e 7f38 0f3f

layer1.1.bn2.bias f4 [16]
-0.44443402 -0.039801497 0.10835463 0.19896509 -0.042988285 -0.004370084 -1.8109522 -0.2617665
-0.07495526 -0.10507885 -0.04164467 -0.35882208 -0.09302501 -0.19977234 -0.039470524 -0.06028768
00000000: db8c e3be e506 23bd 08e9 dd3d 81bd 4b3e
00000010: 7c14 30bd ec32 8fbb 48cd e7bf 4206 86be
00000020: 2582 99bd 9533 d7bd 9a93 2abd 87b7 b7be
00000030: e583 bebd 1f91 4cbe d8ab 21bd 37f0 76bd

layer1.1.bn2.running_mean f4 [16]
-126.38913 -120.50088 -96.23371 -71.409454 -163.91724 -33.18364 -82.05604 -94.47175
-100.57856 -165.3121 -104.36361 36.965878 -80.98861 -163.95226 37.005745 -10.641937
00000000: 3cc7 fcc2 7300 f1c2 a977 c0c2 a4d1 8ec2
00000010: d0ea 23c3 0cbc 04c2 b11c a4c2 89f1 bcc2
00000020: 3928 c9c2 e64f 25c3 2bba d0c2 0fdd 1342
00000030: 2bfa a1c2 c7f3 23c3 e205 1442 6045 2ac1

layer1.1.bn2.running_var f4 [16]
7940.672 14895.16 12330.311 4126.232 7915.817 7385.879 10969.245 34182.758
21228.246 26573.385 18923.244 11880.468 38939.688 9331.94 14230.082 14183.254
00000000: 6025 f845 a4bc 6846 3ea9 4046 dbf1 8045
00000010: 895e f745 08cf e645 fb64 2b46 c286 0547
00000020: 7ed8 a546 c59a cf46 7dd6 9346 dfa1 3946
00000030: b01b 1847 c3cf 1146 5458 5e46 049d 5d46

layer1.1.conv2.weight f4 [16, 16, 3, 3]
2.1484106 1.0566224 0.32620192 -0.6697462 0.24334112 0.01202506 1.9759195 1.240685
-0.27012718 -1.0783787 -2.0571728 -0.16296102 -3.794924 -5.4701085 1.0463505 -2.1966884
-3.466336 -1.1872342 -1.9425532 -2.826817 -0.7897281 -4.8130713 -3.8352752 0.45056543
-0.37764668 -0.4347122 2.0893981 -0.94215304 -0.24315174 2.2110186 -1.1331924 0.39427054
-1.1001953 -0.03852892 1.9734486 -0.06901899 1.6170179 0.7480095 -0.39478487 0.52480674
-0.4943346 2.1486726 0.22103007 0.3864117 -0.9762791 0.3875627 1.2433805 0.43538752
-0.123772256 1.4871502 -0.058179874 0.7691363 0.050895397 -1.6844035 1.3884683 -0.28903964
0.98762065 -2.7391486 -3.4496408 1.1604351 -0.41064313 -1.4589207 -1.5439975 3.8614266
-0.7816699 -1.2670075 1.7802185 1.8406644 -0.136223 -1.1732066 0.49160576 1.1203066
-3.082787 -0.3770648 1.5855353 -0.9505676 0.18398191 0.48935565 -0.37196147 -2.408208
-0.43397707 -1.0878472 1.9757718 -1.8165402 5.012201 4.8991494 -0.407401 2.975705
3.6388745 -0.7663115 0.6572049 5.106322 3.3798141 1.5541692 5.1597867 6.320543
0.49722612 3.0332956 4.119515 1.0107299 2.3314822 -2.3213599 0.55389327 -1.315632
-1.7946975 -0.24920274 -1.7166624 -1.2308044 2.6629813 1.981503 0.022778474 5.8438997
4.8498287 -0.5247287 3.2514272 1.9167506 -1.0247548 -3.5997562 -0.4684794 -1.247386
-1.7805431 1.2498373 1.9162954 -2.7543228 -0.04765609 -1.1321759 -2.1938696 0.89623463
-0.1588981 -0.14952086 1.0933698 0.33383527 2.767618 1.9147862 -1.0964302 -0.87911206
-1.1037482 -2.0654233 -0.0682234 -2.5393739 -1.5313246 -1.4496851 0.6039607 -1.2598555
-0.6277333 2.8018293 0.8165938 0.9232996 1.4905059 -2.0492988 1.0296116 0.75193214
-1.6656697 0.5612603 0.39333254 -0.2428333 5.619375 -0.8293791 -1.7634068 1.029624
-0.9000689 -2.7972949 -0.3053168 2.1494758 2.3046892 0.31716722 1.6677163 0.79752207
-1.8272759 0.11316983 0.43130472 1.3629622 -0.8727609 -0.7403679 -1.1206899 -5.848682
-0.24713108 2.321516 0.8333613 0.84037775 2.9356346 -0.34156576 -1.1588061 1.7900243
3.8994482 2.3800564 0.7532109 1.3171779 0.32492575 -2.4913292 0.7000893 0.96237767
-0.42660782 0.33910793 0.39779198 0.57162106 -0.112798505 -0.024245402 -0.48423073 -0.765574
1.300969 -1.4831861 -3.028227 0.21773565 1.609259 0.27957493 -1.276986 0.17915516
-1.3427765 0.76757264 1.2376928 -0.12119425 -4.1135406 -1.1432618 -1.7215809 -0.75710446
-3.1925519 -2.8801513 -1.7451783 -0.0571752 1.9524362 -2.4643948 -1.5280527 -2.4293602
0.23529336 1.7683424 2.8526993 0.49258813 1.9666623 -0.22783105 0.82230186 2.8249576
-0.3237714 -0.40769812 0.53435117 1.8623945 1.4964833 -0.20722687 2.6667037 3.2426271
-0.97065586 1.9776168 2.020783 -0.7933194 -1.5140718 2.7440846 -0.30665183 0.20162493
2.23358 -0.9482928 1.9814068 0.84300005 4.782145 3.2457952 -2.2207766 5.0456553
00000000: 8f7f 0940 673f 873f f003 a73e 7d74 2bbf
00000010: 6a2e 793e c204 453c eeea fc3f c4ce 9e3f
00000020: 1c4e 8abe 5008 8abf b8a8 03c0 41df 26be
00000030: 09e0 72c0 210b afc0 d0ee 853f 8b96 0cc0
00000040: 73d8 5dc0 4af7 97bf 95a5 f8bf 92ea 34c0
00000050: 9f2b 4abf ae04 9ac0 2675 75c0 83b0 e63e
00000060: e85a c1be 9992 debe b3b8 0540 f130 71bf
00000070: c5fc 78be 5481 0d40 730c 91bf d4dd c93e
00000080: 33d3 8cbf 80d0 1dbd f799 fc3f d459 8dbd
00000090: 71fa ce3f 8d7d 3f3f 3e21 cabe bc59 063f
000000a0: 6d19 fdbe da83 0940 b555 623e c1d7 c53e
000000b0: 6ded 79bf 9e6e c63e 1827 9f3f 1deb de3e
000000c0: 4f7c fdbd f05a be3f 054e 6ebd 1ee6 443f
000000d0: b177 503d 899a d7bf 54b9 b13f 01fd 93be
000000e0: b5d4 7c3f 364e 2fc0 eac6 5cc0 2389 943f
000000f0: d13f d2be eabd babf b6a1 c5bf 9d21 7740
00000100: 851b 48bf 4d2d a2bf 33de e33f e49a eb3f
00000110: 0b7e 0bbe a22b 96bf c0b3 fb3e 3566 8f3f
00000120: 624c 45c0 a30e c1be d2f2 ca3f 6658 73bf
00000130: c165 3c3e d38c fa3e bc71 bebe 1420 1ac0
00000140: 3e32 debe 943e 8bbf 17e6 fc3f 6484 e8bf
00000150: f363 a040 d5c5 9c40 dd96 d0be f371 3e40
00000160: 52e3 6840 fe2c 44bf 953e 283f fd66 a340
00000170: e04e 5840 04ef c63f f91c a540 e341 ca40
00000180: 6c94 fe3e 8421 4240 11d3 8340 995f 813f
00000190: 0137 1540 2991 14c0 f3cb 0d3f a166 a8bf
000001a0: a6b8 e5bf 012f 7fbe 98bb dbbf 008b 9dbf
000001b0: 496e 2a40 e4a1 fd3f ec99 ba3c 3a01 bb40
000001c0: cc31 9b40 9f54 06bf 6217 5040 1558 f53f
000001d0: 2a2b 83bf 6862 66c0 88dc efbe 58aa 9fbf
000001e0: d6e8 e3bf abfa 9f3f 2b49 f53f d346 30c0
000001f0: 0833 43bd 24eb 90bf 5c68 0cc0 a26f 653f
00000200: 2fb6 22be ff1b 19be 8bf3 8b3f 75ec aa3e
00000210: a720 3140 b717 f53f d357 8cbf 7d0d 61bf
00000220: 9f47 8dbf e52f 04c0 b6b8 8bbd 1a85 22c0
00000230: 7202 c4bf 488f b9bf 2b9d 1a3f f242 a1bf
00000240: 21b3 20bf 2c51 3340 4b0c 513f 5d5d 6c3f
00000250: e6c8 be3f b627 03c0 50ca 833f a07e 403f
00000260: aa34 d5bf c1ae 0f3f e262 c93e 4ba9 78be
00000270: ecd1 b340 3052 54bf 50b7 e1bf b8ca 833f
00000280: ea6a 66bf e106 33c0 7c52 9cbe 0391 0940
00000290: 0780 1340 be63 a23e ba77 d53f 682a 4c3f
000002a0: 2de4 e9bf 95c5 e73d f9d3 dc3e 8c75 ae3f
000002b0: 426d 5fbf c088 3dbf c472 8fbf 6728 bbc0
000002c0: ee0f 7dbe b893 1440 2b57 553f ff22 573f
000002d0: 70e1 3b40 b5e1 aebe c253 94bf 841f e53f
000002e0: 8f90 7940 d852 1840 6ed2 403f 4999 a83f
000002f0: ab5c a63e f071 1fc0 0d39 333f 625e 763f
00000300: 576c dabe 8e9f ad3e 64ab cb3e c255 123f
00000310: e702 e7bd 4b9e c6bc 17ed f7be a8fc 43bf
00000320: 2786 a63f 0bd9 bdbf 79ce 41c0 18f6 5e3e
00000330: 33fc cd3f 7224 8f3e 4774 a3bf 7374 373e
00000340: 1ae0 abbf a47f 443f b86c 9e3f b134 f8bd
00000350: 20a2 83c0 6756 92bf c35c dcbf 99d1 41bf
00000360: c552 4cc0 6654 38c0 0162 dfbf 8b30 6abd
00000370: 6ee9 f93f a5b8 1dc0 3b97 c3bf a37a 1bc0
00000380: bef0 703e 0b59 e23f a092 3640 8334 fc3e
00000390: 97bb fb3f 8b4c 69be 6082 523f 1bcc 3440
000003a0: 5dc5 a5be cfbd d0be 3dcb 083f f162 ee3f
000003b0: c48c bf3f 4833 54be 46ab 2a40 3487 4f40
000003c0: e77c 78bf 8c22 fd3f 8254 0140 fb16 4bbf
000003d0: 1bcd c1bf 159f 2f40 7801 9dbe c476 4e3e
000003e0: faf2 0e40 51c3 72bf bd9e fd3f dace 573f
000003f0: 5507 9940 1cbb 4f40 3421 0ec0 0276 a140

layer2.0.bn1.weight f4 [16]
3.0585406 3.7196636 2.5427568 2.7386646 3.2016087 3.8804693 3.5554197 2.973172
3.2788167 3.3771045 4.970441 3.8340123 2.7402112 4.052257 3.22353 2.072848
00000000: 21bf 4340 f80e 6e40 87bc 2240 4846 2f40
00000010: 28e7 4c40 9c59 7840 ff8b 6340 7348 3e40
00000020: 22d8 5140 7b22 5840 da0d 9f40 7560 7540
00000030: 9f5f 2f40 17ac 8140 514e 4e40 8ba9 0440

layer2.0.bn1.bias f4 [16]
3.4675648 2.9783864 -0.47942695 0.44973436 1.4223377 -0.7074358 1.376659 3.9650083
2.1820831 0.89825594 0.6963721 1.7695129 0.8810623 -0.3975512 1.7624829 0.46887645
00000000: 95ec 5d40 e29d 3e40 7377 f5be 9543 e63e
00000010: 290f b63f 831a 35bf 5d36 b03f b2c2 7d40
00000020: 40a7 0b40 1af4 653f 7145 323f 667f e23f
00000030: 4d8d 613f d58b cbbe 0a99 e13f 9310 f03e

layer2.0.bn1.running_mean f4 [16]
-0.82068205 5.065835 35.524067 11.679559 -5.7997336 -4.607193 4.289691 13.18848
6.915469 -12.222206 0.7596139 -1.1464233 5.2751393 -15.775135 11.006941 21.45801
00000000: 3818 52bf 521b a240 a518 0e42 79df 3a41
00000010: 6b97 b9c0 206e 93c0 2645 8940 0404 5341
00000020: 864b dd40 288e 43c1 0e76 423f 00be 92bf
00000030: f1cd a840 f466 7cc1 6e1c 3041 01aa ab41

layer2.0.bn1.running_var f4 [16]
86.708855 277.19156 265.80222 560.1671 214.7096 257.409 97.88805 232.38605
181.79024 283.29288 151.6648 122.461845 448.66837 346.13138 303.37228 420.11316
00000000: ef6a ad42 8598 8a43 afe6 8443 b20a 0c44
00000010: a8b5 5643 5ab4 8043 aec6 c342 d462 6843
00000020: 4dca 3543 7da5 8d43 30aa 1743 77ec f442
00000030: 8d55 e043 d110 ad43 a7af 9743 7c0e d243

layer2.0.conv1.weight f4 [32, 16, 3, 3]
1.8645723 -0.9729566 -2.966364 0.076543145 4.2742543 -0.44419938 -0.5121375 1.128389
1.7103146 -0.44836682 1.6877489 2.0216522 0.953508 -1.9214702 -0.35411692 0.6950939
-0.74249035 0.6595462 0.26358083 3.726292 -2.2635145 0.5789087 6.0059996 5.0134935
0.6629149 -0.7400679 1.5590913 -1.5728607 0.54063404 -0.60306966 -2.8603036 3.5744765
-1.1669668 -1.6027681 1.3087137 -2.846016 -4.551906 -0.16295813 -2.2258341 -1.745112
-0.3981984 -0.45058644 -2.3156536 -2.724554 -0.7097253 0.08456081 0.6170139 0.89374053
-4.1550393 -0.030690247 0.25627196 1.4624676 -2.3991477 0.6278083 0.4609038 -0.7860535
-2.4544907 2.9688706 1.7651995 0.9945587 -0.35157317 2.2038047 -2.376521 0.89265746
4.530892 5.9526434 5.610092 6.9949064 8.116588 7.983503 8.869705 11.437635
2.563779 0.122741796 -0.6245082 0.15445305 -4.536777 -5.241102 1.7767844 -2.0872612
-3.3991044 -3.77295 -3.003786 -3.3905127 -5.4808307 -2.3219192 -1.2915082 0.059939366
-0.42326668 -4.7875233 -0.23785149 -3.5736556 -1.8964444 -0.5773786 -0.3363854 -1.2985289
-2.0331705 -0.6503554 0.31337738 1.585899 -0.7982699 -0.45379522 0.5908963 -0.729404
-0.081541315 1.211176 0.5453283 0.68231046 3.147267 -0.74785364 1.0510386 3.3316896
2.188345 3.883118 -0.5505587 -0.7702734 2.680712 0.11828951 -1.376038 0.48954317
-0.27090377 0.00085422554 -1.1725464 0.6052254 -2.1713307 0.2925597 -4.7945647 4.2415442
1.4679499 -1.3845191 5.10141 2.8595812 -6.7558193 -3.2136655 -5.7300715 -1.5012876
-0.3353875 3.6351037 -1.171315 -0.5247683 -0.3233564 -1.6723037 -1.0709594 -4.6649942
-3.2482226 -3.1576707 4.3325586 -0.4413972 -0.711915 1.6782287 0.87931335 1.2791357
4.1598554 0.3125323 3.266906 2.0395157 0.9205746 1.397987 0.2296623 2.0577188
0.4243712 -1.3256541 -0.38059327 -0.8427923 3.3060122 -2.3044448 -0.82944125 1.1682184
-1.2186255 0.78883594 -1.2442837 -1.5988644 -4.5969825 -10.281748 -4.3407006 -5.5845976
-3.247115 -2.8438866 -3.1201904 1.3592396 1.4196222 -3.9752662 -0.12564111 -3.4429493
-2.4317281 0.739424 -1.5736247 -0.6792231 3.640748 1.774447 2.5199933 -1.6430836
0.18204172 0.7905181 -1.0266001 -2.8669496 -0.88816077 -3.7137783 0.38508108 1.0352004
1.4684619 3.3753333 4.124686 2.0341573 2.6840487 3.2845592 1.0201415 -7.7253213
-1.7391826 -3.877295 -5.3717737 -3.2014115 -1.5184839 -7.9435763 -3.078789 -2.0353255
-0.4194084 3.445344 0.7512343 2.7400036 2.774569 0.4605596 1.6033874 0.2948596
-2.3184443 0.7088695 -1.4483494 -2.455182 -0.24852782 -1.7623068 -4.7652173 0.12121325
-3.758827 -3.5951526 0.84209657 -1.6189429 1.5072775 -1.5529125 -1.770161 -1.3232648
-0.3732198 -1.4673581 -0.22456604 -1.4046788 -1.4811096 0.5649423 -3.6244864 -4.5274477
-3.1793745 -3.7207355 -4.4056854 -1.8555338 -3.9491308 -3.023133 -6.6088295 -0.92871577
00000000: 4eaa ee3f af13 79bf e8d8 3dc0 a7c2 9c3d
00000010: b1c6 8840 1a6e e3be 711b 03bf 0d6f 903f
00000020: 97eb da3f 5690 e5be 2808 d83f c062 0140
00000030: 1a19 743f bcf2 f5bf d04e b5be adf1 313f
00000040: d913 3ebf 05d8 283f 11f4 863e 917b 6e40
00000050: 6cdd 10c0 5c33 143f 2631 c040 8a6e a040
00000060: cab4 293f 1775 3dbf 4e90 c73f 8053 c9bf
00000070: fe66 0a3f c662 1abf 370f 37c0 39c4 6440
00000080: 2b5f 95bf 8127 cdbf ee83 a73f 2025 36c0
00000090: 37a9 91c0 7fde 26be 1174 0ec0 d45f dfbf
000000a0: a9e0 cbbe 44b3 e6be ab33 14c0 185f 2ec0
000000b0: 8fb0 35bf 382e ad3d 9ff4 1d3f 2ecc 643f
000000c0: 15f6 84c0 1d6a fbbc 1436 833e 2332 bb3f
000000d0: a38b 19c0 0bb8 203f 95fb eb3e cd3a 49bf
000000e0: 6016 1dc0 fa01 3e40 0ff2 e13f 669b 7e3f
000000f0: 6601 b4be 230b 0d40 ec18 18c0 3385 643f
00000100: 11fd 9040 0e7c be40 e085 b340 46d6 df40
00000110: 8bdd 0141 db78 ff40 50ea 0d41 8e00 3741
00000120: f514 2440 0d60 fb3d c5df 1fbf f128 1e3e
00000130: 472d 91c0 1cb7 a7c0 ac6d e33f b095 05c0
00000140: ed8a 59c0 0378 71c0 083e 40c0 29fe 58c0
00000150: f762 afc0 539a 14c0 2450 a5bf fb82 753d
00000160: 69b6 d8be 6433 99c0 578f 73be c6b6 64c0
00000170: b1be f2bf 15cf 13bf b53a acbe 3236 a6bf
00000180: 771f 02c0 b17d 26bf 0073 a03e bdfe ca3f
00000190: 6b5b 4cbf d957 e8be fb44 173f 38ba 3abf
000001a0: 22ff a6bd d107 9b3f a39a 0b3f e6ab 2e3f
000001b0: d36c 4940 5673 3fbf 6f88 863f 673a 5540
000001c0: d80d 0c40 0185 7840 6af1 0cbf a330 45bf
000001d0: c990 2b40 c541 f23d 0322 b0bf 67a5 fa3e
000001e0: e6b3 8abe 1bee 5f3a 0016 96bf 0df0 1a3f
000001f0: 15f7 0ac0 63ca 953e 136d 99c0 bbba 8740
00000200: c8e5 bb3f ec37 b1bf c03e a340 6103 3740
00000210: ac2f d8c0 b2ac 4dc0 bf5c b7c0 312a c0bf
00000220: e9b7 abbe 8aa5 6840 a6ed 95bf 3757 06bf
00000230: f88e a5be 0c0e d6bf 3315 89bf a247 95c0
00000240: e1e2 4fc0 4717 4ac0 52a4 8a40 d0fe e1be
00000250: 1040 36bf 33d0 d63f ae1a 613f b8ba a33f
00000260: 891d 8540 3c04 a03e fd14 5140 6d87 0240
00000270: c7aa 6b3f 3df1 b23f 982c 6b3e aab1 0340
00000280: 2f47 d93e 09af a9bf 1fdd c2be 3cc1 57bf
00000290: b495 5340 067c 13c0 4356 54bf 2e88 953f
000002a0: ecfb 9bbf 27f1 493f b044 9fbf 97a7 ccbf
000002b0: 7b1a 93c0 0a82 24c1 05e7 8ac0 06b5 b2c0
000002c0: bbd0 4fc0 3d02 36c0 33b1 47c0 90fb ad3f
000002d0: 2eb6 b53f c36a 7ec0 10a8 00be 4859 5cc0
000002e0: 6fa1 1bc0 e44a 3d3f 896c c9bf 91e1 2dbf
000002f0: 0402 6940 1421 e33f 9247 2140 9050 d2bf
00000300: 2569 3a3e 655f 4a3f a267 83bf 1a7c 37c0
00000310: 815e 63bf 8bae 6dc0 5929 c53e 7281 843f
00000320: 8ff6 bb3f 7605 5840 6dfd 8340 a22f 0240
00000330: 74c7 2b40 3836 5240 ff93 823f d535 f7c0
00000340: 899d debf 9a25 78c0 92e5 abc0 ede3 4cc0
00000350: ae5d c2bf c731 fec0 e10a 45c0 c642 02c0
00000360: b3bc d6be 8480 5c40 e450 403f 385c 2f40
00000370: 8a92 3140 78ce eb3e cc3b cd3f d6f7 963e
00000380: 6461 14c0 7978 353f 8363 b9bf b421 1dc0
00000390: 147e 7ebe 4593 e1bf a97c 98c0 a73e f83d
000003a0: 9f90 70c0 fb16 66c0 a493 573f 8539 cfbf
000003b0: 78ee c03f d6c5 c6bf a394 e2bf be60 a9bf
000003c0: aa16 bfbe 64d2 bbbf a4f4 65be 84cc b3bf
000003d0: 0095 bdbf 0fa0 103f 96f7 67c0 dae0 90c0
000003e0: df7a 4bc0 8820 6ec0 60fb 8cc0 2282 edbf
000003f0: 8fbe 7cc0 037b 41c0 887b d3c0 51c0 6dbf

layer2.0.bn2.weight f4 [32]
1.6133237 1.0702327 1.3072551 1.0695549 1.3639002 1.3708999 1.0961978 2.2009902
1.3503336 0.9560027 1.4754082 1.000815 1.2280296 0.9789914 1.0406195 1.2983127
1.0560046 1.348551 0.94058716 1.0611123 1.4305904 1.2196865 1.2940335 1.3043842
0.8900281 0.7957982 1.0498668 1.3097684 1.3416184 1.453606 1.3937421 0.99984074
00000000: 6481 ce3f 63fd 883f 2354 a73f 2de7 883f
00000010: 4894 ae3f a679 af3f 3650 8c3f 06dd 0c40
00000020: bbd7 ac3f 98bc 743f 2dda bc3f b51a 803f
00000030: 1330 9d3f 2e9f 7a3f 0533 853f 1c2f a63f
00000040: 292b 873f 529d ac3f 52ca 703f 87d2 873f
00000050: 961d b73f b01e 9c3f e4a2 a53f 10f6 a63f
00000060: e2d8 633f 6eb9 4b3f 0962 863f 7ea6 a73f
00000070: 27ba ab3f c30f ba3f 2466 b23f 90f5 7f3f

layer2.0.bn2.bias f4 [32]
-1.1805655 0.16755016 -0.40306512 -0.05335466 -0.20943736 2.4574914 -0.17574242 -1.6160617
-0.07345615 0.3806506 -0.21537492 0.36050758 2.850723 1.0679908 0.26947317 0.19286467
1.2522703 -0.08752855 -0.119291924 2.0754054 -0.30150872 0.011801978 0.3855521 0.08375897
0.55832887 1.2987384 0.13995083 0.016097067 -0.22224918 0.26129636 -0.9498263 0.3947948
00000000: c51c 97bf 4592 2b3e 8d5e cebe 6a8a 5abd
00000010: bf76 56be 8a47 1d40 d2f5 33be 1cdb cebf
00000020: 2e70 96bd a3e4 c23e 3e8b 5cbe 7394 b83e
00000030: 3f72 3640 ecb3 883f 63f8 893e 517e 453e
00000040: 654a a03f 2b42 b3bd 534f f4bd 71d3 0440
00000050: 5a5f 9abe 155d 413c 1667 c53e d389 ab3d
00000060: a4ee 0e3f 0f3d a63f 454f 0f3e ffdd 833c
00000070: 4a95 63be a3c8 853e d127 73bf 8b22 ca3e

layer2.0.bn2.running_mean f4 [32]
136.63564 -297.77927 19.169237 -8.465925 -50.99185 393.11053 -205.08748 -171.81601
-261.8784 -26.038534 27.062437 -88.50756 310.5626 -427.05673 -37.5361 -109.93393
-215.12813 27.276604 9.550556 -25.53349 -56.52608 -41.83155 -250.05573 -273.9633
-82.64099 -171.24289 -49.330685 14.947387 -72.861725 -279.313 238.70341 58.738926
00000000: b9a2 0843 bfe3 94c3 995a 9941 6e74 07c1
00000010: a8f7 4bc2 268e c443 6516 4dc3 e6d0 2bc3
00000020: 6ff0 82c3 eb4e d0c1 df7f d841 df03 b1c2
00000030: 0348 9b43 4387 d5c3 f724 16c2 2cde dbc2
00000040: cd20 57c3 7c36 da41 14cf 1841 9644 ccc1
00000050: b51a 62c2 8253 27c2 440e 7ac3 4dfb 88c3
00000060: 3048 a5c2 2e3e 2bc3 9f52 45c2 7f28 6f41
00000070: 34b9 91c2 10a8 8bc3 13b4 6e43 a9f4 6a42

layer2.0.bn2.running_var f4 [32]
22702.414 14114.258 23842.4 19133.121 26770.27 19500.328 14146.348 17380.842
12150.313 13420.678 21366.793 10111.537 17322.941 12407.457 10251.358 15301.284
13427.287 23435.012 8748.813 10808.721 20008.184 5969.967 23643.938 16549.473
5706.4893 9875.07 20525.05 16489.568 12934.669 13368.6 24763.87 11664.6455
00000000: d45c b146 0889 5c46 cd44 ba46 3e7a 9546
00000010: 8a24 d146 a858 9846 6409 5d46 afc9 8746
00000020: 41d9 3d46 b6b2 5146 96ed a646 26fe 1d46
00000030: e255 8746 d4dd 4146 6f2d 2046 2315 6f46
00000040: 26cd 5146 0616 b746 41b3 0846 e2e2 2846
00000050: 5e50 9c46 bc8f ba45 e0b7 b846 f24a 8146
00000060: ea53 b245 484c 1a46 1a5a a046 23d3 8046
00000070: ad1a 4a46 66e2 5046 bd77 c146 9542 3646
