Our_code/Pytorch/Advanced_experiments/trained_students/ablation_beta0t-40-2-student-16-1.pth (torch_old, 718602 bytes, 69 tensors)

conv1.weight f4 [16, 3, 3, 3]
-0.5876043 -0.72098553 -0.916123 2.540651 3.230138 1.0258185 0.67160696 -4.931363
-0.023059113 -0.5306939 0.61809605 -0.6800993 1.8024306 2.9579036 1.5100905 0.094496384
-5.8002667 -0.59375495 -0.1304522 0.14645474 -0.46571812 0.7538372 2.324051 0.27817667
0.15249793 -2.981689 0.5642604 0.22639534 0.7217224 0.85043776 0.4733705 2.2582998
2.5637145 0.73359424 2.464628 2.1651857 0.15080318 -1.8554758 -0.67978716 -1.4344939
-5.2784433 -3.9040854 -0.7797055 -3.9739478 -2.9702306 -0.636023 1.2769607 0.5148418
1.2670279 2.4899564 1.692299 0.44787595 2.0418556 1.4165553 -1.070837 -2.8665245
-2.641437 1.949005 -3.4380198 -0.917315 2.8507273 5.127976 1.8868614 -0.8858038
-1.1465695 0.4540453 0.04574653 -3.52693 1.0492535 -0.13698998 1.7399863 1.9549221
1.7392131 3.424805 3.686403 1.0445137 -0.5542877 1.8688089 -4.0744524 -4.1840787
-2.4786928 1.4244084 2.5842261 1.1819285 0.49461898 3.3332698 1.3905509 -2.3370147
-5.30541 -2.606874 0.54403216 1.2859098 -0.4248713 0.1426502 2.85683 0.89410716
-1.2014124 -3.1274717 -0.94151217 -0.92267305 0.5344274 -1.5321056 0.8653656 2.9293704
1.2323971 0.5135544 -2.5866833 -0.6293094 -0.45430648 -3.8915234 -0.4625846 1.9517614
2.669468 -1.4809587 -0.45932344 2.2249458 0.82962054 -1.0493436 -2.953065 0.58590615
3.2630382 2.3738444 -2.4690042 -0.038649827 0.53330517 -1.0126401 0.40443575 -1.7533413
-0.6655671 2.662023 3.075801 -3.1381688 -0.2103876 1.2525795 -1.4965397 1.2768803
2.90102 -1.0948877 4.886531 4.6505075 -2.1168506 2.0259318 1.0896086 -5.196996
0.8321331 -0.16445819 -0.9057065 0.28540477 -1.3728908 -2.354562 0.052583165 0.34787786
-1.178596 -0.8843156 -0.4867744 0.69804686 -2.7189147 -1.4911062 1.5898112 -1.9598541
0.94597083 2.1776211 1.3198725 0.24153207 -3.496547 7.245987 -0.42975655 -3.3823283
2.7751982 0.06771697 -2.612546 -0.87230974 0.10648524 0.90756136 1.9767541 -1.4068767
0.513805 -0.33994368 -0.9759031 -0.5733605 -2.203178 -0.6159827 2.3187885 -2.915366
-0.2720115 3.9120371 -2.856623 0.41263357 2.8818216 -1.9639945 0.5365153 0.058599073
-0.98615414 3.765925 3.7287016 0.59303695 5.024552 4.259944 -0.27402988 0.54098547
0.11802896 0.10905345 1.2426796 1.1847116 0.058452886 1.1112007 1.1305442 2.0170596
0.42178923 -0.29946196 -0.35310215 -4.279098 -4.5141106 -0.35569596 -4.1985755 -3.6328144
0.97167075 0.528253 -0.42318967 -0.6711033 0.82434267 0.6596136 0.66224366 -0.056157522
-0.61578155 -1.1223718 -0.046560016 -0.45642942 -4.1584487 0.17288324 2.37148 -1.6109403
1.1073676 0.9831078 -2.446734 -1.058868 -1.600672 -3.8334415 2.0552323 2.930914
0.1353848 3.769188 2.0677888 0.02613595 2.2845762 -1.1091002 -0.14017445 -5.707757
3.9181066 -0.01588941 0.8200771 0.37546456 -0.080043904 1.8927084 -0.6435019 0.36725196
00000000: 3c6d 16bf 8292 38bf 0987 6abf 079a 2240
00000010: 95ba 4e40 054e 833f 6fee 2b3f bacd 9dc0
00000020: 77e6 bcbc 8edb 07bf 8b3b 1e3f fd1a 2ebf
00000030: 0cb6 e63f 4b4e 3d40 a54a c13f 5287 c13d
00000040: c99b b9c0 5300 18bf 4395 05be 3bf8 153e
00000050: 9b72 eebe 7afb 403f 40bd 1440 2c6d 8e3e
00000060: 6b28 1c3e fed3 3ec0 5f73 103f 2ed4 673e
00000070: cdc2 383f 4ab6 593f 9e5d f23e fc87 1040
00000080: e613 2440 d5cc 3b3f 77bc 1d40 6792 0a40
00000090: 266c 1a3e 3b80 edbf 8806 2ebf 7f9d b7bf
000000a0: 02e9 a8c0 89dc 79c0 c89a 47bf 2955 7ec0
000000b0: 4218 3ec0 67d2 22bf 7373 a33f accc 033f
000000c0: f82d a23f 725b 1f40 419d d83f ff4f e53e
000000d0: c3ad 0240 af51 b53f 3011 89bf 2375 37c0
000000e0: 4e0d 29c0 ff78 f93f 8408 5cc0 28d5 6abf
000000f0: 5172 3640 6118 a440 ad84 f13f 0ac4 62bf
00000100: cac2 92bf a078 e83e b760 3b3d 39b9 61c0
00000110: f04d 863f 1a47 0cbe dfb7 de3f e33a fa3f
00000120: 899e de3f 0130 5b40 07ee 6b40 a0b2 853f
00000130: cce5 0dbf 2135 ef3f ea61 82c0 f9e3 85c0
00000140: e7a2 1ec0 0453 b63f f663 2540 6f49 973f
00000150: b33e fd3e 4b54 5540 92fd b13f a691 15c0
00000160: ebc5 a9c0 06d7 26c0 b145 0b3f b198 a43f
00000170: bb88 d9be e512 123e 4dd6 3640 35e4 643f
00000180: e2c7 99bf 7f28 48c0 f106 71bf 4d34 6cbf
00000190: 3cd0 083f 091c c4bf 9a88 5d3f ce7a 3b40
000001a0: 30bf 9d3f 4d78 033f 388c 25c0 6c1a 21bf
000001b0: dc9a e8be b80e 79c0 e4d7 ecbe 51d3 f93f
000001c0: 90d8 2a40 0e90 bdbf 712c ebbe 8365 0e40
000001d0: 0362 543f e450 86bf 04ff 3cc0 f2fd 153f
000001e0: 9ed5 5040 11ed 1740 2a04 1ec0 484f 1ebd
000001f0: b086 083f 319e 81bf 3412 cf3e 7d6d e0bf
00000200: 9b62 2abf 965e 2a40 ecd9 4440 c2d7 48c0
00000210: d96f 57be 8654 a03f 9d8e bfbf d070 a33f
00000220: 50aa 3940 4825 8cbf 765e 9c40 f5d0 9440
00000230: 7b7a 07c0 dea8 0140 4b78 8b3f cb4d a6c0
00000240: ad06 553f ba67 28be 62dc 67bf 9320 923e
00000250: e3ba afbf 25b1 16c0 7261 573d 0c1d b23e
00000260: 3cdc 96bf 8262 62bf 7f3a f9be 33b3 323f
00000270: b302 2ec0 91dc bebf ef7e cb3f 80dc fabf
00000280: 252b 723f 255e 0b40 95f1 a83f 2f54 773e
00000290: 6dc7 5fc0 20df e740 0d09 dcbe 1178 58c0
000002a0: d99c 3140 32af 8a3d f433 27c0 b14f 5fbf
000002b0: ef14 da3d f155 683f 4706 fd3f 8914 b4bf
000002c0: b988 033f 190d aebe c9d4 79bf c1c7 12bf
000002d0: de00 0dc0 0bb1 1dbf 0867 1440 5b95 3ac0
000002e0: 1745 8bbe d15e 7a40 e9d2 36c0 b544 d33e
000002f0: c46f 3840 2c64 fbbf 1159 093f 9505 703d
00000300: 9974 7cbf ea04 7140 0ca3 6e40 45d1 173f
00000310: 21c9 a040 7651 8840 a54d 8cbe 067e 0a3f
00000320: 2bb9 f13d 6a57 df3d 2010 9f3f a1a4 973f
00000330: 4b6c 6f3d d33b 8e3f acb5 903f 8117 0140
00000340: c2f4 d73e 1453 99be cec9 b4be 5fee 88c0
00000350: 9873 90c0 c81d b6be bb5a 86c0 0880 68c0
00000360: 6abf 783f 973b 073f 51ac d8be 6dcd 2bbf
00000370: 1f08 533f 70dc 283f cd88 293f 6e05 66bd
00000380: dca3 1dbf e1a9 8fbf b7b5 3ebd 1eb1 e9be
00000390: 0312 85c0 4e08 313e 54c6 1740 4b33 cebf
000003a0: 39be 8d3f f4ac 7b3f 4a97 1cc0 fd88 87bf
000003b0: d2e2 ccbf 1b57 75c0 ed88 0340 1894 3b40
000003c0: 50a2 0a3e 603a 7140 a756 0440 0f1b d63c
000003d0: 7f36 1240 fff6 8dbf e489 0fbe f2a5 b6c0
000003e0: 42c2 7a40 822a 82bc 93f0 513f e43c c03e
000003f0: 0fee a3bd 4544 f23f 8abc 24bf 7308 bc3e

layer1.0.bn1.weight f4 [16]
2.8835013 3.538391 2.3396566 2.1404598 2.563335 0.06652895 2.1152227 2.5373325
1.4473982 3.9851449 2.5465574 2.3068593 2.1344717 3.122171 2.27692 0.17152148
00000000: 498b 3840 0075 6240 efbc 1540 4bfd 0840
00000010: ae0d 2440 5540 883d cf5f 0740 a863 2240
00000020: 5844 b93f 9d0c 7f40 ccfa 2240 95a3 1340
00000030: 2f9b 0840 a6d1 4740 0fb9 1140 54a3 2f3e

layer1.0.bn1.bias f4 [16]
1.943941 4.387597 4.580666 0.76250166 2.8487797 -0.73577857 2.907246 -0.8601807
1.280538 2.2932394 9.586143 -2.0925372 1.6334163 3.1341238 2.3536737 -1.9321761
00000000: 0fd3 f83f 3267 8c40 d194 9240 4f33 433f
00000010: 6852 3640 fc5b 3cbf 5210 3a40 cd34 5cbf
00000020: abe8 a33f 6fc4 1240 d760 1941 21ec 05c0
00000030: c913 d13f 7c95 4840 97a2 1640 8c51 f7bf

layer1.0.bn1.running_mean f4 [16]
-0.24965942 0.525568 -0.24016032 -0.29143783 -0.089415535 -0.18804744 -0.3451837 -2.186066
-0.10697512 -0.17814822 -0.24833179 0.38235405 -0.02452282 -1.2733002 -0.4475615 4.25452
00000000: b8a6 7fbe a08b 063f 96ec 75be 5737 95be
00000010: 7e1f b7bd 828f 40be ebbb b0be 81e8 0bc0
00000020: c615 dbbd 7d6c 36be b04a 7ebe e9c3 c33e
00000030: 15e4 c8bc 80fb a2bf c826 e5be 0725 8840

layer1.0.bn1.running_var f4 [16]
33.48598 59.713493 28.520073 58.205162 54.19685 52.39437 32.034317 141.22223
54.65748 23.84498 44.159958 79.15523 77.15275 47.062935 42.288826 171.89323
00000000: a5f1 0542 9eda 6e42 1c29 e441 16d2 6842
00000010: 93c9 5842 d693 5142 2423 0042 e438 0d43
00000020: 42a1 5a42 85c2 be41 cca3 3042 7a4f 9e42
00000030: 354e 9a42 7240 3c42 c227 2942 abe4 2b43

layer1.0.conv1.weight f4 [16, 16, 3, 3]
-2.8560555 1.7948357 -0.40991646 -0.70370156 0.63503516 -4.0760894 -2.060981 -0.8912652
-1.0552632 -2.5718138 -1.0531387 -2.619044 1.0359197 2.3344893 -1.6950989 2.1955295
1.6981055 -2.5079176 -3.4861562 -6.3066683 -3.6455579 0.27676055 4.728934 -0.9579787
2.9815369 7.5895324 2.2985425 1.8690735 4.1148386 1.6901386 -0.42380875 -3.835693
-0.1362116 -3.3593624 -6.0689044 -3.3918982 1.7295798 1.8470739 0.32917604 1.2506523
-4.9412217 -1.5571414 1.987931 2.5319452 1.0699301 -0.43195826 -0.4183555 -0.36093888
0.27930543 -0.43805894 0.030545622 0.30992192 -0.01678248 0.51807594 5.1001306 0.43141204
-5.8456535 6.1235504 1.6338646 -9.29193 1.6461806 -0.7066535 -1.599163 5.9484143
3.6011848 2.0336056 1.6160504 0.6640331 0.19659054 1.0478914 -0.0384543 0.42249873
1.4933043 -2.7012126 -0.3200439 -3.7945032 -3.392704 1.2787393 -2.338554 0.6252285
1.1891505 -2.43288 -5.0703278 3.1464047 -1.1068095 1.502677 1.2308959 -0.5867942
-2.9160166 1.6815977 1.8658367 1.1902112 3.4632561 -5.70075 -1.5241646 -2.9167335
-2.805656 -4.654433 -3.7156932 5.063691 0.8945239 -1.8450679 3.8242729 -1.8589411
-5.1804857 2.6920598 -1.056057 -2.6289191 -3.3162777 0.008035548 1.3988467 1.0500036
-2.2921991 5.3677063 -0.7680858 -0.86363524 0.4254839 -1.8127453 -1.1761565 0.76253605
-1.2672127 -2.0254838 1.2251065 -1.5650388 -1.1262916 1.324521 -6.0578637 -3.047904
6.2715926 -5.8456035 -2.4948852 3.700267 1.9542235 1.9405711 1.3050557 1.2560887
-0.11371097 0.56858134 1.192829 1.1235256 0.79312307 0.95945376 -0.117370285 0.87187344
0.5132579 -2.8019054 -1.8575499 -2.002766 -2.6296182 -0.60728216 -1.3933827 -2.0858495
-2.6553588 5.5190535 -2.0649288 -5.6810474 7.8088727 -0.93130606 -5.617166 8.245259
1.5857863 -2.398951 0.1890775 1.195911 3.4453213 0.29163998 0.77581096 1.4015641
-4.7780423 -2.9582794 -0.63781893 2.4757614 1.3887577 1.7543274 -3.4283562 -2.3113697
0.810085 2.072231 0.61705846 2.6634555 -0.0049969484 -0.029671967 0.97497433 -0.9212777
1.4190041 1.740291 1.140524 1.4166718 -2.1306396 -0.7577871 -0.8479305 0.29559353
-0.6854171 -0.17098273 0.7796397 -0.19409741 0.52789867 1.0973368 -0.42694953 -0.5535487
1.0141715 -2.829587 -2.5477197 -0.23352093 -0.2519902 0.43800056 2.3705254 1.1169566
-2.2160814 -3.2965138 2.4904044 0.16803865 0.6284474 -0.21062997 -1.1273326 2.3132617
1.342938 2.128018 2.2361634 3.036087 1.7934471 -0.7253474 0.84686995 1.213505
-0.6911501 0.117022075 0.6135595 -1.078208 -0.51002043 -2.3289876 -2.2063692 -4.0243664
-3.492776 -1.3032693 0.7493224 0.6945038 -1.1857873 -1.8330289 -2.4344697 -1.8220552
-2.0483925 -1.6350625 3.005544 -0.5261564 -2.0690017 1.236416 -0.6725877 -4.0059266
-1.0013852 -1.4497908 -0.6782494 -0.29599395 -1.5879302 4.1715817 1.6067703 -3.4547472
00000000: 9dc9 36c0 2dbd e53f 92e0 d1be c925 34bf
00000010: aa91 223f 536f 82c0 1de7 03c0 f529 64bf
00000020: dd12 87bf 9998 24c0 40cd 86bf 6b9e 27c0
00000030: 0499 843f 4668 1540 00f9 d8bf 8e83 0c40
00000040: 855b d93f b981 20c0 2f1d 5fc0 3ad0 c9c0
00000050: d250 69c0 8fb3 8d3e 6d53 9740 183e 75bf
00000060: 80d1 3e40 73dd f240 521b 1340 cd3d ef3f
00000070: c2ac 8340 7656 d83f 76fd d8be fe7b 75c0
00000080: 0e7b 0bbe cbff 56c0 7734 c2c0 dc14 59c0
00000090: df62 dd3f eb6c ec3f c389 a83e 6015 a03f
000000a0: 7d1e 9ec0 6950 c7bf 8674 fe3f 640b 2240
000000b0: 78f3 883f a229 ddbe b132 d6be fbcc b8be
000000c0: 1f01 8f3e 4349 e0be d03a fa3c 16ae 9e3e
000000d0: 697b 89bc a0a0 043f 4534 a340 0ae2 dc3e
000000e0: 980f bbc0 20f4 c340 7a22 d13f bfab 14c1
000000f0: 0cb6 d23f 3ee7 34bf 60b1 ccbf 6959 be40
00000100: d079 6640 9826 0240 bdda ce3f 13fe 293f
00000110: 084f 493e 4e21 863f 4282 1dbd c151 d83e
00000120: 9824 bf3f abe0 2cc0 cbdc a3be 24d9 72c0
00000130: 1022 59c0 bbad a33f deaa 15c0 fa0e 203f
00000140: 1536 983f 4eb4 1bc0 2040 a2c0 b25e 4940
00000150: efab 8dbf b857 c03f ff8d 9d3f 2538 16bf
00000160: 04a0 3ac0 983e d73f bdd3 ee3f d758 983f
00000170: fda5 5d40 8b6c b6c0 d317 c3bf c3ab 3ac0
00000180: de8f 33c0 1df1 94c0 ebcd 6dc0 c209 a240
00000190: 85ff 643f 2f2b ecbf e3c0 7440 c8f1 edbf
000001a0: 8ac6 a5c0 b54a 2c40 e02c 87bf 3640 28c0
000001b0: e53d 54c0 88a7 033c 690d b33f 8566 863f
000001c0: 64b3 12c0 40c4 ab40 45a1 44bf 3317 5dbf
000001d0: 07d9 d93e 0a08 e8bf 4c8c 96bf 9035 433f
000001e0: 0734 a2bf 87a1 01c0 4ad0 9c3f 3153 c8bf
000001f0: 532a 90bf e789 a93f 05da c1c0 dc10 43c0
00000200: e3b0 c840 2f0f bbc0 33ac 1fc0 2dd1 6c40
00000210: ff23 fa3f a264 f83f 110c a73f 84c7 a03f
00000220: 4ce1 e8bd 8c8e 113f 9fae 983f b0cf 8f3f
00000230: 1d0a 4b3f c39e 753f d55f f0bd 1933 5f3f
00000240: df64 033f 6b52 33c0 32c4 edbf 512d 00c0
00000250: aa4b 28c0 d876 1bbf 5d5a b2bf 8f7e 05c0
00000260: 66f1 29c0 169c b040 cb27 04c0 24cb b5c0
00000270: 49e2 f940 136a 6ebf d3bf b3c0 95ec 0341
00000280: 0cfb ca3f 6a88 19c0 889d 413e 9d13 993f
00000290: 2580 5c40 d651 953e 8c9b 463f 7466 b33f
000002a0: b9e5 98c0 7354 3dc0 1a48 23bf e072 1e40
000002b0: d0c2 b13f cd8d e03f 306a 5bc0 7bed 13c0
000002c0: bb61 4f3f 6f9f 0440 8bf7 1d3f 0e76 2a40
000002d0: 71bd a3bb a012 f3bc eb97 793f dbd8 6bbf
000002e0: eda1 b53f dbc1 de3f b1fc 913f 8055 b53f
000002f0: 665c 08c0 56fe 41bf f911 59bf 0958 973e
00000300: 7f77 2fbf 1916 2fbe 7896 473f 79c1 46be
00000310: 5e24 073f 8875 8c3f 2199 dabe 5eb5 0dbf
00000320: 5fd0 813f f417 35c0 d70d 23c0 1c20 6fbe
00000330: dc04 81be 9c41 e03e b0b6 1740 6ff8 8e3f
00000340: 47d4 0dc0 15fa 52c0 c962 1f40 5312 2c3e
00000350: eee1 203f 62af 57be 6f4c 90bf 7b0c 1440
00000360: 64e5 ab3f 7231 0840 4d1d 0f40 404f 4240
00000370: ad8f e53f 5eb0 39bf 78cc 583f 2254 9b3f
00000380: 37ef 30bf 45a9 ef3d 3c12 1d3f b802 8abf
00000390: b390 02bf 220e 15c0 2735 0dc0 9cc7 80c0
000003a0: a489 5fc0 87d1 a6bf 98d3 3f3f 00cb 313f
000003b0: e1c7 97bf b1a0 eabf 5ace 1bc0 1b39 e9bf
000003c0: dd18 03c0 ba49 d1bf d55a 4040 30b2 06bf
000003d0: 866a 04c0 e142 9e3f b52e 2cbf 8d30 80c0
000003e0: 642d 80bf bf92 b9bf c1a1 2dbf 858c 97be
000003f0: 4c41 cbbf 997d 8540 a6aa cd3f 941a 5dc0

layer1.0.bn2.weight f4 [16]
0.30353045 0.27144057 0.17276782 0.041450493 0.065072015 0.08432804 0.30850682 0.33727965
0.2604144 -0.0113118915 0.034113523 0.5776833 0.7266267 0.11486106 0.48641855 0.088039316
00000000: 5868 9b3e 42fa 8a3e 0cea 303e fec7 293d
00000010: 7a44 853d 2eb4 ac3d 9bf4 9d3e ebaf ac3e
00000020: 0955 853e 8355 39bc 9fba 0b3d 0ee3 133f
00000030: 3504 3a3f 473c eb3d da0b f93e f54d b43d

layer1.0.bn2.bias f4 [16]
0.7518518 0.4319824 -1.4731485 -0.4004201 -0.7226916 -0.99848634 0.4465232 0.720054
0.6264523 -0.18599798 -0.58395386 0.30307692 -0.6543452 -1.4652803 -0.6164357 -0.75367224
00000000: 5c79 403f cc2c dd3e 2190 bcbf dd03 cdbe
00000010: 5102 39bf cd9c 7fbf b09e e43e 7555 383f
00000020: 2e5f 203f 4176 3ebe 007e 15bf e62c 9b3e
00000030: 2b83 27bf 4e8e bbbf bbce 1dbf aaf0 40bf

layer1.0.bn2.running_mean f4 [16]
-199.3723 -18.553604 -13.773505 -61.020832 12.361049 -137.85928 -267.4507 -165.5274
-50.541943 -74.17764 -183.19292 -203.88966 -130.15057 21.178894 25.569183 -79.696785
00000000: 4f5f 47c3 c86d 94c1 4760 5cc1 5515 74c2
00000010: dbc6 4541 fadb 09c3 b1b9 85c3 0487 25c3
00000020: f32a 4ac2 f45a 94c2 6331 37c3 c1e3 4bc3
00000030: 8c26 02c3 606e a941 b08d cc41 c164 9fc2

layer1.0.bn2.running_var f4 [16]
10963.729 7576.1284 2887.6096 265.42834 516.248 2090.1475 12472.004 8072.666
5592.8726 1178.641 1465.0631 13865.669 10491.1 681.7476 10031.962 445.76416
00000000: ea4e 2b46 07c1 ec45 c179 3445 d4b6 8443
00000010: df0f 0144 5ca2 0245 04e0 4246 5445 fc45
00000020: fbc6 ae45 8354 9344 0522 b744 ada6 5846
00000030: 66ec 2346 d96f 2a44 d9bf 1c46 d0e1 de43

layer1.0.conv2.weight f4 [16, 16, 3, 3]
0.26333737 0.70508057 -1.8177431 -1.9993504 -2.2736604 2.8066528 1.8164554 4.0552683
-0.8202184 -0.7102175 4.6075172 1.1818156 0.13988957 -1.2312558 -4.232011 0.3554934
-0.8642393 2.2049463 -0.83689374 0.34669054 -0.53471303 0.009024314 -0.81173414 -1.3465853
-0.5698578 -0.840117 0.1517958 0.1616452 -0.122472845 0.22190896 0.037211537 -0.4851487
-0.100171804 -0.3256056 -0.13940635 -0.30024126 -0.23091987 -0.055806424 -0.05106506 0.58118725
0.59702355 0.44911093 -0.42368189 0.657231 1.5137854 -1.0125375 -0.21601528 -0.93937427
1.526289 0.78197646 -0.9315411 -1.1997591 -0.506431 -1.2918125 0.5386111 0.8588839
-0.35827363 -0.5996347 0.017443176 1.2521328 2.3434627 0.8473307 0.12980175 -1.7994406
2.1882448 0.68248814 3.3323495 4.7473507 -3.645996 -1.3236662 -0.44807014 1.9291731
-1.732227 3.1035469 1.3321941 0.3444281 1.0035938 -0.4832935 1.3836972 -0.5074505
-0.15656707 0.30920485 0.09127237 0.1926914 -0.12562484 -0.06330068 -0.878741 -0.6403471
0.25857383 0.13657923 0.9953413 0.75695676 0.27959839 -0.007201309 -0.7118575 -1.3153312
-1.2243966 -0.61096066 0.15091847 -1.657197 -0.14691998 0.36859465 3.3985488 5.7852554
-3.8316102 1.9986165 -6.425317 0.16528201 -1.8874106 -0.507944 2.0301228 -2.2889524
-1.7253425 0.12759145 -0.72837764 0.49732015 6.6115055 -0.3953506 -0.94669694 -1.0038304
-0.23073445 0.033002656 -0.05288525 -1.4844544 -0.8960529 -0.3704348 -0.22558768 0.019672887
-0.040592905 -0.36777836 -0.90101033 -0.008319031 -1.0099906 -2.8871944 -0.31560966 0.10225325
-0.55195975 -0.774119 0.4335326 0.0068127513 -0.52339876 0.4348722 1.0740008 0.75103664
-0.3744701 -0.7267062 3.285054 1.4115459 2.4419901 3.4437745 0.5259322 0.36020982
1.1933587 -3.6227014 -1.6630074 3.021429 -4.6752615 -0.8368227 3.787366 -3.6854436
-0.38247782 1.5015069 0.44494927 0.29148987 0.6051383 0.060882706 -0.67459524 -1.2007853
0.9271842 0.18535267 0.019817535 0.017771538 0.024484938 0.1083712 0.02876522 0.13976566
0.19491367 0.024649814 0.15525045 0.43196747 0.3004753 0.38520667 0.19887957 0.43543994
0.39097205 0.5334311 0.80301404 -0.039576724 -0.03629492 0.829247 -0.17572857 -1.2463865
-0.67119575 0.43911463 0.18563923 -0.24994944 -1.1538604 -1.1155828 2.429494 2.0534544
1.9985875 0.745612 1.7403312 3.2978082 0.6734013 2.2704587 2.3777606 2.0509534
0.71508217 -0.018850163 2.2376275 -1.5743388 -2.6262677 0.47899932 -5.1644855 -3.9846249
-2.0994122 -4.919144 -2.5593426 -1.5419358 -2.9517171 -1.0633568 5.1700807 5.1401715
5.497317 -0.13371064 -0.005566755 -0.06085626 -0.15522224 0.46070802 0.37560368 -0.38162908
-0.31724644 -0.3164207 1.2164625 -0.8753609 0.40816677 0.03472173 -0.54726243 -1.0988438
-0.54567856 -0.7732717 -1.6301532 -0.13010271 -0.17033829 -0.1434056 -1.0189224 0.5629674
1.4481068 1.8605928 0.079947874 0.92351687 0.06519589 0.15696582 1.269662 -0.34369367
00000000: 28d4 863e 2980 343f ceab e8bf b7ea ffbf
00000010: a783 11c0 33a0 3340 9c81 e83f c2c4 8140
00000020: d5f9 51bf d0d0 35bf c870 9340 bc45 973f
00000030: 363f 0f3e ca99 9dbf a26c 87c0 3b03 b63e
00000040: c93e 5dbf d71d 0d40 ab3e 56bf 6c81 b13e
00000050: f4e2 08bf b7da 133c cfcd 4fbf e85c acbf
00000060: 33e2 11bf e811 57bf 5c70 1b3e 5286 253e
00000070: 0bd3 fabd 1a3c 633e 206b 183d 6965 f8be
00000080: e026 cdbd c7b5 a6be 8ac0 0ebe 39b9 99be
00000090: 4276 6cbe 4795 64bd 9929 51bd b0c8 143f
000000a0: 89d6 183f def1 e53e d5ec d8be 4a40 283f
000000b0: b8c3 c13f d49a 81bf 1c33 5dbe d57a 70bf
000000c0: 705d c33f 9c2f 483f 7a79 6ebf b591 99bf
000000d0: 76a5 01bf 1d5a a5bf 6be2 093f d1df 5b3f
000000e0: a46f b7be a981 19bf fee4 8e3c e345 a03f
000000f0: 4bfb 1540 aaea 583f c0ea 043e 1254 e6bf
00000100: 340c 0c40 8bb7 2e3f 3745 5540 4cea 9740
00000110: 0058 69c0 e56d a9bf 7369 e5be 25ef f63f
00000120: 9db9 ddbf 83a0 4640 5685 aa3f e158 b03e
00000130: c375 803f 3f72 f7be fd1c b13f 47e8 01bf
00000140: 1e53 20be 1950 9e3e 02ed ba3d e550 453e
00000150: cca3 00be c9a3 81bd 2cf5 60bf caed 23bf
00000160: ca63 843e 6ddb 0b3e b0ce 7e3f ebc7 413f
00000170: 8527 8f3e f5f8 ebbb 4b3c 36bf c65c a8bf
00000180: 07b9 9cbf eb67 1cbf 5f8a 1a3e 081f d4bf
00000190: 3172 16be 70b8 bc3e d381 5940 d020 b940
000001a0: 1a39 75c0 aad2 ff3f 329c cdc0 b03f 293e
000001b0: ac96 f1bf 9e08 02bf 88ed 0140 327e 12c0
000001c0: 06d8 dcbf 55a7 023e f576 3abf bfa0 fe3e
000001d0: 7491 d340 656b cabe bb5a 72bf 847d 80bf
000001e0: a745 6cbe cb2d 073d 349e 58bd 9a02 bebf
000001f0: b963 65bf a1a9 bdbe 7500 67be 0929 a13c
00000200: bf44 26bd 724d bcbe 9da8 66bf 8c4c 08bc
00000210: 5f47 81bf cbc7 38c0 9797 a1be 276a d13d
00000220: 3c4d 0dbf aa2c 46bf fcf7 dd3e 803d df3b
00000230: 76fd 05bf 92a7 de3e dc78 893f f043 403f
00000240: 8cba bfbe 6b09 3abf 533e 5240 89ad b43f
00000250: 9149 1c40 cd66 5c40 7ea3 063f 6c6d b83e
00000260: fabf 983f 57da 67c0 6ddd d4bf 185f 4140
00000270: be9b 95c0 033a 56bf 3464 7240 4fde 6bc0
00000280: 22d4 c3be 6131 c03f 64d0 e33e 293e 953e
00000290: 58ea 1a3f 2560 793d 46b2 2cbf 55b3 99bf
000002a0: f25b 6d3f 17cd 3d3e 6258 a23c 9e95 913c
000002b0: a394 c83c b8f1 dd3d 0aa5 eb3c bb1e 0f3e
000002c0: 7397 473e 68ee c93c f9f9 1e3e d72a dd3e
000002d0: e6d7 993e cf39 c53e 16a7 4b3e fcf1 de3e
000002e0: 7d2d c83e f18e 083f 5492 4d3f 341b 22bd
000002f0: fba9 14bd 8849 543f 31f2 33be 9889 9fbf
00000300: 7cd3 2bbf a2d3 e03e 3618 3e3e bff2 7fbe
00000310: b3b1 93bf 6bcb 8ebf d47c 1b40 cc6b 0340
00000320: b7d1 ff3f 6ee0 3e3f 2cc3 de3f 4a0f 5340
00000330: 0764 2c3f 324f 1140 3b2d 1840 d242 0340
00000340: a00f 373f a86b 9abc 4a35 0f40 ef83 c9bf
00000350: c514 28c0 663f f53e 7743 a5c0 1804 7fc0
00000360: c55c 06c0 a169 9dc0 45cc 23c0 275e c5bf
00000370: efe8 3cc0 131c 88bf 4d71 a540 497c a440
00000380: 05ea af40 71eb 08be 5369 b6bb 6a44 79bd
00000390: 94f2 1ebe ece1 eb3e 204f c03e e364 c3be
000003a0: 206e a2be e501 a2be 0bb5 9b3f a717 60bf
000003b0: 3cfb d03e 5f38 0e3d 6419 0cbf eaa6 8cbf
000003c0: 97b1 0bbf 22f5 45bf dca8 d0bf a539 05be
000003d0: 296d 2ebe ebd8 12be 0d6c 82bf a21e 103f
000003e0: 905b b93f e827 ee3f b6bb a33d 9a6b 6c3f
000003f0: 6c85 853d a6bb 203e 4984 a23f 9ef8 afbe

layer1.1.bn1.weight f4 [16]
4.473432 0.04906849 1.6351031 4.685974 2.2973044 1.1891046 1.5225232 1.1738504
1.2069906 3.3473184 4.249957 2.088068 2.4837904 1.5328892 0.024979997 4.3411913
00000000: 5b26 8f40 0afc 483d 0f4b d13f 80f3 9540
00000010: 0907 1340 9434 983f 0ae2 c23f bb40 963f
00000020: ab7e 9a3f 773a 5640 a6ff 8740 e8a2 0540
00000030: 6cf6 1e40 b735 c43f daa2 cc3c 0aeb 8a40

layer1.1.bn1.bias f4 [16]
-0.373262 -0.59660053 0.48949245 -0.95973486 0.74776584 1.178595 -0.36895266 4.574997
2.5501068 1.3952764 2.2945845 1.686857 0.45153698 -0.7622331 -0.25573483 -6.9160175
00000000: 321c bfbe d0ba 18bf c19e fa3e 2fb1 75bf
00000010: 956d 3f3f 33dc 963f 5de7 bcbe 6066 9240
00000020: f334 2340 6b98 b23f 79da 1240 eeea d73f
00000030: db2f e73e b521 43bf adef 82be 0450 ddc0

layer1.1.bn1.running_mean f4 [16]
10.939997 9.904907 10.559964 1.0511236 -4.6862783 -6.189697 -0.16859765 4.270788
3.0831287 4.4351225 11.032522 -3.3650134 -1.8738211 -4.4437084 -5.2846494 0.816587
00000000: 3a0a 2f41 807a 1e41 9df5 2841 388b 863f
00000010: fef5 95c0 ff11 c6c0 dda4 2cbe 4caa 8840
00000020: fb51 4540 86ec 8d40 3685 3041 615c 57c0
00000030: 5fd9 efbf dc32 8ec0 d91b a9c0 d80b 513f

layer1.1.bn1.running_var f4 [16]
114.389145 172.89786 92.97989 128.97812 118.705826 113.3977 78.63471 194.68198
111.251175 118.806656 91.927155 130.02321 142.1947 204.70949 105.20123 182.51657
00000000: 3ec7 e442 dae5 2c43 b4f5 b942 66fa 0043
00000010: 6269 ed42 9fcb e242 f944 9d42 96ae 4243
00000020: 9a80 de42 029d ed42 b4da b742 f105 0243
00000030: d831 0e43 a1b5 4c43 0867 d242 3e84 3643

layer1.1.conv1.weight f4 [16, 16, 3, 3]
0.17846408 0.4854484 0.22178642 -0.6511531 -0.39321417 0.27701974 -0.3191808 -0.4063675
0.030446304 0.6689152 0.5283337 0.15126786 0.6404703 0.7134361 0.3721983 0.08831044
0.07278715 0.12357492 -0.3147397 -0.63684607 -0.82415605 -0.06398657 -0.99880266 -1.624138
0.13811214 -0.5523125 -1.2585083 0.3887325 0.5496343 0.05077997 -0.10727763 0.8329683
0.7682438 -0.3693518 -0.15935004 -0.014062454 -0.5027708 -0.25988317 0.0712845 0.29492038
-0.2846828 -1.1634891 0.13644007 -0.3288678 -1.0549365 -0.6280547 -0.99930584 -0.21759456
-0.74120504 -1.1707963 -0.45546225 -0.552994 -0.92122835 -0.35549667 -0.8454118 -1.1360569
-0.75438213 -0.61943114 -1.386271 -0.99681056 0.041206475 -0.80203515 -0.7263985 -1.0062962
-0.04194037 0.9103652 -0.6173959 0.19628309 1.0933979 -0.14678712 0.23416033 0.8187844
0.404995 -0.05883985 -0.74769956 0.5762094 -0.015749922 -0.42165843 0.29225716 0.15608154
0.11854615 0.8214637 0.3017671 -0.3806151 0.438842 0.20368084 0.0012071127 -0.17958796
-0.4347122 -0.4330711 0.018856185 0.14558671 -0.41096032 0.2432005 0.29945263 -0.5612223
-0.5776282 -0.23954178 -0.006661503 0.3554973 0.44498256 0.38781694 -0.07647501 -0.3598985
0.16278829 -0.21072735 -0.17543852 0.36607993 -1.0284694 -0.22229862 0.64536536 -0.4890655
0.25277585 0.88023067 -0.38449475 -0.06046148 0.34999362 -0.13044758 0.34812847 -0.18244116
-0.08451845 0.12057993 -0.4960909 -0.48967218 -0.33386868 -0.6551216 -0.67233527 0.21032283
1.1583946 -0.8673535 -0.4502431 0.58295715 -0.105855495 0.086801074 0.6796407 -0.4988838
-0.3692854 -0.38782924 -0.5215516 -0.25694564 -0.5274363 -0.22924569 0.01086674 -0.19919094
1.1445725 1.9068205 2.8633776 -1.2961323 -0.4563812 -0.31398365 1.8659697 2.8234162
1.6108046 0.37925893 0.05174233 0.32008964 0.35832042 0.44025344 0.258045 0.30377784
0.32520694 0.14939323 -1.2403433 -1.2599808 -1.6871052 0.37610736 -0.7823011 0.7339907
-1.1821752 -2.342907 0.05394552 -0.26302132 -0.45419136 -0.5324579 0.5936392 0.68186235
0.2960963 0.9793135 0.4818832 -0.71790594 -1.2449272 -0.30908874 -0.751958 0.6162277
-0.63293976 -1.7024474 1.0301925 1.1934259 1.4046297 0.7033504 2.1439178 2.164939
1.8695955 2.2591767 0.8887697 1.2853642 1.2998703 0.18349463 1.092396 2.1805449
1.3072095 -0.19445215 1.8829618 0.918914 0.15171896 1.3256913 1.1950643 -1.0346369
-0.8851549 -1.4309499 -0.9028737 -0.73154396 -1.2758642 0.6410942 -0.39557466 -0.6542876
-0.70172244 -1.2363464 -0.3436361 0.28608102 0.6053042 1.8288635 0.589671 1.6811172
2.7147555 0.17710088 0.14159918 1.4908211 -0.6890246 -0.055334654 2.4055073 -1.2514671
-2.111434 -1.2682562 -1.335676 -1.1698558 1.0706174 0.9463893 1.1707094 2.8524942
-0.8821319 0.62170166 1.5374607 -2.4091241 -2.033966 0.38606888 -0.21794239 0.96840763
2.353079 -0.68714654 1.2028024 2.490066 -0.56351244 -0.53934073 -0.3530942 -3.2261202
00000000: 4abf 363e b18c f83e fb1b 633e f8b1 26bf
00000010: 5e53 c9be 88d5 8d3e aa6b a3be 670f d0be
00000020: 876a f93c 073e 2b3f e140 073f f6e5 1a3e
00000030: ddf5 233f c0a3 363f c790 be3e 1bdc b43d
00000040: 6e11 953d d914 fd3d 9025 a1be 5808 23bf
00000050: e4fb 52bf 640b 83bd 88b1 7fbf c1e3 cfbf
00000060: 456d 0d3e 5a64 0dbf cd16 a1bf f207 c73e
00000070: d5b4 0c3f a8fe 4f3d 60b4 dbbd 693d 553f
00000080: a0ab 443f ae1b bdbe a82c 23be 3566 66bc
00000090: 96b5 00bf 680f 85be 9cfd 913d ceff 963e
000000a0: f2c1 91be 36ed 94bf f2b6 0b3e 5c61 a8be
000000b0: 2908 87bf 31c8 20bf 82d2 7fbf 1cd1 5ebe
000000c0: 9dbf 3dbf a7dc 95bf 5932 e9be 0491 0dbf
000000d0: 9fd5 6bbf a903 b6be e86c 58bf 506a 91bf
000000e0: 301f 41bf 0a93 1ebf 5471 b1bf fa2e 7fbf
000000f0: 1fc8 283d 2d52 4dbf 41f5 39bf 50ce 80bf
00000100: aac9 2bbd b20d 693f a80d 1ebf 6ffe 483e
00000110: 76f4 8b3f 5d4f 16be bac7 6f3e db9b 513f
00000120: 815b cf3e 0e02 71bd 3d69 3fbf 7682 133f
00000130: fb05 81bc 9de3 d7be bba2 953e d7d3 1f3e
00000140: 53c8 f23d 724b 523f 3881 9a3e fbdf c2be
00000150: e6af e03e b691 503e fb37 9e3a e8e5 37be
00000160: 9992 debe 7fbb ddbe 4978 9a3c af14 153e
00000170: 6469 d2be 8d09 793e db51 993e 44ac 0fbf
00000180: 71df 13bf 714a 75be bd48 dabb be03 b63e
00000190: c1d4 e33e f18f c63e ee9e 9cbd 9e44 b8be
000001a0: f9b1 263e e9c8 57be 28a6 33be d46e bb3e
000001b0: e3a4 83bf 40a2 63be aa36 253f cb66 fabe
000001c0: d66b 813e cc56 613f 7fdc c4be 75a6 77bd
000001d0: 5d32 b33e 0d94 05be e53d b23e dbd1 3abe
000001e0: 0218 adbd 9cf2 f63d a0ff fdbe 50b6 fabe
000001f0: d6f0 aabe 0db6 27bf 2a1e 2cbf de5e 573e
00000200: 4646 943f e10a 5ebf 4386 e6be ae3c 153f
00000210: c4ca d8bd c3c4 b13d effc 2d3f b36d ffbe
00000220: fa12 bdbe 8e91 c6be 6884 05bf 618e 83be
00000230: 1106 07bf 62bf 6abe 690a 323c b6f8 4bbe
00000240: 5a81 923f b212 f43f 9441 3740 aae7 a5bf
00000250: ccaa e9be 77c2 a0be 18d8 ee3f dab2 3440
00000260: d82e ce3f 3a2e c23e c4ef 533d cae2 a33e
00000270: c675 b73e e668 e13e 791e 843e c588 9b3e
00000280: 8681 a63e 8afa 183e 92c3 9ebf 0d47 a1bf
00000290: 10f3 d7bf 2591 c03e e344 48bf d1e6 3b3f
000002a0: 8451 97bf 30f2 15c0 faf5 5c3d bbaa 86be
000002b0: c58b e8be 294f 08bf bdf8 173f 888e 2e3f
000002c0: ef99 973e 4ab4 7a3f 65b9 f63e afc8 37bf
000002d0: c659 9fbf e140 9ebe 5280 40bf 19c1 1d3f
000002e0: 5708 22bf cce9 d9bf 59dd 833f 2ec2 983f
000002f0: e8ca b33f c60e 343f f335 0940 5c8e 0a40
00000300: e84e ef3f 5a96 1040 6986 633f d086 a43f
00000310: 2662 a63f 04e6 3b3e a2d3 8b3f 0c8e 0b40
00000320: a452 a73f 771e 47be e404 f13f f33d 6b3f
00000330: 375c 1b3e 41b0 a93f def7 983f fb6e 84bf
00000340: 8399 62bf 5e29 b7bf bb22 67bf 7746 3bbf
00000350: 854f a3bf c01e 243f c388 cabe 647f 27bf
00000360: 15a4 33bf 9940 9ebf 12f1 afbe 3679 923e
00000370: 37f5 1a3f 3318 ea3f aef4 163f d92e d73f
00000380: 8ebe 2d40 ef59 353e 60ff 103e 3ad3 be3f
00000390: eb63 30bf 97a6 62bd d5f3 1940 1330 a0bf
000003a0: bc21 07c0 3856 a2bf 6ef7 aabf d6bd 95bf
000003b0: fe09 893f 9246 723f ced9 953f 448f 3640
000003c0: 65d3 61bf d727 1f3f 83cb c43f 172f 1ac0
000003d0: 802c 02c0 d2aa c53e 4a2c 5fbe 90e9 773f
000003e0: d998 1640 d6e8 2fbf 6ef5 993f 3e5d 1f40
000003f0: 5a42 10bf 3c12 0abf c3c8 b4be c178 4ec0

layer1.1.bn2.weight f4 [16]
0.08387883 0.08185176 0.582218 0.23408365 0.08999929 0.07806361 0.1852495 0.06858985
0.6782037 0.10337981 0.65106934 0.1557291 0.05183049 -0.022986809 0.060101286 1.070765
00000000: aac8 ab3d e5a1 a73d 3d0c 153f a0b3 6f3e
00000010: 8c51 b83d d0df 9f3d 0cb2 3d3e d678 8c3d
00000020: c29e 2d3f cbb8 d33d 7bac 263f 7377 1f3e
00000030: 354c 543d d54e bcbc c42c 763d d40e 893f

layer1.1.bn2.bias f4 [16]
-0.811882 -1.8184825 -0.402485 -1.472134 -0.8297402 -1.3988471 -0.9603938 -0.966673
-0.5215076 -0.73150754 -0.15397792 -1.8519393 -0.77183086 -0.31851056 -1.4663585 -3.1302495
00000000: 80d7 4fbf 09c4 e8bf 8412 cebe e36e bcbf
00000010: db69 54bf 6c0d b3bf 5edc 75bf e277 77bf
00000020: 8681 05bf 1444 3bbf 63ac 1dbe 590c edbf
00000030: b596 45bf d113 a3be a3b1 bbbf 0256 48c0

layer1.1.bn2.running_mean f4 [16]
-13.006988 16.725727 -39.863586 -37.9003 -38.83879 42.948032 -51.654053 -64.45579
4.877435 -32.24991 -157.5529 -16.593124 -12.053528 -2.9639606 -65.46004 -87.27457
00000000: 9f1c 50c1 4ace 8541 5074 1fc2 e899 17c2
00000010: ec5a 1bc2 c9ca 2b42 c09d 4ec2 5de9 80c2
00000020: f313 9c40 e8ff 00c2 8b8d 1dc3 b8be 84c1
00000030: 40db 40c1 88b1 3dc0 8aeb 82c2 948c aec2

layer1.1.bn2.running_var f4 [16]
246.3329 2075.3274 6781.3315 497.0577 325.33548 989.86847 487.48688 789.6936
7102.316 428.59323 11044.109 904.7102 391.23782 66.224815 1331.5933 3967.4456
00000000: 3955 7643 3db5 0145 a7ea d345 6387 f843
00000010: f1aa a243 9577 7744 52be f343 646c 4544
00000020: 87f2 dd45 ef4b d643 7090 2c46 742d 6244
00000030: 719e c343 1b73 8442 fc72 a644 21f7 7745

layer1.1.conv2.weight f4 [16, 16, 3, 3]
-0.46451306 0.33364263 0.4227745 -0.3001547 0.11887024 0.12850292 -0.25435367 -0.07130549
0.64680797 -0.76401544 0.33415702 1.2954383 -0.47155356 1.0396383 0.8840371 -1.34865
-1.6575942 -2.2745225 0.99950826 3.8891811 -0.014473206 -1.5543897 -4.875719 0.36316997
0.317252 0.4985371 -0.6941908 0.22926843 -0.37701872 -0.5576791 -0.12240027 -0.8092337
-0.40273923 -0.025967432 -0.2508126 -0.16986619 -0.4133463 0.108971454 0.031405628 -1.1010814
-0.39900059 -0.8910001 0.5373023 0.57055855 0.7073263 -0.9343763 -1.2932098 -1.7381835
-0.26543915 -0.5678385 -0.023642467 -0.113558784 -0.16128364 0.13622512 -0.06251825 -0.7493669
-0.5912431 0.11259014 -0.98755914 -0.51674724 0.44389147 0.17063001 0.13742502 0.23819463
-0.32112247 0.062039457 0.11870853 0.6229275 1.2237132 -0.69645065 -1.3039777 0.35377258
-1.5099239 -1.9585576 -1.3103567 0.81181467 2.2151108 2.0176883 -1.8271587 -0.73369896
0.4866108 0.14128631 0.01649808 0.3761548 -0.9165139 -1.5832661 -1.0319887 0.3017092
0.28162196 0.4740417 1.2074894 -1.4024798 -2.252805 -3.150551 -1.9536304 2.9694738
-2.1443803 2.8758006 -0.91936207 0.54110414 0.4692456 0.065609254 0.07964077 0.28692728
1.2200384 1.0054606 -0.52706057 -0.8648414 -0.2041498 -0.100673586 -0.79741716 0.35802135
-0.06384236 0.50770223 -0.6738024 -0.45635557 -0.42764533 0.07678781 -0.1991627 -0.015636252
-0.41944823 -0.1936286 -0.23695765 -0.41301665 0.09323239 -0.24471769 0.3026652 1.6519412
0.9740917 0.84083235 0.49106556 0.3696128 -1.8158988 -1.5478666 -2.5976548 -1.7140071
-1.0239928 0.6286958 5.3203063 4.2086315 1.5882899 -3.387912 -8.810475 -0.35966185
-0.13623779 -0.02218717 -0.4155416 -0.57918894 0.103816904 0.16342932 -0.15575352 0.1490096
-0.32121536 -0.20684129 0.1565187 -0.92780775 0.42264494 0.5909542 0.060505018 0.7986489
0.27351785 0.43427506 -1.7456459 -1.8300327 -1.5826901 0.32055378 -1.6332796 -0.01962133
0.05560291 0.42604882 -0.8696121 -0.31257862 -0.7428728 -0.7494607 -0.21372642 -0.75097406
-0.48426443 -0.609104 0.11089938 0.35633934 0.35536876 -0.9681024 -0.116495565 1.0394875
-0.21800557 0.11618441 0.12276506 -0.51621103 -0.109249085 1.8800216 0.13289721 -0.13365425
0.943634 0.6163346 -0.15760832 1.082992 -0.028040053 0.33179414 0.36051664 -0.919241
0.61083996 -0.19813584 -0.30577487 0.4669828 0.69572234 0.49686378 0.8975518 0.8248878
1.0284724 0.97727084 -0.46239597 -0.11510491 -0.53556263 -0.870017 1.0012468 0.39511067
0.22522558 1.1251636 -1.1321377 0.9620218 -1.5705049 -1.3151404 0.14452083 -0.7459345
0.13032107 0.3840353 0.8263514 0.70399123 -0.123462096 -0.30816138 0.22842427 0.3436682
0.4986501 0.7481287 -0.39833635 -0.9696455 -1.8949649 -0.3627818 -1.7409374 -1.0954176
-0.13933787 -1.0419774 -0.70302117 -0.53640795 -1.7504125 0.22745806 0.5289973 -0.58888566
0.053865716 0.17946154 0.08992833 0.2437308 0.26621526 0.120025195 -0.20254269 0.8210854
00000000: a8d4 edbe 35d3 aa3e e675 d83e e0ad 99be
00000010: 3e72 f33d 4596 033e a53a 82be 9d08 92bd
00000020: 3595 253f 8496 43bf a116 ab3e ecd0 a53f
00000030: 786f f1be de12 853f 4150 623f 90a0 acbf
00000040: 0c2c d4bf c791 11c0 c6df 7f3f 58e8 7840
00000050: 0721 6dbc 3ef6 c6bf e405 9cc0 6af1 b93e
00000060: db6e a23e 4140 ff3e 7db6 31bf 58c5 6a3e
00000070: 9908 c1be 0fc4 0ebf feac fabd f129 4fbf
00000080: d633 cebe a7b9 d4bc 826a 80be 67f1 2dbe
00000090: 20a2 d3be 6d2c df3d 30a3 003d 3cf0 8cbf
000000a0: ce49 ccbe 9518 64bf a58c 093f 2010 123f
000000b0: 5613 353f 4933 6fbf e687 a5bf cc7c debf
000000c0: a4e7 87be dd5d 11bf d9ad c1bc 8291 e8bd
000000d0: 8a27 25be 997e 0b3e 9109 80bd 82d6 3fbf
000000e0: b55b 17bf a995 e63d add0 7cbf 8c49 04bf
000000f0: be45 e33e a2b9 2e3e 25b9 0c3e 4be9 733e
00000100: 2a6a a4be 161d 7e3d 751d f33d 2d78 1f3f
00000110: a2a2 9c3f 974a 32bf bee8 a6bf ae21 b53e
00000120: 3045 c1bf 04b2 fabf c5b9 a7bf 16d3 4f3f
00000130: 60c4 0d40 ce21 0140 56e0 e9bf b2d3 3bbf
00000140: 0d25 f93e 5cad 103e fb26 873c 5d97 c03e
00000150: a8a0 6abf 77a8 cabf 3518 84bf a179 9a3e
00000160: c130 903e 98b5 f23e 038f 9a3f 7584 b3bf
00000170: f52d 10c0 a1a2 49c0 9010 fabf dc0b 3e40
00000180: 873d 09c0 1e0d 3840 505b 6bbf cd85 0a3f
00000190: f640 f03e 255e 863d b31a a33d 22e8 923e
000001a0: 382a 9c3f efb2 803f 71ed 06bf 3f66 5dbf
000001b0: a50c 51be f42d cebd 8823 4cbf 934e b73e
000001c0: c9bf 82bd c6f8 013f 507e 2cbf 70a7 e9be
000001d0: 54f4 dabe ed42 9d3d 4ff1 4bbe 9917 80bc
000001e0: ebc1 d6be 9346 46be 07a5 72be eb76 d3be
000001f0: a0f0 be3d 4697 7abe eff6 9a3e cf72 d33f
00000200: 135e 793f ca40 573f f26c fb3e e43d bd3e
00000210: 5f6f e8bf 7e20 c6bf fa3f 26c0 9664 dbbf
00000220: 3212 83bf 35f2 203f f33f aa40 1cad 8640
00000230: 154d cb3f 8dd3 58c0 b5f7 0cc1 9925 b8be
00000240: eb81 0bbe dec1 b5bc dec1 d4be ba45 14bf
00000250: f59d d43d 045a 273e da7d 1fbe f995 183e
00000260: 5776 a4be 34ce 53be 7046 203e cf84 6dbf
00000270: eb64 d83e c648 173f 1cd4 773d 4174 4c3f
00000280: 880a 8c3e 4d59 de3e 5371 dfbf 833e eabf
00000290: 9795 cabf a01f a43e 4e0f d1bf e9bc a0bc
000002a0: e1bf 633d 1223 da3e e69e 5ebf 4e0a a0be
000002b0: e92c 3ebf a8dc 3fbf 19db 5abe d63f 40bf
000002c0: 82f1 f7be 3dee 1bbf 371f e33d 1c72 b63e
000002d0: e5f2 b53e 8fd5 77bf 3a95 eebd ed0d 853f
000002e0: da3c 5fbe 18f2 ed3d 3f6c fb3d 6826 04bf
000002f0: fcbd dfbd 8ca4 f03f 3516 083e a9dc 08be
00000300: ff91 713f 1bc8 1d3f 1364 21be 7b9f 8a3f
00000310: 41b4 e5bc ece0 a93e a395 b83e 6153 6bbf
00000320: 0260 1c3f 1fe4 4abe 868e 9cbe 5f18 ef3e
00000330: dc1a 323f ee64 fe3e f4c5 653f d92b 533f
00000340: fca4 833f 6c2e 7a3f 2abf ecbe 20bc ebbd
00000350: a21a 09bf 6fb9 5ebf db28 803f f24b ca3e
00000360: 89a1 663e 5c05 903f e3e9 90bf 1047 763f
00000370: 4e06 c9bf 8556 a8bf 45fd 133e 90f5 3ebf
00000380: e372 053e 46a0 c43e c48b 533f c538 343f
00000390: b2d9 fcbd 54c7 9dbe 0de8 693e 47f5 af3e
000003a0: 114f ff3e 5d85 3f3f bef2 cbbe b03a 78bf
000003b0: 368e f2bf 89be b9be 09d7 debf a536 8cbf
000003c0: 96ae 0ebe 845f 85bf 32f9 33bf 0852 09bf
000003d0: 840d e0bf c4ea 683e 5e6c 073f 36c1 16bf
000003e0: 4ca2 5c3d c4c4 373e 582c b83d 9194 793e
000003f0: 5e4d 883e c5cf f53d 5a67 4fbe a732 523f

layer2.0.bn1.weight f4 [16]
4.5499153 2.1937928 2.7671595 4.866671 3.4485676 2.6765254 2.1982853 2.0878236
2.43822 5.3039856 4.30156 2.8263915 5.1362495 2.9045682 2.9847925 2.7941964
00000000: e898 9140 1a67 0c40 2419 3140 c5bb 9b40
00000010: 55b5 5c40 314c 2b40 b5b0 0c40 e79e 0540
00000020: cc0b 1c40 40ba a940 61a6 8940 99e3 3440
00000030: 285c a440 72e4 3940 d706 3f40 1dd4 3240

layer2.0.bn1.bias f4 [16]
-0.79254335 -0.89552456 0.07400081 4.9151993 0.2752081 2.8119342 0.512785 -0.8220323
6.202687 -0.7887024 3.405936 3.7019982 3.3115551 -0.6553382 1.9435523 -0.033829518
00000000: 1fe4 4abf 1941 65bf bd8d 973d 5049 9d40
00000010: 13e8 8c3e bbf6 3340 e145 033f b570 52bf
00000020: 697c c640 67e8 49bf dbfa 5940 8aed 6c40
00000030: 85f0 5340 3fc4 27bf 52c6 f83f d290 0abd

layer2.0.bn1.running_mean f4 [16]
9.848261 7.9623094 12.354883 2.280845 -4.163589 -5.8794875 0.52959436 5.4900484
5.852311 3.2613957 13.362893 -6.4934626 -3.752433 -4.943382 -5.033464 0.16068901
00000000: 7a92 1d41 3dcb fe40 9aad 4541 5df9 1140
00000010: 1f3c 85c0 c324 bcc0 7f93 073f 7aae af40
00000020: 2246 bb40 b5ba 5040 69ce 5541 72ca cfc0
00000030: dd27 70c0 2f30 9ec0 2312 a1c0 a98b 243e

layer2.0.bn1.running_var f4 [16]
105.65401 177.56636 91.68285 111.14922 113.07148 108.38236 79.220055 194.89871
109.38632 128.51791 86.9726 111.03795 123.855705 201.17378 109.080894 168.34181
00000000: da4e d342 fd90 3143 9f5d b742 674c de42
00000010: 9924 e242 c5c3 d842 ab70 9e42 12e6 4243
00000020: ccc5 da42 9684 0043 f9f1 ad42 6e13 de42
00000030: 1fb6 f742 7d2c 4943 6b29 da42 8157 2843

layer2.0.conv1.weight f4 [32, 16, 3, 3]
-0.052820787 0.417188 -0.067141965 0.33171308 -0.3193725 -1.4169052 0.8661483 1.7093134
1.223543 -1.4669389 -12.099817 -6.476196 -0.03994729 -9.44768 -3.030443 -1.2864934
-10.330699 -5.690008 -5.7595162 -4.0869493 -2.2014976 -4.739762 -5.0957747 -6.5601907
-4.2620316 -4.74636 -1.9422495 -2.8271604 -1.1923559 -1.4289422 -0.4117544 -0.59060425
0.18555658 -0.8931483 1.6284097 0.5045991 2.7581732 -0.28206372 0.20377769 1.8896887
-0.88658845 -1.2536469 -1.5146953 0.38034132 -2.9817169 -0.8876739 -6.32826 -2.6680567
-0.99939877 -7.802444 -3.6792617 -4.8572536 -8.020684 -4.879552 -2.2996254 -1.1078279
-3.5083132 -0.21748841 -5.965969 -2.9760683 1.018584 -5.377878 -3.0048347 -6.8639364
-8.403087 -8.142136 -0.5788521 -3.032607 -4.8314037 -2.825972 -3.0662348 -7.33555
0.39083198 -2.5311375 -2.2826545 -0.32932582 -0.14608224 -2.1967454 0.699782 -0.39688176
-1.3451772 -0.2669056 1.1505477 1.4419968 -2.6662147 0.22794667 2.4332871 -0.4571756
1.0417031 3.0387707 -0.06317154 -0.16257365 -0.5360714 1.5174899 3.265056 3.1798234
1.0962985 1.8235958 0.6479262 2.0469115 2.0668864 2.084294 -1.4748943 0.858627
0.9017264 -2.5072732 -1.4274873 1.3529539 0.98450845 0.6682955 -1.2895367 -0.29502094
-1.4190767 -2.114429 -1.526164 -2.182296 -0.6540836 3.7432103 3.1096382 4.094987
4.2684083 4.995953 5.3444066 3.8026543 2.6581848 1.293286 -3.4499176 -4.620206
-2.9437625 -5.0415316 -5.9583364 -2.7377787 -1.1598232 -2.9778426 -0.95771426 0.15323898
0.82067084 0.16061813 -5.8787875 -6.4428887 -5.32664 -5.4807177 -4.3365645 -2.7527926
-2.36055 -0.99265957 2.536405 -4.3828106 1.9627852 3.4657848 -0.9915626 0.7911549
1.5981377 -0.8992423 2.1932783 -1.4131197 -0.07384856 2.236764 -2.5978296 -0.7236374
0.4277577 -3.6362972 1.7755207 -0.8143801 -2.5610685 -1.1674579 -2.0363772 -0.9422913
0.23331942 0.4467879 -1.0286088 -0.2065209 1.7636214 -1.3764874 0.6769992 -2.0549853
-2.2745442 0.43490574 -0.42948824 -1.5407894 1.64208 -2.944811 -1.0176522 -7.084258
-5.0171614 0.7593977 -9.366053 -4.9907746 2.55111 -3.7377582 -0.4161609 -1.9855298
-1.1469775 -1.9364679 -2.4241402 -2.1702754 1.3545296 -1.9702119 -1.3894645 -2.798739
1.4744644 -3.5947568 -0.64181274 2.4485407 -2.5273623 -1.5223804 1.6357926 0.5404034
2.1501894 -1.4096462 -0.45630735 0.9298844 -2.2522218 -0.5609616 1.5582476 -1.6983316
-0.16007665 0.80523825 0.8786184 1.03229 2.7614675 3.4301593 1.8054061 3.2871904
1.9945692 -0.5714586 0.56258667 3.1739488 2.3793194 -1.7914051 3.398685 1.3125155
3.2179432 1.4348567 0.034156263 -0.94030607 0.91008604 2.1534822 -2.048476 -1.8305618
1.8766397 -4.5081253 -2.8895326 0.33816943 1.1036813 0.6285559 7.0429645 4.5109177
4.986241 9.986222 6.110186 3.6109648 0.43485564 -0.96776366 4.6785626 1.0899475
00000000: 9c5a 58bd aa99 d53e ba81 89bd 4cd6 a93e
00000010: cb84 a3be 265d b5bf e5bb 5d3f c8ca da3f
00000020: 0f9d 9c3f a7c4 bbbf da98 41c1 ff3c cfc0
00000030: c59f 23bd b329 17c1 c7f2 41c0 d1ab a4bf
00000040: 8b4a 25c1 8c14 b6c0 f54d b8c0 4ac8 82c0
00000050: 56e5 0cc0 21ac 97c0 9610 a3c0 15ed d1c0
00000060: 9062 88c0 2ee2 97c0 a29b f8bf 32f0 34c0
00000070: 1e9f 98bf 94e7 b6bf 79d1 d2be d731 17bf
00000080: 8b02 3e3e 5ea5 64bf bb6f d03f 682d 013f
00000090: e985 3040 a86a 90be 19ab 503e 52e1 f13f
000000a0: 76f7 62bf 8077 a0bf 89e1 c1bf 19bc c23e
000000b0: 73d4 3ec0 993e 63bf 1b81 cac0 71c1 2ac0
000000c0: 99d8 7fbf 9fad f9c0 0679 6bc0 9f6e 9bc0
000000d0: b954 00c1 4a25 9cc0 102d 13c0 4ecd 8dbf
000000e0: 3488 60c0 48b5 5ebe 38e9 bec0 e777 3ec0
000000f0: f660 823f 9417 acc0 364f 40c0 5ea5 dbc0
00000100: 0b73 06c1 3046 02c1 a72f 14bf 3c16 42c0
00000110: dc9a 9ac0 badc 34c0 313d 44c0 d3bc eac0
00000120: 211b c83e 28fe 21c0 0317 12c0 659d a8be
00000130: 9596 15be 7a97 0cc0 ea24 333f 1634 cbbe
00000140: c42e acbf daa7 88be 2645 933f 5a93 b83f
00000150: 43a3 2ac0 da6a 693e faba 1b40 ec12 eabe
00000160: 8756 853f 387b 4240 1560 81bd b579 26be
00000170: fa3b 09bf 1c3d c23f adf6 5040 3a82 4b40
00000180: 8253 8c3f 966b e93f 7ede 253f 9900 0340
00000190: de47 0440 1365 0540 56c9 bcbf fbce 5b3f
000001a0: 8bd7 663f 2a77 20c0 e7b7 b6bf 982d ad3f
000001b0: bf08 7c3f 6a15 2b3f 8a0f a5bf fc0c 97be
000001c0: 4ea4 b5bf ce52 07c0 5859 c3bf bdaa 0bc0
000001d0: 0672 27bf c290 6f40 5004 4740 220a 8340
000001e0: cd96 8840 d9de 9f40 6105 ab40 b05e 7340
000001f0: b31f 2a40 658a a53f 73cb 5cc0 bad8 93c0
00000200: 9b66 3cc0 3a54 a1c0 b1aa bec0 c437 2fc0
00000210: 1675 94bf f994 3ec0 c32c 75bf aeea 1c3e
00000220: 7c17 523f 1479 243e 071f bcc0 252c cec0
00000230: d673 aac0 0a62 afc0 23c5 8ac0 c12d 30c0
00000240: 4013 17c0 f01e 7ebf 7654 2240 fc3f 8cc0
00000250: 8c3c fb3f 6bcf 5d40 0cd7 7dbf 2189 4a3f
00000260: c78f cc3f be34 66bf ac5e 0c40 1be1 b4bf
00000270: ea3d 97bd 2427 0f40 d742 26c0 4d40 39bf
00000280: 0f03 db3e 18b9 68c0 4344 e33f 377b 50bf
00000290: 8ce8 23c0 436f 95bf 0154 02c0 013a 71bf
000002a0: 49eb 6e3e 62c1 e43e 74a9 83bf 377a 53be
000002b0: 59be e13f bd30 b0bf d24f 2d3f e184 03c0
000002c0: 2292 11c0 f7ab de3e e2e5 dbbe 9638 c5bf
000002d0: ad2f d23f c977 3cc0 6d42 82bf 3eb2 e2c0
000002e0: 968c a0c0 e367 423f 5adb 15c1 6db4 9fc0
000002f0: 6345 2340 6e37 6fc0 0b13 d5be d725 febf
00000300: 29d0 92bf 2ede f7bf 1d25 1bc0 cbe5 0ac0
00000310: 3a61 ad3f e72f fcbf f9d9 b1bf 8a1e 33c0
00000320: 40bb bc3f 7f10 66c0 d74d 24bf e4b4 1c40
00000330: 4ec0 21c0 5cdd c2bf a761 d13f e157 0a3f
00000340: b49c 0940 496f b4bf 1ea1 e9be e70c 6e3f
00000350: 6724 10c0 2e9b 0fbf a874 c73f ee62 d9bf
00000360: 22eb 23be 1824 4e3f 23ed 603f 1422 843f
00000370: e2bb 3040 bb87 5b40 8c17 e73f 5461 5240
00000380: 0b4e ff3f 1c4b 12bf ae05 103f fa21 4b40
00000390: c546 1840 c34c e5bf 0e84 5940 8200 a83f
000003a0: c8f2 4d40 62a9 b73f 70e7 0b3d e6b7 70bf
000003b0: 66fb 683f a7d2 0940 3b1a 03c0 d94f eabf
000003c0: bb35 f03f 9042 90c0 1aee 38c0 8b24 ad3e
000003d0: 6e45 8d3f 0ae9 203f f75f e140 7059 9040
000003e0: 498f 9f40 91c7 1f41 a586 c340 0c1a 6740
000003f0: 66a5 de3e 5cbf 77bf c9b6 9540 6683 8b3f

layer2.0.bn2.weight f4 [32]
1.2878006 1.4533664 1.6923034 1.5326248 0.015706845 1.6879443 1.8389008 1.2770289
1.3578659 1.6137178 1.1817234 1.5280733 1.2825171 1.2580988 1.2561518 1.4219801
1.1616635 1.1105626 1.568092 1.8198109 1.4433646 1.1710336 1.7815188 1.6760305
1.3658296 1.2144297 1.1871924 1.3983797 0.11935658 1.3779417 1.1928338 1.2209665
00000000: a6d6 a43f e907 ba3f 669d d83f 0d2d c43f
00000010: a4ab 803c 8f0e d83f 1a61 eb3f af75 a33f
00000020: 8dce ad3f 4e8e ce3f b642 973f e897 c33f
00000030: 8529 a43f 6209 a13f 95c9 a03f 7203 b63f
00000040: 64b1 943f ea26 8e3f 3db7 c83f 90ef e83f
00000050: 2cc0 b83f 6ee4 953f cf08 e43f 2b88 d63f
00000060: 81d3 ae3f 6f72 9b3f ecf5 973f 1bfe b23f
00000070: 3971 f43d 6560 b03f c7ae 983f a148 9c3f

layer2.0.bn2.bias f4 [32]
1.5346142 -0.3795666 -0.022090971 -0.08257145 -0.24691737 0.019025568 -0.27572146 1.0655069
0.12932684 -0.06419301 -0.20999406 0.09996354 0.031959057 -0.16318342 -0.5733553 1.8230243
0.5967976 -0.36967131 -1.2514051 0.14765958 0.31368747 0.10108981 -0.054201506 -0.12595011
0.25542223 -0.12325619 0.5342757 -1.012622 -1.8858349 -0.29246598 -0.27030027 0.114821665
00000000: 3d6e c43f 8e56 c2be 20f8 b4bc 381b a9bd
00000010: e8d7 7cbe 82db 9b3c 5d2b 8dbe 8862 883f
00000020: 416e 043e a077 83bd af08 57be afb9 cc3d
00000030: 80e7 023d 8e19 27be 6ac7 12bf dc58 e93f
00000040: bac7 183f 8f45 bdbe 0b2e a0bf 1334 173e
00000050: a59b a03e 2d08 cf3d 6602 5ebd 11f9 00be
00000060: b4c6 823e be6d fcbd 4bc6 083f 999d 81bf
00000070: 0a63 f1bf 1abe 95be cc64 8abe 9f27 eb3d

layer2.0.bn2.running_mean f4 [32]
-346.36227 194.47313 -25.403337 60.482647 2.572028 16.233515 -68.30601 261.3965
-102.11379 -388.69128 39.60721 -180.12921 -90.1666 20.063345 182.4164 -401.49307
-104.16957 158.80121 68.23605 15.9707775 70.95139 -66.64708 -30.556612 -252.2032
-198.61835 217.9604 -139.51733 124.55061 53.439438 182.81247 -9.873803 160.64095
00000000: 5f2e adc3 1f79 4243 093a cbc1 3bee 7142
00000010: 1b9c 2440 3dde 8141 ad9c 88c2 c1b2 8243
00000020: 433a ccc2 7c58 c2c3 c86d 1e42 1421 34c3
00000030: 4d55 b4c2 bb81 a041 996a 3643 1dbf c8c3
00000040: d256 d0c2 1ccd 1e43 dc78 8842 4e88 7f41
00000050: 1de7 8d42 4e4b 85c2 f173 f4c1 0534 7cc3
00000060: 4c9e 46c3 ddf5 5943 7084 0bc3 ea19 f942
00000070: fcc1 5542 fecf 3643 19fb 1dc1 15a4 2043

layer2.0.bn2.running_var f4 [32]
26803.98 23986.205 20758.764 23099.312 236.0199 16154.545 24906.365 11252.879
17705.02 24379.738 15538.975 19664.666 16378.268 10083.662 13812.775 15821.888
10398.8545 12649.571 19471.352 18088.24 11679.233 10416.659 22647.262 37608.53
23105.678 15726.798 16279.567 12171.904 5908.5737 23322.764 17124.607 14954.009
00000000: f667 d146 6964 bb46 872d a246 a076 b446
00000010: 1805 6c43 2e6a 7c46 bb94 c246 84d3 2f46
00000020: 0a52 8a46 7a77 be46 e6cb 7246 55a1 9946
00000030: 12e9 7f46 a68e 1d46 1ad3 5746 8d37 7746
00000040: 6b7b 2246 49a6 4546 b41e 9846 7b50 8d46
00000050: ef7c 3646 a3c2 2246 86ee b046 88e8 1247
00000060: 5b83 b446 31bb 7546 455e 7e46 9e2f 3e46
00000070: 97a4 b845 8735 b646 37c9 8546 09a8 6946
