Our_code/Pytorch/Advanced_experiments/trained_students/ng_increasing_2-t-40-2-student-16-1.pth (torch_old, 718602 bytes, 69 tensors)

conv1.weight f4 [16, 3, 3, 3]
0	0xbea74fc5	-0.32678047
1	0xbef1749d	-0.4715928
2	0xbe813d79	-0.25242212
3	0xbfdb719f	-1.714405
4	0xc020a734	-2.5102053
5	0xbe9e65dc	-0.30937088
6	0x3f589a96	0.8461088
7	0x4093bc27	4.616718
8	0x3f5e2024	0.8676779
9	0x3ce10a78	0.027470812
10	0xbfb92477	-1.4464253
11	0xbe39613e	-0.18103501
12	0xbf7fb907	-0.99891704
13	0xc02420f4	-2.5645113
14	0xbf88ebfd	-1.0697018
15	0x3ec85798	0.3912933
16	0x40986886	4.762759
17	0x3f02b601	0.51058966
18	0xbd9591b7	-0.073031835
19	0xbf652036	-0.89502275
20	0xbee0622f	-0.43824908
21	0xbf01ab8c	-0.50652385
22	0xbff7b6f0	-1.9352703
23	0xbf50a759	-0.8150535
24	0x3eda2ec7	0.42613813
25	0x40603a3f	3.503555
26	0x3f2e0269	0.6797243
27	0x3ffb5b18	1.9637175
28	0xbefa80b5	-0.4892632
29	0x3f077906	0.5291904
30	0x3f5a1bc2	0.85198605
31	0xc0402d6f	-3.002773
32	0xc024a175	-2.5723546
33	0x3ec11423	0.37710676
34	0xc032201d	-2.78321
35	0xbf174355	-0.59087116
36	0xbf69e953	-0.9137165
37	0xbfabb63a	-1.3414986
38	0xbf848cfb	-1.0355524
39	0xbe997fa8	-0.29980206
40	0xbf60bb36	-0.8778566
41	0xbf9068fc	-1.1282039
42	0xbea3fb59	-0.320277
43	0xbf8c4904	-1.0959783
44	0xbe9a4c46	-0.30136317
45	0xbfac3eab	-1.3456625
46	0x3f5d11bb	0.8635518
47	0x3f6e1205	0.92996246
48	0x3e1fbbb3	0.15598945
49	0x4081ace4	4.052355
50	0x4031a1cc	2.7755003
51	0x3ea95811	0.33075002
52	0x40129e76	2.2909217
53	0x3fe390c2	1.7778552
54	0x3edf5c79	0.4362524
55	0x40426eb6	3.0380073
56	0xbe398b1c	-0.18119472
57	0xbfc1f57f	-1.5153044
58	0xbede00af	-0.43359897
59	0xbf2fc5e7	-0.6866135
60	0x3ca173c0	0.019708514
61	0xbf02f22c	-0.51150775
62	0x3f02f3a7	0.51153034
63	0x3f047de8	0.5175462
64	0x4077118d	3.8604462
65	0xbe30d0a6	-0.17267093
66	0xbff9b128	-1.9507189
67	0xbfcbb46b	-1.5914434
68	0xbf6ba700	-0.92051697
69	0x3ebf4c72	0.3736301
70	0xbf065088	-0.5246663
71	0xbd81d867	-0.063401036
72	0xbe18acf9	-0.14909734
73	0x403d0843	2.9536293
74	0x3e4eea96	0.20206675
75	0xbf4a5973	-0.7904274
76	0xbf9ecdaf	-1.240652
77	0xbf085d98	-0.5326781
78	0x3d9c44e8	0.0763033
79	0xbef5603b	-0.4792498
80	0xbeb70326	-0.3574459
81	0xbe9d0045	-0.30664268
82	0xbfb89cbb	-1.442283
83	0xbf95f73d	-1.1716076
84	0xbe5838dc	-0.2111544
85	0x3ed66ec8	0.41881394
86	0xbf0929f2	-0.5357963
87	0x3e12bb16	0.1432918
88	0x3f60d37a	0.8782269
89	0x3ec66b67	0.38753816
90	0x3de398b3	0.111131094
91	0x3fabd685	1.3424841
92	0x3f597b52	0.84953797
93	0x3f9acb7c	1.2093349
94	0x40754bdf	3.8327558
95	0x403c22dc	2.9396276
96	0x3f12ce5b	0.57346123
97	0x40406212	3.0059857
98	0x40110ef4	2.2665377
99	0x3e9df1fd	0.30848685
100	0xbdd08870	-0.101822734
101	0x3f393964	0.72353196
102	0xbf6a115c	-0.9143274
103	0xc080fc1d	-4.0307755
104	0xc0222ecb	-2.534106
105	0xbf00ddbe	-0.5033835
106	0xc0881b4a	-4.253331
107	0xc0379429	-2.868418
108	0xbea278cc	-0.31732786
109	0xbe70e059	-0.23523082
110	0x3f9133c4	1.1343923
111	0xc077ef11	-3.8739665
112	0x409726f2	4.723504
113	0x3f17231e	0.5903796
114	0xbfdce8f8	-1.7258596
115	0x3f972136	1.180701
116	0xbf61cd6d	-0.8820408
117	0xbff8adf6	-1.9428089
118	0xbe70e0ea	-0.23523298
119	0xbe7f3a25	-0.24924524
120	0xc09c9182	-4.892762
121	0x40b17973	5.5460753
122	0x3f98f484	1.194962
123	0xc00c37bf	-2.1909025
124	0x40019d0e	2.0252109
125	0x3ebf69ac	0.3738531
126	0x3e83b480	0.25723648
127	0xbeab243f	-0.3342609
128	0x3e35effa	0.17767325
129	0xc03f8d17	-2.9929864
130	0x4036f279	2.8585494
131	0x3f8e72fc	1.112884
132	0xbfc7b631	-1.5602475
133	0x3e61eaf4	0.22062284
134	0x3cf49f1f	0.029861031
135	0xc0126034	-2.2871218
136	0xbfd5efb1	-1.6713773
137	0x40061966	2.0953002
138	0xc0af4cff	-5.478149
139	0xc082dbc3	-4.0893264
140	0x4005e121	2.0918658
141	0xc00a77fd	-2.1635735
142	0xbfdbaab4	-1.716147
143	0x3fc63deb	1.5487646
144	0x3f9c36a3	1.2204174
145	0x3f1b63b5	0.60699016
146	0xbd630a2d	-0.055429626
147	0x3f1d3aa1	0.61417586
148	0x3f58bb8f	0.8466119
149	0x3eace51f	0.33768556
150	0x3e6ac788	0.22927678
151	0x3f8923b4	1.0714021
152	0x3f5bd229	0.85867554
153	0x3fc9d654	1.5768533
154	0x3f25a3b2	0.64702904
155	0xbfcae4a4	-1.5851026
156	0x402d75da	2.710318
157	0x3fd3d5eb	1.6549658
158	0xbffa16d1	-1.9538213
159	0x3fc76eec	1.5580726
160	0x3f7750d3	0.966077
161	0xbfd89ce0	-1.6922874
162	0xbfc92969	-1.5715762
163	0xbd8d49b6	-0.06898825
164	0x3e457f18	0.19286764
165	0x3e2928bb	0.16519444
166	0xc0e8844a	-7.2661486
167	0x3f1b3310	0.6062479
168	0xbdec6c42	-0.11544086
169	0x3ecced71	0.40024903
170	0x4011dd07	2.2791154
171	0x3f8a5094	1.080584
172	0x3f438ace	0.76383674
173	0x4001b209	2.0264914
174	0x3e273fd0	0.16332936
175	0xc10f3051	-8.949296
176	0xbf9bbb5c	-1.2166553
177	0xbf3e0c2e	-0.74237335
178	0xbf06c949	-0.52650887
179	0x3c3a795c	0.011381473
180	0x3f40d49b	0.7532441
181	0x3ea04043	0.31299028
182	0xbe1b4367	-0.1516243
183	0x3f8f4e3b	1.1195749
184	0xc0c8d51e	-6.2760153
185	0xbfd77285	-1.6831824
186	0xbe3134d9	-0.17305316
187	0xbfeab2ca	-1.8335812
188	0xbfa52e76	-1.2904804
189	0x3e8f0662	0.27934557
190	0xc0027085	-2.0381176
191	0xbe63d030	-0.22247386
192	0xbffd7d72	-1.9803908
193	0x40a62b0a	5.192754
194	0x3e242912	0.16031292
195	0x3ef01193	0.46888408
196	0xc0093aff	-2.1442258
197	0x3fd141c1	1.6348191
198	0x3eba7bbc	0.36422527
199	0x3f08864a	0.5332991
200	0x3e523d8d	0.20531292
201	0xc019dcef	-2.4041097
202	0x40a1752f	5.0455546
203	0xbf054029	-0.52051026
204	0x3fa8c073	1.3183731
205	0xc0879482	-4.2368784
206	0x3ee38d83	0.44443902
207	0x3edfb893	0.43695506
208	0xbf4ead29	-0.8073297
209	0xbe40769e	-0.18795249
210	0xbfba38c4	-1.4548573
211	0x404ce0d6	3.201223
212	0xbfd35eb2	-1.6513274
213	0x3fa61750	1.2975864
214	0xbfe06063	-1.7529415
215	0x3ef22f3f	0.4730167
216	0x3f5410f5	0.82838374
217	0x3f9529de	1.1653402
218	0x3ea1377f	0.31487653
219	0x40111af0	2.2672691
220	0x403a7e43	2.9139564
221	0x3f9a79be	1.2068403
222	0xbf7b8110	-0.9824381
223	0xc0eda2c8	-7.4261208
224	0xbf6f0695	-0.9336942
225	0x3e78356b	0.24239127
226	0x3fa3c8a6	1.2795608
227	0x3d1c881d	0.038215745
228	0x3f8fdb14	1.1238732
229	0x4035785e	2.8354716
230	0x3fa2faac	1.2732749
231	0xbe9c5bab	-0.30538687
232	0xc0ca8d03	-6.3297133
233	0xbf7904be	-0.9727286
234	0xbf9d5f19	-1.2294647
235	0x3e2e7cd0	0.170398
236	0xbe8cf584	-0.27531064
237	0x3f9d00f1	1.2265912
238	0x4065733b	3.585158
239	0x3faf7dbc	1.3710246
240	0x3e90981a	0.28241044
241	0xc02f9e45	-2.744035
242	0xbede6006	-0.43432635
243	0xc0751aff	-3.8297727
244	0x3f91d48e	1.1392992
245	0x409cce77	4.900203
246	0xc0814fcf	-4.0409923
247	0x4038ec7b	2.8894336
248	0x407d8d2e	3.961742
249	0xc038b3a2	-2.885964
250	0xbfb8edb6	-1.4447544
251	0x3fa56c7f	1.2923735
252	0x3f5f71fe	0.87283313
253	0xbfaaf3f4	-1.3355699
254	0x3e447758	0.19186151
255	0x3f9431d8	1.1577711

layer1.0.bn1.weight f4 [16]
0	0x40034012	2.0507855
1	0x3ff32a34	1.8997254
2	0x4011ce36	2.278211
3	0x4033bf04	2.8085337
4	0x403e3a05	2.9722912
5	0x3fe5d00a	1.7954113
6	0x4085c4ee	4.1802893
7	0x402e652d	2.7249253
8	0x403410f2	2.8135343
9	0x3fe1163f	1.7584914
10	0x40170369	2.3595831
11	0x3fb6a156	1.4267986
12	0x4010c7ee	2.2622027
13	0x4007cea3	2.121987
14	0x403cf880	2.9526672
15	0x3fdc6071	1.7216932

layer1.0.bn1.bias f4 [16]
0	0x3f9dbeed	1.2323891
1	0x3fe4cf8f	1.7875842
2	0x3fb92000	1.4462891
3	0x4019dc70	2.4040794
4	0x3fa3053b	1.2735971
5	0x3f0e322c	0.55545306
6	0xc0aa11d6	-5.3146772
7	0x40cb2e36	6.349391
8	0x4006d98f	2.1070287
9	0x4017a3bc	2.3693686
10	0x3fc6baf1	1.55258
11	0x40807afe	4.0150137
12	0x400b6a5a	2.1783662
13	0x402b3512	2.6751142
14	0x409ef0c5	4.966891
15	0x3e47d984	0.1951657

layer1.0.bn1.running_mean f4 [16]
0	0x3d9ea787	0.07746797
1	0x40028af7	2.0397317
2	0x3e11f5b7	0.14253889
3	0xc013251b	-2.2991397
4	0x3d1bdb6e	0.03805106
5	0x3f3b70c6	0.73218954
6	0x40b4f3c6	5.6547575
7	0xbf28b5bb	-0.659023
8	0xbce450e4	-0.027870603
9	0xbd82d989	-0.06389148
10	0x3e1c83db	0.15284674
11	0x3f2ca187	0.6743397
12	0xbe67eb1d	-0.22648282
13	0xbfc2f723	-1.523167
14	0x3f4ce445	0.8003581
15	0x3f319ea6	0.69382703

layer1.0.bn1.running_var f4 [16]
0	0x4237fab9	45.994846
1	0x4217c8c8	37.946075
2	0x41a04455	20.033365
3	0x4214bf24	37.18666
4	0x429c2d8d	78.08897
5	0x42368e4c	45.63896
6	0x43aab831	341.439
7	0x41b8c55a	23.096363
8	0x42868cb7	67.27483
9	0x41be2876	23.769756
10	0x4289b1c1	68.847176
11	0x41ee9af1	29.825655
12	0x42265f6b	41.59318
13	0x426d3c2b	59.308758
14	0x422b6c5f	42.85583
15	0x41dea7c8	27.831924

layer1.0.conv1.weight f4 [16, 16, 3, 3]
0	0x404c2589	3.189791
1	0x3ed328bb	0.41242012
2	0xbf35251a	-0.7075974
3	0x4005c0f5	2.0899022
4	0x40487c8a	3.1326013
5	0xbfb6390f	-1.4236163
6	0xbfc3d591	-1.529955
7	0x3fc8660f	1.5656146
8	0x3f949b70	1.1609936
9	0xbf1515b2	-0.5823623
10	0xbf372640	-0.7154274
11	0xc0348eca	-2.8212152
12	0x40d1a3cc	6.5512447
13	0x40aec243	5.4612136
14	0xbe8c6091	-0.27417424
15	0x404a1201	3.1573489
16	0x3fdbe4e2	1.7179224
17	0xc02f49e5	-2.7388852
18	0x3e55cac8	0.20878136
19	0xc008ac0b	-2.1355007
20	0xbe8490d8	-0.25891757
21	0x400e1097	2.2197626
22	0x403749ea	2.8638864
23	0x3de51fb8	0.111876905
24	0x4094a100	4.6446533
25	0xc009feea	-2.1561837
26	0xbf8f0e30	-1.1176205
27	0x3dc41a17	0.09575289
28	0x3f7bdef5	0.9838708
29	0x3d030f73	0.031997155
30	0x3f35518c	0.70827556
31	0x3ed0ee23	0.40806684
32	0x3f716ffd	0.94311506
33	0x3b8f826e	0.004379562
34	0xbdaa69f2	-0.08320989
35	0x3e823cce	0.25437015
36	0xc018c618	-2.3870907
37	0x3f597450	0.84943104
38	0xc007ee4d	-2.1239197
39	0xbfb34fa0	-1.4008675
40	0x3fd36104	1.6513982
41	0xc04337eb	-3.050288
42	0xbe1731d4	-0.14765102
43	0x3ef7c158	0.48389697
44	0xc068e8fb	-3.63922
45	0x3ecdca33	0.40193328
46	0x402cabc8	2.6979847
47	0xc05d35cb	-3.4564083
48	0x3eab9b64	0.3351699
49	0x4119d3b0	9.6141815
50	0x40b792ea	5.736684
51	0xc00836ea	-2.1283517
52	0x40c8d7d6	6.276347
53	0x4064c3bc	3.5744467
54	0xc08202e7	-4.0628543
55	0x40aa697f	5.325378
56	0x3f29f03b	0.6638219
57	0x4026dfcb	2.6074092
58	0x4128fa0e	10.5610485
59	0x409ef7c5	4.9677453
60	0xc099f966	-4.811694
61	0x3f58111f	0.84401125
62	0xc0ade635	-5.4343514
63	0xbef5dd63	-0.48020467
64	0x3f95ad1b	1.1693453
65	0x3ebbf6ef	0.36711833
66	0x4041dd32	3.0291257
67	0xbf4a9638	-0.79135466
68	0x3ffd7125	1.9800154
69	0x4005a5e5	2.0882504
70	0xbf61f0a7	-0.8825783
71	0xbfcddea9	-1.6083575
72	0xc017c97b	-2.3716724
73	0x3f6e771e	0.9315051
74	0xbfed7a6d	-1.8552986
75	0xbfaae393	-1.33507
76	0x4096fac8	4.718113
77	0x403f6d88	2.9910603
78	0x402ce7f4	2.7016573
79	0x408a15d4	4.3151646
80	0x400bf6aa	2.1869302
81	0x3e70e73b	0.23525707
82	0x3fb51d23	1.4149517
83	0xbfc7e128	-1.5615587
84	0xbefb9b18	-0.49141765
85	0xbf45d9f1	-0.7728568
86	0x401bfa01	2.437134
87	0xc097cc1d	-4.743666
88	0xc034cc9f	-2.824989
89	0x409649f8	4.6965294
90	0xc0081741	-2.1264193
91	0x3e8cde5f	0.27513406
92	0xbe60d2ff	-0.21955489
93	0xbf8595e3	-1.0436367
94	0x405923f9	3.3928206
95	0x3f87da5b	1.0613512
96	0xc0a4065e	-5.1257772
97	0x3f55a029	0.8344751
98	0xc01bfcf2	-2.4373136
99	0xc0590610	-3.390995
100	0x3f6ba005	0.92041045
101	0x3e9f6a87	0.3113596
102	0xbf8fd0d5	-1.1235605
103	0xbf77755e	-0.96663463
104	0xc0adb9c6	-5.4289274
105	0xc05d9f0c	-3.4628325
106	0xc001a1aa	-2.0254922
107	0xc0d0d512	-6.5260096
108	0xbe484e63	-0.19561152
109	0x40e1ebca	7.060033
110	0xc02aeb23	-2.6706016
111	0x3e739e79	0.23790921
112	0x40aa1628	5.3152046
113	0x3f4d4b27	0.801928
114	0xc020da52	-2.5133252
115	0xbf954d74	-1.1664262
116	0x3feab2df	1.8335837
117	0x3f0e1304	0.55497766
118	0x3fe93206	1.8218391
119	0x3e379a97	0.17930065
120	0x40cecf79	6.4628263
121	0x40cff776	6.4989576
122	0x3f0b6da2	0.5446416
123	0xbff9b0d2	-1.9507086
124	0xbf365cef	-0.71235555
125	0xbf5a5755	-0.8528951
126	0xbff91eb0	-1.946249
127	0xc0266295	-2.599767
128	0xbdd3ad91	-0.103358395
129	0x3ec57129	0.38562897
130	0x3f922046	1.1416099
131	0x3f667b60	0.90032005
132	0x400981cd	2.1485474
133	0x4044eed7	3.0770776
134	0x3f2a1d75	0.664512
135	0x3feb8dc3	1.8402637
136	0x405f430e	3.4884677
137	0xc0555427	-3.3332613
138	0x408f8d2e	4.485984
139	0x409894ce	4.7681646
140	0x3f955d42	1.1669085
141	0xc066a1ea	-3.6036325
142	0xbfc4d511	-1.5377523
143	0x3efa4c87	0.4888651
144	0xbf86f5e9	-1.0543796
145	0x4112f8bf	9.185729
146	0xc06e7f20	-3.726509
147	0xc0d9a843	-6.8017898
148	0xc068e3de	-3.638908
149	0xc0711d0d	-3.767398
150	0xc0ab0207	-5.3439975
151	0xc019f70f	-2.4057043
152	0xc0aad61e	-5.3386374
153	0xbea06152	-0.3132425
154	0xbf8aaba9	-1.0833637
155	0xc041a0ba	-3.025435
156	0x3f6a6de1	0.9157391
157	0x3ec5a9b0	0.38606024
158	0xbda19bdc	-0.07891056
159	0x3f8f04d0	1.1173344
160	0x400824a1	2.1272357
161	0x3e5baa40	0.21451664
162	0xbc2f7bb5	-0.010710646
163	0x3f939d51	1.1532384
164	0xbf90ff53	-1.1327919
165	0xbfda4545	-1.7052389
166	0xc052dcb4	-3.2947206
167	0xc016a832	-2.3540158
168	0xbf4a9307	-0.79130596
169	0x41209ae9	10.03782
170	0xc099303b	-4.7871375
171	0x400c8d51	2.1961253
172	0xbe7ce275	-0.24695762
173	0x402ac112	2.668034
174	0x3ecb7ab9	0.39742067
175	0xbf9ad25f	-1.209545
176	0x3f7fff21	0.9999867
177	0xbf8a121d	-1.0786778
178	0xbfedf9b3	-1.8591827
179	0x3ffac066	1.9589965
180	0xbfac44a4	-1.3458447
181	0xc046cb1e	-3.1061473
182	0xc05173fc	-3.2727041
183	0x400a0b64	2.1569452
184	0x4032f1cc	2.796008
185	0xc0dc3b7f	-6.8822627
186	0xbe9084e8	-0.282264
187	0xbfc3a9e8	-1.5286226
188	0xc0ea3127	-7.3185
189	0xbe81c9d0	-0.25349283
190	0xbdc44d2f	-0.09585034
191	0x3f0443cc	0.5166595
192	0x3bd901f9	0.0066225496
193	0xc001ac67	-2.0261476
194	0x3fd6b856	1.6775005
195	0xbf459359	-0.7717796
196	0x3e38ab1c	0.18034023
197	0x3fdc0ff8	1.7192373
198	0x3ed71fb9	0.4201639
199	0xc09c93c3	-4.8930373
200	0x40253ed9	2.581961
201	0xc0d8bb1e	-6.7728415
202	0xc1092582	-8.571657
203	0xc0e4e79d	-7.153273
204	0x3e7951e7	0.2434765
205	0xbfdedb9e	-1.7410772
206	0x3fd8f936	1.6951053
207	0x3d020f7f	0.03175306
208	0xc0ab389f	-5.3506618
209	0x400248c0	2.0356903
210	0xc00798bd	-2.1186974
211	0x40892669	4.2859387
212	0x3e619fb2	0.22033575
213	0xbfbf23af	-1.4932765
214	0x3f610867	0.87903446
215	0x3ea0fa03	0.31440744
216	0xbfa5f260	-1.2964592
217	0xc09d2744	-4.911043
218	0xbecd314f	-0.40076682
219	0xbfb6dfbb	-1.4287027
220	0xc131e49b	-11.118312
221	0x3f80395f	1.0017508
222	0xbf1a8ac7	-0.6036801
223	0xbe73aec2	-0.23797134
224	0xbee84e94	-0.4537245
225	0x401f40e8	2.4883366
226	0x3f46a9b8	0.7760272
227	0xbfecd7e7	-1.8503388
228	0x3f78aa86	0.971352
229	0x4004a3cd	2.0724976
230	0xbbdcce6f	-0.006738476
231	0x3e7b69e7	0.24552117
232	0xbe80e659	-0.2517574
233	0xbed245e1	-0.41068938
234	0xc0724016	-3.7851615
235	0xbf2845b3	-0.6573135
236	0x3fe8615d	1.8154713
237	0xc0934491	-4.60212
238	0x3f305539	0.6888004
239	0x407a9ec2	3.9159398
240	0xc0c6666d	-6.200003
241	0xbffc4d74	-1.9711137
242	0xbfbbb761	-1.4665338
243	0x3fa0bb61	1.2557184
244	0xbf0ea58a	-0.5572134
245	0x40408b1c	3.0084906
246	0x3fdc8f18	1.7231169
247	0xc0aa922b	-5.330343
248	0x4000d19e	2.012794
249	0x40ce6294	6.4495335
250	0xbf64e372	-0.89409554
251	0x40641254	3.5636187
252	0x3f80284b	1.0012296
253	0xbed9ee6c	-0.42564714
254	0xbee47761	-0.4462233
255	0x407fce43	3.9969642

layer1.0.bn2.weight f4 [16]
0	0x3e9389ff	0.2881622
1	0x3ec09e46	0.37620753
2	0x3e85890d	0.26081124
3	0x3f0e0e8e	0.5549096
4	0x3ea0e9df	0.3142843
5	0x3eb896f2	0.36052662
6	0x3ea8fa9c	0.330037
7	0x3eca0173	0.3945423
8	0x3eb69d5f	0.3566694
9	0x3eab50db	0.33460125
10	0x3e9e96a4	0.30974305
11	0x3eda530d	0.42641488
12	0x3ee4676f	0.44610164
13	0x3ec51715	0.38494173
14	0x3eb685ba	0.356489
15	0x3e90892c	0.28229654

layer1.0.bn2.bias f4 [16]
0	0x3e5004b5	0.20314296
1	0x3f04f928	0.5194268
2	0x3f38f346	0.72246206
3	0x3e2f18c9	0.17099299
4	0x3e7bc335	0.24586184
5	0x3e7a0778	0.24416912
6	0x3ea0e359	0.31423452
7	0xbe923b7b	-0.28561005
8	0x3e93b1ad	0.28846493
9	0x3dfeeac3	0.12447121
10	0x3ec8edbd	0.3924388
11	0x3e7cde0f	0.24694084
12	0xbe7c5063	-0.2464004
13	0x3f0256a5	0.5091346
14	0x3e288637	0.16457449
15	0x3f025847	0.5091595

layer1.0.bn2.running_mean f4 [16]
0	0x42c57169	98.721504
1	0xc2923331	-73.09998
2	0xc0001bf4	-2.0017061
3	0xc326f9d5	-166.9759
4	0xc2549e29	-53.154453
5	0xc1998c04	-19.193367
6	0xc28afae5	-69.49003
7	0x430a5c4e	138.36057
8	0xc29c3a68	-78.114075
9	0xc29b1ae5	-77.55253
10	0x43810785	258.05875
11	0xc2d46753	-106.201805
12	0xc2c07454	-96.2272
13	0x42c67fbf	99.249504
14	0xc2eb39e6	-117.61308
15	0xc34900b4	-201.00275

layer1.0.bn2.running_var f4 [16]
0	0x45c87fb7	6415.9644
1	0x460eb65c	9133.59
2	0x45b6319a	5830.2
3	0x46210fe3	10307.972
4	0x46009e3c	8231.559
5	0x46067213	8604.519
6	0x45c363eb	6252.4897
7	0x4532f51a	2863.3188
8	0x4608de2c	8759.543
9	0x46678c73	14819.112
10	0x4597567d	4842.811
11	0x46228868	10402.102
12	0x46185132	9748.299
13	0x46194804	9810.004
14	0x4621399a	10318.4
15	0x45baddba	5979.716

layer1.0.conv2.weight f4 [16, 16, 3, 3]
0	0xbf0a1ec2	-0.5395318
1	0xbfdea205	-1.7393194
2	0xc014ed03	-2.326966
3	0xbd19045f	-0.037357684
4	0xbe019458	-0.12654245
5	0x3f3692dc	0.7131784
6	0x3e04e5bf	0.12978266
7	0x3fcc8a8f	1.5979785
8	0x408598ad	4.174887
9	0x3f410a44	0.7540629
10	0xbff693ee	-1.9263895
11	0x3f6aa47e	0.91657245
12	0xbf2beeb4	-0.6716111
13	0xc0058cec	-2.0867262
14	0xbf524404	-0.82135034
15	0x40260852	2.5942578
16	0x40d36558	6.606121
17	0x40651a50	3.579731
18	0x3f9691f7	1.1763295
19	0x3f82b563	1.0211605
20	0xbf0134a8	-0.5047097
21	0xbfd2dd43	-1.6473774
22	0xbf973894	-1.1814141
23	0xbf5a4ade	-0.8527049
24	0x3f1f14d1	0.6214114
25	0xbfaf03cb	-1.3673033
26	0x3ec271ef	0.3797755
27	0x3ef8068b	0.48442492
28	0xbf3d5a6f	-0.73966116
29	0xbf3feed0	-0.74973774
30	0x3ff000b0	1.875021
31	0x40e9ca86	7.305972
32	0x3e26299b	0.16226809
33	0x3ed6e412	0.4197088
34	0xc02e0cac	-2.7195234
35	0xbf4a49fb	-0.79019135
36	0xbf670e62	-0.9025632
37	0x3f0cf638	0.550632
38	0x3dd4ff06	0.10400204
39	0x3fa41051	1.2817479
40	0xbf6e3d9b	-0.9306275
41	0xbf7dd8fd	-0.9915922
42	0x3fbf7d5e	1.4960134
43	0x3fb7eb9d	1.4368778
44	0x3f9da023	1.2314495
45	0xc0096a89	-2.1471274
46	0xbf2f2dd5	-0.6842931
47	0xbe8910d3	-0.26770648
48	0x3f93074a	1.14866
49	0xc085a6b8	-4.1766014
50	0xbf6fce2b	-0.9367396
51	0x3e945c56	0.28976697
52	0x40374996	2.8638663
53	0x3f6755a2	0.9036504
54	0xbe946c7b	-0.28989014
55	0x3f570376	0.83989656
56	0x3f704551	0.9385577
57	0xbf86a4f3	-1.0519089
58	0x3f9f1e9a	1.2431214
59	0x3e028161	0.12744667
60	0x3fb54b97	1.4163693
61	0xc007c0e7	-2.1211488
62	0x3e11c652	0.1423581
63	0xbea740f3	-0.3266674
64	0x3e136759	0.14394893
65	0x3edecf8e	0.43517727
66	0x3e9baf93	0.3040739
67	0xbe51da04	-0.20493323
68	0x3d7f1b67	0.062281992
69	0x3f68bbe0	0.90911674
70	0x3f889cda	1.0672867
71	0xbf8566de	-1.0422018
72	0xbec70986	-0.38874453
73	0x3f1bc1e8	0.6084275
74	0xbf79b4c1	-0.97541434
75	0xbfab3785	-1.3376318
76	0x3f9a13ce	1.2037294
77	0x3f897c06	1.0740974
78	0xbfa4c485	-1.2872473
79	0x3e2f5627	0.17122708
80	0xbe684284	-0.22681624
81	0x3f55dcec	0.83540225
82	0x3e5baf32	0.2145355
83	0x3f81baa4	1.0135083
84	0xbf0904b8	-0.53522825
85	0xbc07c446	-0.008286541
86	0x3f17acd9	0.5924812
87	0xbda20d29	-0.07912666
88	0xbf58d1f3	-0.8469536
89	0xbfa4bb88	-1.286973
90	0xbf5884ec	-0.8457782
91	0xbf9aac0a	-1.2083752
92	0xbf99dfec	-1.202146
93	0xbf620874	-0.8829415
94	0x3ff7c8ca	1.9358151
95	0x3ff2e04b	1.8974699
96	0xbf4eee6d	-0.8083256
97	0x3fac9bf1	1.348509
98	0xbf819aa2	-1.0125315
99	0xbe8e3bc9	-0.27779987
100	0xbe8a202b	-0.26977667
101	0xbf952b00	-1.1653748
102	0x3e4c62c9	0.19959559
103	0xbf03868a	-0.51377165
104	0x40064913	2.09821
105	0xbf5a0cf2	-0.85176
106	0xbdf0f5f0	-0.11765659
107	0x3fd0b6b3	1.6305755
108	0x3f05dcdc	0.5229013
109	0xbe6fb5c9	-0.2340919
110	0xbcaac3b2	-0.020845268
111	0x3fa3d76f	1.280012
112	0x3f8df4fd	1.109039
113	0x3f34c671	0.706153
114	0x3fede1ad	1.8584496
115	0x3fc4ee08	1.5385141
116	0xbf993579	-1.1969444
117	0xbf9708bf	-1.1799544
118	0xbc1595d6	-0.009129962
119	0xbf3e1c57	-0.74261993
120	0x3f85b376	1.0445392
121	0xbf03530f	-0.5129861
122	0x3f4c1832	0.7972442
123	0xbf859fd1	-1.0439397
124	0x3f14fe38	0.5820041
125	0x3f2a2ae1	0.6647168
126	0xbf04a8e7	-0.51820225
127	0xbe005851	-0.1253369
128	0xbfd57886	-1.6677406
129	0xbf44e6eb	-0.7691485
130	0x3ff30b38	1.8987799
131	0xbf62124a	-0.88309157
132	0xbf7ffd8f	-0.99996275
133	0x40a36259	5.1057553
134	0x3e24031d	0.16016813
135	0xbfa8ca0c	-1.318666
136	0x3f41c875	0.756965
137	0x3e922bc0	0.28549004
138	0x3ebcd45b	0.36880764
139	0xbda43d44	-0.08019498
140	0xbfdfddbc	-1.7489543
141	0x3f8ac2ad	1.084066
142	0xbf06a26b	-0.5259158
143	0x400c0fdd	2.1884682
144	0xbd981092	-0.074250355
145	0x402f533e	2.7394557
146	0x403623c0	2.845932
147	0x3e820935	0.2539765
148	0x400cf7ce	2.2026248
149	0x40584e6f	3.3797872
150	0xbf6787c9	-0.90441567
151	0xc01845d3	-2.3792617
152	0xc026f8d5	-2.6089375
153	0xbf09b4cf	-0.53791517
154	0xbf189d14	-0.5961468
155	0xbf9cc3c7	-1.2247247
156	0x3f8a9a79	1.0828391
157	0x3f123ebf	0.5712699
158	0x3d20b10b	0.03923134
159	0xbed4cdaa	-0.4156316
160	0xc02841c4	-2.629014
161	0xbeaa1911	-0.3322225
162	0xbec32a13	-0.38118038
163	0x400bcdbe	2.1844325
164	0x404e6f3b	3.225539
165	0xbf10ab86	-0.56511724
166	0xbf1bcdd9	-0.60860974
167	0xbe90f429	-0.2831128
168	0xbfcdc10e	-1.6074541
169	0xbfdedb5d	-1.7410694
170	0xc0122886	-2.2837234
171	0x3ecf914b	0.40540537
172	0xbf90a568	-1.1300478
173	0xbea6365d	-0.3246335
174	0x3eddccb7	0.43320248
175	0xbf38d70c	-0.72203135
176	0x3ec7e17f	0.39039227
177	0x3f759126	0.95924604
178	0x3f98aeec	1.1928382
179	0x402b7a41	2.6793368
180	0x3ffd8af7	1.9808034
181	0xbeae7a5a	-0.34077722
182	0xbefe2a5c	-0.49641693
183	0x40bf495a	5.977704
184	0x3febba89	1.8416301
185	0xc051eb71	-3.2799952
186	0x407f3ba2	3.9880147
187	0x3fc8333c	1.5640635
188	0x3fbb2171	1.461958
189	0xbf0baa76	-0.5455698
190	0x3f206edf	0.62669176
191	0x3ef7afc1	0.48376277
192	0xbf2c848f	-0.6738977
193	0xbf83edc6	-1.0306938
194	0x3f6afb92	0.91790116
195	0x3e030411	0.1279452
196	0xbde71a4b	-0.11284312
197	0x3f964b31	1.1741697
198	0xc021bf35	-2.5272954
199	0x3eafb423	0.3431712
200	0x3de53ed0	0.11193621
201	0xbfd06f73	-1.6284012
202	0xbdb27398	-0.08713454
203	0xbeda8be4	-0.42684853
204	0xc009ce25	-2.153207
205	0xbeb019a2	-0.34394556
206	0x3f1101b0	0.566432
207	0x3dc8e084	0.09808448
208	0xbf703d68	-0.938437
209	0xbfc22bdd	-1.5169636
210	0xbe000f4d	-0.12505837
211	0xc02411bd	-2.5635827
212	0xbe80da5c	-0.25166595
213	0xbfd87048	-1.6909266
214	0xbf143408	-0.57891893
215	0x3f08c31f	0.5342273
216	0xbe2c1122	-0.1680341
217	0x3fa1e292	1.2647269
218	0xbf4586fe	-0.77159107
219	0x3f5cec62	0.8629819
220	0x40bce317	5.902721
221	0x40058d3c	2.0867453
222	0x401be3bf	2.4357755
223	0x40ce51e3	6.447496
224	0x40a7e341	5.246491
225	0xc008272a	-2.1273904
226	0x3f0dc05d	0.5537165
227	0xc02a9621	-2.6654131
228	0xbed5d8f4	-0.41767085
229	0x3fba92e6	1.457608
230	0xbdfa933c	-0.12235114
231	0x3f53e796	0.8277525
232	0x403685e6	2.8519225
233	0x40066eb6	2.1005073
234	0xbff27014	-1.8940454
235	0xc025dd7b	-2.591643
236	0xbe974d77	-0.29551288
237	0x3fde7cd0	1.738184
238	0xbf87c5c1	-1.0607225
239	0x3f79e3b6	0.97613084
240	0x4015a887	2.338411
241	0xbf69be8f	-0.91306394
242	0xbe32db87	-0.17466556
243	0x3f011b82	0.504326
244	0xc081cef6	-4.056514
245	0xc03d611e	-2.9590526
246	0x4015d81b	2.341315
247	0xc042ba55	-3.0426228
248	0xc0819a0b	-4.050054
249	0x403c6e4c	2.944232
250	0xbfdc9a04	-1.7234502
251	0xc033fb5e	-2.8122172
252	0x3f9ebaa2	1.2400706
253	0x3e84f0dc	0.2596501
254	0x3fcc70d5	1.5971934
255	0x3f4276a8	0.75962305

layer1.1.bn1.weight f4 [16]
0	0x407b792c	3.9292707
1	0x3fc013e5	1.5006071
2	0x402a9ecf	2.665943
3	0x3f84220d	1.0322891
4	0x407344c5	3.8010724
5	0x3f9e6e5d	1.237743
6	0x4020ff71	2.515591
7	0x40a394b8	5.111904
8	0x40960d83	4.6891494
9	0x3f9ac75b	1.2092088
10	0x4097efae	4.748008
11	0x4043f494	3.0618029
12	0x4009d0fb	2.1533802
13	0x3fb8b7f5	1.4431139
14	0x3fd55f78	1.666976
15	0x3fcb5a1a	1.5886872

layer1.1.bn1.bias f4 [16]
0	0xbf255e4f	-0.6459703
1	0xbe885ce7	-0.2663338
2	0x3fe91dcd	1.821222
3	0x40a02727	5.0047793
4	0x407e5828	3.9741306
5	0x3f698cf5	0.9123071
6	0xbe26fb0d	-0.16306706
7	0x40630761	3.5473254
8	0xbf63ff75	-0.8906167
9	0x3fbfd188	1.4985819
10	0x3ff912db	1.9458879
11	0xc0ea0ec9	-7.314305
12	0xbe99717c	-0.29969394
13	0xbf61c116	-0.8818525
14	0xbf89593c	-1.0730357
15	0x40e35cb7	7.1050677

layer1.1.bn1.running_mean f4 [16]
0	0x40c80030	6.250023
1	0x4030a38a	2.7599816
2	0xc04ebd08	-3.2302876
3	0xc0f6cad3	-7.712259
4	0xc0aa2fb6	-5.318324
5	0xc1307a09	-11.029794
6	0x411a757c	9.653683
7	0xc122d5cf	-10.177199
8	0x3f610ea6	0.87912977
9	0xc0d4257a	-6.629575
10	0xc08c78eb	-4.3897605
11	0x41212790	10.072159
12	0xc10e28c7	-8.884955
13	0xc1864512	-16.783726
14	0xc0f33dbb	-7.6012855
15	0x40830712	4.094613

layer1.1.bn1.running_var f4 [16]
0	0x43288740	168.52832
1	0x439923db	306.28012
2	0x429caf63	78.34255
3	0x438d9e78	283.23804
4	0x43535703	211.33989
5	0x429407e5	74.01542
6	0x43d7fc9b	431.97348
7	0x4307bb03	135.73051
8	0x432367a6	163.40488
9	0x4391f218	291.89136
10	0x430c7e47	140.49327
11	0x4214ca88	37.197784
12	0x437f7a0b	255.47673
13	0x444f8a77	830.1635
14	0x440f2746	572.61365
15	0x42a793f7	83.788994

layer1.1.conv1.weight f4 [16, 16, 3, 3]
0	0x40063b51	2.0973704
1	0xbe99983b	-0.29998955
2	0xc059a873	-3.4009063
3	0xbffc5f7d	-1.9716641
4	0x3f07bd5c	0.53023314
5	0xbef99737	-0.4874818
6	0xbf4e990b	-0.80702275
7	0x3f88758f	1.0660876
8	0xbbe4ed82	-0.006986321
9	0xbfc4ce9b	-1.5375551
10	0xbf7734ef	-0.96565145
11	0xbeb71dc1	-0.35764888
12	0x3ef3e802	0.47637945
13	0xbfaf4d7c	-1.3695521
14	0xbef559a1	-0.47919944
15	0xbe363716	-0.17794451
16	0xbfd491dc	-1.6607013
17	0xbf68dc63	-0.90961283
18	0xbfa9f0c1	-1.3276597
19	0x3ed0bef1	0.40770677
20	0xbfe7e060	-1.8115349
21	0xc0e352fa	-7.103879
22	0xbfbe2d31	-1.4857541
23	0x40861dad	4.1911225
24	0x4078b0fc	3.8858023
25	0xbfeb3ab5	-1.8377291
26	0xbfcaeec4	-1.5854115
27	0xbf85f5f1	-1.046568
28	0xbe47fee2	-0.19530824
29	0x3fa8186e	1.3132455
30	0xc01a7468	-2.4133549
31	0xc0195477	-2.3957803
32	0xbf832a59	-1.0247298
33	0xbf49f5c7	-0.7889065
34	0xbd7942bb	-0.060854655
35	0xbf195429	-0.59894043
36	0x400ca439	2.1975234
37	0xc06d283f	-3.7055814
38	0xc011777c	-2.2729177
39	0xbf15b25f	-0.584753
40	0xc1ad233a	-21.6422
41	0x3fa908ad	1.3205773
42	0x3efb15df	0.49040124
43	0x40463a8f	3.0973241
44	0xbf005cce	-0.5014161
45	0xbf5e58b2	-0.8685409
46	0x3f6156d6	0.88023126
47	0xbe4b290e	-0.1983988
48	0x3dda51c6	0.10660128
49	0x3f37f4bc	0.7185781
50	0xbfc6534b	-1.5494169
51	0xbf7e8742	-0.9942514
52	0x40393759	2.8940032
53	0x3e7f1be0	0.24912977
54	0xbf9dee57	-1.233836
55	0xbe3d6e93	-0.18499212
56	0x3f0900f9	0.5351711
57	0xbf611cef	-0.87934774
58	0x3fb393e6	1.402951
59	0x4021460f	2.519901
60	0xbf502bbc	-0.81316733
61	0x3f126fe3	0.57201976
62	0x3c6687a3	0.014070424
63	0xc05048c4	-3.2544413
64	0x40a88a76	5.266902
65	0xbf93f7e7	-1.1560029
66	0x4096b709	4.709843
67	0xc143fc8a	-12.249155
68	0x40426ddd	3.0379555
69	0xbf47f3ba	-0.7810627
70	0x3fe6dcaf	1.8036097
71	0x3f35733c	0.7087896
72	0xbe195983	-0.14975552
73	0xbe95285d	-0.29132357
74	0x3fe5eae6	1.796231
75	0xbfead73c	-1.8346934
76	0x3fed6a5b	1.8548082
77	0x3d08c370	0.03338951
78	0x3e942127	0.28931543
79	0x3bc031bc	0.005865304
80	0xbdea1f55	-0.11431757
81	0x3f9618e1	1.1726342
82	0x3f6770bb	0.9040639
83	0x3fff52de	1.9947164
84	0xc08ad4ce	-4.338477
85	0x3f4c690e	0.798478
86	0x3c8bc660	0.017062366
87	0x3f9c6a3d	1.2219921
88	0x3fda6aab	1.7063802
89	0xbf94a9a9	-1.1614276
90	0xbfcb580b	-1.5886244
91	0xbfaac9c7	-1.3342828
92	0x3e0840ab	0.13305919
93	0x406e71a9	3.7256873
94	0xbfc511f6	-1.5396106
95	0xbf0242af	-0.50883
96	0xc06c2784	-3.6899118
97	0xbfcf3a4c	-1.6189666
98	0x3f2e66ac	0.68125415
99	0x3fa27a5b	1.269359
100	0x3fcdbab9	1.6072608
101	0x3f52cdad	0.82345086
102	0x40e8120a	7.252202
103	0xc1285470	-10.520615
104	0x3f8a1dd7	1.0790356
105	0xc096ce13	-4.7126555
106	0x4002e50e	2.0452304
107	0x3f7891ea	0.9709765
108	0xbe44a365	-0.19202955
109	0x3f709b2a	0.9398676
110	0xbf511970	-0.8167944
111	0xbaf38980	-0.0018580407
112	0x3f3d64b7	0.73981804
113	0xbf91e32a	-1.139745
114	0xbf616026	-0.88037336
115	0x3fe03855	1.7517191
116	0xbfb29786	-1.3952491
117	0x3f6f67ba	0.9351765
118	0xbe2f3ab1	-0.17112233
119	0x3f8453c7	1.0338067
120	0x3f183791	0.5945979
121	0xc046b84a	-3.104998
122	0x3e504e83	0.2034245
123	0x3f90899e	1.1291997
124	0xbf8ae02f	-1.0849665
125	0xbef02dbc	-0.46909893
126	0xbfe49f32	-1.7861083
127	0xbeecc4d4	-0.46243918
128	0xbf9a1ca0	-1.2039986
129	0xbffdef51	-1.9838659
130	0xbf3fa763	-0.74864787
131	0xbf8692d9	-1.0513564
132	0xbf610253	-0.8789417
133	0xbf38b769	-0.7215486
134	0x3f1d0951	0.6134234
135	0xc00913d5	-2.1418355
136	0x3f5a6dd5	0.8532384
137	0x3f1359af	0.5755872
138	0xc0c3265a	-6.0984316
139	0x3f4de470	0.8042669
140	0x3e4b08bb	0.19827549
141	0xbf1b9d82	-0.6078721
142	0x3ef80b58	0.48446155
143	0xbf8b276c	-1.0871406
144	0xc00fe1da	-2.24816
145	0x3f37260a	0.7154242
146	0x408acc9c	4.3374767
147	0xc01efcbc	-2.4841757
148	0xc0383389	-2.8781455
149	0xbd707d92	-0.058713503
150	0xbf7951fa	-0.9739071
151	0xbf966a15	-1.1751124
152	0xbe47774b	-0.194791
153	0xbf6b350d	-0.91877824
154	0x3fad168d	1.3522507
155	0xbf2e591e	-0.6810473
156	0xc0440b29	-3.0631812
157	0x3f739358	0.95146704
158	0xbfb8576d	-1.440168
159	0xc0bf3f83	-5.976503
160	0xbe14f008	-0.1454469
161	0x3e863a83	0.26216516
162	0xbfe8a5be	-1.817558
163	0x3febcf61	1.8422662
164	0xbf237290	-0.63846684
165	0xbf05d5ae	-0.52279174
166	0xc036701c	-2.8505926
167	0x3f440a2d	0.76578027
168	0x3e3a147e	0.1817188
169	0x406c3d3b	3.6912372
170	0x407de32c	3.9669905
171	0x3f57d8c3	0.8431513
172	0xc0ba3212	-5.818612
173	0xc0661e9a	-3.5956178
174	0x3f3cff6d	0.7382725
175	0xc0b7e404	-5.746584
176	0x3f9a8820	1.2072792
177	0x3efa1b0e	0.48848766
178	0xc0b1f933	-5.56167
179	0x3effc563	0.49955282
180	0xbfdf0174	-1.7422318
181	0x3fcf06c9	1.6173946
182	0xbf545142	-0.8293649
183	0x3f805c92	1.002825
184	0xbf09e3e2	-0.53863347
185	0xc006655b	-2.0999362
186	0x3ffc9d18	1.9735441
187	0xc01b1038	-2.422865
188	0xbf1372fb	-0.5759732
189	0xbf54e082	-0.8315507
190	0x3d9f5b3e	0.07781075
191	0xbeeeaa76	-0.46614426
192	0x3f446618	0.7671828
193	0xbf0188e9	-0.50599533
194	0xbf9e33c0	-1.2359543
195	0xbf8973d6	-1.0738475
196	0x3fe6d331	1.80332
197	0xbfccad7e	-1.5990446
198	0x3f915fbb	1.135734
199	0x3f4e4164	0.8056853
200	0xbf972f99	-1.1811401
201	0x3fe7e914	1.8118005
202	0x3fc9f554	1.5777993
203	0xbf7a5128	-0.97780085
204	0xbe75782c	-0.23971623
205	0xbf19399f	-0.5985355
206	0xbf9a6536	-1.2062137
207	0xbf5c5d10	-0.860795
208	0x400785b3	2.1175354
209	0x40807060	4.0137177
210	0xbe472b78	-0.19450176
211	0x4100d20f	8.051284
212	0xbfe7a98d	-1.8098618
213	0x3ecd297a	0.40070707
214	0xbf95de3d	-1.1708447
215	0xbf205093	-0.62622947
216	0xc13af905	-11.685796
217	0xc134ec50	-11.3076935
218	0xc0c82bec	-6.2553616
219	0x4048ba70	3.1363792
220	0x409efbf6	4.968257
221	0x3f281881	0.6566239
222	0x3fa300d5	1.2734629
223	0xbea82804	-0.3284303
224	0x3e7a5eb9	0.24450196
225	0x40101dd2	2.25182
226	0x4068ee19	3.6395323
227	0x3f3016ff	0.6878509
228	0x3de10a77	0.10988324
229	0x3fd7a81a	1.6848176
230	0xbfd092c6	-1.6294792
231	0x3dec82d6	0.115483925
232	0xc03d2d7d	-2.9559014
233	0xbff48262	-1.910229
234	0xc135f996	-11.373434
235	0xc048fd7c	-3.1404715
236	0xbfa05aef	-1.2527751
237	0xc0a525dd	-5.160872
238	0xbf1d7ea9	-0.61521393
239	0xbed267e2	-0.4109488
240	0xc014e783	-2.3266304
241	0x3fab5bd2	1.3387396
242	0x3ddc16c0	0.10746527
243	0xc094c627	-4.6491885
244	0xc0198dd7	-2.3992822
245	0x401f56b2	2.4896665
246	0xc0bb9cd2	-5.862893
247	0xc01197b5	-2.2748845
248	0x4011755a	2.2727876
249	0x3e34aac2	0.17643264
250	0xbf8b6667	-1.0890626
251	0xbfc59223	-1.5435222
252	0xbfcbc6a9	-1.5920001
253	0xc0836b5c	-4.1068554
254	0xc0bbd39f	-5.8695827
255	0xbf39404b	-0.7236373

layer1.1.bn2.weight f4 [16]
0	0x3f3df465	0.7420104
1	0x3f12eff5	0.57397395
2	0x3e984c3b	0.2974566
3	0x3f7db43c	0.9910314
4	0x3f92eab6	1.1477878
5	0x3f1c5ada	0.6107613
6	0x3edadeac	0.4274801
7	0x3ed20c4a	0.41025
8	0x3ead0df6	0.33799714
9	0x3ec81bca	0.390837
10	0x3ebc64d3	0.36795673
11	0x3f6a691f	0.9156665
12	0x3f01ab97	0.5065245
13	0x3eba7140	0.36414528
14	0x3f3d448d	0.73932725
15	0x3f326464	0.69684434

layer1.1.bn2.bias f4 [16]
0	0xbbe9face	-0.007140494
1	0xbd7a3514	-0.061085775
2	0x3e4bee3a	0.19915095
3	0xbfae627a	-1.3623803
4	0xc058f52d	-3.3899643
5	0x3c70a25d	0.014687148
6	0xbd50e048	-0.05099514
7	0x3dae745e	0.08518289
8	0x3eca0ecb	0.3946441
9	0x3e488549	0.19582094
10	0x3e269b84	0.16270262
11	0xbf07610b	-0.5288245
12	0x3ccbdc1c	0.02488523
13	0x3dbba272	0.09161843
14	0xbef69c8a	-0.48166305
15	0xbe5d06b9	-0.21584596

layer1.1.bn2.running_mean f4 [16]
0	0xc3573024	-215.18805
1	0xc38f696d	-286.82364
2	0xc2a96f4f	-84.7174
3	0xc23ebcb8	-47.684296
4	0xc232f11f	-44.73547
5	0xc3384c81	-184.29884
6	0x427190e6	60.391502
7	0xc19c8a95	-19.567667
8	0x427434e1	61.05164
9	0x41a9be4e	21.217922
10	0xc32c2318	-172.13708
11	0xc2cfc911	-103.89271
12	0xc0890d88	-4.282902
13	0x4242936e	48.643974
14	0xc2b31ac8	-89.55231
15	0xc32db9c2	-173.72562

layer1.1.bn2.running_var f4 [16]
0	0x469c1078	19976.234
1	0x465ca932	14122.299
2	0x45b37a0a	5743.255
3	0x454c02f7	3264.1853
4	0x456d6ee2	3798.9302
5	0x46b76a8a	23477.27
6	0x45b036c0	5638.8438
7	0x45978d44	4849.658
8	0x45870ca2	4321.579
9	0x46044667	8465.601
10	0x459c40b0	5000.086
11	0x462a1abf	10886.687
12	0x45a31bce	5219.4756
13	0x459b6ecd	4973.85
14	0x45ca5648	6474.785
15	0x464a48d4	12946.207

layer1.1.conv2.weight f4 [16, 16, 3, 3]
0	0x3f03bac1	0.5145684
1	0x404c9b56	3.196981
2	0x3f7ea183	0.994652
3	0xbfc0933b	-1.5044931
4	0x3ede28bd	0.43390456
5	0xbdd90b04	-0.10597804
6	0xbeb035cc	-0.34416044
7	0x4046dca9	3.107218
8	0xbf340126	-0.7031425
9	0xc01b0a6c	-2.422511
10	0xbf6fa940	-0.9361763
11	0xbf820823	-1.0158733
12	0x3fee7f5f	1.863262
13	0x3d43e1a3	0.047822606
14	0x4040180e	3.0014682
15	0x3f6f46f7	0.9346766
16	0xbea63f03	-0.3246995
17	0x400ca7df	2.197746
18	0xbf5c22e1	-0.8599072
19	0xc0224b59	-2.5358489
20	0xc01b8ddc	-2.4305334
21	0x3f784548	0.96980715
22	0x3e846b1e	0.25862974
23	0xbf8f5210	-1.1196918
24	0x3f03418a	0.5127188
25	0x3f949ad2	1.1609747
26	0x3f0c9c32	0.54925835
27	0xbf7eee9a	-0.9958283
28	0xc03b9803	-2.931153
29	0xbef49f00	-0.47777557
30	0xbfda6ed8	-1.7065077
31	0xbe3539a0	-0.17697763
32	0xbf80216d	-1.0010201
33	0x3e9d93a6	0.3077671
34	0x40ca97ef	6.3310466
35	0xbe5979ac	-0.2123782
36	0xbf93612f	-1.1514033
37	0xc0516acb	-3.2721431
38	0xc001c774	-2.0277987
39	0xc0240212	-2.5626264
40	0xc105d129	-8.3635645
41	0xc025ded4	-2.5917253
42	0x4025b091	2.5889018
43	0x3f258f33	0.6467163
44	0x3fdfbd76	1.7479694
45	0x4065ead9	3.592459
46	0x405e8a5c	3.4771948
47	0x40089f33	2.1347167
48	0x3f8a0a31	1.078436
49	0x3e06d0ea	0.13165632
50	0xbfe1c031	-1.7636777
51	0x3de542ae	0.11194359
52	0x3eb6461c	0.35600364
53	0x3f2c28d8	0.6724982
54	0xbe285025	-0.16436823
55	0xbf3677e6	-0.712767
56	0xbf271ed1	-0.652814
57	0xbf5845c2	-0.8448144
58	0xbec5b236	-0.38612527
59	0x3c15905b	0.009128655
60	0xbf9bf9ab	-1.2185568
61	0x3e96c378	0.29446006
62	0xbe8d535e	-0.27602667
63	0xc00e2f95	-2.2216542
64	0xc07b80fa	-3.929747
65	0xbff43ff4	-1.9082017
66	0x3f0cfcf9	0.55073506
67	0xbecb8190	-0.39747286
68	0xbfcecfbf	-1.6157149
69	0x3fc48858	1.5354109
70	0x3f1589f1	0.58413607
71	0xbeaae7a5	-0.33379856
72	0x3f6aeeb1	0.91770464
73	0xbe93c6e6	-0.28862685
74	0x3f28934a	0.65849745
75	0xbf5607bc	-0.8360555
76	0xbfa26eda	-1.2690079
77	0xbea5a6ce	-0.32353824
78	0xc035e9d0	-2.8423958
79	0x40a5dd68	5.183277
80	0xbf0b3ff9	-0.5439449
81	0xc03c7658	-2.9447231
82	0x3fe6b43a	1.8023751
83	0x3e87f3f7	0.26553318
84	0xbf473dd3	-0.7782871
85	0x40038231	2.0548213
86	0x3fe20309	1.7657176
87	0x40181fb0	2.376934
88	0x3f86da5a	1.0535386
89	0x3fa266a7	1.2687577
90	0x3e325f31	0.17419125
91	0xbf28dbab	-0.65960187
92	0xbe0f6cf9	-0.14006414
93	0x3f7911f2	0.9729301
94	0x3e723463	0.23652796
95	0xbe57c4ce	-0.21071169
96	0xbefe3e16	-0.49656743
97	0x3f2d570f	0.67710966
98	0xbfaddcd2	-1.3583014
99	0x3a9f8028	0.0012168931
100	0xc0203ed6	-2.5038352
101	0xbfae131b	-1.359958
102	0x3f35f465	0.7107604
103	0xbfc1f909	-1.5154124
104	0x3e7dab19	0.247723
105	0xbfc0694e	-1.5032136
106	0xc0467bd0	-3.101307
107	0x3f0e8c84	0.5568316
108	0xbdd98cdd	-0.10622571
109	0xc010c76f	-2.2621725
110	0x3ee6f679	0.4510992
111	0xbfbe0fe5	-1.4848601
112	0xc05394aa	-3.3059487
113	0x3ecccd19	0.40000227
114	0xc0650fa0	-3.5790787
115	0xc0938f10	-4.6112137
116	0x3f1029ff	0.5631408
117	0x3f9291e4	1.1450772
118	0x3fced783	1.6159519
119	0x3ece0350	0.40236902
120	0xbf902f05	-1.1264349
121	0xbe87d6ae	-0.26530975
122	0xbf775275	-0.96610194
123	0x3f467e95	0.775369
124	0xbf1e9bb1	-0.61956316
125	0x3f6b49ed	0.91909677
126	0xbfeb4cbc	-1.8382792
127	0xbeb8a34e	-0.36062092
128	0x3e21171e	0.15731475
129	0xc0a54913	-5.16517
130	0xc088570c	-4.260626
131	0xbe861e99	-0.2619522
132	0xbecd4c20	-0.4009714
133	0xbfb702b7	-1.4297704
134	0x3f94947b	1.1607813
135	0xbf02eee2	-0.51145756
136	0x3fbf56b0	1.494833
137	0xbee5a775	-0.44854322
138	0xbf1fae75	-0.62375575
139	0xbf98a8e1	-1.1926538
140	0x3fa09cde	1.2547872
141	0xc04f67ff	-3.2407224
142	0xbfd42d4c	-1.6576324
143	0xbf6e99fd	-0.9320372
144	0x3f58e9b6	0.84731615
145	0xbd912f89	-0.07089145
146	0xbfe77a16	-1.8084133
147	0x3fe7178a	1.8054059
148	0x3f9296cd	1.1452271
149	0xbc2d87aa	-0.010591427
150	0x3f7ed83b	0.9954869
151	0xbf36ca38	-0.7140231
152	0xbf59e8ae	-0.85120666
153	0x3e4b6749	0.19863619
154	0x3f208b24	0.6271231
155	0x3f645ee3	0.89207286
156	0xc00a3a17	-2.1597955
157	0xbfc99718	-1.5749235
158	0xbf2345fe	-0.63778675
159	0xbf82de07	-1.0224007
160	0xbfd218d5	-1.6413828
161	0xbe65e337	-0.22449957
162	0xbef3ce52	-0.47618347
163	0x3d5f6d98	0.054547876
164	0xbfb652dc	-1.4244037
165	0xbf83dcfe	-1.0301816
166	0x3ed48d57	0.41514084
167	0xbece6411	-0.4031072
168	0x3f2663aa	0.64995825
169	0xbfec6342	-1.8467791
170	0x3e5135ff	0.20430754
171	0xbf8249d1	-1.0178777
172	0xbe8029ad	-0.25031796
173	0x3e9a8855	0.30182138
174	0xbeabb171	-0.33533815
175	0x3eb87e2b	0.3603376
176	0xbfa4a0c3	-1.286156
177	0xbf8a951c	-1.0826755
178	0xc015b357	-2.339071
179	0xbfb75c38	-1.4325018
180	0x3d147615	0.036245424
181	0xbf9d4de7	-1.2289399
182	0xbf1be9fe	-0.6090392
183	0x3e58aac4	0.21158892
184	0xc02ddc41	-2.7165682
185	0xc00b44b4	-2.1760683
186	0x3f689e5e	0.9086665
187	0xc05a362e	-3.4095569
188	0xbe8c53ab	-0.27407584
189	0xbf9a3947	-1.204873
190	0xbe4f7150	-0.20258069
191	0x3ec59716	0.38591832
192	0x3d81b654	0.063336045
193	0xbeabd550	-0.33561182
194	0xbf0b1d22	-0.5434133
195	0x3eb29d64	0.34885705
196	0x3fb48457	1.4102887
197	0x3fc843cf	1.5645694
198	0xbe62338e	-0.22089979
199	0x3db3dd9b	0.08782502
200	0xbfab92ee	-1.3404214
201	0x3fa7a16b	1.3096136
202	0xbdc2a7cc	-0.09504661
203	0xc0520454	-3.2815142
204	0x3e529003	0.20562749
205	0xbe097214	-0.13422424
206	0xbed7c5b7	-0.42143032
207	0xbf9c69ed	-1.2219826
208	0xbf00631d	-0.50151235
209	0xbda44d75	-0.08022586
210	0xbfc45824	-1.5339398
211	0xbf55e923	-0.83558863
212	0x3f466c7b	0.7750928
213	0xbf2e846e	-0.6817082
214	0xbfae54bb	-1.3619608
215	0x3ea56392	0.3230253
216	0x3fc23223	1.517155
217	0x3e00f384	0.12592894
218	0x3e28d14d	0.16486092
219	0x3f10748a	0.56427824
220	0x3d44265c	0.047888145
221	0x3e90cc07	0.2828066
222	0x3fe18c18	1.7620878
223	0xbf1297d1	-0.57262903
224	0x3f91540e	1.1353776
225	0x3f8bfbd4	1.0936227
226	0x3e284272	0.16431597
227	0x3ebe46e4	0.3716346
228	0xbf3f02f9	-0.7461391
229	0x400fdc84	2.2478342
230	0xbec4881e	-0.383851
231	0x3fea46b7	1.830283
232	0xbe8dca33	-0.27693328
233	0x3f2b1a0a	0.6683661
234	0xbeea9615	-0.45817629
235	0xbf20164f	-0.6253404
236	0xbf89df41	-1.0771257
237	0x3f1986ce	0.5997132
238	0xc087fd40	-4.2496643
239	0xbf1d8ec7	-0.61545986
240	0xbec0d670	-0.37663603
241	0xc0894fe3	-4.291002
242	0x3fcc8875	1.5979143
243	0x3f8ee019	1.1162139
244	0x3f28918f	0.65847105
245	0x3fc04130	1.5019894
246	0x3e5eb633	0.21749191
247	0x3f169361	0.5881863
248	0x3fe42498	1.7823668
249	0x3e059162	0.1304374
250	0xbea30338	-0.31838393
251	0x3ea66277	0.32496998
252	0xbf5eb84a	-0.8699995
253	0x3ca82ef3	0.0205302
254	0xbdd23c6b	-0.1026543
255	0xbfc7255a	-1.5558274

layer2.0.bn1.weight f4 [16]
0	0x40630bfe	3.547607
1	0x4038ea64	2.889306
2	0x403798cc	2.868701
3	0x404d280c	3.2055693
4	0x40a96506	5.293582
5	0x3fb5f1ca	1.4214413
6	0x403f007f	2.9844053
7	0x4081b895	4.053782
8	0x4079abd1	3.9011118
9	0x403cf500	2.9524536
10	0x40b0e4a5	5.5279107
11	0x401972e0	2.3976364
12	0x4057a49f	3.3694227
13	0x4081d680	4.057434
14	0x4013aa11	2.307255
15	0x40200eb9	2.5008986

layer2.0.bn1.bias f4 [16]
0	0x408278e4	4.077257
1	0x407e11b4	3.9698305
2	0x3facfec9	1.3515254
3	0x3eaf3201	0.34217837
4	0x402afe9f	2.6717908
5	0x3f97ef6f	1.1869944
6	0x3f2fdba1	0.686945
7	0x3f8b58d1	1.088648
8	0x3e0c52ab	0.1370341
9	0x3d90767a	0.070538476
10	0x3f893369	1.0718814
11	0x3e945b7b	0.28976044
12	0xbd70059e	-0.058599107
13	0xbfbd028a	-1.47664
14	0x3f8e39a7	1.1111344
15	0x4056b4c8	3.354784

layer2.0.bn1.running_mean f4 [16]
0	0x4080c713	4.024301
1	0x402b17e6	2.6733336
2	0xc04413f9	-3.063719
3	0xbfda50a0	-1.7055855
4	0xc0357cde	-2.8357463
5	0xc1c73db5	-24.90513
6	0x41458f5d	12.347501
7	0xc13c0e07	-11.753425
8	0xc111d8f8	-9.115471
9	0xc0b1ca17	-5.555919
10	0xc05693c1	-3.3527682
11	0x4083024a	4.0940294
12	0xc1868993	-16.817175
13	0xc1a5cd5d	-20.725275
14	0xc1a21ef8	-20.265121
15	0x41f09595	30.073038

layer2.0.bn1.running_var f4 [16]
0	0x431893e0	152.57764
1	0x43be7c36	380.9704
2	0x42df5b9c	111.678925
3	0x43d65c65	428.72183
4	0x433c4c8b	188.299
5	0x42df9ed7	111.810234
6	0x43d632e8	428.3977
7	0x430efd66	142.98984
8	0x4329e435	169.89143
9	0x43b4cfbf	361.62302
10	0x4351e15b	209.8803
11	0x433b9439	187.579
12	0x439acd3d	309.60342
13	0x445f2dcc	892.7156
14	0x441614a0	600.32227
15	0x4347f987	199.97472

layer2.0.conv1.weight f4 [32, 16, 3, 3]
0	0x409e6bdd	4.950667
1	0x40dab44a	6.834508
2	0x40aa43a1	5.3207555
3	0x40806799	4.012646
4	0x41078617	8.470237
5	0x40c136de	6.0379477
6	0x409646bc	4.6961346
7	0x40958df1	4.673577
8	0x4041a794	3.0258532
9	0xbfd0c03a	-1.6308663
10	0x3e84ffa5	0.2597629
11	0x3ef280c3	0.47363862
12	0x3eb58733	0.3545471
13	0x3f50b457	0.81525177
14	0xbf08f602	-0.5350038
15	0xc00d9112	-2.2119794
16	0xc0039c79	-2.0564253
17	0xc080b9b8	-4.0226707
18	0xbf6d2b1e	-0.92643917
19	0xc037a00a	-2.869143
20	0xc01a0a0b	-2.406863
21	0x3f075eb4	0.5287888
22	0x3f18be69	0.5966554
23	0x3fde181b	1.7351106
24	0x3ded5570	0.115885615
25	0xbfb2fc08	-1.3983164
26	0xc0285fd3	-2.6308486
27	0x4035c2b4	2.8400087
28	0x3eecef70	0.46276426
29	0xbf2e9e2a	-0.6821009
30	0x3ed5878a	0.4170497
31	0x3e0a1f9b	0.13488619
32	0xc07bebba	-3.9362626
33	0x3feea645	1.8644491
34	0x4012a882	2.291535
35	0xc02e099d	-2.7193367
36	0x3d85f2e1	0.06540466
37	0xc03ad074	-2.918973
38	0xc0603d5f	-3.5037458
39	0xbf2ec8f5	-0.68275386
40	0x3fa9c157	1.3262128
41	0xbf4ba68c	-0.79551005
42	0xbec4e7dd	-0.38458148
43	0x3fb349fb	1.4006952
44	0x3fbf32be	1.493736
45	0xc03d9288	-2.9620686
46	0xbfe1a5f4	-1.762877
47	0xbfa7af48	-1.3100367
48	0xbfc68195	-1.5508295
49	0xbfd384e1	-1.6524926
50	0x3e51b8bd	0.20480628
51	0x40056505	2.0842907
52	0x40a1448b	5.039617
53	0x40a5a1de	5.176009
54	0x4073d825	3.8100674
55	0x3fa28cf7	1.2699269
56	0x40aa0e96	5.3142805
57	0xc030fba9	-2.76536
58	0xbe6536f0	-0.22384238
59	0x403ebc0e	2.980228
60	0xc0e44bf6	-7.1342726
61	0xc07de636	-3.967176
62	0xbf773bbe	-0.96575534
63	0x3ce4bd9d	0.027922446
64	0xbfbbae92	-1.466265
65	0xc02f70dd	-2.7412636
66	0x40675fc7	3.6152208
67	0x3fef6e20	1.8705482
68	0x400be888	2.1860676
69	0x4027a3c9	2.6193717
70	0x401551b1	2.333111
71	0x3f5629af	0.83657354
72	0xc07cfd0e	-3.9529452
73	0xc0d15d9d	-6.5426774
74	0xc0841f71	-4.128838
75	0xbff23e4c	-1.8925261
76	0xc03e236e	-2.9709125
77	0xbf760397	-0.9609923
78	0x3de8991f	0.113573305
79	0xbfd3ea9f	-1.6555976
80	0xbf71f700	-0.9451752
81	0x3f5b97e3	0.85778636
82	0xc09d1626	-4.9089537
83	0xbfcec7d7	-1.6154736
84	0xbeaeab32	-0.34114987
85	0xc0502e7c	-3.2528372
86	0xc096ebfe	-4.7163076
87	0x40095780	2.1459656
88	0xbfc35be8	-1.5262423
89	0xc037e05f	-2.8730695
90	0xbf1b5589	-0.6067739
91	0xbea32fac	-0.31872308
92	0x3e4930f8	0.19647586
93	0x401a5049	2.4111502
94	0x403035bb	2.7532794
95	0x3fd548cb	1.666284
96	0x4085629f	4.1682887
97	0x4020a779	2.5102217
98	0x3f9bd14e	1.217325
99	0x405f79f9	3.4918196
100	0x3f0bfc8c	0.5468223
101	0x3f0aa54d	0.5415848
102	0x3f8119a3	1.0085949
103	0xc076d9c1	-3.8570406
104	0x3e6903d9	0.22755374
105	0x3e1cc897	0.15310894
106	0x3f14cee1	0.5812817
107	0x40772ba0	3.8620377
108	0xc005467e	-2.0824275
109	0xbf9c585c	-1.2214465
110	0xbeb7629d	-0.35817423
111	0xc08cced9	-4.40025
112	0xbfacd367	-1.3502015
113	0x3f059857	0.5218558
114	0xc07706ec	-3.8597975
115	0xc01b3fae	-2.4257617
116	0xc018884a	-2.3833184
117	0xc005bd81	-2.0896914
118	0xc07eac64	-3.979272
119	0xc083b03b	-4.1152625
120	0xc00d1bc0	-2.2048187
121	0xbfecd8db	-1.8503679
122	0xc012889a	-2.2895875
123	0xbfb37540	-1.4020157
124	0xbfd73f87	-1.6816262
125	0x3e784742	0.24245933
126	0xbfe3ebde	-1.7806356
127	0xc0375e87	-2.8651445
128	0xc01fc165	-2.4961789
129	0xbed54e78	-0.4166143
130	0xbeb507cc	-0.3535751
131	0xbe4d7b5d	-0.2006659
132	0x3feb03a9	1.8360492
133	0xbec1c78b	-0.37847552
134	0xbedc7edc	-0.43065536
135	0xbf276bde	-0.6539897
136	0xc0e13738	-7.0379906
137	0xc0e64d51	-7.196938
138	0x3f74ecb6	0.9567369
139	0xbe9f5a33	-0.31123504
140	0xc00159d0	-2.0211067
141	0x4056e8ef	3.3579671
142	0x40a827bc	5.2548504
143	0x3f24ce95	0.6437772
144	0xbfdb7c76	-1.7147357
145	0x40900efb	4.5018287
146	0x40ca041e	6.3130026
147	0xc0c98f8c	-6.298773
148	0x3fb9a093	1.4502128
149	0x4009eb66	2.1549926
150	0xc0a09612	-5.018319
151	0xc002de30	-2.0448112
152	0xbf1408a3	-0.5782568
153	0xbe323c48	-0.17405808
154	0x3fd8d379	1.6939536
155	0xbf8b81b5	-1.0898958
156	0xbfec8261	-1.8477288
157	0xbfb791d6	-1.4341381
158	0xbf3f34e5	-0.74690086
159	0x3f98d63c	1.1940379
160	0x3e25a424	0.16175896
161	0x3dbd7d4b	0.09252413
162	0xc0cf9802	-6.4873056
163	0xbfadbece	-1.3573854
164	0x40529327	3.2902315
165	0xbfa9974b	-1.3249296
166	0xc019fb5c	-2.4059668
167	0xbfc9f810	-1.5778828
168	0x40198cdb	2.3992221
169	0x4011799d	2.2730477
170	0xbec962ed	-0.39333287
171	0xbfd8ef6d	-1.6948067
172	0xbee9dd9a	-0.4567688
173	0xc0311f42	-2.7675328
174	0xc0512113	-3.2676437
175	0xbe99f505	-0.30069748
176	0xc0693892	-3.6440778
177	0x3f8588c3	1.0432361
178	0xbf29d368	-0.66338205
179	0xc007d720	-2.1225052
180	0x3ee81adf	0.45333
181	0xbfc83f9d	-1.5644413
182	0xc0930c39	-4.595242
183	0x4056b41e	3.3547435
184	0x402aac49	2.6667655
185	0xc08667e6	-4.200183
186	0x3f1c2968	0.6100068
187	0x3fbb6c6a	1.464246
188	0x400ca2f6	2.1974463
189	0xbfead66c	-1.8346686
190	0xbfee8bf6	-1.8636463
191	0xc04a283b	-3.1587055
192	0xc03f88db	-2.992728
193	0x3fffcce7	1.9984406
194	0x40af6394	5.4809055
195	0xc0ae3c02	-5.444825
196	0x3fda3581	1.7047578
197	0x3e4181a5	0.18897112
198	0x3f287c0c	0.6581428
199	0xbf979362	-1.1841853
200	0x408d269f	4.4109645
201	0xbfec014a	-1.8437893
202	0xc0c2b593	-6.084665
203	0x40398a9b	2.8990848
204	0x4010b974	2.2613192
205	0xc0963891	-4.694405
206	0x3fa91b6b	1.3211492
207	0x3ff9c272	1.9512465
208	0xbf2c0730	-0.6719847
209	0x3fcfb5e3	1.6227382
210	0x40c18d70	6.0485153
211	0x3f988981	1.1916963
212	0x4012a7e5	2.2914975
213	0x3fad1bed	1.3524147
214	0x40134337	2.3009775
215	0x3e4867cd	0.19570847
216	0xbfbf8dab	-1.4965109
217	0xc0b2025d	-5.5627885
218	0xc050f782	-3.2651067
219	0x40492e99	3.143469
220	0xc0401e4b	-3.001849
221	0xc000d2f1	-2.0128748
222	0x40a288e8	5.079212
223	0x409c4a44	4.8840656
224	0x3fc05d6b	1.5028509
225	0x3edc535c	0.43032348
226	0xbf538fc2	-0.8264123
227	0xbefe6e15	-0.4969336
228	0x402b81d7	2.6797998
229	0x3e7e066b	0.24807136
230	0xc0057dcd	-2.0858033
231	0x40a1942e	5.0493383
232	0x405721a5	3.3614285
233	0xc05086dd	-3.2582314
234	0x3fb4db7d	1.4129483
235	0x40dda153	6.925943
236	0x409144c8	4.539646
237	0xc084acb1	-4.1460805
238	0x405c6bad	3.444072
239	0x4014fd7a	2.327971
240	0xbffe057f	-1.9845427
241	0xc020dcac	-2.5134687
242	0x403edf3d	2.9823754
243	0x4059a4f3	3.4006927
244	0xbfcf771a	-1.6208222
245	0x3fd1f971	1.6404248
246	0x3fcdb615	1.6071192
247	0xbf01cdd9	-0.50704724
248	0xc0a549e2	-5.165269
249	0x40740064	3.8125238
250	0x40192ea3	2.3934715
251	0xbe937b44	-0.28804982
252	0x3fa63d37	1.2987431
253	0xbe9db4c4	-0.30801976
254	0xbf002835	-0.5006135
255	0xbffcb219	-1.9741851

layer2.0.bn2.weight f4 [32]
0	0x3f9cd70a	1.2253125
1	0x3f838d24	1.0277448
2	0x3f95db3c	1.170753
3	0x3f9d02a6	1.2266433
4	0x3f94baf3	1.1619552
5	0x3fabda38	1.342597
6	0x3f6d0509	0.9258581
7	0x3fcb466c	1.5880866
8	0x3f9ac7a5	1.2092177
9	0x3fb6ead4	1.4290414
10	0x3f9340cc	1.150415
11	0x3fa51677	1.2897481
12	0x3f97c2d4	1.1856332
13	0x3f9bb42b	1.2164358
14	0x3fb9c203	1.4512333
15	0x3f9888ca	1.1916745
16	0x3f5f1d3b	0.8715398
17	0x3fb022d3	1.3760628
18	0x3fbd7c7a	1.4803612
19	0x3f582684	0.8443377
20	0x3f64cfee	0.89379776
21	0x3f58527a	0.8450085
22	0x40030a7a	2.0475144
23	0x3f6fae9e	0.9362582
24	0x3f9f61e9	1.2451755
25	0x3fb0bb6b	1.3807195
26	0x3f8f9983	1.1218723
27	0x3ff6b323	1.9273418
28	0x3f9b337e	1.2125089
29	0x3f2c1f17	0.6723494
30	0x3f9b11fa	1.2114861
31	0x3f87473c	1.0568614

layer2.0.bn2.bias f4 [32]
0	0xbe3a68e5	-0.18204077
1	0x3e4c5872	0.19955614
2	0x3fdfef1d	1.7494847
3	0x3e9873f0	0.29775953
4	0x3e1de549	0.15419497
5	0x3e498616	0.19680056
6	0x3fa2766f	1.2692393
7	0xbe732f92	-0.23748615
8	0x3e296cb0	0.16545367
9	0xbe81bec9	-0.2534087
10	0x3dafa71f	0.08576798
11	0x3efabf1d	0.48973933
12	0x3f53a02e	0.8266629
13	0xbe68a688	-0.22719777
14	0xbe96c7c5	-0.29449287
15	0xbe64a72c	-0.22329396
16	0x3f88d4f0	1.0689983
17	0xbe3f0c5c	-0.18657058
18	0x3d023b01	0.03179455
19	0x3f075dd6	0.5287756
20	0x3ebaaeb0	0.364614
21	0x3efceafd	0.49398032
22	0xbf9455eb	-1.158872
23	0x3e86be2f	0.26316974
24	0xbe8d2f43	-0.2757512
25	0xbd9098ca	-0.07060392
26	0x3f2816e9	0.6565996
27	0xbf05d23b	-0.5227391
28	0x3f604cbf	0.87617105
29	0x3e001f13	0.12511854
30	0xbe0d3bb4	-0.13792306
31	0x3d372921	0.044716958

layer2.0.bn2.running_mean f4 [32]
0	0x42b254b1	89.16541
1	0xc07968bc	-3.8970175
2	0x4363e58c	227.89667
3	0x43285efd	168.37105
4	0x431c00a1	156.00246
5	0x40968431	4.7036366
6	0xc3789a9b	-248.60393
7	0xc3800e4d	-256.11172
8	0xc1d780ff	-26.937986
9	0xc34a4d85	-202.30281
10	0x425c2647	55.03738
11	0xc3934ffd	-294.6249
12	0xc2dcde2c	-110.43393
13	0x4275c5e9	61.44327
14	0xc2061e49	-33.529575
15	0xc29db548	-78.854065
16	0x434b6935	203.41096
17	0xc294cc60	-74.39917
18	0x40c99645	6.2995934
19	0xbfa7e018	-1.3115263
20	0x4331cd37	177.80162
21	0x43534c41	211.29787
22	0xc37b6b4a	-251.4191
23	0xc3934bd7	-294.5925
24	0xc23a65aa	-46.59928
25	0xc3160edb	-150.05803
26	0x423dbc24	47.43373
27	0xc3831954	-262.19788
28	0x434995e7	201.58556
29	0xc0d073a1	-6.514115
30	0x439a6a3a	308.8299
31	0x4287c2ca	67.88045

layer2.0.bn2.running_var f4 [32]
0	0x469016fd	18443.494
1	0x468c4f68	17959.703
2	0x468e0780	18179.75
3	0x461b8179	9952.368
4	0x461b8c5d	9955.091
5	0x4699b9fc	19676.992
6	0x4642cbde	12466.967
7	0x46554494	13649.145
8	0x46702dcd	15371.45
9	0x461234d7	9357.21
10	0x46608d98	14371.398
11	0x46ace8b3	22132.35
12	0x467212c3	15492.69
13	0x467a20b8	16008.18
14	0x4683f3e8	16889.953
15	0x466650f4	14740.238
16	0x460ca046	9000.068
17	0x466b64dc	15065.215
18	0x466d8cee	15203.232
19	0x461149c2	9298.439
20	0x46165166	9620.35
21	0x45e0f587	7198.691
22	0x4685423e	17057.121
23	0x46248813	10530.019
24	0x46b37f3b	22975.615
25	0x4698a30e	19537.527
26	0x4617d1fb	9716.495
27	0x4694bcce	19038.402
28	0x469ec486	20322.262
29	0x45aec5a8	5592.707
30	0x467ba60a	16105.51
31	0x46750879	15682.118
