Our_code/Pytorch/Advanced_experiments/trained_students/teacherisastudent_beta250t-16-2-student-16-1.pth (torch_old, 718602 bytes, 69 tensors)

conv1.weight f4 [16, 3, 3, 3]
0.86136365 0.7561218 -0.029076902 -0.74364525 -7.776496 -0.22241746 0.4279732 0.8171488
0.17486699 0.061267633 0.29965103 1.5462353 -0.07369159 -7.6543326 0.0978717 0.22409964
0.1693532 -0.19074447 0.58676875 -0.23034811 0.29910037 1.004017 -4.2653947 -0.9731255
-0.23421367 -0.6286857 0.8180015 -0.0016466399 -1.6283594 -0.8731777 0.43310934 -0.03363794
-0.5289543 0.0645495 3.9417615 0.33474305 0.27000344 -0.37085524 0.1416318 -0.23837586
0.2410448 0.94319016 -1.2111689 1.7033675 0.577535 -0.11662505 -0.0991819 -0.037711453
0.25886065 -0.06073447 0.07544693 -0.28334132 1.0139515 -0.20282668 -0.49180996 1.5692018
0.4145699 0.85926944 -3.1493702 1.0886686 -0.32891563 1.7073728 0.1586316 1.240765
0.9478028 0.3478896 2.7537138 -4.3164315 -1.2872185 0.7694791 0.43655753 -1.3835465
-1.0989813 0.15203397 0.049059685 -0.6418924 -1.3665702 0.91412055 -0.6087465 0.8893113
0.55554855 0.31699917 1.0151496 0.35589492 0.076090015 3.082482 0.18780701 -0.077877484
-4.1367025 -0.6761361 0.37809762 0.96530837 -0.14684287 0.013071107 3.5005186 0.24017678
-0.709458 -4.5219245 -0.3454693 -0.3428206 0.22394757 0.21045215 -0.15014648 2.473782
0.03717089 0.15704255 -2.402813 0.10238707 -0.7406123 -0.76776475 0.70535725 -2.2660673
2.0870368 1.630368 -1.3344767 0.81851846 1.2534101 0.1571328 1.0622603 -0.92896616
-1.9606092 3.277726 0.100010745 -0.94485533 1.5240626 -0.7041456 -0.3438889 -0.6224211
0.55958396 -2.5188816 0.7355509 1.6375048 -0.5673846 0.26610306 0.5820827 -0.25160885
-2.3222375 -2.7809248 2.1731248 -0.06441041 -2.1451583 2.4369938 3.6909826 0.9121777
-0.98122233 1.7336864 0.5700367 -0.85220516 0.3542509 0.56330943 -1.1167057 -0.46045515
-0.5495706 -1.6318682 -0.30344164 -0.2780066 -1.3142896 0.4950715 1.4590695 -0.49654356
1.2385572 1.1337873 -0.16764396 -0.41346398 -0.27595323 0.46233422 4.305597 -2.5134516
-0.16241941 -0.031902954 -0.5659479 -0.13746506 -1.1588159 -0.7755493 0.6168764 4.1463966
-2.5057743 0.28885096 -0.29263937 -0.12465001 0.16334213 -0.68391997 -0.37828484 0.5847582
3.3502889 -2.1864243 0.29689017 -0.18451081 -0.68502223 -1.8466592 0.56067806 2.0535655
-3.4265225 -0.5725295 3.4990177 -2.2322142 -0.75285774 2.547062 0.062453043 -0.48789686
-1.2215825 1.6073002 0.34972435 -0.7317488 0.4546662 0.8357046 0.05570962 1.4429367
0.31967515 -1.0577683 2.3331888 -0.7653374 -2.6626585 1.82113 -0.12309287 -1.3353362
-1.3402307 -4.0198493 -3.9098303 0.5812737 -1.297476 -0.70384145 3.0728776 4.5541615
3.3498132 -0.13307755 0.39510554 0.39672264 -1.0280621 -2.071357 -0.3915069 0.08503232
-0.6926521 0.3037469 2.7202153 5.4800262 5.063214 0.02525797 -1.5002903 1.356788
-2.9397883 -6.6041465 -2.7479162 1.0231801 0.9737442 0.89029425 0.7208015 -1.3926592
-0.63267916 -0.24095686 -2.5775907 -2.1370351 -0.6739338 -1.607526 -0.570253 -0.6873709
00000000: 5482 5c3f 3391 413f af32 eebc 895f 3ebf
00000010: 0ed9 f8c0 67c1 63be 4e1f db3e aa30 513f
00000020: 5510 333e c5f3 7a3d dc6b 993e 0aeb c53f
00000030: 9eeb 96bd 4bf0 f4c0 f570 c83d 607a 653e
00000040: ed6a 2d3e 8552 43be 7a36 163f 60e0 6bbe
00000050: af23 993e a183 803f 1d7e 88c0 c11e 79bf
00000060: b5d5 6fbe 8cf1 20bf 8c68 513f 11d4 d7ba
00000070: 156e d0bf 9388 5fbf 82c0 dd3e f0c7 09bd
00000080: 8d69 07bf 8732 843d d245 7c40 7163 ab3e
00000090: e43d 8a3e bde0 bdbe ed07 113e cd18 74be
000000a0: 73d4 763e e974 713f 9507 9bbf f207 da3f
000000b0: 55d9 133f 1dd9 eebd e11f cbbd 5377 1abd
000000c0: 6289 843e b5c4 78bd ec83 9a3d 1d12 91be
000000d0: 2ac9 813f ccb1 4fbe 84ce fbbe 9bdb c83f
000000e0: 8242 d43e 15f9 5b3f 488f 49c0 7e59 8b3f
000000f0: a167 a8be 318b da3f 5270 223e 63d1 9e3f
00000100: 34a3 723f 961e b23e d93c 3040 3520 8ac0
00000110: 93c3 a4bf 95fc 443f 7884 df3e 0d18 b1bf
00000120: 6bab 8cbf cbae 1b3e cff2 483d 0f53 24bf
00000130: c6eb aebf ce03 6a3f d0d6 1bbf e8a9 633f
00000140: 6e38 0e3f b74d a23e 6cf0 813f dc37 b63e
00000150: 15d5 9b3d 6347 4540 7b50 403e 3b7e 9fbd
00000160: de5f 84c0 4117 2dbf 0396 c13e 731e 773f
00000170: fa5d 16be 3228 563c 7f08 6040 e7f0 753e
00000180: 0a9f 35bf 9bb3 90c0 5ae1 b0be 2f86 afbe
00000190: 8352 653e c580 573e 00c0 19be 7252 1e40
000001a0: 8140 183d c3cf 203e b0c7 19c0 50b0 d13d
000001b0: c598 3dbf 3b8c 44bf 4b92 343f 3f07 11c0
000001c0: 0392 0540 e6af d03f 22d0 aabf 6d8a 513f
000001d0: be6f a03f 6ce7 203e 25f8 873f bad0 6dbf
000001e0: 3ef5 fabf 43c6 5140 6fd2 cc3d 0ae2 71bf
000001f0: 7c14 c33f e342 34bf 3512 b0be fd56 1fbf
00000200: e540 0f3f 5b35 21c0 104d 3c3f c299 d13f
00000210: 1e40 11bf a93e 883e 5f03 153f e0d2 80be
00000220: 8a9f 14c0 acfa 31c0 7a14 0b40 9be9 83bd
00000230: 464a 09c0 b5f7 1b40 0f39 6c40 7a84 693f
00000240: 6331 7bbf 70e9 dd3f eded 113f 1e2a 5abf
00000250: 6060 b53e 0c35 103f 36f0 8ebf c7c0 ebbe
00000260: a9b0 0cbf 0fe1 d0bf b45c 9bbe e256 8ebe
00000270: a43a a8bf 037a fd3e cac2 ba3f f53a febe
00000280: 0b89 9e3f f11f 913f dcaa 2bbe 8db1 d3be
00000290: be49 8dbe 12b7 ec3e 73c7 8940 64dc 20c0
000002a0: 4651 26be acac 02bd f6e1 10bf a4c3 0cbe
000002b0: 1454 94bf 668a 46bf 9deb 1d3f 48af 8440
000002c0: 9b5e 20c0 46e4 933e d4d4 95be 8148 ffbd
000002d0: 2943 273e 6115 2fbf 8dae c1be b7b2 153f
000002e0: 226b 5640 60ee 0bc0 fd01 983e 67f0 3cbe
000002f0: 9e5d 2fbf 545f ecbf 9988 0f3f 9e6d 0340
00000300: 254c 5bc0 4b91 12bf e8ef 5f40 99dc 0ec0
00000310: 49bb 40bf 1003 2340 c3ce 7f3d 9ecd f9be
00000320: d15c 9cbf 03bc cd3f 120f b33e e453 3bbf
00000330: 02ca e83e bdf0 553f c52f 643d 26b2 b83f
00000340: 76ac a33e f464 87bf f752 1540 27ed 43bf
00000350: ff68 2ac0 ca1a e93f 1d18 fcbd 4cec aabf
00000360: ae8c abbf 9ba2 80c0 a93a 7ac0 5ace 143f
00000370: b213 a6bf f42e 34bf 07aa 4440 b1bb 9140
00000380: 5763 5640 7b45 08be 464b ca3e 3b1f cb3e
00000390: 8a97 83bf 1d91 04c0 9873 c8be 6d25 ae3d
000003a0: a651 31bf b784 9b3e 0218 2e40 605c af40
000003b0: d905 a240 cde9 ce3c 8309 c0bf 3bab ad3f
000003c0: 7e25 3cc0 2b55 d3c0 dcdd 2fc0 91f7 823f
000003d0: 4d47 793f 53ea 633f 7286 383f a842 b2bf
000003e0: 43f7 21bf 65bd 76be 3ff7 24c0 2fc5 08c0
000003f0: ed86 2cbf 69c3 cdbf 1afc 11bf 8af7 2fbf

layer1.0.bn1.weight f4 [16]
4.1588492 2.643217 1.8428695 2.697848 2.1328626 1.3299882 2.1634488 1.3456714
0.9239973 1.3476475 1.8299707 1.3441215 2.4727614 2.7497544 1.2878972 1.0832901
00000000: 4b15 8540 782a 2940 26e3 eb3f 8ba9 2c40
00000010: d280 0840 0e3d aa3f f275 0a40 f63e ac3f
00000020: 168b 6c3f b77f ac3f 7b3c ea3f 2c0c ac3f
00000030: b941 1e40 fafb 2f40 d1d9 a43f 40a9 8a3f

layer1.0.bn1.bias f4 [16]
-4.9490213 0.2517566 9.345967 0.09157084 -0.80773246 8.306363 3.1611762 1.1184707
2.4175556 0.71438926 0.82215077 1.318417 0.74132454 1.8644383 1.2641011 6.557489
00000000: 625e 9ec0 3ee6 803e 1589 1541 7e89 bb3d
00000010: 8ec7 4ebf dde6 0441 b650 4a40 0c2a 8f3f
00000020: 3bb9 1a40 37e2 363f 7978 523f e3c1 a83f
00000030: 72c7 3d3f eaa5 ee3f 11ce a13f f3d6 d140

layer1.0.bn1.running_mean f4 [16]
0.23040725 0.038544618 0.39620203 0.016382923 0.28552628 0.3121403 0.07015616 -0.23799123
0.44871393 -2.7661784 -0.5513392 1.4321795 -0.10891378 1.4237518 -0.8086543 0.2585169
00000000: e1ef 6b3e f6e0 1d3d feda ca3e 7b35 863c
00000010: 8030 923e dad0 9f3e 08ae 8f3d f9b3 73be
00000020: d5bd e53e 1109 31c0 9124 0dbf a851 b73f
00000030: 300e dfbd 803d b63f f803 4fbf 545c 843e

layer1.0.bn1.running_var f4 [16]
419.4895 47.02282 18.353046 62.49483 81.61062 42.347446 60.182243 29.95328
134.55092 234.74182 159.14192 40.955307 53.242348 90.08128 14.017688 93.8912
00000000: a8be d143 5e17 3c42 0ad3 9241 b5fa 7942
00000010: a338 a342 c963 2942 9eba 7042 51a0 ef41
00000020: 098d 0643 e8bd 6a43 5524 1f43 3cd2 2342
00000030: 2af8 5442 9e29 b442 7348 6041 4bc8 bb42

layer1.0.conv1.weight f4 [16, 16, 3, 3]
-1.8173498 -1.0663072 -1.3349893 -3.9998355 -3.0814984 0.7341464 -1.0602582 -2.0908568
1.9542539 -2.8748074 1.6646453 0.37824562 1.0739025 -0.66821206 -1.1728947 0.8164104
-0.6552494 -1.0688148 0.5464278 0.87481207 0.012072198 0.14949922 -1.1428345 -1.0482227
-0.35754153 0.022451302 0.5269904 -1.1723204 0.0447968 -0.4175847 1.0904446 1.1450388
0.5043767 0.48069477 0.41224024 -0.13121629 -1.0237093 -0.9251484 -1.471217 -1.751136
-3.5774105 -0.42276055 2.1021817 -1.8816688 0.20792052 -0.5842681 0.60808 -2.055961
0.90029526 5.527146 3.1325274 -0.770941 0.71941423 2.1661062 1.0683942 -1.9686393
1.0983671 -1.0354655 -2.622541 -1.2807598 1.9136729 -1.6511122 0.009846409 0.3993257
-7.3042603 -2.5326283 1.2940203 -8.168765 -3.808795 -1.6621544 -2.048698 -1.0035273
-2.3838782 -1.6253918 -4.1028886 1.3235316 -0.24464162 -2.7725313 0.5527844 0.64476174
0.54345626 3.6251214 4.886063 -0.4673004 -1.3133212 2.4211984 0.22377338 -2.1738617
0.8036881 -2.2047029 -7.3186893 -4.2500315 1.7245437 -2.920508 -1.6666266 -0.6417898
8.822889 7.7031093 -1.897018 2.5207093 1.2701247 -4.1151443 4.775882 3.4448252
-2.4206216 -5.7701583 -4.206707 -4.4703856 -0.3274906 1.0138535 2.089545 -1.0297331
-3.1504428 0.6161114 3.188125 0.48954475 -1.0805274 1.0236937 1.2196642 2.57831
-1.6480038 -0.97778696 0.92903036 -0.5945395 0.3001262 2.5625126 -8.385009 -3.2395806
2.755515 -9.821204 -2.898365 2.6941917 -1.8832043 0.042007975 1.8196921 4.0480895
2.4202855 -0.042818323 4.125586 -2.6207726 -0.41029945 -3.2201269 -1.1480736 1.784919
1.0452365 10.114588 2.6689122 5.105263 8.60437 5.5432315 0.68247813 4.1924434
-0.43745872 -1.2693967 -10.939522 -0.27359858 0.31448257 4.1393785 -1.4602491 -2.8775506
0.43523833 -1.6355205 -0.42439687 -2.0056014 -0.11091195 0.75698125 6.866641 0.5949486
-1.5751616 -1.1654866 -1.9908262 -1.1440411 -0.83078325 -1.2094314 -0.031141302 1.2407247
0.9410137 0.40920883 -1.6956441 -0.62582076 -3.893272 -2.1376941 -2.2705357 -5.213884
0.4006449 1.3743988 -1.0527232 -0.013475732 0.16380703 0.13998297 2.444029 -0.55883825
3.4275336 -4.02641 -2.8412166 4.797738 -5.1292253 2.629788 0.30489704 1.6813623
0.584843 0.20449592 1.0636927 1.1488475 -2.187993 1.9134357 0.02955607 -1.6510344
1.8270049 -2.1411817 -2.447732 0.5251778 0.7264538 0.18091103 3.583174 1.0707816
0.48963848 -0.92638 -1.5624938 4.3876505 1.8234057 1.6845266 0.3644579 1.3298402
-1.7806005 1.5015736 -1.7395881 -0.7180022 0.84652597 -0.14378078 1.306749 0.63645077
0.29347342 1.3870425 -0.67822653 -0.78431904 0.24461536 0.8029243 1.7967802 0.71044046
-2.2655032 2.3707678 -1.9008795 2.4693773 -3.1776576 -1.1003349 0.67859364 -0.5214113
-0.43791753 -0.21920407 -0.40618145 0.566058 -0.12648699 0.11699594 -0.9325708 4.2564445
00000000: eb9e e8bf c17c 88bf eee0 aabf 4efd 7fc0
00000010: 4537 45c0 05f1 3b3f 8ab6 87bf 99d0 05c0
00000020: fe24 fa3f d8fc 37c0 1913 d53f 69a9 c13e
00000030: a375 893f f20f 2bbf 6a21 96bf 4600 513f
00000040: 6dbe 27bf ecce 88bf b1e2 0b3f aff3 5f3f
00000050: 78ca 453c 5316 193e 6748 92bf 292c 86bf
00000060: af0f b7be cbeb b73c d8e8 063f 980e 96bf
00000070: d97c 373d a9cd d5be b093 8b3f a290 923f
00000080: d51e 013f a01d f63e 2711 d33e 905d 06be
00000090: e808 83bf 87d6 6cbf d750 bcbf 3925 e0bf
000000a0: 4bf4 64c0 1274 d8be 258a 0640 86da f0bf
000000b0: 1ee9 543e 9892 15bf 22ab 1b3f dd94 03c0
000000c0: c079 663f 61de b040 547b 4840 645c 45bf
000000d0: 882b 383f 7ca1 0a40 24c1 883f 5ffc fbbf
000000e0: 4b97 8c3f 228a 84bf b6d7 27c0 f0ef a3bf
000000f0: 3cf3 f43f a557 d3bf d552 213c 6b74 cc3e
00000100: 80bc e9c0 9516 22c0 75a2 a53f 43b3 02c1
00000110: 4cc3 73c0 7ac1 d4bf de1d 03c0 9573 80bf
00000120: 7691 18c0 d70c d0bf dd4a 83c0 7c69 a93f
00000130: 5583 7abe 2771 31c0 4783 0d3f 1b0f 253f
00000140: f31f 0b3f fd01 6840 a15a 9c40 ff41 efbe
00000150: e91a a8bf eaf4 1a40 d924 653e 8d20 0bc0
00000160: 81be 4d3f da19 0dc0 b432 eac0 4200 88c0
00000170: d9bd dc3f 9ae9 3ac0 0554 d5bf 564c 24bf
00000180: 8e2a 0d41 df7f f640 7cd1 f2bf 4d53 2140
00000190: 7293 a23f 43af 83c0 06d4 9840 0478 5c40
000001a0: 77eb 1ac0 23a5 b8c0 589d 86c0 660d 8fc0
000001b0: d9ac a7be f4c5 813f 1bbb 0540 4bce 83bf
000001c0: dba0 49c0 7ab9 1d3f 3d0a 4c40 9ca5 fa3e
000001d0: b94e 8abf 6508 833f f51d 9c3f 0803 2540
000001e0: caf1 d2bf 3f50 7abf efd4 6d3f be33 18bf
000001f0: 24aa 993e 3500 2440 ff28 06c1 4a55 4fc0
00000200: 5c5a 3040 a723 1dc1 d07e 39c0 a36d 2c40
00000210: d70c f1bf 8e10 2c3d aceb e83f f389 8140
00000220: f5e5 1a40 4462 2fbd cd04 8440 bdba 27c0
00000230: c512 d2be 8f16 4ec0 13f4 92bf 3a78 e43f
00000240: 4fca 853f 5ad5 2141 75cf 2a40 515e a340
00000250: 80ab 0941 2762 b140 e3b6 2e3f 7f28 8640
00000260: 97fa dfbe 977b a2bf 4808 2fc1 1d15 8cbe
00000270: dc03 a13e ca75 8440 71e9 babf ca29 38c0
00000280: 8fd7 de3e bc58 d1bf 8c4a d9be c65b 00c0
00000290: ce25 e3bd 86c9 413f 86bb db40 8d4e 183f
000002a0: e59e c9bf aa2e 95bf 65d3 febf f06f 92bf
000002b0: 36ae 54bf a6ce 9abf 0b1c ffbc 11d0 9e3f
000002c0: 46e6 703f d283 d13e de0a d9bf ca35 20bf
000002d0: 5e2b 79c0 fbcf 08c0 7550 11c0 23d8 a6c0
000002e0: 5421 cd3e 4dec af3f a2bf 86bf 51c9 5cbc
000002f0: 08bd 273e b257 0f3e f96a 1c40 0610 0fbf
00000300: b65c 5b40 5ad8 80c0 7ed6 35c0 1287 9940
00000310: 9d22 a4c0 724e 2840 771b 9c3e e136 d73f
00000320: 45b8 153f 6167 513e 1527 883f 6f0d 933f
00000330: 1408 0cc0 76eb f43f 921f f23c 1855 d3bf
00000340: 4cdb e93f 1f09 09c0 a4a7 1cc0 0d72 063f
00000350: e0f8 393f be40 393e b952 6540 5f0f 893f
00000360: e5b1 fa3e 3d27 6dbf ccff c7bf a267 8c40
00000370: 5c65 e93f 919e d73f 3a9a ba3e 3438 aa3f
00000380: b8ea e3bf 9033 c03f d3aa debf fece 37bf
00000390: edb5 583f 453b 13be 8d43 a73f 70ee 223f
000003a0: 2642 963e 9c8a b13f 41a0 2dbf 22c9 48bf
000003b0: 737c 7a3e 728c 4d3f e5fc e53f 6ddf 353f
000003c0: 01fe 10c0 a9ba 1740 0550 f3bf 470a 1e40
000003d0: be5e 4bc0 c6d7 8cbf 50b8 2d3f 367b 05bf
000003e0: ba36 e0be 0877 60be 04f7 cfbe 2de9 103f
000003f0: ce85 01be 919b ef3d f6bc 6ebf cb34 8840

layer1.0.bn2.weight f4 [16]
0.3125736 1.5948155 0.661099 0.45132747 0.45776775 0.35312626 0.2626507 0.38224363
0.40878707 0.3960329 0.39651677 0.35013047 0.6992199 0.29719183 0.34941667 0.35354668
00000000: a609 a03e ea22 cc3f c93d 293f 6514 e73e
00000010: 8960 ea3e f7cc b43e 277a 863e 70b5 c33e
00000020: 8a4c d13e d3c4 ca3e 3f04 cb3e 4d44 b33e
00000030: 1300 333f 8729 983e bee6 b23e 1204 b53e

layer1.0.bn2.bias f4 [16]
0.25134277 -2.4707282 -0.14354406 0.59104073 0.041270677 0.28484756 0.3817439 0.2973922
0.156808 0.090223126 0.59017223 0.086528465 -0.029877149 0.38137114 0.13306135 -0.11389997
00000000: 00b0 803e 6920 1ec0 37fd 12be 724e 173f
00000010: 710b 293d 8ad7 913e f073 c33e ca43 983e
00000020: 4792 203e e7c6 b83d 8715 173f d635 b13d
00000030: ecc0 f4bc 1443 c33e 3c41 083e 6344 e9bd

layer1.0.bn2.running_mean f4 [16]
17.321426 52.7147 168.65352 129.50125 -232.97383 -94.13663 -161.61844 -304.3767
59.845448 -122.62008 176.56467 -210.70595 99.66857 39.71053 42.14846 116.66619
00000000: 4892 8a41 dadb 5242 4da7 2843 5280 0143
00000010: 4df9 68c3 f445 bcc2 529e 21c3 3830 98c3
00000020: bd61 6f42 7b3d f5c2 8e90 3043 b9b4 52c3
00000030: 4f56 c742 95d7 1e42 0698 2842 1755 e942

layer1.0.bn2.running_var f4 [16]
2345.6443 2415.4016 8081.552 6007.971 4045.0457 4619.0415 1890.4346 3195.0815
7732.898 3711.727 2700.5 3391.1792 9171.66 1489.8708 5681.076 2967.0732
00000000: 4f9a 1245 6df6 1645 6a8c fc45 c5bf bb45
00000010: bbd0 7c45 5558 9045 e84d ec44 4eb1 4745
00000020: 2fa7 f145 a2fb 6745 00c8 2845 def2 5345
00000030: a44e 0f46 de3b ba44 9c88 b145 2c71 3945

layer1.0.conv2.weight f4 [16, 16, 3, 3]
0.38446084 2.2780979 1.9653366 0.43566084 0.91670924 -1.2693999 -0.4674243 1.5444168
-0.11487368 1.1462687 1.1544901 1.5080576 -1.5184059 -7.1178565 -3.550065 0.37343118
-3.0767493 -0.11177535 -0.3581893 1.4930258 0.10230583 1.7145287 1.4029242 0.43046498
-0.93301916 1.7106401 1.0486209 2.7791853 -1.0195433 -2.5688963 4.8580775 1.6912837
2.8033195 2.6829352 -0.7477751 -0.034966726 0.9131666 0.7964582 2.6088808 0.85980266
2.083548 -0.34138262 -0.41289565 0.2554971 -0.015526575 -0.18450451 -0.8523056 -0.3397994
2.4830444 0.41958627 1.6617423 1.0020204 1.6771164 -0.4130119 0.7417485 -1.5956806
0.48000336 -3.4304712 -5.92912 -1.6831403 -0.22156954 -2.3984458 -1.6049238 0.29415777
-1.1739491 0.1197778 -0.8267582 -3.1901412 -0.6724497 -1.5376852 -2.6360323 0.75558084
1.199501 0.6097719 -0.30178392 -0.9953205 0.5807901 -1.7375697 -0.08798872 -1.6234393
0.8322571 -0.08639136 0.6349889 0.5116319 -1.3568652 1.958809 -0.794851 0.8720713
0.7822953 0.010302968 1.8358577 1.590864 0.9157153 2.9727876 3.1490633 0.5737931
-1.0190076 -1.525194 0.11749296 -0.85952026 -0.024738291 -0.82126486 3.6885045 3.7258134
1.2473581 2.597653 2.1242144 0.6289376 -0.1267311 -0.5584978 0.7943192 -3.4459078
1.5570252 0.39951268 0.011377201 0.6343713 -1.4025927 0.38115516 0.6071971 0.22861204
-0.11605898 -1.4254093 -1.4097887 -0.60344905 -0.8301588 2.0582762 0.085937865 0.8739928
0.29870152 1.1535895 -0.095597215 0.5899721 0.28114823 1.506335 -1.2750909 2.280765
1.3672769 0.49719584 1.0488985 1.3189269 -0.20442404 1.7905644 0.5248683 -1.0231316
-0.34041837 3.4744575 0.61140203 -0.8885883 1.1191375 -0.13911682 0.8352896 0.7658802
0.52031565 -1.0627642 -2.5014923 -2.6073976 1.7700092 0.1948944 -1.2405758 1.5038928
3.1969938 2.0444577 1.7609649 0.29000804 3.0812051 1.8931769 1.883498 2.2152996
0.7443545 2.4299264 -0.4011257 1.698532 2.035038 1.1877997 -0.7131488 3.6488328
5.800817 -0.2106356 1.6421111 0.014242814 0.24126115 0.55835897 1.1912963 -1.8986356
-0.61456436 -1.2877188 -0.34241933 -1.07279 -1.4214181 -1.516345 0.45193323 -0.85194564
1.6626291 4.1650267 0.21907583 0.5791728 4.227483 -0.3236021 -2.432454 -2.060925
-2.4892333 -3.6027265 -2.9911826 -2.5467453 -0.08005689 1.6753811 0.29319605 -0.9116457
0.36394015 0.13823633 -3.4383454 -1.0907699 -0.8720957 1.3094007 -0.07916245 0.8619681
-1.5514466 1.992084 2.6769185 -1.3962759 1.9785439 3.5389433 -0.33496135 -1.0903639
0.038393915 1.1062039 2.9607332 1.8440057 1.1210351 4.064536 1.1881481 2.7474818
3.082858 2.9074385 -3.5886106 0.24175721 -0.9779504 1.0287864 7.871878 2.8447819
1.6680346 4.249483 0.48966643 -1.5052307 0.8255581 -0.030662986 0.724612 -0.13145307
-1.2743748 2.317056 3.4659002 1.483385 -0.02441521 -1.8809137 -0.73512876 1.3508364
00000000: 0dd8 c43e 5bcc 1140 2690 fb3f f00e df3e
00000010: 75ad 6a3f b27b a2bf 3d52 efbe 73af c53f
00000020: e442 ebbd efb8 923f 55c6 933f 0808 c13f
00000030: 205b c2bf 7bc5 e3c0 4434 63c0 5f32 bf3e
00000040: 76e9 44c0 7aea e4bd 9764 b7be 781b bf3f
00000050: b885 d13d ad75 db3f 0593 b33f e865 dc3e
00000060: 58da 6ebf 41f6 da3f 3639 863f 2cde 3140
00000070: 6580 82bf cc68 24c0 5f75 9b40 fc7b d83f
00000080: 9669 3340 36b5 2b40 306e 3fbf 4539 0fbd
00000090: 49c5 693f afe4 4b3f e7f7 2640 071c 5c3f
000000a0: da58 0540 b4c9 aebe 0f67 d3be 84d0 823e
000000b0: 2d63 7ebc c0ee 3cbe b330 5abf 30fa adbe
000000c0: 33ea 1e40 03d4 d63e f9b3 d43f 3442 803f
000000d0: c0ab d63f 4c76 d3be 3be3 3d3f 433f ccbf
000000e0: 00c3 f53e d78c 5bc0 5abb bdc0 2471 d7bf
000000f0: 20e3 62be 2380 19c0 256e cdbf d99b 963e
00000100: f743 96bf 104e f53d 6da6 53bf 462b 4cc0
00000110: aa25 2cbf ded2 c4bf c1b4 28c0 bf6d 413f
00000120: 4089 993f 031a 1c3f 6c83 9abe 53cd 7ebf
00000130: a9ae 143f af68 debf 6e33 b4bd dccc cfbf
00000140: cd0e 553f f4ed b0bd a28e 223f 4ffa 023f
00000150: c2ad adbf 41ba fa3f 5b7b 4bbf 1140 5f3f
00000160: 8144 483f c8cd 283c 63fd ea3f 6ea1 cb3f
00000170: 516c 6a3f 2742 3e40 418a 4940 1be4 123f
00000180: d76e 82bf 8f39 c3bf 26a0 f03d 8509 5cbf
00000190: f5a7 cabc 6a3e 52bf 7510 6c40 ba73 6e40
000001a0: 6ea9 9f3f f23f 2640 21f3 0740 0e02 213f
000001b0: ccc5 01be b6f9 0ebf 8158 4b3f c189 5cc0
000001c0: 9a4c c73f ed8c cc3e 7167 3a3c 2866 223f
000001d0: 2888 b3bf c526 c33e 4571 1b3f 4619 6a3e
000001e0: 55b0 edbd d073 b6bf f573 b4bf a37b 1abf
000001f0: 4a85 54bf ccba 0340 3100 b03d febd 5f3f
00000200: 68ef 983e d2a8 933f 79c8 c3bd 6908 173f
00000210: a9f2 8f3e 96cf c03f 2e36 a3bf 0ef8 1140
00000220: ee02 af3f 7490 fe3e 4e42 863f 99d2 a83f
00000230: 8954 51be 3731 e53f c55d 063f faf5 82bf
00000240: 514b aebe 835d 5e40 d884 1c3f 867a 63bf
00000250: e63f 8f3f a474 0ebe 8ad5 553f ba10 443f
00000260: 6833 053f a808 88bf 7318 20c0 9adf 26c0
00000270: a98f e23f 6692 473e 30cb 9ebf 8f7f c03f
00000280: 8c9b 4c40 65d8 0240 4c67 e13f ef7b 943e
00000290: 7732 4540 9f53 f23f 7616 f13f 78c7 0d40
000002a0: 048e 3e3f ea83 1b40 5960 cdbe 7f69 d93f
000002b0: 103e 0240 d209 983f eb90 36bf 7a86 6940
000002c0: 4ba0 b940 dcb0 57be b230 d23f b15a 693c
000002d0: 2a0d 773e 9df0 0e3f 667c 983f 7e06 f3bf
000002e0: 1754 1dbf f8d3 a4bf 9651 afbe 2f51 89bf
000002f0: 07f1 b5bf 9817 c2bf cb63 e73e 1c19 5abf
00000300: 08d1 d43f e647 8540 6a55 603e ab44 143f
00000310: 8a47 8740 2daf a5be 54ad 1bc0 32e6 03c0
00000320: 994f 1fc0 1293 66c0 896f 3fc0 e0fd 22c0
00000330: def4 a3bd e372 d63f cb1d 963e 9d61 69bf
00000340: 5d56 ba3e d38d 0d3e da0d 5cc0 599e 8bbf
00000350: aa41 5fbf 719a a73f ec1f a2bd f1a9 5c3f
00000360: cd95 c6bf 9cfc fe3f a252 2b40 2bb9 b2bf
00000370: ed40 fd3f 0c7e 6240 0e80 abbe 0b91 8bbf
00000380: f042 1d3d 1798 8d3f a77c 3d40 6108 ec3f
00000390: 147e 8f3f ae10 8240 3d15 983f bed6 2f40
000003a0: 8c4d 4540 7913 3a40 ccab 65c0 348f 773e
000003b0: f55a 7abf 46af 833f 6de6 fb40 e810 3640
000003c0: 2882 d53f c4fb 8740 8fb5 fa3e 66ab c0bf
000003d0: c757 533f f130 fbbc 2c80 393f a29b 06be
000003e0: b71e a3bf a54a 1440 4fd1 5d40 8fdf bd3f
000003f0: 6802 c8bc c8c1 f0bf 6631 3cbf 35e8 ac3f

layer1.1.bn1.weight f4 [16]
2.283453 1.9108007 4.000441 4.1237106 3.07913 1.5308203 6.6014967 1.8013382
1.7090284 2.2739758 1.1701039 1.3225691 3.7846437 1.731921 1.6165267 1.6540511
00000000: 1824 1240 1e95 f43f 9d03 8040 70f5 8340
00000010: 7710 4540 ebf1 c33f 763f d340 4092 e63f
00000020: 71c1 da3f d288 1140 f7c5 953f f249 a93f
00000030: 9a37 7240 96af dd3f 59ea ce3f f2b7 d33f

layer1.1.bn1.bias f4 [16]
-0.072595716 2.377995 3.147975 2.904347 6.954644 3.4029956 -0.18956792 0.75836784
-0.5289188 0.47626793 9.00671 2.5070653 4.9507413 -0.9062296 6.8538823 9.176961
00000000: 10ad 94bd 1231 1840 6c78 4940 d2e0 3940
00000010: 728c de40 aeca 5940 181e 42be 6524 423f
00000020: 3967 07bf 64d9 f33e 7c1b 1041 c273 2040
00000030: 796c 9e40 aafe 67bf 0153 db40 d5d4 1241

layer1.1.bn1.running_mean f4 [16]
10.113089 25.909592 -0.035066865 4.1845827 -5.327291 -3.664867 -3.918533 -9.829108
-0.08369021 -6.224108 -4.30708 13.446192 2.0089784 2.453203 -0.2607122 -3.9691808
00000000: 36cf 2141 d846 cf41 46a2 0fbd 1ae8 8540
00000010: 2b79 aac0 2e8d 6ac0 3fc9 7ac0 0744 1dc1
00000020: c665 abbd e52b c7c0 99d3 89c0 9a23 5741
00000030: 1a93 0040 4701 1d40 127c 85be 0f07 7ec0

layer1.1.bn1.running_var f4 [16]
310.75253 260.15356 48.46873 149.1545 190.45648 53.624615 70.082794 68.64951
280.4783 553.5944 294.29248 136.53096 59.093273 293.44696 56.438553 228.13208
00000000: 5360 9b43 a813 8243 fbdf 4142 8d27 1543
00000010: dc74 3e43 9b7f 5642 642a 8c42 8d4c 8942
00000020: 393d 8c43 0b66 0a44 7025 9343 ed87 0843
00000030: 835f 6c42 36b9 9243 14c1 6142 d021 6443

layer1.1.conv1.weight f4 [16, 16, 3, 3]
-0.12905382 4.5730777 1.249985 0.6993692 5.7519855 2.957706 0.24680701 -1.0489674
-0.048372455 1.7284204 6.6975374 -2.247603 5.980753 6.775291 2.7525306 -3.4232078
-1.1713685 -4.4526815 1.2585971 1.3319622 0.23584107 1.3751342 2.514704 0.08630905
0.6467898 -2.1275985 -2.091437 -3.3621826 2.6038213 -3.1615498 0.8458674 6.0754633
0.88722384 1.33151 0.8819484 -0.6747898 1.6137564 5.776315 -0.81470597 -1.0902854
1.0076263 -4.4451985 2.1588495 3.08579 -1.4327223 -0.45502537 5.7472982 5.384773
-0.18466239 4.823021 -3.788331 3.011914 4.480346 0.41097954 -1.9793197 -4.4459662
-1.6052151 0.92212814 6.546205 0.4337839 0.025224024 -2.5732021 0.07247936 -0.5016684
-1.937727 0.6912649 5.9541454 3.9192839 3.3790894 5.249273 1.7228003 5.619987
-4.158172 -3.6001756 -2.0817769 -1.3034678 1.902793 0.15143572 1.6465356 2.2499144
-1.2378242 -0.999773 3.204016 2.4618914 -0.55506223 0.8066655 -0.17579734 1.0335145
4.889456 0.7283826 2.7180614 1.3190925 0.6129473 -0.8829497 -1.9239316 0.041438088
-1.9990258 0.3081321 1.8705316 0.8623095 4.2399917 -0.8331943 -3.136342 -1.3696086
1.061455 0.6324465 1.5674341 -0.68903756 -0.68176466 -1.7455457 1.9704155 4.356204
0.66400754 -0.7142299 0.46403304 -2.34871 0.3096501 -0.54461044 1.4592556 -0.7309386
2.1835992 1.6836115 0.2874221 -0.5534027 1.3727514 -0.57411057 1.5798337 1.1563641
1.909521 -1.8162302 5.695691 4.4629555 -2.125503 -0.55187863 1.6260155 0.9754417
4.134409 -0.6461745 -4.753739 4.4415784 -1.2827699 -2.0963023 0.6490438 -0.0704862
-2.6905339 1.6174488 -0.70444787 0.33981422 5.581466 5.513476 -4.915633 1.4962183
-2.0788264 -1.0215626 1.0743685 1.774582 -1.7759868 -0.8244517 0.0421817 0.4509643
1.0150752 0.7848002 0.82830447 1.2537051 -0.19273023 1.063814 -1.3804349 -0.12838443
-0.62584513 0.8644461 -0.25179982 0.6066771 1.2845293 0.7904451 -1.2505262 -0.48946765
0.43352917 -0.013088056 0.7130827 1.2673956 0.18070732 -2.0234716 1.9656479 0.50459003
-0.36143804 -0.64774674 -0.77406 -1.0865661 -1.4477667 -0.5497151 -0.19980456 2.6986535
0.9089568 -0.66259164 1.564093 -6.189762 -1.0009878 2.5028136 1.4337716 -1.432288
-1.0666195 1.2987555 0.5574914 1.6098685 -0.46714282 -1.4638528 -1.5195981 5.6406846
1.1242813 0.055332247 6.5492187 0.28338984 -1.2087077 5.571991 4.761877 3.7408066
-0.9504537 -0.52961147 -2.973194 -3.9418406 -0.46434933 -0.24973729 -0.21357523 6.935985
4.3568244 -7.1052046 1.651642 3.4219573 -2.714962 5.873136 6.9340987 6.3747487
-0.30069298 -0.4008255 1.5843978 -0.38932008 -0.97309476 0.9197198 -2.1200871 -3.0018284
9.504973 4.6998887 3.7262805 -1.7307703 -0.07482291 0.32684794 3.069391 3.6767206
5.0372257 1.1876776 1.365823 2.579775 0.94009626 -0.75956726 0.89938915 1.0834101
00000000: af26 04be a756 9240 82ff 9f3f dc09 333f
00000010: 4410 b840 0e4b 3d40 faba 7c3e 9044 86bf
00000020: 3222 46bd e13c dd3f 3a52 d640 bad8 0fc0
00000030: 5462 bf40 2fcf d840 7629 3040 d615 5bc0
00000040: 67ef 95bf 5e7c 8ec0 b619 a13f bd7d aa3f
00000050: 5280 713e 6604 b03f e9f0 2040 cdc2 b03d
00000060: 0494 253f 932a 08c0 1bda 05c0 002e 57c0
00000070: 02a5 2640 d556 4ac0 c48a 583f 326a c240
00000080: 1a21 633f eb6e aa3f 5fc7 613f 06bf 2cbf
00000090: 928f ce3f 93d7 b840 9290 50bf 798e 8bbf
000000a0: e6f9 803f 113f 8ec0 972a 0a40 957d 4540
000000b0: 7263 b7bf 16f9 e8be dee9 b740 0f50 ac40
000000c0: 2318 3dbe 3056 9a40 0474 72c0 33c3 4040
000000d0: ff5e 8f40 e96b d23e 595a fdbf 5b45 8ec0
000000e0: b077 cdbf 9710 6c3f 837a d140 ec18 de3e
000000f0: 9da2 ce3c 58af 24c0 0f70 943d 576d 00bf
00000100: 7007 f8bf bdf6 303f 5c88 be40 8cd5 7a40
00000110: 0043 5840 0bfa a740 b884 dc3f efd6 b340
00000120: bf0f 85c0 4769 66c0 d53b 05c0 08d8 a6bf
00000130: b98e f33f f711 1b3e aec1 d23f 99fe 0f40
00000140: 0671 9ebf 20f1 7fbf 990e 4d40 a18f 1d40
00000150: 8f18 0ebf a181 4e3f 3804 34be 344a 843f
00000160: 6c76 9c40 4877 3a3f b8f4 2d40 06d8 a83f
00000170: 1dea 1c3f fe08 62bf 6443 f6bf fcba 293d
00000180: 14e0 ffbf 7ec3 9d3e 946d ef3f 51c0 5c3f
00000190: 03ae 8740 394c 55bf d4b9 48c0 564f afbf
000001a0: c2dd 873f 04e8 213f aea1 c83f c464 30bf
000001b0: 2188 2ebf 0b6e dfbf 9336 fc3f 0666 8b40
000001c0: 66fc 293f c5d7 36bf bd95 ed3e 4451 16c0
000001d0: 758a 9e3e 976b 0bbf e3c8 ba3f cb1e 3bbf
000001e0: 17c0 0b40 9580 d73f fd28 933e cdab 0dbf
000001f0: 51b6 af3f e9f8 12bf fe37 ca3f bd03 943f
00000200: 2f6b f43f 3b7a e8bf 1a43 b640 88d0 8e40
00000210: 3e08 08c0 eb47 0dbf 4721 d03f 8cb6 793f
00000220: 144d 8440 b16b 25bf a11e 98c0 6921 8e40
00000230: ce31 a4bf d129 06c0 bc27 263f 125b 90bd
00000240: b531 2cc0 9008 cf3f b256 34bf 21fc ad3e
00000250: 5f9b b240 656e b040 de4c 9dc0 1584 bf3f
00000260: 7e0b 05c0 90c2 82bf e884 893f 8125 e33f
00000270: 8953 e3bf 440f 53bf b8c6 2c3d cbe4 e63e
00000280: fced 813f aae8 483f c30b 543f 6979 a03f
00000290: 135b 45be 0f2b 883f 17b2 b0bf 3577 03be
000002a0: 6337 20bf 574c 5d3f e8eb 80be 314f 1b3f
000002b0: 756b a43f 9c5a 4a3f 3e11 a0bf 819b fabe
000002c0: 89f7 dd3e 496f 56bc 968c 363f 053a a23f
000002d0: 570b 393e 8f80 01c0 5a9a fb3f d02c 013f
000002e0: 680e b9be bbd2 25bf cc28 46bf 9914 8bbf
000002f0: 6b50 b9bf 21ba 0cbf 9199 4cbe bdb6 2c40
00000300: 65b1 683f 9b9f 29bf 3334 c83f 8812 c6c0
00000310: 5e20 80bf 192e 2040 d485 b73f 3755 b7bf
00000320: fd86 88bf 9f3d a63f c2b7 0e3f 2c10 ce3f
00000330: 582d efbe 875f bbbf 3182 c2bf 7d80 b440
00000340: 73e8 8f3f 11a4 623d 3393 d140 7918 913e
00000350: efb6 9abf c04d b240 4c61 9840 6069 6f40
00000360: ef50 73bf 9e94 07bf cf48 3ec0 1e47 7cc0
00000370: 32bf edbe 22bb 7fbe 77b3 5abe 97f3 dd40
00000380: 1b6b 8b40 d65d e3c0 0169 d33f 5901 5b40
00000390: f0c1 2dc0 bbf0 bb40 23e4 dd40 f1fd cb40
000003a0: 6ef4 99be 0039 cdbe 8ccd ca3f f654 c7be
000003b0: bd1c 79bf c272 6b3f 82af 07c0 f51d 40c0
000003c0: 5f14 1841 7d65 9640 617b 6e40 e289 ddbf
000003d0: c13c 99bd 9d58 a73e e770 4440 644f 6b40
000003e0: f430 a140 d205 983f 4ad3 ae3f 091b 2540
000003f0: 26aa 703f 0073 42bf 5e3e 663f 2fad 8a3f

layer1.1.bn2.weight f4 [16]
0.62109566 0.63052315 0.31783327 0.5129181 0.5112144 0.42579445 0.6102807 0.36586934
0.30664045 0.50022346 0.44735435 0.73669946 0.61047393 0.44056073 1.1097053 0.58333707
00000000: 2000 1f3f f769 213f 0bbb a23e 9a4e 033f
00000010: f2de 023f bb01 da3e 5b3b 1c3f 3a53 bb3e
00000020: faff 9c3e a50e 003f a10b e53e 5698 3c3f
00000030: 0548 1c3f 2d91 e13e d30a 8e3f 9455 153f

layer1.1.bn2.bias f4 [16]
-0.308787 -0.43626246 0.12831736 0.00592574 -0.00639453 0.040483102 -0.08085984 0.042495426
0.24059877 0.02014624 0.08915017 -0.047948126 -0.06478151 -0.15921426 -1.3666294 -0.1256696
00000000: 5419 9ebe cb5d dfbe a065 033e b62c c23b
00000010: 3589 d1bb 9cd1 253d d899 a5bd af0f 2e3d
00000020: 865f 763e ba09 a53c 5d94 b63d 4165 44bd
00000030: 2bac 84bd 1009 23be b6ed aebf 88af 00be

layer1.1.bn2.running_mean f4 [16]
336.11902 518.6435 163.78983 -118.20381 -83.46385 -8.90096 -147.46828 -249.80374
197.94249 258.87872 55.687634 -45.246826 13.488202 -295.2762 52.806587 235.23402
00000000: 3c0f a843 2fa9 0144 32ca 2343 5a68 ecc2
00000010: 7eed a6c2 556a 0ec1 e177 13c3 c2cd 79c3
00000020: 47f1 4543 7a70 8143 23c0 5e42 c0fc 34c2
00000030: adcf 5741 5ba3 93c3 f239 5342 e93b 6b43

layer1.1.bn2.running_var f4 [16]
6922.4297 15417.221 4608.274 16780.2 15380.48 10378.385 19226.477 5998.056
5992.356 13819.271 9917.281 16957.426 14505.593 10000.468 6783.281 13846.456
00000000: 7053 d845 e2e4 7046 3102 9045 6618 8346
00000010: ec51 7046 8a29 2246 f434 9646 7370 bb45
00000020: d942 bb45 16ed 5746 20f5 1a46 da7a 8446
00000030: 5fa6 6246 df41 1c46 3ffa d345 d359 5846

layer1.1.conv2.weight f4 [16, 16, 3, 3]
-0.13795386 -0.9227656 -0.4515225 -0.21038112 -2.0320878 -3.3525243 0.1096051 -2.7059011
-3.793024 -0.6265556 0.4250173 2.6011903 0.12556565 0.51524407 1.5181386 -2.0585294
0.053262953 1.1116873 1.5399365 0.66296643 -0.573048 1.2137163 2.156811 -0.97696996
-0.19785611 1.2888753 -0.45911464 -0.7203868 -1.2932072 -1.3847225 0.38192046 0.08643126
-0.44715783 0.5795807 -0.59751004 -1.0577202 0.06611871 -0.21794012 0.49288702 0.08022321
0.27591437 0.8647651 0.043905366 2.4610724 1.8120265 0.53206056 0.74453485 1.1401218
0.95119303 2.5760214 1.3039998 -0.9517246 0.19084366 -0.3100268 0.17082556 0.48800564
0.47347835 -0.22151618 0.34147614 -1.5706055 0.64517576 1.1147467 0.7870202 -0.46640497
2.352801 1.0972602 1.1258249 2.8973172 1.0355961 0.4073258 2.4973276 0.44871414
1.2137961 1.8417658 0.31973064 0.48442802 1.5375198 -0.9353529 -0.54682124 0.12571025
1.150352 0.056440923 -0.1437921 1.5516107 -1.187886 -1.9806048 0.30007562 -0.34896338
-0.9900959 -0.7991517 0.76952136 2.0196536 2.7035336 0.32324398 1.3694315 0.9487548
-1.0298306 0.19181538 0.2564824 -0.29671812 0.0259659 0.45568326 0.5309314 1.5998358
0.53876966 -0.12188685 1.7126328 0.47254056 0.45428935 -0.08125646 0.64456165 0.20359813
-0.11445846 -1.4587737 -0.39977095 -1.1556745 -1.2292697 -0.47167087 -2.2957387 0.4032796
-0.09020287 -0.23475619 0.8856938 -0.5190248 -1.0481594 -1.6748426 -0.35074514 -0.7421881
0.05299528 1.5013247 -2.2532942 0.4011558 1.2257929 1.6039371 1.0267314 -0.031162342
-0.9829158 -0.7698822 -0.5828388 -1.8334278 -1.3537418 -1.2309372 0.20800768 0.6447665
0.9419333 2.608396 0.7005924 0.7877625 1.6225114 0.49434242 0.75543225 -1.5464963
0.42568237 0.40609643 1.2474651 1.9712622 -0.59609747 0.26189002 5.2108626 0.56388336
4.215198 4.222853 -0.04151649 0.4794498 1.0334382 0.227958 4.080819 0.7114769
1.8752512 4.0853314 0.86879885 -1.4917834 -1.1954366 -0.21930094 1.7001565 0.49291483
0.5700888 0.33547 -0.34285593 1.1077077 -0.83242 -0.34524444 -1.149314 0.10051672
-0.3424028 -1.4796047 -0.19679959 -0.5531448 -1.3856232 0.6876622 -0.47249204 1.1319556
0.2590336 1.1262151 2.3755448 0.06532713 1.7617248 4.4100266 1.1025608 0.9281537
0.32876214 0.8400049 1.447189 0.62313014 -0.2548952 1.787833 0.53317463 0.7532175
-0.5187347 0.09926374 1.5320694 4.638598 -1.4519058 -0.72064215 1.3819541 -2.9176867
0.005424919 -0.2578546 -0.5094758 2.4573946 1.6146427 0.9795326 0.87063026 2.2973933
2.1452825 -1.2613641 -2.5756595 0.28774717 0.51688987 -0.822196 -0.37334973 -0.8450766
-0.13822058 1.2096505 -1.5977155 -1.6334673 -1.1366382 -1.3328431 2.5406501 -0.4913742
-0.8731403 -0.9223313 0.6859579 0.6022015 0.7243958 -0.51796204 0.89020854 1.8231925
0.15992735 1.3580652 1.4307209 -0.5318941 -0.25662518 0.50399834 0.20645618 1.712736
00000000: c743 0dbe 5e3a 6cbf f52d e7be 266e 57be
00000010: ba0d 02c0 c28f 56c0 a378 e03d 7c2d 2dc0
00000020: e8c0 72c0 f365 20bf de9b d93e e779 2640
00000030: 4894 003e 09e7 033f 5e52 c23f f2be 03c0
00000040: 412a 5a3d c54b 8e3f a41c c53f 2bb8 293f
00000050: 46b3 12bf 0e5b 9b3f 3109 0a40 b41a 7abf
00000060: cb9a 4abe def9 a43f 1311 ebbe 456b 38bf
00000070: d087 a5bf 963e b1bf 148b c33e df02 b13d
00000080: dff1 e4be 675f 143f 6bf6 18bf 6063 87bf
00000090: 3f69 873d b22b 5fbe b05b fc3e 114c a43d
000000a0: a644 8d3e 3f61 5d3f 1dd6 333d 3682 1d40
000000b0: 7cf0 e73f 1f35 083f d699 3e3f 83ef 913f
000000c0: 6381 733f 89dd 2440 77e9 a63f 39a4 73bf
000000d0: 856c 433e d5bb 9ebe e5ec 2e3e e0db f93e
000000e0: c16b f23e 23d5 62be f6d5 ae3e 9a09 c9bf
000000f0: 3d2a 253f 05b0 8e3f 287a 493f a2cc eebe
00000100: 4b94 1640 0673 8c3f 081b 903f a56d 3940
00000110: 6a8e 843f 028d d03e 37d4 1f40 dcbd e53e
00000120: ac5d 9b3f fbbe eb3f bcb3 a33e f306 f83e
00000130: 73cd c43f 4a73 6fbf 7afc 0bbf 30ba 003e
00000140: bc3e 933f 992e 673d 3c3e 13be 2e9b c63f
00000150: a60c 98bf 7584 fdbf 83a3 993e 54ab b2be
00000160: ed76 7dbf 3595 4cbf 5aff 443f 0142 0140
00000170: b206 2d40 3c80 a53e 8849 af3f 98e1 723f
00000180: 7dd1 83bf 406b 443e a951 833e 70eb 97be
00000190: 70b6 d43c 514f e93e 1feb 073f 6bc7 cc3f
000001a0: cfec 093f d09f f9bd 8d37 db3f d6f0 f13e
000001b0: 9d98 e83e c969 a6bd fe01 253f 077c 503e
000001c0: 3269 eabd 19b9 babf c7ae ccbe 24ed 93bf
000001d0: b658 9dbf d87e f1be 62ed 12c0 aa7a ce3e
000001e0: 48bc b8bd ed63 70be d4bc 623f cfde 04bf
000001f0: 162a 86bf 3e61 d6bf de94 b3be 0a00 3ebf
00000200: 9411 593d 682b c03f f935 10c0 4b64 cd3e
00000210: c8e6 9c3f d04d cd3f ef6b 833f 2b48 ffbc
00000220: 5fa0 7bbf 0017 45bf ec34 15bf c3ad eabf
00000230: 6947 adbf 5a8f 9dbf f7ff 543e 6b0f 253f
00000240: 8a22 713f f6ef 2640 065a 333f ceaa 493f
00000250: 74ae cf3f 731a fd3e 0264 413f 97f3 c5bf
00000260: 0af3 d93e dfeb cf3e f0ac 9f3f 5252 fc3f
00000270: d899 18bf 7316 863e 63bf a640 a95a 103f
00000280: e7e2 8640 9d21 8740 320d 2abd 727a f53e
00000290: b447 843f d26d 693e 1296 8240 5a23 363f
000002a0: 3b08 f03f 09bb 8240 9a69 5e3f c2f2 bebf
000002b0: 1104 99bf 6d90 60be ba9e d93f 555f fc3e
000002c0: 57f1 113f b9c2 ab3e d08a afbe 5ec9 8d3f
000002d0: 7a19 55bf e1c3 b0be b91c 93bf b6db cd3d
000002e0: 6b4f afbe b063 bdbf d585 49be e69a 0dbf
000002f0: 1a5c b1bf a10a 303f 7aea f1be ece3 903f
00000300: 0da0 843e d127 903f ed08 1840 3bca 853d
00000310: 3380 e13f f01e 8d40 b620 8d3f 7b9b 6d3f
00000320: 8353 a83e 900a 573f 7d3d b93f 7585 1f3f
00000330: a081 82be b6d7 e43f 227e 083f ddd2 403f
00000340: cccb 04bf ca4a cb3d da1a c43f 656f 9440
00000350: 0dd8 b9bf 017c 38bf dfe3 b03f 61bb 3ac0
00000360: 85c3 b13b 8505 84be 026d 02bf f445 1d40
00000370: 9dac ce3f a6c2 7a3f a0e1 5e3f 7e08 1340
00000380: 4f4c 0940 6174 a1bf 9bd7 24c0 9953 933e
00000390: e552 043f 707b 52bf b227 bfbe f156 58bf
000003a0: b289 0dbe d4d5 9a3f f181 ccbf 7515 d1bf
000003b0: 5c7d 91bf 9a9a aabf 039a 2240 6695 fbbe
000003c0: 1f86 5fbf e71d 6cbf f09a 2f3f e129 1a3f
000003d0: 0172 393f 2999 04bf b5e4 633f 5f5e e93f
000003e0: ffc3 233e 15d5 ad3f dd21 b73f 362a 08bf
000003f0: 6064 83be 0906 013f 4069 533e ef3a db3f

layer2.0.bn1.weight f4 [16]
3.4887679 2.8715796 2.8420517 3.213289 3.3961756 1.7838202 3.6588366 2.1503363
3.4297569 3.5104308 3.6322725 1.8528666 3.3444676 2.4999762 2.5113122 2.8282657
00000000: f947 5f40 f6c7 3740 2de4 3540 87a6 4d40
00000010: f15a 5940 3854 e43f 612a 6a40 1c9f 0940
00000020: 2381 5b40 e6aa 6040 2777 6840 bc2a ed3f
00000030: c20b 5640 9cff 1f40 57b9 2040 4e02 3540

layer2.0.bn1.bias f4 [16]
-0.6064904 2.529017 1.7771147 3.631808 4.216513 2.4150994 0.2548808 7.0706463
0.36867225 -0.7244817 0.6939729 1.3120061 1.1531829 -0.31803834 3.9421358 2.6027904
00000000: f442 1bbf 6adb 2140 7f78 e33f 8b6f 6840
00000010: aded 8640 fd90 1a40 bc7f 823e bc42 e240
00000020: 9cc2 bc3e a277 39bf 35a8 313f d1ef a73f
00000030: 7f9b 933f ecd5 a2be f44b 7c40 1e94 2640

layer2.0.bn1.running_mean f4 [16]
14.95781 35.2296 4.689333 2.7004218 -5.516543 -14.527269 -7.948339 -21.661116
4.167577 -6.5595407 -4.0129094 8.530024 5.26648 1.4060277 6.3849726 -2.0293503
00000000: 3153 6f41 1ceb 0c42 040f 9640 b6d3 2c40
00000010: 8587 b0c0 b26f 68c1 cb58 fec0 f749 adc1
00000020: ca5c 8540 c2e7 d1c0 c169 80c0 fa7a 0841
00000030: 0187 a840 b7f8 b33f b251 cc40 e0e0 01c0

layer2.0.bn1.running_var f4 [16]
385.9656 362.19 123.8878 161.22581 206.41418 160.42203 118.11871 184.66487
346.26608 659.73157 369.74127 172.1293 66.41943 483.72 151.15575 307.4972
00000000: 99fb c043 5218 b543 8ec6 f742 cf39 2143
00000010: 086a 4e43 0a6c 2043 c83c ec42 35aa 3843
00000020: 0f22 ad43 d2ee 2444 e2de b843 1a21 2c43
00000030: c0d6 8442 29dc f143 df27 1743 a4bf 9943

layer2.0.conv1.weight f4 [32, 16, 3, 3]
-2.3590784 1.2489157 1.8692808 -1.0017934 -0.39663488 -2.8642716 0.035199355 -0.9695198
-2.3911169 -4.2678185 -2.6373568 -0.37149814 -0.70802623 0.54515517 2.922682 1.9415472
2.2780983 1.2237138 0.2550615 -2.8598373 -0.96654564 -2.546457 -3.1991715 -0.8154569
-0.54703826 -0.6835639 0.6410617 3.1416268 -2.1573765 -2.864762 -5.2425694 -5.544783
0.062073406 -0.72604996 -0.81944954 4.242923 -1.5722805 2.6404967 5.572764 2.9090393
5.795874 1.92971 4.3099484 0.4509536 -2.7539108 1.8621361 -1.6621026 1.721321
0.29255462 -1.9270213 0.40429553 1.2441211 -0.17297451 -0.11098534 -2.133359 -3.9988632
-2.4841108 -2.713444 -2.7570777 -1.2910684 -1.1083865 1.6076891 1.1430044 2.0969007
-0.5563171 -2.1255953 -4.2293677 -2.4254138 -1.6765349 -1.0815077 0.8463203 2.0164948
0.24425276 1.8039697 -1.7543142 -4.113574 -1.2756565 -8.528414 -6.9593573 0.58776635
1.0382425 -1.5317483 1.3739513 3.319509 -6.573897 -3.0024362 -1.7604523 -4.220442
-1.1740792 -1.8854777 -2.7672062 3.7503486 3.3892398 2.1754131 6.4915366 5.3395205
4.066746 4.6720176 -0.4763085 2.2346132 0.6175058 -2.0359316 3.887743 -4.9967
-3.1582792 -2.7175982 -1.9967175 -2.5680585 -2.1827703 -0.3251323 0.93243676 0.7432711
0.47913277 -0.68223786 0.17013146 -0.17366394 -2.2703063 2.732068 1.3648314 -1.0864947
1.0502393 -0.3620124 -1.201093 -2.3902562 -3.8020296 -4.006654 -2.248091 -0.955568
1.2291541 1.5409453 0.0865345 2.0040534 3.2288458 -0.7263059 0.91877466 2.717704
0.1512226 -4.9139466 -0.7232408 -8.184748 -3.154745 -5.2080417 -3.9828913 2.949917
1.9908264 3.7393289 -0.6459662 3.4465072 2.2329838 -1.0378622 0.36824244 -2.4196439
-1.5976484 1.2952937 1.9596081 0.7501149 -1.1028264 1.8733327 2.003752 -2.6459699
-2.1901708 -0.5309758 0.27985835 -0.09226915 -0.719405 1.2147095 3.6332734 -0.9763873
-0.13214207 -2.2366478 -0.9368102 6.4293556 1.7456113 4.9159813 -2.4418423 -3.1469495
-2.759206 -3.4132102 -4.089052 -3.3808475 0.45767352 -1.2548059 -4.8201528 -1.101122
-2.998248 -0.28229135 0.23690821 0.60559785 2.7886257 1.3411101 -0.88496304 -1.8787732
-0.28160295 -3.1906 -0.39791358 3.4315717 0.8974908 1.1692519 0.47890517 -0.9496703
-1.5915087 1.3431007 -4.0013595 -1.9844377 2.8323433 3.4800541 0.5024133 3.710441
10.521941 4.1301546 -2.7460938 -5.9303956 -0.31989768 -1.5845574 -0.37179616 2.2217946
-2.2218728 -1.7259821 0.88171965 -0.5110045 1.151796 -0.41681784 1.7790703 -0.3026145
-1.7046613 -0.48586363 -1.255348 0.47872436 -2.5897303 -4.673705 -2.5810297 0.9157061
-0.34770477 1.3277283 -1.5717908 3.5693886 0.7102336 -0.28830078 0.13128671 1.0680892
-2.1270998 1.2723196 2.1009605 -1.4748937 -2.1508052 -2.0721588 2.7180734 2.1057405
-1.6968323 2.1251645 0.9796742 1.1442734 -0.8312659 4.3879194 1.0035671 5.1219616
00000000: 24fb 16c0 78dc 9f3f 9844 ef3f c43a 80bf
00000010: ba13 cbbe 3a50 37c0 332d 103d 7332 78bf
00000020: 0f08 19c0 f891 88c0 74ca 28c0 0135 bebe
00000030: 3541 35bf 4a8f 0b3f 390d 3b40 9e84 f83f
00000040: 5dcc 1140 a7a2 9c3f 6c97 823e 9307 37c0
00000050: 896f 77bf 27f9 22c0 3abf 4cc0 c9c1 50bf
00000060: b30a 0cbf 0bfe 2ebf 9f1c 243f 6a10 4940
00000070: 7512 0ac0 4358 37c0 21c3 a7c0 dd6e b1c0
00000080: af40 7e3d 69de 39bf 72c7 51bf 06c6 8740
00000090: 7d40 c9bf e6fd 2840 1554 b240 b32d 3a40
000000a0: cd77 b940 bd00 f73f 19eb 8940 64e3 e63e
000000b0: 1340 30c0 7a5a ee3f c7bf d4bf 3f54 dc3f
000000c0: b8c9 953e a2a8 f6bf d3ff ce3e 5c3f 9f3f
000000d0: 3b20 31be 484c e3bd f488 08c0 60ed 7fc0
000000e0: acfb 1ec0 11a9 2dc0 f673 30c0 bb41 a5bf
000000f0: 9cdf 8dbf c2c8 cd3f f84d 923f 9f33 0640
00000100: cc6a 0ebf c109 08c0 fb56 87c0 fb39 1bc0
00000110: b298 d6bf d86e 8abf 72a8 583f 400e 0140
00000120: 651d 7a3e 7be8 e63f 5e8d e0bf 66a2 83c0
00000130: b648 a3bf 6274 08c1 0eb3 dec0 db77 163f
00000140: 21e5 843f 5410 c4bf a3dd af3f d672 5440
00000150: 5d5d d2c0 ea27 40c0 8056 e1bf dc0d 87c0
00000160: 3a48 96bf 5557 f1bf e819 31c0 b605 7040
00000170: 4ee9 5840 f839 0b40 abba cf40 5add aa40
00000180: c922 8240 2b81 9540 b5de f3be e703 0f40
00000190: dc14 1e3f b44c 02c0 c8d0 7840 f7e4 9fc0
000001a0: 3f21 4ac0 21ed 2dc0 7094 ffbf 125b 24c0
000001b0: 82b2 0bc0 be77 a6be 2db4 6e3f 0447 3e3f
000001c0: e450 f53e 24a7 2ebf f136 2e3e f6d4 31be
000001d0: b34c 11c0 34da 2e40 ccb2 ae3f 4212 8bbf
000001e0: 3e6e 863f b059 b9be 6abd 99bf f5f9 18c0
000001f0: 7454 73c0 8236 80c0 b9e0 0fc0 1ba0 74bf
00000200: ec54 9d3f b23d c53f 0039 b13d 6942 0040
00000210: 69a5 4e40 2fef 39bf d134 6b3f ddee 2d40
00000220: 19da 1a3e 0d3f 9dc0 4f26 39bf baf4 02c1
00000230: 58e7 49c0 47a8 a6c0 b1e7 7ec0 71cb 3c40
00000240: 66d3 fe3f 2a51 6f40 0a5e 25bf 9393 5c40
00000250: 35e9 0e40 abd8 84bf 468a bc3e 72db 1ac0
00000260: be7f ccbf 2fcc a53f 70d4 fa3f 8807 403f
00000270: 6a29 8dbf 5ec9 ef3f 793d 0040 9257 29c0
00000280: c22b 0cc0 08ee 07bf 9849 8f3e 9cf7 bcbd
00000290: ed2a 38bf 9a7b 9b3f 8d87 6840 85f4 79bf
000002a0: 4050 07be 3d25 0fc0 cbd2 6fbf 48bd cd40
000002b0: 3170 df3f b84f 9d40 2547 1cc0 9f67 49c0
000002c0: d596 30c0 0972 5ac0 84d9 82c0 ce5f 58c0
000002d0: 2f54 ea3e 7b9d a0bf b13e 9ac0 91f1 8cbf
000002e0: 4ce3 3fc0 7e88 90be 1198 723e 7608 1b3f
000002f0: d878 3240 7fa9 ab3f f08c 62bf a47b f0bf
00000300: 432e 90be ca32 4cc0 54bb cbbe df9e 5b40
00000310: f5c1 653f 0caa 953f 0f33 f53e 981d 73bf
00000320: 8fb6 cbbf b9ea ab3f 230b 80c0 0e02 febf
00000330: 1d45 3540 35b9 5e40 289e 003f de77 6d40
00000340: df59 2841 3a2a 8440 00c0 2fc0 cdc5 bdc0
00000350: a1c9 a3be c7d2 cabf 115c bebe e231 0e40
00000360: 2a33 0ec0 fbec dcbf 61b8 613f 31d1 02bf
00000370: 0d6e 933f 2669 d5be 93b8 e33f 4af0 9abe
00000380: 5732 dabf 1ec3 f8be 3eaf a0bf 5c1b f53e
00000390: 24be 25c0 fe8e 95c0 972f 25c0 b76b 6a3f
000003a0: 5c06 b2be 00f3 a93f 7130 c9bf dd70 6440
000003b0: dfd1 353f 299c 93be 0670 063e 26b7 883f
000003c0: 6722 08c0 5edb a23f 2376 0640 51c9 bcbf
000003d0: cba6 09c0 409e 04c0 eaf4 2d40 74c4 0640
000003e0: cd31 d9bf b202 0840 eecb 7a3f 8d77 923f
000003f0: d8cd 54bf d669 8c40 e374 803f 1ce7 a340

layer2.0.bn2.weight f4 [32]
1.3248466 0.980155 1.1537229 1.1720362 1.1520119 1.1896064 1.1202239 0.97378117
1.0337207 1.680268 1.1293095 0.9710451 1.3821484 0.81491864 1.7575778 1.171337
1.0651304 0.89482445 1.0526941 1.1165222 0.9377989 1.0694684 0.92605793 0.96963555
1.3823549 0.5609642 1.1655613 1.051103 1.9242525 1.137002 1.0281268 1.2480317
00000000: 9394 a93f 70eb 7a3f 31ad 933f 4805 963f
00000010: 2075 933f 0645 983f 7f63 8f3f b949 793f
00000020: f650 843f 0613 d73f 378d 903f 6996 783f
00000030: 3dea b03f 829e 503f 4ff8 e03f 5fee 953f
00000040: 3156 883f 3713 653f aebe 863f 33ea 8e3f
00000050: 9713 703f 57e4 883f 2212 6d3f 093a 783f
00000060: 01f1 b03f 5a9b 0f3f 1d31 953f 8b8a 863f
00000070: e84d f63f 4889 913f a999 833f 81bf 9f3f

layer2.0.bn2.bias f4 [32]
-0.20624548 -0.3861837 -0.059572898 -0.11933328 0.08754825 -0.39724866 0.975504 0.46859246
-0.0933149 -0.32734215 -0.17977804 0.11024935 -0.14595054 -0.37057778 -1.0026522 -0.116269074
0.14156775 0.13151136 0.014326357 -0.017736662 -0.18934335 0.36445233 0.37966183 0.3288883
-0.2649549 0.16349435 -0.64838225 -0.06291505 2.4503028 -0.11704863 0.3599559 -0.023100397
00000000: 0432 53be dfb9 c5be b602 74bd 0265 f4bd
00000010: 7f4c b33d 2d64 cbbe a1ba 793f 5aeb ef3e
00000020: e21b bfbd 6499 a7be bc17 38be 69ca e13d
00000030: 0f74 15be 5fbc bdbe e856 80bf 7b1e eebd
00000040: 23f7 103e eaaa 063e 19b9 6a3c 7a4c 91bc
00000050: 39e3 41be 7f99 ba3e 0963 c23e 0c64 a83e
00000060: 2ba8 87be 106b 273e 61fc 25bf 9bd9 80bd
00000070: c3d1 1c40 31b7 efbd 244c b83e 0b3d bdbc

layer2.0.bn2.running_mean f4 [32]
-102.19772 37.738148 -28.071142 73.84141 38.060295 210.80641 86.40296 253.85326
-114.69209 14.934088 17.206367 22.074692 -9.333731 132.73851 -118.202576 -115.63601
-369.79642 -86.46571 10.623751 102.046906 142.6602 82.283 92.633835 12.690191
-249.66922 -107.001335 -24.084446 -29.050264 382.30936 120.15968 -153.46751 21.325405
00000000: 3c65 ccc2 ddf3 1642 b391 e0c1 cdae 9342
00000010: be3d 1842 71ce 5243 51ce ac42 6fda 7d43
00000020: 5a62 e5c2 06f2 6e41 a4a6 8941 f898 b041
00000030: f656 15c1 0fbd 0443 b867 ecc2 a345 e7c2
00000040: f1e5 b8c3 72ee acc2 e2fa 2941 0418 cc42
00000050: 03a9 0e43 e590 a442 8644 b942 060b 4b41
00000060: 52ab 79c3 af00 d6c2 f2ac c0c1 f166 e8c1
00000070: 9927 bf43 c251 f042 af77 19c3 6e9a aa41

layer2.0.bn2.running_var f4 [32]
15805.667 7588.8154 15374.64 20424.219 15931.245 12156.19 8333.285 15389.061
7978.244 12663.774 12082.13 12911.21 24593.695 5711.3984 9960.571 12327.504
16909.94 6611.0757 12130.697 8940.55 11313.095 15682.292 11579.133 15274.781
18345.137 5779.2236 4854.3564 8044.6543 26652.672 14667.241 13533.619 13426.635
00000000: abf6 7646 8626 ed45 8f3a 7046 7090 9f46
00000010: fbec 7846 c3f0 3d46 2435 0246 3e74 7046
00000020: f451 f945 19df 4546 85c8 3c46 d7bc 4946
00000030: 6423 c046 307b b245 49a2 1b46 049e 4046
00000040: e11b 8446 9b98 ce45 ca8a 3d46 33b2 0b46
00000050: 61c4 3046 2b09 7546 88ec 3446 20ab 6e46
00000060: 4652 8f46 ca99 b445 dab2 9745 3c65 fb45
00000070: 5839 d046 f72c 6546 7a76 5346 8aca 5146
