Our_code/Pytorch/Other_datasets_experiments/trained_students/CIFAR100-stud-t-40-2-student-16-1.pth (torch_old, 742002 bytes, 69 tensors)

conv1.weight f4 [16, 3, 3, 3]
0	0x3f0116da	0.50425494
1	0xbe3d4757	-0.18484245
2	0x3e677b3f	0.22605608
3	0x3e910b6f	0.28329036
4	0x3f981b75	1.1883379
5	0x3fa6b2cf	1.3023318
6	0x3e11c130	0.14233851
7	0x3ffc3eca	1.9706662
8	0x3fe7bd5c	1.8104663
9	0x3f8f81ae	1.121145
10	0xbf427011	-0.7595225
11	0xbf33f11c	-0.7028978
12	0x3ef4d02d	0.47815076
13	0xc0d44c45	-6.6343102
14	0xc0c9b39d	-6.3031754
15	0x3f346961	0.70473295
16	0xc0bb6b59	-5.856854
17	0xc0c524c6	-6.160739
18	0xbfbe6298	-1.4873838
19	0x3f6cc1d4	0.9248326
20	0x3f39766e	0.72446334
21	0xbf01eccc	-0.5075195
22	0x40aa1e9b	5.316236
23	0x409cb073	4.896539
24	0xbf0ec63d	-0.5577124
25	0x408993cb	4.299291
26	0x406c47dc	3.691886
27	0xbfbb2d7a	-1.4623253
28	0xc04f25a7	-3.236673
29	0xbffcf63f	-1.9762648
30	0xbfb33087	-1.3999184
31	0xbfcc31b4	-1.5952668
32	0xc00a014f	-2.1563299
33	0x3bc11bca	0.0058932053
34	0x402e4887	2.7231767
35	0x3f61c525	0.88191444
36	0xbd3637fc	-0.044486985
37	0xbf92adaf	-1.1459254
38	0x3e368fde	0.17828318
39	0x3f7c902c	0.9865749
40	0x3f2c8a98	0.6739898
41	0xbf130b99	-0.5743957
42	0x3e85d958	0.26142383
43	0x40192446	2.392839
44	0x3ed79643	0.42106828
45	0x3efa00ed	0.4882883
46	0x3e57d1b9	0.21076097
47	0x3fb137c3	1.3845142
48	0x3edce1b0	0.43140936
49	0x3f7c819f	0.98635286
50	0x3fae438c	1.3614364
51	0xbfb4bcec	-1.4120154
52	0xbf873b08	-1.056489
53	0xbf50442e	-0.81354034
54	0xbdf3e1f9	-0.11908335
55	0xc0404a48	-3.0045338
56	0xc00b8c3e	-2.1804347
57	0x3ef6c555	0.48197427
58	0xc0ce2636	-6.4421644
59	0xc099da10	-4.807869
60	0x4056f6a3	3.3588035
61	0x3fe3ccea	1.779691
62	0x3dee887f	0.11647128
63	0x3da3bc71	0.07994927
64	0x3f92e62f	1.1476496
65	0x3f0e6648	0.5562482
66	0x3f87ed69	1.0619327
67	0x3fc9152e	1.5709589
68	0x3fd48c13	1.6605247
69	0x3e95a541	0.2922764
70	0x405148dd	3.2700722
71	0x3fe57f5c	1.7929492
72	0x3fa9e704	1.3273625
73	0x40252c6d	2.5808365
74	0x4017b2dd	2.370292
75	0xc008f6f7	-2.1400735
76	0xbbdc82ae	-0.0067294454
77	0x403021cd	2.752063
78	0xc070f161	-3.7647326
79	0xc03881b1	-2.8829157
80	0xbf7d1a4e	-0.9886826
81	0xbfc626ee	-1.548063
82	0xbf9db30e	-1.2320268
83	0x3fc9b36c	1.575788
84	0xc083d6cd	-4.119971
85	0xc047093d	-3.1099389
86	0x40ec55a4	7.385454
87	0xbee08827	-0.43853876
88	0xbf962215	-1.1729151
89	0x403f3a03	2.9879158
90	0xbf4e525e	-0.8059443
91	0xbee4d6a8	-0.4469502
92	0x3f43e27e	0.76517475
93	0xc037e87f	-2.8735654
94	0xc0368f58	-2.852499
95	0x40b671af	5.7013774
96	0xbe27fc80	-0.16404915
97	0xbfdea208	-1.7393198
98	0x3fab8448	1.3399744
99	0x3fc38ef6	1.5278003
100	0xbf0878ef	-0.5330953
101	0x3e80edb5	0.25181356
102	0xc023f34d	-2.561725
103	0xc02b0e99	-2.672766
104	0x408c0f12	4.3768396
105	0x3e155c82	0.1458607
106	0xbfb43f9f	-1.4081916
107	0x3f947baf	1.1600245
108	0x3f1deedb	0.6169259
109	0xc003939d	-2.0558846
110	0xbe9dd3c5	-0.3082563
111	0xbf5e70c0	-0.8689079
112	0x3dbc6c73	0.092003725
113	0xbfd77e58	-1.6835432
114	0xbf555d3b	-0.83345383
115	0xbf0c4507	-0.5479283
116	0xbf756fde	-0.9587382
117	0xbf0e03a6	-0.5547432
118	0x3f37a817	0.7174086
119	0x3f1e578b	0.6185233
120	0x3eb19e14	0.34690917
121	0x40da2842	6.8174143
122	0x3f86d6f9	1.0534354
123	0x3f89b6b0	1.0758877
124	0x406417a5	3.5639431
125	0x3ff2ad33	1.8959106
126	0xbef1c372	-0.47219425
127	0xbe88ceec	-0.2672037
128	0x3e9e4e63	0.3091918
129	0xbeb9bd54	-0.36277258
130	0xbf8256e9	-1.0182773
131	0xc01741fe	-2.3634028
132	0xbf7624e9	-0.9615007
133	0xc069f6ab	-3.6556804
134	0xbfa1d9f3	-1.2644638
135	0xbfe06add	-1.7532612
136	0xc014d23d	-2.325332
137	0xbf8b1bb4	-1.0867829
138	0xbfd61fa2	-1.6728404
139	0x40a4958e	5.143256
140	0x3fb0ad5f	1.3802909
141	0x3edcab28	0.43099332
142	0x405b4a20	3.4263992
143	0x406c28be	3.6899867
144	0xbe8f97e1	-0.28045562
145	0xbf36db57	-0.71428436
146	0xbe8e7f79	-0.2783163
147	0xbfc885f1	-1.5665876
148	0x3f9fc35e	1.2481496
149	0xc0217c8e	-2.5232272
150	0xc00b0996	-2.17246
151	0xc03748b1	-2.8638117
152	0xbfa9a1d2	-1.3252509
153	0x3e927d28	0.28611112
154	0x4000e1b5	2.013776
155	0x3f86ead2	1.0540411
156	0xbe2dfdbc	-0.16991323
157	0x405b3e74	3.4256868
158	0x4001c392	2.0275617
159	0xc025804e	-2.585956
160	0xbf4c0765	-0.79698783
161	0x4013162a	2.2982278
162	0xc084eaf1	-4.1536794
163	0xc0a2d9b0	-5.089073
164	0xc05ffbb6	-3.4997382
165	0xbf9b6fda	-1.2143509
166	0x407e9bcf	3.9782598
167	0x4010e0ba	2.2637162
168	0x401a41dd	2.41027
169	0x40d4267a	6.629697
170	0x407ce721	3.951607
171	0x3fde63e5	1.7374235
172	0x3fcd420c	1.6035781
173	0x3fd211b8	1.6411657
174	0xbfe3eb68	-1.7806215
175	0xbf921c3a	-1.1414864
176	0xbfda313e	-1.7046278
177	0xbfae6c26	-1.3626754
178	0xc037d1cf	-2.8721807
179	0xc034fc23	-2.8278892
180	0x405bb67a	3.4330125
181	0x403f98b6	2.9936957
182	0x403784df	2.8674848
183	0x3f92d305	1.1470648
184	0xbf881234	-1.0630555
185	0xbf8575fb	-1.042663
186	0xbe5d512c	-0.21612996
187	0xc072ad7f	-3.7918394
188	0xc0431255	-3.047994
189	0x3deb9025	0.11502103
190	0x3f6e5d67	0.9311127
191	0xbec00347	-0.375025
192	0x3ffa3acd	1.9549195
193	0x3fe6c0dc	1.8027606
194	0xbf9d600b	-1.2294935
195	0x3f8ef0d3	1.1167244
196	0x3da2b184	0.07944015
197	0xc04f3248	-3.237444
198	0x3f59cd38	0.85078764
199	0xbef7f33e	-0.48427767
200	0xbf149122	-0.58033955
201	0xbf40587f	-0.75135034
202	0xc09fff3e	-4.9999075
203	0xc0cd5f94	-6.4179173
204	0xbfad7d2f	-1.3553828
205	0xc0c35658	-6.10429
206	0xc0d1141b	-6.5337043
207	0xbf445937	-0.7669863
208	0x3e057b07	0.13035212
209	0x3ec1a967	0.37824556
210	0x3f816d1d	1.0111424
211	0x409da658	4.9265556
212	0x4095215f	4.6603236
213	0x3d63ed0e	0.055645995
214	0x405f5cf5	3.4900486
215	0x40513f6d	3.2694962
216	0xbfa62127	-1.2978867
217	0xbfc7d31e	-1.5611303
218	0xc05452d7	-3.3175561
219	0x3f8af118	1.0854826
220	0x4035a65a	2.8382783
221	0xbe79959a	-0.24373475
222	0x400c9e15	2.1971486
223	0x40956b58	4.6693535
224	0xbfbb3eab	-1.46285
225	0x3fac9f0f	1.3486041
226	0x3fa34fa1	1.2758676
227	0x3f4bf714	0.79673886
228	0xbea70c7f	-0.3262672
229	0xbf2242db	-0.63383263
230	0x3ffe2a98	1.9856749
231	0x3f634a2b	0.88785046
232	0xbf7c6031	-0.98584276
233	0xbf8f8ede	-1.1215475
234	0xbf327919	-0.6971603
235	0xbe9dd34c	-0.3082527
236	0x40388438	2.88307
237	0xc072230f	-3.7833898
238	0xc08d2229	-4.41042
239	0x4035b3f5	2.8391087
240	0xbfaaac9b	-1.3333925
241	0xc0718115	-3.7735035
242	0x3fe07f8d	1.7538925
243	0xbfb7740d	-1.4332291
244	0xbfbd1711	-1.4772664
245	0xc00f9686	-2.2435622
246	0x3f0c55ed	0.5481861
247	0x3fff5996	1.9949214
248	0xbfc588d1	-1.5432378
249	0x400a613c	2.1621847
250	0x400837da	2.128409
251	0x3f7c1dac	0.98482776
252	0xc0330aa2	-2.797524
253	0xc0019f5e	-2.025352
254	0xc044c46a	-3.0744882
255	0xbf3b5459	-0.7317558

layer1.0.bn1.weight f4 [16]
0	0x404d9ee7	3.2128236
1	0x3fed1ab4	1.8523774
2	0x40085033	2.129895
3	0x4016a622	2.35389
4	0x3fcfefdc	1.6245074
5	0x40171a68	2.3609867
6	0x3faf70ba	1.3706276
7	0x3fe32e05	1.7748419
8	0x3fbd238e	1.4776475
9	0x3fd8f70f	1.6950396
10	0x3fd7e170	1.6865673
11	0x40575fc3	3.3652198
12	0x403fee94	2.9989367
13	0x3fece1b2	1.8506377
14	0x40346f18	2.8192806
15	0x401e599a	2.4742188

layer1.0.bn1.bias f4 [16]
0	0x40bcf986	5.9054594
1	0xbfc2db05	-1.522309
2	0x4119d941	9.6155405
3	0xbe4f6a4f	-0.20255397
4	0x40191f42	2.3925328
5	0x40d8e3d7	6.7778125
6	0x4024fc65	2.577905
7	0xc0098fc9	-2.149401
8	0x40c60ab4	6.1888065
9	0x3faa3c5a	1.3299668
10	0x40b51607	5.658939
11	0x3fa39e7b	1.2782739
12	0xc032d055	-2.7939656
13	0x405ece5d	3.4813454
14	0x40e0f03b	7.029325
15	0x402baf2a	2.6825662

layer1.0.bn1.running_mean f4 [16]
0	0x3e9a2d2e	0.30112594
1	0xbf273bf2	-0.65325844
2	0xbfda83f1	-1.7071515
3	0x3c2f51a0	0.010700613
4	0xbece4cbd	-0.40292922
5	0xbe2bbb76	-0.1677073
6	0x3f3b14bb	0.7307851
7	0x3f82a0ad	1.0205284
8	0x3f55f570	0.8357763
9	0xbead0d70	-0.33799314
10	0xbf3277e1	-0.6971417
11	0xbe303809	-0.17208876
12	0x40b072a0	5.5139923
13	0xbeb4d8bc	-0.35321605
14	0x3da4b122	0.08041598
15	0xbda5cbdd	-0.080955245

layer1.0.bn1.running_var f4 [16]
0	0x41b1011a	22.125538
1	0x4153ff4f	13.249831
2	0x417277ec	15.154278
3	0x428326ff	65.576164
4	0x4118fc83	9.561648
5	0x41cea42b	25.83016
6	0x41540082	13.250124
7	0x42726642	60.59986
8	0x412283b9	10.157159
9	0x4285312b	66.59603
10	0x411d71d7	9.840293
11	0x42263e4e	41.560844
12	0x433f8cf8	191.55066
13	0x414badb8	12.729912
14	0x41845df8	16.545883
15	0x422ccd41	43.200443

layer1.0.conv1.weight f4 [16, 16, 3, 3]
0	0xbf69bf5c	-0.91307616
1	0x3eb815f7	0.35954258
2	0xbfc59923	-1.5437359
3	0xbe96f877	-0.2948644
4	0xbf4abf53	-0.7919819
5	0x3eb4045a	0.3515957
6	0xbf724450	-0.94635487
7	0x3f3c03e5	0.7344344
8	0x3e1d480f	0.1535952
9	0xbe716929	-0.23575272
10	0x405b4497	3.4260614
11	0xbf81ac9e	-1.0130804
12	0xbfd69d8b	-1.6766828
13	0xbfde9058	-1.73878
14	0xc0aa2a75	-5.3176827
15	0x3ec3c424	0.3823558
16	0xbf8ca2bb	-1.0987161
17	0xbfab1ed4	-1.3368783
18	0xbebb95d9	-0.36637762
19	0x40011028	2.016611
20	0xc01b3672	-2.425198
21	0x3de586fe	0.11207388
22	0xc0839377	-4.111751
23	0x3f02e730	0.51134014
24	0x3fac515c	1.3462329
25	0x3fbebbd4	1.490107
26	0xbf0e9bd6	-0.55706537
27	0xc01f79e6	-2.491815
28	0x3f53c96c	0.8272922
29	0x402dde14	2.7166796
30	0x4080983c	4.0185833
31	0x4046cc0d	3.1062043
32	0x3e9fd8bf	0.31220052
33	0xbe6c2215	-0.23059876
34	0x3fbadd08	1.4598703
35	0x3f976cb4	1.1830049
36	0xc02f88eb	-2.7427318
37	0xc01d7924	-2.4605188
38	0x3fa052fc	1.2525325
39	0xc0216c29	-2.5222266
40	0x40d052a5	6.5100884
41	0xc0208d74	-2.5086336
42	0xbf38288e	-0.7193688
43	0xbf87ee17	-1.0619534
44	0xc052a03e	-3.2910304
45	0x403aa557	2.9163415
46	0xc05eb37d	-3.479705
47	0xbf95fb59	-1.171733
48	0x401e4c7e	2.4734187
49	0x408c88f4	4.391718
50	0xc020edff	-2.5145261
51	0xbfa6171a	-1.29758
52	0xbf2ba443	-0.6704752
53	0xbf7dda18	-0.9916091
54	0x3ee637fe	0.44964594
55	0xbec39d59	-0.38205984
56	0x3fddd440	1.7330399
57	0xbfb5c335	-1.4200197
58	0xb8cfa344	-9.90094e-05
59	0xc0150d10	-2.3289223
60	0xc02fb92b	-2.7456768
61	0x3ee76856	0.4519679
62	0x3da0edbf	0.078578465
63	0xbfb38508	-1.4024973
64	0x3ffa40c5	1.9551016
65	0xbe04c5bc	-0.12966055
66	0xbfad31ac	-1.3530784
67	0x40111873	2.2671173
68	0xbe766f0d	-0.240658
69	0xc084a702	-4.1453867
70	0xbfb7a2ee	-1.4346597
71	0xbf4cdd7e	-0.8002547
72	0x3f06fc4d	0.5272873
73	0xbea68899	-0.3252609
74	0x400e3e94	2.2225695
75	0x404e4b32	3.2233396
76	0xc05f9f76	-3.4941077
77	0xbfd97a9a	-1.699054
78	0x3f4ac7c8	0.7921109
79	0xbfe7ae2c	-1.8100028
80	0xbf48583e	-0.78259647
81	0x3f69969a	0.91245425
82	0xbe3073b6	-0.1723164
83	0x3f807d86	1.0038307
84	0xbfafacf4	-1.3724656
85	0x4057309b	3.3623416
86	0xc0a29329	-5.080464
87	0xc092c76d	-4.586844
88	0xbfc1bd8d	-1.5135971
89	0xc0416ef4	-3.022397
90	0x3f78ef27	0.9723992
91	0xc0905185	-4.509951
92	0x400002ca	2.0001702
93	0x3fc174d8	1.5113783
94	0x400d5a76	2.2086463
95	0xc0129af1	-2.2907069
96	0xc060d716	-3.5131278
97	0xbfaae7c4	-1.3351979
98	0xc02d3b56	-2.7067466
99	0xbfc0b905	-1.5056463
100	0xc05be7b0	-3.436016
101	0x41119e88	9.101204
102	0xc05cdd93	-3.4510238
103	0xc04c94d6	-3.1965842
104	0xc023ec32	-2.5612912
105	0xbf8d7ccb	-1.1053709
106	0x3f8ca1c5	1.0986868
107	0xbfb2a665	-1.395703
108	0x3fd3a713	1.6535362
109	0xbe431b85	-0.19053467
110	0xc099c494	-4.8052464
111	0x408a39ca	4.3195543
112	0x40068da9	2.1023962
113	0x3f10651a	0.5640427
114	0x3f9c6dec	1.2221045
115	0x3f069f4f	0.52586836
116	0xbf9757e5	-1.1823698
117	0xbfa7d47a	-1.3111718
118	0xbfc3a8d1	-1.5285894
119	0xbf01e522	-0.50740254
120	0x3f179ffc	0.5922849
121	0xbff74161	-1.9316827
122	0xbed897d2	-0.4230333
123	0xbffce1b5	-1.975638
124	0xbdc2ad8e	-0.09505759
125	0xbf94361a	-1.157901
126	0xc085dc46	-4.183139
127	0x408eafeb	4.4589744
128	0xc0dfb98e	-6.9914007
129	0xbf6c1e86	-0.92234075
130	0xc1560c55	-13.378011
131	0x408aaa0b	4.333257
132	0x3fc9c358	1.5762739
133	0xbfce9b3b	-1.6141123
134	0x406cdd53	3.7010086
135	0x406d016f	3.7032125
136	0x40a876e1	5.2645116
137	0xc0a2c20a	-5.0861864
138	0xc01b4020	-2.4257889
139	0xc0e3f7e5	-7.1240106
140	0x40027549	2.0384085
141	0x3eca40d8	0.39502597
142	0xbecdc259	-0.40187338
143	0x4024b9a4	2.5738306
144	0x3fe6702c	1.8002982
145	0xbfdea867	-1.7395142
146	0x3f13ff32	0.5781127
147	0x400faf89	2.2450888
148	0xbfc203b6	-1.5157382
149	0x3e844e67	0.25841066
150	0xbf245e7e	-0.64206684
151	0x3ed26528	0.410928
152	0xbf74edb4	-0.95675206
153	0x3f551aac	0.83243823
154	0xbf0a3e5b	-0.54001397
155	0x40254a03	2.5826423
156	0x3ebc58cb	0.36786494
157	0x3e9d6cdb	0.30747113
158	0xbf5ea2b4	-0.86967015
159	0x40d69557	6.70573
160	0xbea0c62b	-0.3140119
161	0xbf8c43af	-1.0958155
162	0xbfb44bfe	-1.4085691
163	0xc076c436	-3.8557258
164	0x3f0926ad	0.5357464
165	0x3f70f98d	0.94130784
166	0x3f643577	0.8914408
167	0x40165b20	2.3493118
168	0xbe134e6d	-0.14385386
169	0xbf9414df	-1.1568869
170	0xc0354c25	-2.8327725
171	0xc09c8536	-4.891261
172	0xbf850072	-1.0390761
173	0x409e0e57	4.9392505
174	0xc114e8ee	-9.306868
175	0xbf1b7854	-0.6073048
176	0x3f78a2e3	0.97123545
177	0xc09771dc	-4.732649
178	0xbfe0c565	-1.756024
179	0xbf9a67f9	-1.206298
180	0xbf21edd9	-0.6325355
181	0x40426bec	3.037837
182	0x3f913c2e	1.134649
183	0xc015cfd7	-2.3408105
184	0x40a4efc3	5.154268
185	0x3f375921	0.71620375
186	0x3fd722a5	1.6807448
187	0xbec33e67	-0.38133547
188	0x4006984f	2.1030462
189	0x409f85ad	4.985068
190	0x409fe353	4.9964995
191	0x3ff30def	1.8988627
192	0x3f94f4c3	1.1637195
193	0x403f8470	2.9924583
194	0x3d4de978	0.05027148
195	0xc09b024d	-4.844031
196	0xc07f63ed	-3.990474
197	0xbf156643	-0.58359164
198	0x3fb02cf2	1.3763716
199	0x3fdd7d29	1.7303821
200	0x3f9b96c4	1.2155385
201	0xbfe1f78e	-1.7653673
202	0x3f89ad09	1.0755931
203	0xbfb59dca	-1.4188778
204	0x3fe7b4b1	1.8102018
205	0x40580760	3.3754501
206	0x3fde2b6f	1.7357005
207	0xbf0bce60	-0.5461178
208	0x3fde02ef	1.7344645
209	0x3fe7d67b	1.8112329
210	0x4000d0d7	2.0127466
211	0x4010298e	2.2525363
212	0xbfc9ce41	-1.5766069
213	0x40796a8b	3.8971279
214	0x407bab10	3.9323158
215	0x3eddd410	0.43325853
216	0x40310fc9	2.7665884
217	0xbfb748a0	-1.4319038
218	0xbfe41e71	-1.782179
219	0x400e5b08	2.224306
220	0xbf47b789	-0.7801443
221	0xbf2bb8c1	-0.6707879
222	0x406aaaa9	3.6666663
223	0x40b997ce	5.799781
224	0xbec37992	-0.38178688
225	0xc045b561	-3.0891955
226	0xbf58e97c	-0.8473127
227	0x3f0ccaaf	0.5499677
228	0xc1041bc6	-8.256781
229	0xbf413db7	-0.75484794
230	0xc09c23f4	-4.879389
231	0xbfce2f86	-1.6108253
232	0xc0396bce	-2.8972049
233	0xc05f3ab9	-3.4879591
234	0xbeae23bc	-0.34011638
235	0xbebdfef7	-0.37108585
236	0xc05c86fc	-3.4457388
237	0x40d2e924	6.5909595
238	0x40ea5576	7.3229322
239	0x405515ac	3.3294477
240	0x3e467c5b	0.19383375
241	0xbffa7058	-1.9565535
242	0xbfc906a4	-1.5705152
243	0xc01fb9a9	-2.4957068
244	0xbe1c40f3	-0.15259151
245	0xc08dbdad	-4.429404
246	0x403eae18	2.9793758
247	0x3fe0abab	1.7552389
248	0xbf915083	-1.1352695
249	0xbe991507	-0.29898855
250	0x3fa64299	1.2989074
251	0x3fb2fc57	1.3983258
252	0xbeacf6b7	-0.33781978
253	0xc0869b1b	-4.206434
254	0x400f266a	2.2367196
255	0x40ee4292	7.4456263

layer1.0.bn2.weight f4 [16]
0	0x3ee13851	0.43988279
1	0x3e94d330	0.29067373
2	0x3e85ea60	0.26155376
3	0x3eca1450	0.39468622
4	0x3e8f50d5	0.27991357
5	0x3ee583c4	0.44827092
6	0x3f242267	0.64114994
7	0x3e8eb5a1	0.27872947
8	0x3ecc94a0	0.39957142
9	0x3ea0ac8a	0.31381637
10	0x3eb112b4	0.34584582
11	0x3eb05386	0.34438723
12	0x3f6dc6e4	0.9288161
13	0x3eb41c6f	0.35177943
14	0x3f0209a3	0.50795954
15	0x3f0f60ec	0.56007266

layer1.0.bn2.bias f4 [16]
0	0x3e87d049	0.26526096
1	0x3eca73ad	0.3954138
2	0x3f0ce7d7	0.5504126
3	0xbdc23856	-0.094834015
4	0x3f425218	0.75906515
5	0x3e6a12bc	0.22858709
6	0xbf39b63b	-0.72543687
7	0x3f399366	0.7249054
8	0x3d70f00e	0.058822684
9	0x3ef5873a	0.47954732
10	0x3eec46d7	0.46147797
11	0x3efb2584	0.4905206
12	0xc05bc63c	-3.4339743
13	0x3ea2b840	0.31781197
14	0x3e3754ae	0.17903396
15	0xbf298ac7	-0.6622738

layer1.0.bn2.running_mean f4 [16]
0	0xc3817fce	-258.99847
1	0x431007f7	144.03111
2	0x42ddd770	110.92078
3	0x42cb71b9	101.722115
4	0xc2a3ab06	-81.83403
5	0x4320bb8b	160.73259
6	0xc2c88ea6	-100.27861
7	0x3f373a97	0.71573776
8	0x42659b89	57.40189
9	0x433392f5	179.57405
10	0x41d3796b	26.434286
11	0xc3305166	-176.31796
12	0x430252cd	130.32344
13	0xc326797b	-166.47453
14	0xc2ba5971	-93.17469
15	0x439e07b8	316.0603

layer1.0.bn2.running_var f4 [16]
0	0x4622e835	10426.052
1	0x45bcbd7b	6039.685
2	0x458b1f4e	4451.913
3	0x45f3d93c	7803.1543
4	0x455e8b9e	3560.726
5	0x463f6838	12250.055
6	0x461da42b	10089.042
7	0x45a2ae2b	5205.771
8	0x45be9207	6098.2534
9	0x460de93e	9082.311
10	0x45d0b515	6678.6353
11	0x460afff0	8895.984
12	0x45cbcc6d	6521.553
13	0x461b2b3e	9930.811
14	0x4615b1c3	9580.44
15	0x45df57f2	7146.993

layer1.0.conv2.weight f4 [16, 16, 3, 3]
0	0x3f9bc729	1.2170154
1	0x3fda2b97	1.7044553
2	0xbfc0ff1e	-1.5077856
3	0x3fd32a7c	1.649734
4	0x3ecabab6	0.39595574
5	0x3f5cee76	0.8630136
6	0xbec0ef96	-0.3768279
7	0xbf4da93e	-0.8033637
8	0x3fcaf110	1.5854816
9	0x3f9f6740	1.2453384
10	0xbf8ffb2b	-1.1248525
11	0xbf653f28	-0.89549494
12	0xbea1af30	-0.3157897
13	0xc05da552	-3.4632154
14	0xc0579d0f	-3.368961
15	0x401cb80b	2.448733
16	0xbfde6eb2	-1.7377532
17	0xbfd9a05d	-1.7002064
18	0x4038b91c	2.8862982
19	0x3fb53958	1.4158125
20	0x3f82e2ab	1.0225424
21	0x3f19562b	0.59897107
22	0x3e80abb9	0.25131014
23	0x40329e36	2.7909064
24	0xbf579ad8	-0.8422065
25	0xc02b3f81	-2.675751
26	0x3f07da8f	0.5306787
27	0xbf002107	-0.50050396
28	0xbffbb191	-1.9663564
29	0xc0060e0c	-2.0946074
30	0xbfb3627e	-1.4014432
31	0xbfeda8a4	-1.856709
32	0xbfd33d68	-1.6503115
33	0x3f09abfd	0.5377806
34	0xbfe3aa09	-1.7786266
35	0xbf0047b5	-0.50109416
36	0xc0e63da7	-7.195026
37	0x3e08f050	0.13372922
38	0x40c47910	6.139778
39	0xc10817f5	-8.505849
40	0xc0348579	-2.8206465
41	0x4131ab50	11.104324
42	0xc0af69a2	-5.4816446
43	0xc070401b	-3.7539127
44	0x4015f566	2.343103
45	0xbf020e3e	-0.5080298
46	0x3eb18cb6	0.34677666
47	0x3f5c2252	0.8598987
48	0xbf593718	-0.8484969
49	0x3e3ef666	0.18648681
50	0x3f189cf4	0.5961449
51	0xbf9530c4	-1.1655507
52	0xbfa6621e	-1.2998693
53	0xbfa43575	-1.2828814
54	0x3f3510a8	0.7072854
55	0xbf9244db	-1.1427263
56	0xbf38e0af	-0.7221784
57	0x3f723141	0.94606405
58	0xbf19cc1c	-0.6007707
59	0x3f2074ae	0.6267804
60	0xbf6e746b	-0.9314639
61	0xbf14f1ba	-0.58181345
62	0x3f21b86d	0.63172036
63	0x409d441c	4.914564
64	0x4074c47d	3.8244927
65	0x3e964af6	0.29354066
66	0x4111c65f	9.11093
67	0x4078aea2	3.8856587
68	0xc048147f	-3.126251
69	0x40a0e0b2	5.0274286
70	0x3eaab817	0.33343574
71	0xc07e56eb	-3.974055
72	0x40535f1f	3.3026807
73	0x407b1526	3.9231658
74	0x405f1824	3.4858484
75	0x3f8d7bb1	1.1053373
76	0x3edd85f8	0.43266273
77	0x3e0ea2f8	0.13929355
78	0xc021bb41	-2.527054
79	0xc08487b9	-4.1415677
80	0xc04931fe	-3.1436763
81	0x3f032a2f	0.5123624
82	0xbfa4d474	-1.2877336
83	0x3e811ac2	0.25215727
84	0xbf2885dd	-0.6582926
85	0xc0b55cbf	-5.6675715
86	0xbd42fab7	-0.04760238
87	0xbe743ab1	-0.23850514
88	0xbfc7a103	-1.5596012
89	0x3fa004a2	1.2501414
90	0xc0947308	-4.639042
91	0xc116899d	-9.408597
92	0xc10426af	-8.259444
93	0xbfe9db9c	-1.8270144
94	0xc0a3ca09	-5.1184125
95	0xc05a444e	-3.410419
96	0x40ad7722	5.4207926
97	0x41226e7a	10.151972
98	0x412c145a	10.754969
99	0x3f53666f	0.82578176
100	0xbf157b1c	-0.58390975
101	0x3f2fb442	0.68634427
102	0xc01d2a3d	-2.455703
103	0x3eb85e17	0.36009285
104	0xbf3f4887	-0.7472004
105	0xc033dfe4	-2.8105402
106	0x40126211	2.2872355
107	0x4016d2e8	2.3566227
108	0xc03094d5	-2.759084
109	0x3da4c50f	0.080453984
110	0xbed73c03	-0.42037973
111	0xbf67c4b0	-0.90534496
112	0xbf01273c	-0.5045049
113	0x3e9ceb74	0.30648386
114	0xbf950a55	-1.1643778
115	0x3fbc29a7	1.4700211
116	0x3d201d74	0.03909059
117	0xbff7ba17	-1.9353665
118	0xc006d8fd	-2.106994
119	0xbf4c998f	-0.7992181
120	0xbf4cb107	-0.7995762
121	0xbf6943df	-0.9111919
122	0x3e1b0b1e	0.1514096
123	0xbf1cc6bf	-0.6124076
124	0x3fae6195	1.362353
125	0x3f93e266	1.1553466
126	0xbe58aa03	-0.21158604
127	0xbfc46622	-1.5343668
128	0xbdb96b09	-0.090536185
129	0x3fb2bafd	1.3963314
130	0x3e7ce183	0.24695401
131	0x40023dd4	2.0350237
132	0x3f83d214	1.0298486
133	0x3e0542b5	0.13013728
134	0x3fcda8b9	1.6067115
135	0xc0314e0a	-2.7703881
136	0x3eb3a6cf	0.35088202
137	0x3f7ea33e	0.9946784
138	0x3c942e72	0.018088553
139	0x3f43b32f	0.7644529
140	0x3f46d991	0.7767573
141	0xbfbd0b21	-1.4769021
142	0x3f855ba0	1.0418587
143	0x3ff44885	1.9084631
144	0xbe17bb60	-0.14817572
145	0x3f14367d	0.5789564
146	0xbdf6a439	-0.12043042
147	0xbecf59f6	-0.40498322
148	0x3f87a2ff	1.0596617
149	0x3f654628	0.89560175
150	0xbf6f275f	-0.9341945
151	0x3fa54504	1.2911687
152	0x3ccaf070	0.024772853
153	0xbf0566ac	-0.5210979
154	0xc02b7dee	-2.6795611
155	0x3fae2eb3	1.3608001
156	0xc0358508	-2.8362446
157	0x3f1c84a3	0.6113989
158	0x3ec3a055	0.3820826
159	0x3fefdd76	1.873946
160	0xbf8f2d7d	-1.1185757
161	0x3f1a7d0a	0.60347044
162	0xc02944b1	-2.6448176
163	0x3e9081fa	0.28224164
164	0xbf80361b	-1.0016512
165	0x40030b95	2.047582
166	0x3fbf26d4	1.4933724
167	0x4042c45b	3.0432346
168	0xbf429e44	-0.76022744
169	0x3e30e56e	0.1727502
170	0x404e3051	3.221699
171	0x3f06bb96	0.52629983
172	0xbfae8e63	-1.3637203
173	0xbf434ce6	-0.7628921
174	0xbe446eda	-0.19182912
175	0x3fa1bcc0	1.2635727
176	0xbe32f911	-0.17477824
177	0x3f8241f4	1.0176377
178	0xbfc22117	-1.5166348
179	0xbff23565	-1.8922545
180	0x3f47d8cb	0.78065175
181	0xbff11f22	-1.8837626
182	0xbf97b64e	-1.185251
183	0x3fb85b02	1.4402773
184	0x40213825	2.5190518
185	0x40097ef7	2.1483743
186	0x3ffcd66f	1.975294
187	0xbd6ac4b3	-0.057316493
188	0x4086a037	4.2070575
189	0x40178d1a	2.3679872
190	0x40954433	4.664575
191	0xbe0464e4	-0.12929112
192	0x3e8cf695	0.27531877
193	0x404be91a	3.1861024
194	0xc01b0e54	-2.4227495
195	0xbffc431c	-1.970798
196	0x3fcb4613	1.588076
197	0xbf2a2a7c	-0.66471076
198	0x3eb5b43e	0.35489076
199	0xc08b1507	-4.346317
200	0x3f4b9d71	0.7953711
201	0x3c2a1176	0.01038014
202	0xbf9438b0	-1.15798
203	0x3ec90a56	0.39265698
204	0x3ec1e435	0.3786942
205	0xbf91a4bb	-1.1378397
206	0x3f73c8ca	0.95228255
207	0x3fc7101a	1.5551789
208	0x40164858	2.3481655
209	0x3d91be1d	0.07116339
210	0xbec0b411	-0.3763738
211	0xbd1410e5	-0.036148924
212	0x40ad06e8	5.407093
213	0x3f2c370f	0.6727151
214	0x404dbabd	3.2145226
215	0x4006a202	2.1036382
216	0xbf927845	-1.1442953
217	0x3f921f87	1.1415871
218	0x40378c5b	2.8679416
219	0xbfc97e15	-1.5741602
220	0xbf7a31c2	-0.97732174
221	0xbf1335c2	-0.575039
222	0xbf8d3578	-1.1031942
223	0x3e98013b	0.2968844
224	0xbe01dc74	-0.12681752
225	0x3f75803e	0.9589881
226	0xbfa84f0b	-1.3149122
227	0x3f917802	1.1364748
228	0xbf8f4535	-1.1192995
229	0x3fd2b676	1.6461933
230	0x3f0b230c	0.5435035
231	0x3fc5084f	1.539316
232	0x3ed08724	0.40728104
233	0x3ffd77fd	1.9802243
234	0x3f086279	0.5327526
235	0x40136951	2.303303
236	0xbf3bee9a	-0.7341095
237	0x3ed4e958	0.41584277
238	0x3f86ff50	1.0546665
239	0x3ee6fa87	0.45113012
240	0x3f455a99	0.77091366
241	0xbf3f574c	-0.7474258
242	0x3ef8b03d	0.4857196
243	0xbeae45e2	-0.3403769
244	0xbd33db19	-0.04391012
245	0x403fc74d	2.9965394
246	0x3eca5704	0.39519513
247	0xc010629e	-2.256019
248	0x3f79cf0c	0.97581553
249	0xbf8b68e1	-1.0891382
250	0xbed6b442	-0.419344
251	0x3f38f172	0.72243416
252	0xc021c202	-2.5274663
253	0xc005a2e4	-2.088067
254	0x3effcb72	0.49959904
255	0xbd0c9794	-0.034324244

layer1.1.bn1.weight f4 [16]
0	0x40062736	2.0961432
1	0x40147d74	2.320157
2	0x3fdf17de	1.7429159
3	0x402715b0	2.6106987
4	0x3fd75824	1.6823773
5	0x3fd756de	1.6823385
6	0x3fdf3e97	1.7440976
7	0x3fc878c3	1.5661854
8	0x40017cf0	2.0232506
9	0x3fd48a7b	1.6604761
10	0x3fc3e6e6	1.530484
11	0x40b3a3ff	5.613769
12	0x3fdc2ac1	1.7200547
13	0x3fa65555	1.2994791
14	0x40c81cd3	6.2535186
15	0x4000eb76	2.0143714

layer1.1.bn1.bias f4 [16]
0	0xbf7756ac	-0.96616626
1	0x403583f3	2.8361785
2	0x3ff64210	1.9238911
3	0x3d7d7778	0.061881512
4	0xbfd229c1	-1.6418992
5	0x408b7e2a	4.359151
6	0x4048b2b2	3.1359067
7	0x402958f1	2.6460536
8	0x404bdc75	3.1853306
9	0xbf34695d	-0.7047327
10	0x40b6735d	5.7015824
11	0x40c4a298	6.144848
12	0xbf034888	-0.5128255
13	0x40743e77	3.8163126
14	0x406d12ea	3.7042794
15	0x40bf8e61	5.98613

layer1.1.bn1.running_mean f4 [16]
0	0x3f40cb36	0.75310075
1	0x41de3e2e	27.780361
2	0xc10394fe	-8.223875
3	0x40ef4a43	7.477815
4	0x4218a179	38.15769
5	0xc1a4f63f	-20.620237
6	0x40d2d044	6.587923
7	0x4130dc36	11.053762
8	0x409cdc41	4.9018865
9	0xc104fc9f	-8.311675
10	0xc18417cc	-16.51162
11	0x3f2e8144	0.68165994
12	0xc0da11fe	-6.8146963
13	0x406db3c8	3.714098
14	0xc07da738	-3.9633312
15	0x41918886	18.191662

layer1.1.bn1.running_var f4 [16]
0	0x44085998	545.3999
1	0x42568842	53.633064
2	0x42f522f4	122.56827
3	0x4308dccf	136.86253
4	0x4202d248	32.705353
5	0x42ad6a62	86.70778
6	0x428a8acd	69.271095
7	0x43806c43	256.8458
8	0x4274f32e	61.23748
9	0x4301379a	129.2172
10	0x42a3ee55	81.96549
11	0x435df9aa	221.97525
12	0x43a1ebc3	323.8419
13	0x4312def5	146.87093
14	0x432b4d7b	171.30266
15	0x42e4ac80	114.336914

layer1.1.conv1.weight f4 [16, 16, 3, 3]
0	0x3f3af307	0.7302708
1	0xbebae3c2	-0.3650189
2	0xbdec7ea3	-0.115475915
3	0xbe6ae64d	-0.22939415
4	0xc086e459	-4.2153745
5	0xbfa503ff	-1.2891845
6	0x3f9f3093	1.2436699
7	0x3fa14cd4	1.2601571
8	0x3fe1b01e	1.7631872
9	0xc00bf23b	-2.1866596
10	0xc0859a05	-4.175051
11	0xc0e8697e	-7.2628775
12	0x407b2b5a	3.924521
13	0x40dde6af	6.9344096
14	0x3fd827f0	1.6887188
15	0x3d8e0a92	0.0693561
16	0x401fc847	2.496599
17	0xbf309dcc	-0.6899078
18	0x3f69467b	0.9112317
19	0x3fdc6d3c	1.7220836
20	0xbef6adf9	-0.48179606
21	0xbf806e4b	-1.0033659
22	0x4017b91c	2.3706732
23	0x3fbdc949	1.4827052
24	0xbffc9226	-1.9732101
25	0xbfb26e87	-1.393998
26	0xbea394f4	-0.3194958
27	0xc01cdc89	-2.4509604
28	0x404e07fb	3.219237
29	0xbf9c32dd	-1.2203022
30	0x3f54b4b0	0.8308821
31	0x3fccece3	1.6009792
32	0x3f57a642	0.84238064
33	0x3fcf2d43	1.6185688
34	0x40977e75	4.7341866
35	0xbed1a053	-0.4094263
36	0x401f4fa2	2.4892354
37	0x3e8892d8	0.26674533
38	0x406ce7d9	3.7016509
39	0xbff83b4e	-1.9393098
40	0x40390e02	2.89148
41	0xbf723d69	-0.94624954
42	0xc0078125	-2.1172574
43	0x3e9ca181	0.30591968
44	0x3f26cc64	0.65155625
45	0xc0672e47	-3.6121995
46	0xc08bc679	-4.3679776
47	0x3f5fde54	0.8744862
48	0xc04452a9	-3.0675452
49	0xc024bc16	-2.5739799
50	0xc01ae9bb	-2.4205158
51	0x3ff0e3ec	1.8819556
52	0x4060c5f2	3.5120816
53	0x3fd95eb8	1.6982031
54	0x3edf6822	0.43634135
55	0xbfe5df25	-1.7958723
56	0x3e763ba3	0.24046187
57	0xbdaa5849	-0.0831762
58	0xbff00979	-1.8752891
59	0x3cc68f53	0.024238264
60	0xbfe8ae2c	-1.8178153
61	0x3e3c32bb	0.18378727
62	0x3e6deb5b	0.23234312
63	0x3f6f4ff4	0.93481374
64	0x3fd3b01f	1.6538123
65	0x3f9cac4c	1.2240081
66	0xc0261baf	-2.5954397
67	0xbf4f7669	-0.81040055
68	0x3e7281b4	0.2368229
69	0xbf0cb34b	-0.5496108
70	0x40074bc6	2.1139998
71	0x4044d0d1	3.0752451
72	0x401bc1f7	2.4337137
73	0x3f96c2c8	1.1778193
74	0xbf45253b	-0.77009934
75	0x3f2b428e	0.6689843
76	0x40202425	2.502206
77	0x3ea9b432	0.3314529
78	0x4005b56f	2.0891988
79	0x4004e7b7	2.0766428
80	0x4087bfe4	4.242174
81	0xc09ad1de	-4.8381186
82	0xbdd6c829	-0.10487396
83	0xc0091631	-2.1419795
84	0x3f62f1a9	0.88649994
85	0x40bb8502	5.8599863
86	0x3e192f92	0.14959553
87	0x3f8154e2	1.0104029
88	0x3f75601f	0.95849794
89	0xc031e5a6	-2.7796416
90	0x401fac32	2.494885
91	0x4099d53b	4.807279
92	0x3f3e58f1	0.74354464
93	0xc0c39981	-6.1124883
94	0xc04fc4b5	-3.246381
95	0xbf4401db	-0.7656533
96	0x402f896f	2.7427633
97	0x40438e5b	3.0555637
98	0x408c95b4	4.3932743
99	0xbecb28fc	-0.39679706
100	0xc05476fe	-3.3197627
101	0x3f5d6bd9	0.8649269
102	0xc0bd4efe	-5.9158926
103	0xc13d8579	-11.845086
104	0xc023f546	-2.5618453
105	0xbf9528f0	-1.1653118
106	0xbfeb580a	-1.8386242
107	0xbff86037	-1.9404362
108	0xbfde4919	-1.7366058
109	0x3f16a56a	0.5884615
110	0xc0329b48	-2.7907276
111	0x3f711711	0.9417582
112	0x402b307b	2.674834
113	0xbf92aa9a	-1.1458313
114	0x3f35a092	0.70948136
115	0x3f8e679f	1.1125373
116	0xbf7346fd	-0.95030195
117	0xbcd81c70	-0.026380748
118	0x409cb9d1	4.8976827
119	0x4018eeff	2.3895872
120	0x3fb13f74	1.3847489
121	0x401c509a	2.4424195
122	0x3f8058ff	1.002716
123	0x3f7cc189	0.9873281
124	0x4055b305	3.3390515
125	0x3f7dbddd	0.99117833
126	0x3fcb75e0	1.5895348
127	0xbf6b4a84	-0.91910577
128	0xbfbc01da	-1.4688065
129	0x3fc0dbf5	1.5067126
130	0x40a259c8	5.0734596
131	0x40459989	3.087496
132	0x3e55bbb7	0.20872389
133	0xc0182fef	-2.3779256
134	0xc0007f20	-2.007759
135	0xc0beca87	-5.9622226
136	0xbf8d3da1	-1.1034433
137	0xc0754c42	-3.8327794
138	0x40a582ee	5.1722326
139	0x40acde8a	5.4021654
140	0x3f9888e8	1.191678
141	0x402f1815	2.7358449
142	0x3ea6c1a9	0.32569626
143	0xbf913143	-1.1343158
144	0x40a49c6b	5.144094
145	0x401bab11	2.432316
146	0xbf3ece78	-0.74533796
147	0x40c54047	6.1640964
148	0x40a3545c	5.104048
149	0xbfbb40e7	-1.4629182
150	0xbe1e6c9e	-0.15471122
151	0xc0b6d9ca	-5.7140856
152	0xc002a0b0	-2.0410576
153	0xc0c8a048	-6.2695656
154	0xbe8f05a1	-0.27933982
155	0xc0b61b2b	-5.6908164
156	0x3f78ee09	0.9723821
157	0x40898c07	4.298343
158	0xc08a7e76	-4.327937
159	0x408e1981	4.4406133
160	0x3fa0dc91	1.2567312
161	0x3f5e6a0f	0.8688058
162	0xc08914b8	-4.283779
163	0xbf6191dd	-0.88113195
164	0xc08b360b	-4.350347
165	0x40d63652	6.694131
166	0x3f9bdbec	1.217649
167	0xbd920c99	-0.07131309
168	0x3ff7c8ef	1.9358195
169	0xc041b5f6	-3.026731
170	0xc076f2a4	-3.8585596
171	0x3ee87514	0.45401824
172	0xc04db5cb	-3.2142208
173	0x40094b53	2.1452224
174	0x3e15da06	0.1463395
175	0xc04d29cc	-3.205676
176	0xbffa47db	-1.9553179
177	0x3de8cfbc	0.11367747
178	0xc08bb2db	-4.365583
179	0xc0191d0c	-2.3923979
180	0x3dd5a401	0.10431672
181	0xbed26574	-0.41093028
182	0x3f25543d	0.6458166
183	0xc098dc17	-4.7768664
184	0xbf002bbc	-0.50066733
185	0xc050e7d6	-3.2641501
186	0xbedccbb3	-0.4312416
187	0xc071cba1	-3.7780535
188	0xc0a95ba9	-5.292439
189	0xbe41033d	-0.18848892
190	0xbf4f5098	-0.8098235
191	0x3f875387	1.0572366
192	0x403cd1a7	2.9502962
193	0x404eff94	3.2343493
194	0x40012e0a	2.018435
195	0x40569cca	3.3533196
196	0x40732d76	3.7996497
197	0xbedbfe68	-0.42967534
198	0x3f3eaab3	0.74479216
199	0xbffcab9a	-1.9739869
200	0xbfcc884c	-1.5979095
201	0x3f06984a	0.52576125
202	0xbecfa645	-0.4055654
203	0xc0039a83	-2.0563056
204	0x4027b4cc	2.62041
205	0x3d1014f7	0.035176244
206	0xbf851c45	-1.0399252
207	0x3fea7bb8	1.8319006
208	0x3f581b09	0.8441625
209	0xc042394a	-3.0347466
210	0xbf253154	-0.64528394
211	0xbc8352e2	-0.016030733
212	0xc0157f59	-2.3358977
213	0xbcdb4428	-0.026765898
214	0x3f98e78a	1.194566
215	0xbfa661d7	-1.2998608
216	0x3fcf18fc	1.61795
217	0x3fa2d1b0	1.2720242
218	0x3f872179	1.055709
219	0xbf0b9b2d	-0.54533654
220	0xc0261745	-2.5951703
221	0xbffd51a7	-1.9790543
222	0xbe99d0f0	-0.3004222
223	0xc05b9931	-3.431225
224	0xbff976c8	-1.9489374
225	0xbf73c4a2	-0.9522191
226	0xbfd2ef2e	-1.6479242
227	0xc0985500	-4.760376
228	0x402e7435	2.7258427
229	0x40811f9b	4.035108
230	0x40564179	3.3477461
231	0x400675ee	2.1009479
232	0xbf8321b4	-1.024466
233	0xc046a0d4	-3.1035662
234	0x407b4386	3.9259963
235	0xc0014827	-2.0200288
236	0x400f8536	2.2425056
237	0x4075593f	3.8335721
238	0xbfd97b17	-1.6990689
239	0x4050eb0a	3.2643456
240	0xc031116b	-2.766688
241	0xc0b8f20f	-5.779548
242	0xc03811b1	-2.8760798
243	0x40487d57	3.1326501
244	0x40371e8c	2.8612394
245	0x401e5ac0	2.474289
246	0x409cc9a6	4.8996153
247	0x40bf5f88	5.9804115
248	0x4010f9ea	2.2652535
249	0x3fc2829c	1.5196109
250	0x3fc1fc38	1.5155096
251	0x3e987a61	0.29780868
252	0x3fd48259	1.6602279
253	0xc11eb85c	-9.92001
254	0xbff67f84	-1.9257665
255	0x4048ba5f	3.1363752

layer1.1.bn2.weight f4 [16]
0	0x3f07557a	0.528648
1	0x3e831864	0.25604546
2	0x3f5c3146	0.86012685
3	0x3ea029c9	0.3128188
4	0x3ef5606d	0.4792513
5	0x3edf859b	0.4365662
6	0x3ebdf023	0.37097272
7	0x3ec2472c	0.37944925
8	0x3ef33795	0.47503343
9	0x3f22bc9e	0.63569057
10	0x3f38dbdf	0.72210497
11	0x3f297f65	0.66210014
12	0x3f3986d0	0.7247133
13	0x3ec0054e	0.37504047
14	0x3f5ae2b2	0.8550216
15	0x3f1dce9a	0.61643374

layer1.1.bn2.bias f4 [16]
0	0xbd6d9fa3	-0.05801357
1	0x3e6d8bd7	0.23197876
2	0x3b333e91	0.0027350525
3	0xbcfa34f7	-0.030542834
4	0xbe16345f	-0.14668415
5	0xbdd11c17	-0.10210436
6	0xbdae9da9	-0.08526165
7	0x3e186a31	0.14884259
8	0xbd9bc680	-0.0760622
9	0xbcab8627	-0.020937992
10	0xbf339d7b	-0.7016217
11	0xbf54fc2d	-0.8319729
12	0xbdcd334f	-0.10019552
13	0x3c09da9a	0.008413935
14	0xbfcb7b13	-1.5896934
15	0xbe9c92eb	-0.3058084

layer1.1.bn2.running_mean f4 [16]
0	0xc0d20010	-6.5625076
1	0x432cae46	172.68076
2	0x42353f3e	45.31176
3	0x41618068	14.093849
4	0xc2ca9dab	-101.307945
5	0x42c53bd2	98.61684
6	0xc22078ed	-40.11809
7	0xc20f6729	-35.850742
8	0xc0814433	-4.039575
9	0xc28716c6	-67.54448
10	0xc2605a1c	-56.087997
11	0x434dd4e6	205.83163
12	0x4214d0b3	37.203808
13	0x434e7b4f	206.48167
14	0xc32b2300	-171.13672
15	0xc2d4eb78	-106.4599

layer1.1.bn2.running_var f4 [16]
0	0x4670299c	15370.402
1	0x45ad4e1e	5545.7646
2	0x4707b902	34745.008
3	0x45857a5c	4271.295
4	0x45e2324b	7238.2866
5	0x45d6ee2b	6877.771
6	0x45ab8ccb	5489.599
7	0x462eb0a8	11180.164
8	0x4621e144	10360.316
9	0x46b868c9	23604.393
10	0x461872e0	9756.719
11	0x45fb73ee	8046.491
12	0x466c5d7c	15127.371
13	0x4607314b	8652.323
14	0x45f49ae5	7827.362
15	0x461d4c6f	10067.108

layer1.1.conv2.weight f4 [16, 16, 3, 3]
0	0x3f23bb02	0.63957226
1	0x3f04cb51	0.51872736
2	0x3e7c5f6a	0.24645773
3	0x3e012148	0.12610352
4	0x3f9387dc	1.1525836
5	0xbf83694e	-1.0266511
6	0x3f216e4d	0.6305893
7	0x401cb3ce	2.4484744
8	0xbed3d6e6	-0.41374892
9	0x3ff97348	1.9488306
10	0x3fd04dcb	1.627374
11	0x4019f627	2.405649
12	0xbf202d27	-0.62568897
13	0xbec4727b	-0.38368592
14	0xbd39b274	-0.0453362
15	0x3f93f88b	1.1560224
16	0x3f7ddfdc	0.9916971
17	0x3fdfc9f7	1.748351
18	0x3e37fb87	0.17967044
19	0xbdd297bb	-0.102828465
20	0x3ed2e0c0	0.41187096
21	0xbf81e5ea	-1.0148289
22	0xbeb7436f	-0.35793635
23	0x3d468ecf	0.048476037
24	0xbfd80c46	-1.6878746
25	0xbf605817	-0.87634414
26	0xbf8066fd	-1.003143
27	0x3ef15347	0.47133848
28	0x3db74a11	0.08949674
29	0xbff6a604	-1.9269414
30	0xc0379f2a	-2.8690896
31	0xc09c3fa6	-4.8827696
32	0xc081f6c8	-4.0613747
33	0xbf88dd48	-1.069253
34	0xbf872496	-1.055804
35	0xc08b788c	-4.358465
36	0xbec8e254	-0.39235175
37	0xbd64ccf7	-0.055859532
38	0x3cd4fbef	0.025999038
39	0x3ede06f8	0.43364692
40	0xbe270e16	-0.16313967
41	0xbf0244a9	-0.5088602
42	0xbeafebdd	-0.34359637
43	0xbeed4a2f	-0.4634566
44	0x3e8cff1e	0.2753839
45	0x3eca5921	0.39521125
46	0xbf6dff3f	-0.929676
47	0x3eeb2c9b	0.4593247
48	0xbfbb1a8a	-1.4617474
49	0xbe676c69	-0.22599949
50	0x3f49ab1b	0.7877671
51	0xbe370653	-0.17873506
52	0x3b5d630f	0.0033780967
53	0x3f78a58c	0.97127604
54	0xbfd8e6e4	-1.6945462
55	0xc031b0d0	-2.7764168
56	0x3f8d10d6	1.1020763
57	0xc049b58e	-3.1517062
58	0xc06da4fc	-3.7131948
59	0xbfbe4156	-1.4863689
60	0x3e604214	0.21900207
61	0x3fbbafad	1.4662987
62	0x4011dbcc	2.2790403
63	0x3e8bd362	0.2730971
64	0x401c3594	2.4407701
65	0x3f4d3bd4	0.80169415
66	0x3f461cd5	0.77387744
67	0x3f880bfa	1.0628655
68	0x3fb40424	1.4063764
69	0xbfa06eaa	-1.2533772
70	0x4001cbee	2.0280719
71	0x3e25e1e5	0.16199453
72	0xbf233972	-0.6375953
73	0x3f6f2ab8	0.9342456
74	0x3f6bf5ea	0.9217211
75	0x3f021d82	0.50826275
76	0x3f7a6423	0.97809047
77	0xbdfccd55	-0.123438515
78	0x3ef7b112	0.4837728
79	0x3f3469bf	0.70473856
80	0x3ec00452	0.37503296
81	0x3e6a0793	0.22854452
82	0x3f4c33d3	0.7976658
83	0x3f63680f	0.88830656
84	0xbf0ad632	-0.54233086
85	0x3ede3e78	0.43407035
86	0x3eb67a04	0.35639966
87	0xbe85a1f8	-0.26100135
88	0xbe4c705d	-0.19964738
89	0xbf370c93	-0.7150356
90	0xbf8da7bc	-1.1066813
91	0xbf30730f	-0.68925565
92	0xbf06c630	-0.5264616
93	0x3f71490d	0.9425209
94	0x3fd7c98c	1.6858382
95	0x3ea58da5	0.3233463
96	0x3f1cb90f	0.61219877
97	0x3ff7614c	1.9326568
98	0x3eb5735a	0.3543957
99	0xc01d054a	-2.4534478
100	0xc0236112	-2.5527997
101	0xc087d1f2	-4.244378
102	0x3f4f240e	0.8091439
103	0xbfa591d1	-1.2935125
104	0xbfc73b1e	-1.5564916
105	0xbf572ad7	-0.84049743
106	0xc02ade99	-2.6698363
107	0xc066fcbd	-3.609176
108	0x3f60245c	0.8755548
109	0xbd2359a1	-0.0398804
110	0xbebdc4c4	-0.37064183
111	0xbea49802	-0.32147223
112	0x3efa5bb3	0.48898086
113	0x3f89f7de	1.0778768
114	0xbd8ddd1d	-0.0692694
115	0x3eb80b73	0.35946235
116	0x3ec72c01	0.3890076
117	0xbf2df495	-0.6795133
118	0xbfc9be0a	-1.576112
119	0xbfcbe426	-1.5929
120	0xbeda090b	-0.42585024
121	0xbf125f9b	-0.5717713
122	0x3cd6d77f	0.026225803
123	0xbe7f341f	-0.24922226
124	0x3ed8a9e8	0.42317128
125	0x3ea19ba9	0.31564072
126	0xc055a971	-3.338467
127	0x3f1cfed9	0.61326367
128	0x403fb621	2.9954913
129	0xbf709002	-0.9396974
130	0xbf321d78	-0.69576216
131	0x3fa0da81	1.2566682
132	0x3dd3d9cb	0.10344275
133	0xc0120195	-2.2813466
134	0x3f862a17	1.0481595
135	0x3dbbc1c9	0.09167821
136	0xbf856929	-1.0422717
137	0xbf86a76a	-1.0519841
138	0xbe069736	-0.1314362
139	0xbf6f2461	-0.93414885
140	0xbcd46a14	-0.025929488
141	0xbfc37690	-1.5270557
142	0xc030d491	-2.762974
143	0xbf8622cc	-1.0479369
144	0x3f88cac9	1.0686885
145	0xbfb649ab	-1.4241232
146	0xbfcc195e	-1.5945241
147	0xbf85c50c	-1.0450759
148	0xbeabafa5	-0.33532444
149	0xc065e660	-3.592186
150	0x3f5f0063	0.87109965
151	0x3f9ca6c1	1.2238389
152	0xbf9b14c7	-1.2115716
153	0xbed1eaf3	-0.40999565
154	0x3fc8ea5e	1.5696523
155	0x4050340e	3.2531772
156	0xbf95762e	-1.167669
157	0x3f3c921e	0.7366046
158	0x3e604a60	0.21903372
159	0xbe8c65b2	-0.27421337
160	0x3ff29e6e	1.8954599
161	0xbf8c03f4	-1.0938706
162	0xbd3fb93c	-0.046807513
163	0xbfffc8f4	-1.9983201
164	0xbe80d7e8	-0.25164723
165	0xbff387c5	-1.9025809
166	0xc1287606	-10.528814
167	0xc007d35f	-2.122276
168	0xc09c73da	-4.889142
169	0xc14b6f4a	-12.71467
170	0xc02a025d	-2.6563942
171	0xc07bba14	-3.9332323
172	0x3f6c1803	0.9222414
173	0x3f034759	0.5128074
174	0xbf7878d4	-0.9705937
175	0x40581f53	3.3769119
176	0x3f136277	0.5757212
177	0xbf3f9dcf	-0.7485017
178	0x3fee9300	1.8638611
179	0xbf4d16b6	-0.8011278
180	0x3f065b87	0.5248341
181	0xbe9fd949	-0.31220463
182	0xbf415abe	-0.75529087
183	0xbfee944d	-1.8639008
184	0x3f807d06	1.0038154
185	0xbf76f4d6	-0.9646734
186	0x3f98e354	1.1944375
187	0x3faf8a7e	1.371414
188	0x3e69eeff	0.22845076
189	0xbef4ae47	-0.47789213
190	0x3ea88fc2	0.32922179
191	0x3edaca88	0.42732644
192	0xc012984b	-2.2905452
193	0xc019abd9	-2.4011137
194	0xbee3d501	-0.44498447
195	0xbfad0d46	-1.3519676
196	0xc02149eb	-2.5201366
197	0xbf5932ef	-0.84843343
198	0xbf6e8a31	-0.93179613
199	0xbccdaf85	-0.025108108
200	0x3e950cee	0.29111427
201	0xc037482f	-2.8637807
202	0xbcf42eb9	-0.029807435
203	0xc0633eb0	-3.5507011
204	0xbe4cb39f	-0.19990395
205	0x3f487715	0.78306705
206	0x40062e4d	2.096576
207	0xc06f187d	-3.7358696
208	0xc01d16ad	-2.454509
209	0xbf82b888	-1.0212564
210	0xbdad8592	-0.08472742
211	0x3f9477a6	1.1599014
212	0x3ffb67e7	1.9641083
213	0xbf0aa01f	-0.54150575
214	0x3f3d257b	0.73885316
215	0x4026b023	2.6045005
216	0x3e205308	0.15656674
217	0xbf0820ed	-0.5317524
218	0xbf2cc073	-0.67481154
219	0x400065f2	2.0062222
220	0x3f1ab014	0.60424924
221	0x3ed1ff7f	0.4101524
222	0x4004e3c2	2.0764012
223	0x3f22548f	0.63410276
224	0x3f8e0340	1.1094742
225	0x3cce65e9	0.025195079
226	0x400c922b	2.1964214
227	0x4040fd26	3.015451
228	0xbe93f9fe	-0.28901666
229	0xbf74e5b0	-0.95662975
230	0xbd9d3b94	-0.07677379
231	0x3fde28e7	1.7356232
232	0x3e10b8c8	0.14132988
233	0xbf530a1d	-0.82437307
234	0xbf1ddfe1	-0.6166974
235	0xbf81cd60	-1.01408
236	0x3f98b0bd	1.1928936
237	0x3e92f3fb	0.28701767
238	0xbf44d11d	-0.7688158
239	0x3e5bf4f7	0.21480165
240	0xbfb6be55	-1.4276835
241	0xc0005a90	-2.0055275
242	0x3f6625f0	0.8990164
243	0xbe9df18a	-0.30848342
244	0x3f5ec896	0.8702482
245	0xbead3a3a	-0.33833486
246	0xbf6c1eba	-0.92234385
247	0xbd89c6dc	-0.067273825
248	0xbfdd7bac	-1.7303367
249	0xbd0c47af	-0.03424805
250	0x3f810a62	1.0081294
251	0xbf84c05b	-1.0371202
252	0xc0216154	-2.5215654
253	0xc04ab8e7	-3.1675355
254	0xbfa2230e	-1.2666948
255	0xc041c3cd	-3.0275757

layer2.0.bn1.weight f4 [16]
0	0x403c12f9	2.938658
1	0x40467068	3.1006107
2	0x404b07ee	3.172359
3	0x403bb4bb	2.932906
4	0x3fd41cc5	1.657128
5	0x4013f854	2.3120317
6	0x40503d24	3.2537317
7	0x401a37d0	2.4096565
8	0x4003f36a	2.0617318
9	0x4033a2eb	2.8068187
10	0x40229bfe	2.540771
11	0x408f727b	4.4827247
12	0x401b472f	2.4262197
13	0x405383a3	3.3049095
14	0x408f54a6	4.479083
15	0x3ff13815	1.884524

layer2.0.bn1.bias f4 [16]
0	0x3e1f7aff	0.15574263
1	0x4043e9f2	3.061154
2	0x405564b2	3.334271
3	0x3db600be	0.0888686
4	0x3f20b677	0.6277842
5	0x4066cb7b	3.6061695
6	0x409386db	4.610212
7	0x40476736	3.1156745
8	0x405b0682	3.4222722
9	0x4039b717	2.9018
10	0x40d31ec9	6.597508
11	0x3f9eaf5c	1.2397265
12	0x3ffce388	1.9756937
13	0x3e94665a	0.28984338
14	0xbf3432c1	-0.70389944
15	0x40270125	2.6094449

layer2.0.bn1.running_mean f4 [16]
0	0x3f2cb12c	0.6745784
1	0x4128e0d1	10.554887
2	0xc051838f	-3.2736547
3	0x40faa033	7.8320556
4	0x41f073d5	30.056559
5	0xc1e1881a	-28.191456
6	0x41133eb3	9.202807
7	0x411196c0	9.099304
8	0x3fb30b6e	1.3987863
9	0xc0c21a00	-6.065674
10	0xc1e36977	-28.426497
11	0x3fa3afc3	1.2788013
12	0xc08a6bed	-4.3256745
13	0x401b995c	2.4312353
14	0xc0989b3c	-4.7689495
15	0x41b3200c	22.390648

layer2.0.bn1.running_var f4 [16]
0	0x441ba8dd	622.6385
1	0x432e55b3	174.33476
2	0x43265d1a	166.36368
3	0x42e7cf4e	115.90489
4	0x42b2e69e	89.450424
5	0x42e922a2	116.56764
6	0x42ecd43d	118.41453
7	0x4391679f	290.80954
8	0x42d5c224	106.87918
9	0x42ff9e8b	127.809654
10	0x4324d160	164.81787
11	0x431b9e17	155.61754
12	0x43ad8482	347.03522
13	0x435eac90	222.67407
14	0x42cbdcd6	101.93132
15	0x42f0109a	120.032425

layer2.0.conv1.weight f4 [32, 16, 3, 3]
0	0xc0224be0	-2.535881
1	0xc00aa753	-2.1664627
2	0xc0138cf7	-2.3054788
3	0x403e876c	2.9770155
4	0x3fb13d26	1.3846786
5	0x3e62e94e	0.22159311
6	0xbfe4bb3c	-1.7869639
7	0xbffadd43	-1.9598774
8	0x3f635ee6	0.8881668
9	0x3f95b20d	1.1694962
10	0x409c0ae1	4.876328
11	0x401dac69	2.463648
12	0xbf3bf502	-0.7342073
13	0x40365e11	2.8494914
14	0x4016b97b	2.3550708
15	0x3e158962	0.14603189
16	0x3efccbcc	0.49374235
17	0xc02a359f	-2.6595228
18	0x3f242a46	0.64127004
19	0x3f83a771	1.0285474
20	0xc088933c	-4.267973
21	0x405b7f6f	3.429653
22	0x40aea553	5.457681
23	0x3f8fbf35	1.1230227
24	0x3f3072b2	0.6892501
25	0x403673f7	2.850828
26	0x3f1d2852	0.6138965
27	0xbfeb1b3a	-1.8367684
28	0xbf7bac96	-0.9831022
29	0xc020534c	-2.505084
30	0xc0127f95	-2.289037
31	0xbfa5411e	-1.2910497
32	0x3e8912c3	0.26772127
33	0xbf6948ef	-0.9112691
34	0x3f6e6552	0.9312335
35	0x40044656	2.066793
36	0xbfb9ddaf	-1.4520777
37	0xc080bff2	-4.023431
38	0x3f253694	0.64536405
39	0xbd4619e5	-0.04836454
40	0x3def554e	0.116861925
41	0x3fa77e76	1.3085468
42	0xbf0867c7	-0.5328335
43	0xbe4cf46b	-0.20015113
44	0xbf2cb1a8	-0.6745858
45	0xc04b269a	-3.174231
46	0xbf418892	-0.75599015
47	0x40c4150f	6.1275706
48	0xc01dc18a	-2.4649377
49	0x400bbb3d	2.183303
50	0x40c81e99	6.253735
51	0x3fb7de1f	1.4364661
52	0x3fdcec05	1.7259527
53	0x4091e49e	4.5591574
54	0x3ff427a8	1.9074602
55	0x40287119	2.631903
56	0x3fc38c97	1.527728
57	0x4034b71a	2.8236756
58	0x40b80d9d	5.751662
59	0x409faa5e	4.989547
60	0xbecabbdb	-0.39596447
61	0x3f615e09	0.8803411
62	0x3e6a4f0d	0.22881718
63	0x3f76ea73	0.9645149
64	0x40362ecd	2.8466065
65	0xbfaacc19	-1.3343536
66	0x3ef738c2	0.4828549
67	0x3fb94944	1.4475484
68	0xbfe0b0d0	-1.7553959
69	0xc09be9e6	-4.872302
70	0xc088ea28	-4.2785835
71	0xc0439ad8	-3.056326
72	0x40416e0c	3.0223417
73	0x3fc88b72	1.5667555
74	0x40177993	2.3667953
75	0x3fd7636a	1.6827214
76	0x3fac4d4f	1.3461093
77	0x3fb35090	1.4008961
78	0x4085ce14	4.181406
79	0x4014871e	2.320747
80	0x40817c77	4.0464435
81	0x4023540b	2.5520046
82	0x408ad562	4.3385477
83	0x3f50850b	0.8145301
84	0xbfc06f20	-1.5033913
85	0xbf5f1dc7	-0.8715481
86	0x3f9a6efa	1.2065117
87	0x3f1403c1	0.5781823
88	0x40178e65	2.368066
89	0x3fb66f16	1.4252651
90	0xbfade6b8	-1.3586035
91	0xbf398cc0	-0.7248039
92	0xbfccdc5f	-1.6004752
93	0xc041f203	-3.0303962
94	0xc00090b5	-2.0088322
95	0xbfc5c337	-1.54502
96	0xc0109f16	-2.2597098
97	0xc01cd437	-2.4504526
98	0xc066ab4a	-3.6042047
99	0xbfa05077	-1.2524556
100	0xc0bc0e2d	-5.8767304
101	0xc08fb084	-4.4902973
102	0xc0cdb84d	-6.4287477
103	0xc11cba9f	-9.795562
104	0xc0dd6f48	-6.919834
105	0xc0927a0e	-4.5773993
106	0xc02c5d6c	-2.693202
107	0xbff8b378	-1.942977
108	0xbeef9359	-0.46792105
109	0xc017e329	-2.3732398
110	0xc040f0c4	-3.0146952
111	0x40171684	2.3607492
112	0x402b7ede	2.6796184
113	0x3f64d494	0.8938687
114	0xbf3770d8	-0.7165656
115	0xbf1ed04b	-0.6203658
116	0xc04d3359	-3.206259
117	0x3fac57e2	1.346432
118	0x3f83f40a	1.030885
119	0x3fa2fb92	1.2733023
120	0x3eac7645	0.33683982
121	0x3fc37bbb	1.5272135
122	0xbeb17398	-0.34658504
123	0xbfd75c62	-1.6825068
124	0x3f3a8d3e	0.7287177
125	0x3f74e1dc	0.95657134
126	0x3f31e5dc	0.6949136
127	0xc03c0ae3	-2.9381645
128	0xbfb8a39d	-1.4424931
129	0xbf719126	-0.94362104
130	0xc08b686a	-4.356496
131	0xc0393ae3	-2.8942192
132	0x3f70642e	0.9390286
133	0xbfd2ccb9	-1.6468726
134	0xc06014e5	-3.5012753
135	0xc014e7be	-2.3266444
136	0x3f26737e	0.6501998
137	0x400066cd	2.0062745
138	0x405e1f61	3.4706652
139	0x40c2d13d	6.088042
140	0x407bf54f	3.9368474
141	0xbf071454	-0.52765393
142	0xbd6ecc86	-0.058300517
143	0x3f013073	0.5046455
144	0x3ed00d38	0.40635085
145	0xbe10360f	-0.14083122
146	0xbf040059	-0.5156303
147	0xc022cd3f	-2.5437772
148	0x3eeca485	0.46219268
149	0x403a8235	2.9141972
150	0xbf023a70	-0.5087042
151	0xbfc3e5ce	-1.5304506
152	0xbeb52ed2	-0.35387284
153	0x3ff28642	1.8947222
154	0x40552794	3.3305407
155	0x40d148f9	6.540158
156	0xc0371b88	-2.8610554
157	0x409736cb	4.7254386
158	0x4067e6ab	3.6234539
159	0xc095d97a	-4.6827974
160	0xc03ff6c3	-2.9994361
161	0x4070befb	3.7616565
162	0xc0423017	-3.0341852
163	0xc02cddb2	-2.7010312
164	0xc062f92f	-3.546459
165	0x3e7fc541	0.2497759
166	0x4043471d	3.0512154
167	0xbf5e1033	-0.8674347
168	0x402f3463	2.7375724
169	0x3f57e7f0	0.84338284
170	0xbf0a7c0e	-0.5409554
171	0xbfb10f4a	-1.3832791
172	0x3f3ecade	0.745283
173	0xbf8608f1	-1.0471479
174	0x3d575a1f	0.05257618
175	0xc0208d69	-2.508631
176	0x40018573	2.02377
177	0x3fab32c4	1.3374867
178	0x3e3fa2bc	0.18714422
179	0x3cd73bd7	0.026273651
180	0x40b94dcc	5.7907467
181	0x4069c35a	3.6525483
182	0x40ae468d	5.446112
183	0xbfbf221d	-1.4932286
184	0x3ef369f3	0.4754177
185	0xbcfa5a6c	-0.030560695
186	0xc0100c18	-2.2507381
187	0xc03d3762	-2.9565053
188	0xc0a58edd	-5.1736894
189	0xbf3f7241	-0.7478371
190	0x3daf35e3	0.085552
191	0x4096249e	4.69197
192	0xc041b12d	-3.026439
193	0xbf314f0e	-0.6926125
194	0x3f4449c8	0.7667508
195	0x4018288c	2.3774748
196	0x40250a83	2.5787666
197	0x402bd64c	2.6849546
198	0xbfa4557e	-1.283859
199	0xbfd3abc8	-1.6536798
200	0x3f6f1cfd	0.9340361
201	0xbfe56d2b	-1.792394
202	0x3f6c9498	0.92414236
203	0x4046a93d	3.1040795
204	0x3f22a7ea	0.63537467
205	0x3f5f873f	0.87315744
206	0x4002dad9	2.0446074
207	0xbefed207	-0.49769613
208	0xbfa38fbb	-1.2778238
209	0xc02ffbb5	-2.749738
210	0xbf6d1455	-0.9260915
211	0x3e904e0e	0.2818455
212	0xc06ec829	-3.7309668
213	0x40992d7e	4.7868032
214	0x406abcaf	3.6677663
215	0xc025baa7	-2.5895174
216	0xbf021672	-0.508155
217	0xbe9dbe45	-0.30809227
218	0x405a5c75	3.4118931
219	0xbf05ef5a	-0.52318347
220	0xc004c70c	-2.0746489
221	0x3f1cf940	0.61317825
222	0xbf963a66	-1.1736572
223	0xc08370c1	-4.107514
224	0xc0136856	-2.3032432
225	0xbf3564b5	-0.7085679
226	0x3d5f5be8	0.054531008
227	0x400f5370	2.2394676
228	0xbf7544c3	-0.9580805
229	0x40519da4	3.2752466
230	0x40871dc9	4.222386
231	0xc05a5d0f	-3.4119298
232	0x3f6e8b68	0.9318147
233	0xbf336e74	-0.70090413
234	0xbf172b15	-0.5905011
235	0x403e033f	2.9689481
236	0x40c702dd	6.2190995
237	0xc027ec5d	-2.6238015
238	0xc05a848d	-3.4143403
239	0x3fd279c9	1.6443416
240	0xc0467d48	-3.1013966
241	0xc005204c	-2.0800962
242	0x4062d1a5	3.5440457
243	0xbe223c08	-0.15843213
244	0xbff91e31	-1.9462339
245	0xbe34d3f4	-0.17658979
246	0x400efb91	2.2341044
247	0x40d9f90a	6.8116503
248	0x3fff3543	1.9938129
249	0x3f8f9a57	1.1218976
250	0x411033ad	9.012616
251	0x40135a98	2.3024044
252	0xc00b6d9f	-2.1785657
253	0xbfac2ab8	-1.3450537
254	0xc0081577	-2.12631
255	0xbffbeec4	-1.968224

layer2.0.bn2.weight f4 [32]
0	0x3fa7f527	1.312169
1	0x3fae6263	1.3623775
2	0x3fc4abaa	1.5364888
3	0x3fe09ef3	1.7548507
4	0x3fceae0b	1.6146864
5	0x3faa56dc	1.3307757
6	0x3f8f8be2	1.1214564
7	0x3fa4a443	1.2862629
8	0x3f8e2071	1.110365
9	0x3fa51876	1.289809
10	0x3fba63d3	1.4561714
11	0x3f8e6da7	1.1127213
12	0x3f93c44a	1.1544278
13	0x3f9067f5	1.1281725
14	0x3f8d7b95	1.1053339
15	0x3f8fc052	1.1230567
16	0x3fa4d0c3	1.2876209
17	0x3f6073e1	0.8767682
18	0x3f9504b4	1.164206
19	0x3fa9a8cb	1.3254637
20	0x3f9758ff	1.1824034
21	0x3fa4718b	1.284715
22	0x401d373d	2.4564965
23	0x3fad2139	1.3525764
24	0x3f964e14	1.1742578
25	0x3fb03009	1.3764659
26	0x3f86a72a	1.0519764
27	0x3f9f455e	1.2443044
28	0x3faa5eba	1.3310158
29	0x3f9bfbe7	1.218625
30	0x3f9fbecf	1.2480105
31	0x3f940a24	1.1565595

layer2.0.bn2.bias f4 [32]
0	0x3ee7996f	0.45234248
1	0xbec1e5b2	-0.37870556
2	0xbe0378af	-0.12839006
3	0xbf32964c	-0.69760585
4	0xbeaba8e7	-0.335273
5	0xbdd67395	-0.10471264
6	0x403392a4	2.8058252
7	0xbe0b1263	-0.13581233
8	0xbd073f08	-0.033019096
9	0x3d44697d	0.047952164
10	0xbf0bacfb	-0.5456082
11	0x3d4da747	0.050208356
12	0x3df51aa5	0.11967973
13	0x3f17cd7c	0.5929792
14	0x3d67be18	0.056577772
15	0x3f9d0042	1.2265704
16	0xbce35387	-0.02774979
17	0x4035c8ad	2.8403733
18	0x3e73e9fe	0.2381973
19	0xbe10c979	-0.14139356
20	0x3f833643	1.0250934
21	0x3e97fec6	0.29686564
22	0xbf9a5edc	-1.2060199
23	0x3ef7d47c	0.484043
24	0xbda3c6a4	-0.07996872
25	0x3de23ae3	0.11046388
26	0xbd81b158	-0.06332654
27	0x3fc065c9	1.5031062
28	0xbe95ebc2	-0.2928143
29	0x3fcf8b78	1.6214437
30	0x3f0d2df6	0.55148256
31	0xbc8d2696	-0.017230313

layer2.0.bn2.running_mean f4 [32]
0	0x42ab2afe	85.58397
1	0x430b39bd	139.22554
2	0x410d1a37	8.8189
3	0x42be260d	95.07432
4	0x4144ebbc	12.307552
5	0x42083374	34.050247
6	0x43973c9a	302.47345
7	0x41b5c2a4	22.72004
8	0xc1fede89	-31.85866
9	0xc2dcc9ee	-110.394394
10	0x430f1304	143.07428
11	0xc2ef6511	-119.697395
12	0xc3068763	-134.52885
13	0x41e2f9c9	28.371965
14	0xc2ed634f	-118.69396
15	0x41dffeb5	27.999369
16	0xc314e79b	-148.90471
17	0x435d57f3	221.34355
18	0xbe646e8a	-0.22307792
19	0xc1d63d54	-26.779945
20	0xc3037e42	-131.4932
21	0x429c0566	78.010544
22	0x4388290b	272.32065
23	0xc352bec1	-210.74513
24	0xc2923d31	-73.119514
25	0xc3b60638	-364.04858
26	0xc3004b29	-128.2936
27	0xc312bea9	-146.74477
28	0xc284a50f	-66.32238
29	0x43d60326	428.0246
30	0x4106a43a	8.415094
31	0xc259b1a7	-54.42349

layer2.0.bn2.running_var f4 [32]
0	0x4675437a	15696.869
1	0x46147cf9	9503.243
2	0x46536d2c	13531.293
3	0x46612351	14408.829
4	0x464a7924	12958.285
5	0x466ea0f3	15272.237
6	0x46281bb6	10758.928
7	0x4665caf2	14706.736
8	0x45e814af	7426.5854
9	0x46316e51	11355.579
10	0x45ec60de	7564.1084
11	0x45f53ea0	7847.828
12	0x45ce2f02	6597.876
13	0x462961e4	10840.473
14	0x462421d2	10504.455
15	0x462d35e0	11085.469
16	0x465dfbd4	14206.957
17	0x45f3fa53	7807.2905
18	0x45e24f65	7241.9243
19	0x46adf08b	22264.271
20	0x464ce630	13113.547
21	0x45fd9350	8114.414
22	0x46658e51	14691.579
23	0x46308b4d	11298.825
24	0x46013d58	8271.336
25	0x4666f694	14781.645
26	0x460c2492	8969.143
27	0x467ff098	16380.148
28	0x460912eb	8772.7295
29	0x4657e6af	13817.671
30	0x469b608c	19888.273
31	0x4645c089	12656.134
