Our_code/Pytorch/Other_datasets_experiments/trained_students/Fashion-MNIST-stud-t-40-2-student-16-1.pth (torch_old, 717449 bytes, 69 tensors)

conv1.weight f4 [16, 1, 3, 3]
000000 51 1b ee 3f 2d a6 25 40 43 e4 01 40 af a8 04 40
       1.8602086 2.5882676 2.029557 2.0727956
000010 4e 1f 00 3f fc 11 01 c0 df 53 3e 3d 87 4d 1a c0
       0.5004777 -2.0167227 0.046466704 -2.410982
000020 17 32 62 c0 68 ab c9 3d e9 2f 19 3e 3e a2 31 bf
       -3.5343072 0.09847146 0.14959683 -0.69388187
000030 0c 4c 3b c0 c2 2f 3e 3f b5 a1 da 3f ed 61 1f c0
       -2.9265165 0.7429162 1.7080599 -2.490352
000040 e4 d0 82 3f 87 05 ec 3f dd d4 60 bf 1c 9e 0d c0
       1.0219998 1.8439187 -0.87824804 -2.2127752
000050 fc 1c c5 bf 53 25 21 3f 4c 09 2c bf 0e de 95 be
       -1.539947 0.6294758 -0.67201686 -0.29270977
000060 e6 84 eb 3e a8 72 c0 3d cc f9 6e 3f 9a c0 8a ba
       0.4599983 0.09396869 0.9334991 -0.0010585964
000070 61 23 ae 3f 1a e6 90 be 6f 7e 26 3f 9b 9b 33 40
       1.3604547 -0.28300554 0.6503667 2.8063724
000080 a1 00 c9 be 42 28 bf be 08 ed 1a bf d2 44 88 bf
       -0.39258292 -0.37335402 -0.6051793 -1.0646002
000090 99 3c 8f 3e da 46 06 be f3 6c 50 3f 49 8d 6d c0
       0.2797592 -0.13112965 0.81416243 -3.7117484
0000a0 bd fa 43 c0 41 67 57 40 1c e0 c3 3e bf 94 9a bf
       -3.0621789 3.365677 0.3825692 -1.2076644
0000b0 47 5c 07 40 bf 33 7e bf 57 f3 55 3f 45 cf d5 be
       2.1150072 -0.9929771 0.8357443 -0.41759697
0000c0 39 e5 02 c0 cb 51 76 40 8c 1d 37 40 51 88 d7 bf
       -2.0452406 3.8487422 2.8611784 -1.6838475
0000d0 3f 3b 1d 40 fc 39 a7 3f 27 7f 42 bf f0 d3 82 bd
       2.456741 1.306457 -0.7597527 -0.0638808
0000e0 d5 22 90 be ec b0 1e bd bf 93 81 40 97 24 c7 3f
       -0.28151575 -0.038742945 4.0492854 1.5558041
0000f0 a9 82 3e bf f9 c0 ab 3f 65 93 e3 bd a0 4c 17 c0
       -0.7441812 1.3418266 -0.11112098 -2.3640518
000100 28 f6 51 bf 32 ec cf 3e a3 4c 15 c0 41 13 23 3e
       -0.8201623 0.4060989 -2.3328025 0.15925314
000110 7f 6d a4 3d 99 73 75 bd ef 3b 1d 3f 2d b0 5f 3d
       0.08028697 -0.059924696 0.61419576 0.054611374
000120 23 62 3f bf 91 79 ee 3d 95 12 98 3e d0 54 ce c0
       -0.7475912 0.11644281 0.29701677 -6.447853
000130 24 65 34 bf 3c 24 4a be 7c fb 86 be d4 84 c4 3e
       -0.7046683 -0.19740385 -0.26363742 0.3838259
000140 5d fb a5 3c fd 2c 83 3f 75 d3 3b 3f a2 0e 86 3f
       0.02026146 1.0248104 0.7336953 1.0473216
000150 0a 03 21 be c9 0a a1 bf 15 c7 05 40 d8 2d 9d bf
       -0.15723816 -1.2581416 2.090276 -1.2279615
000160 e6 8c 66 c0 f3 aa ca 3c 97 40 0c 3e 50 f5 6d 3d
       -3.6023498 0.024739718 0.13696514 0.058095276
000170 46 03 4e 3f a0 48 cf 3c e5 1d b3 bf 18 71 c6 bf
       0.80473745 0.025303185 -1.3993498 -1.5503263
000180 4a 28 1d bd 67 4c 1f c0 ac 3e 4b c0 c6 9f 76 bf
       -0.0383685 -2.4890382 -3.1757002 -0.96337545
000190 1c 4c 8c be 5e 60 08 bf b0 79 87 be eb d5 37 bf
       -0.27401817 -0.53272045 -0.26460028 -0.7181079
0001a0 f0 f0 ac 3d 7e bb 19 bf 07 a4 07 bf ea 7b 5a be
       0.08444393 -0.60051715 -0.5298466 -0.21336332
0001b0 5d 37 46 be 3b 7d 65 bf d6 a0 1e 3f ee 64 af 3e
       -0.19357057 -0.8964421 0.61964166 0.3425669
0001c0 ee 3f 2a 40 bd bf 20 c0 c1 b9 50 bc ee 1d f3 3f
       2.660152 -2.5117028 -0.0127396 1.8993509
0001d0 e9 1b cd bf 55 ca 3c 3e 91 55 28 3f fe a1 55 be
       -1.6024143 0.18436559 0.65755564 -0.20862576
0001e0 07 67 fb 3e 26 dc 45 3e bd 60 a6 c0 aa 09 83 3d
       0.4910204 0.19322261 -5.199309 0.06398328
0001f0 49 b6 e1 3e a8 97 3f bf 49 ce 43 3e 58 d0 85 bf
       0.44084385 -0.74840784 0.1912166 -1.0454206
000200 5c 66 46 3e 29 25 58 bf 96 af c0 bf ef 7f c2 bf
       0.19374985 -0.844317 -1.5053585 -1.5195292
000210 9f ff 3d 3e 7a a0 7b bf 24 e7 68 bd 6d 8b d1 bf
       0.18554543 -0.9829174 -0.056861058 -1.6370674
000220 f9 6e e9 bf 71 ff d8 bf 1b 10 e7 3f 7e b8 96 bf
       -1.8236991 -1.6952955 1.805179 -1.1775053
000230 fc 01 ed 3e a6 10 24 40 ec aa 41 3f 19 f3 98 3f
       0.46290576 2.5635161 0.7565143 1.1949188

layer1.0.bn1.weight f4 [16]
000000 1c d0 8d 3f 14 1e 65 3f 0f 81 cf 3f 74 aa 81 3f
       1.1079135 0.8949902 1.621126 1.0130143
000010 3a 9a 2e 3f 88 89 d3 3f c5 91 b5 3f c2 4f d6 3f
       0.6820408 1.6526346 1.418511 1.674309
000020 c5 72 19 40 18 ee 92 3f fe ff e7 3f 66 5b e2 3f
       2.39763 1.147891 1.8124998 1.7684143
000030 e9 9d cf 3f 04 5c ea 3f f4 83 f0 3f 3b 77 7b 3f
       1.6220065 1.8309331 1.8790269 0.98228806

layer1.0.bn1.bias f4 [16]
000000 6e 0a 87 3e 7d d2 20 be 4b 08 6d bf 4b 72 86 bf
       0.26375145 -0.15705295 -0.9259078 -1.050363
000010 17 ab 8d 3e be 9a c2 bf ee 43 fd 3e 08 7a 97 bf
       0.27669594 -1.5203474 0.4946589 -1.1834116
000020 32 83 8b bf bc 76 59 3e 3d 27 a6 bf bb 24 cb bf
       -1.0899413 0.212367 -1.2980725 -1.5870584
000030 71 f2 55 3f 4c 45 21 bf ee 1b b3 bf a6 1b 04 3f
       0.8357306 -0.62996364 -1.3992898 0.5160469

layer1.0.bn1.running_mean f4 [16]
000000 d3 c9 e0 be 51 33 50 3e 39 00 b8 3f e5 61 7c bf
       -0.4390398 0.20332076 1.4375068 -0.98586875
000010 df f4 2a 3f 98 ea 2f c0 16 af 0f c0 99 81 e1 3f
       0.66779894 -2.7486935 -2.2450614 1.7617675
000020 23 a4 4e 40 fb d1 29 3f c8 3a 50 40 7b 23 d6 3f
       3.228768 0.6633603 3.2535877 1.6729578
000030 a9 4e 6e be f0 57 dc 3f e1 91 15 40 c5 f8 59 be
       -0.23272194 1.7214336 2.3370287 -0.21286304

layer1.0.bn1.running_var f4 [16]
000000 19 76 ef 41 22 01 88 40 3a db 31 41 02 f6 f4 40
       29.932665 4.2501383 11.116022 7.6550303
000010 4e 2c 44 41 c1 c9 b9 41 f0 ba 9a 41 bb b4 14 41
       12.260817 23.223513 19.341278 9.294124
000020 c3 49 0c 42 3e 6a 57 41 42 a9 da 41 75 8c a9 40
       35.072033 13.463438 27.332645 5.2983956
000030 48 9f 09 40 b2 e3 64 41 dc ff 3d 41 3f 24 8b 41
       2.1503468 14.30559 11.874966 17.392698

layer1.0.conv1.weight f4 [16, 16, 3, 3]
000000 46 b8 81 bf 08 d6 5d be 4c af 1b bf 92 67 18 bf
       -1.0134361 -0.21663678 -0.60814357 -0.59533036
000010 25 62 7e 3f f1 f3 6c 3e 7d 48 f4 3e c5 f8 c6 3f
       0.99368507 0.23139931 0.47711554 1.5544668
000020 7e 3a 70 3f 00 ea 18 40 9e c4 ab 3f 31 c1 e1 3e
       0.9383925 2.3892822 1.3419378 0.44092706
000030 cd 49 52 bf a4 73 7b 3f f9 df 07 be 2d 4d 13 c0
       -0.8214386 0.9822333 -0.13269033 -2.3015854
000040 ea 19 ce 3e 54 3e 83 3f 4c cb 85 3e 70 7d d9 3f
       0.40254146 1.0253396 0.26131666 1.6991405
000050 c1 6c 70 3f 43 6b 9b 3e c2 36 80 3f 93 2d 4a 3f
       0.93915945 0.30355272 1.0016711 0.7897579
000060 fc 63 5b 3f 63 51 5d bf 3b 61 9b 3f 4d 78 95 bf
       0.8569944 -0.8645231 1.2139047 -1.1677338
000070 9f d0 4f 3f 00 c6 85 bd b1 6e ab 3e f8 a9 9c 3f
       0.81177706 -0.06531906 0.33482888 1.223937
000080 20 7a 33 3d af ba 88 be f1 8c a7 bf d3 69 18 c0
       0.04381764 -0.26704928 -1.3089887 -2.381459
000090 17 78 55 c0 6a f3 b1 bf ab 76 72 bf b6 a8 37 c0
       -3.3354547 -1.3902409 -0.9471232 -2.8696723
0000a0 89 e2 a1 bf 1e d1 34 3f 85 b4 25 c0 c8 a1 20 3f
       -1.2647258 0.7063159 -2.589143 0.6274686
0000b0 29 be 46 3f f2 60 36 3f 33 46 5c 3f 9f d9 97 bf
       0.7763391 0.71241677 0.86044616 -1.1863288
0000c0 9a 63 a1 3f c5 b6 c0 3f 8d cd e2 be 2b e1 cb 3e
       1.2608521 1.5055777 -0.44297448 0.39820227
0000d0 8a ec 29 3f 37 bb b5 bf ac ea e5 3f d1 1e 24 40
       0.66376555 -1.4197758 1.7962241 2.564381
0000e0 c8 4b b8 3f 6d 86 b9 3f 75 19 68 40 7d bb 33 40
       1.4398127 1.4494148 3.6265538 2.8083184
0000f0 37 62 6a be e7 5e 10 3f 2c f5 75 3f e8 84 55 40
       -0.22889028 0.5639481 0.9607723 3.336237
000100 e0 f9 55 be b9 05 c1 be bf 8e d3 3f 18 51 cc 3f
       -0.20896101 -0.3769968 1.6527938 1.5962248
000110 69 66 04 40 b9 4b 0c 40 39 bf 15 3f 06 a8 7c bf
       2.0687506 2.1921217 0.5849491 -0.98693883
000120 f5 45 b3 3c ec 6c 09 3f f5 b5 10 40 00 3a 85 bf
       0.021883944 0.53681827 2.2611058 -1.0408325
000130 11 07 32 bf d9 c5 d4 bf 77 c5 dc 3f 33 26 23 40
       -0.6954203 -1.6622878 1.7247761 2.5492065
000140 3c 0d 2c 40 b5 a7 88 3d 90 2d 0c 3f 98 d5 9b 3f
       2.6883078 0.066726126 0.5475702 1.2174559
000150 5c 08 6f bb 2d 07 49 3f cf 60 6b be 01 b0 3c bf
       -0.0036473488 0.78526574 -0.22986148 -0.7370606
000160 9c 63 07 40 6f b4 a8 bf 74 de 97 bf 70 15 28 c0
       2.1154547 -1.3180064 -1.1864762 -2.6263084
000170 55 99 a2 bf b5 a2 5b 3d 64 de 93 3f bf 93 73 40
       -1.2703043 0.053621966 1.1552243 3.8058927
000180 3f 09 f9 3f e2 b7 ea 3f c9 37 09 3f db 54 04 c1
       1.9455947 1.8337367 0.53600746 -8.270717
000190 87 ca 00 c1 32 c8 10 c1 be 64 8c c0 d9 a5 a3 c0
       -8.049445 -9.048876 -4.3872976 -5.113995
0001a0 f4 6b c0 c0 84 2b a1 c0 60 56 be c0 02 e7 c4 c0
       -6.013178 -5.036562 -5.948044 -6.153199
0001b0 67 95 53 3e 2b 67 6d 3f d9 3d 8a 3f aa 66 9a bf
       0.20662461 0.92735547 1.0800124 -1.206258
0001c0 83 57 8e bf 66 80 d8 3f ae da d9 bd 59 d5 62 bf
       -1.1120456 1.6914184 -0.10637413 -0.8860679
0001d0 d3 5c 6a bf f6 a0 a7 3f b0 eb 44 3f 18 9c 86 3f
       -0.9154789 1.3095996 0.7692213 1.0516386
0001e0 7b b6 22 c0 3c b9 d9 bf 09 f2 12 40 b5 18 82 3f
       -2.5423877 -1.7009654 2.2960227 1.016379
0001f0 e4 bb d9 3e ec 54 21 40 d5 79 67 40 3b c7 84 40
       0.42526162 2.5208082 3.616811 4.14932
000200 23 f3 84 40 58 9a 25 c0 08 00 f3 bf 6e f1 16 c0
       4.15468 -2.5875454 -1.8984385 -2.3584857
000210 4f b1 02 40 8a ba 03 40 76 5d 06 40 76 0c 2c c0
       2.042072 2.0582604 2.0994544 -2.6882606
000220 c6 2d d1 3f 5f 8c 0b 40 25 20 aa bf 2a 21 47 40
       1.6342094 2.1804426 -1.329106 3.1113992
000230 60 d7 50 40 22 80 03 c0 71 5a b6 bd ed a8 4b be
       3.2631454 -2.0546956 -0.08903969 -0.19888659
000240 92 47 1b bf 45 d7 cf ba f3 02 4a 40 24 a0 65 3f
       -0.6065608 -0.0015857002 3.15643 0.8969748
000250 e0 0b a5 bf ec 82 58 c0 2e 74 63 3f ea 3a a7 bf
       -1.2894249 -3.3829908 0.8884915 -1.3064854
000260 7d 26 c8 3e 61 be 4b bf 75 c6 df be 14 d0 52 3e
       0.39091864 -0.7958737 -0.43706098 0.20587188
000270 f1 b9 03 40 d7 21 73 40 c5 0f 13 40 0d 11 04 3f
       2.058224 3.7989404 2.2978375 0.5158852
000280 00 b8 5e 40 d6 61 36 40 67 ba f4 bf 05 58 0a 40
       3.4799805 2.8497214 -1.9119385 2.1616223
000290 64 a7 18 c0 c6 60 19 bf e2 73 00 3f 3c d7 98 3f
       -2.3852167 -0.5991329 0.50176823 1.1940684
0002a0 a2 1c fc 3e e9 2d f3 bf 51 bb d1 bf e4 61 72 3e
       0.49240595 -1.8998386 -1.638529 0.23670155
0002b0 ad 41 b8 bf 6b 06 a0 3e f6 10 3c bf fd d8 40 c0
       -1.4395043 0.31254897 -0.7346338 -3.013244
0002c0 5f 55 89 c0 69 cd 1d 3f 36 a9 a0 bf b0 4b b0 3e
       -4.2916713 0.61641556 -1.2551639 0.34432745
0002d0 d5 07 b2 3f 37 38 2e 40 ec e3 93 bf 95 64 87 3f
       1.390864 2.722181 -1.1553931 1.057757
0002e0 2f bc 21 40 45 7f 82 c0 7b d0 9c 3f 6f d0 38 40
       2.5271108 -4.078036 1.2251123 2.8877218
0002f0 9c 66 8a bf 62 6d 51 bf fa 24 7c c0 4c 46 85 bf
       -1.0812564 -0.8180753 -3.9397569 -1.0412078
000300 d7 f1 9f bf 10 b3 df bf c3 ca 1a 3f 20 4b b6 3e
       -1.2495679 -1.747652 0.6046564 0.3560419
000310 d7 a6 23 3f 77 cd b1 3f d0 69 c5 bf a2 12 9c bf
       0.6392645 1.3890828 -1.5422916 -1.2193186
000320 f3 c7 e7 be bc 75 0b c0 74 a2 a6 bf 37 0e a6 be
       -0.45269737 -2.179061 -1.3018327 -0.3243272
000330 04 45 59 bf 99 61 b5 3f a4 0a 08 40 ce 17 58 40
       -0.84870934 1.417041 2.1256495 3.376453
000340 b8 2e 4d bf 54 52 c7 40 23 61 9e be 6e 2a 96 3f
       -0.8014941 6.2288 -0.30933484 1.1731699
000350 c6 17 b0 3f 44 a8 4e 3f 7c fa 17 40 f0 78 26 40
       1.3757255 0.807255 2.3746634 2.6011314
000360 c7 04 2c 3e d5 29 46 be cd 4d de 3e 0f 68 74 bf
       0.16798697 -0.19351895 0.43418732 -0.9547128
000370 bf 00 d6 bf c4 64 9f bf b2 48 ae bf 48 57 40 bf
       -1.6718978 -1.2452626 -1.3615935 -0.7513318
000380 d9 cf 79 be c0 99 60 3f ea 11 12 3e dc 66 0d c0
       -0.24395694 0.87734604 0.14264646 -2.209403
000390 64 f1 01 bf 8f 00 ac 3f 89 98 4a c0 a9 2d 57 40
       -0.5075896 1.343767 -3.16556 3.3621619
0003a0 58 03 fb 3e 68 b7 06 c0 9f f5 5a be 7c 9d f0 bf
       0.4902599 -2.1049442 -0.2138276 -1.879806
0003b0 29 0c 14 40 4a ab 0b 3f f1 e9 2a c0 5b d8 ec 3e
       2.3132422 0.5455824 -2.6705287 0.46258816
0003c0 cc 05 d5 be ff 26 ad bf 3c 59 26 40 ae 7b 3b 40
       -0.41605985 -1.3527526 2.5991964 2.9294238
0003d0 11 c4 6c 40 78 1c 87 bf 35 66 1d 3e ca 19 2a 3f
       3.699467 -1.0555563 0.1537102 0.664456
0003e0 fd cd 55 c0 fe de e7 3f 2a b8 a7 3f c2 91 08 c0
       -3.3406975 1.8114927 1.3103077 -2.1338964
0003f0 53 bc 9b 3e 34 38 07 c0 6d 2a 61 3f 7e 38 c4 3f
       0.30417117 -2.1128054 0.8795536 1.532974

layer1.0.bn2.weight f4 [16]
000000 11 06 cc 3e a5 25 c0 3e 7c ca dd 3e b4 65 ae 3e
       0.39848378 0.3752872 0.43318546 0.34061968
000010 f8 e0 0a 3f ab 07 88 3f db ce 24 3f bf 27 8d 3f
       0.54249525 1.062734 0.64378136 1.1027755
000020 69 91 a0 3e c3 28 c2 3e 3b 2c b1 3f cc 04 bb 3e
       0.3136094 0.37921724 1.3841623 0.36527097
000030 4e 8d 20 3f 68 8b 42 3f 64 df bd 3e 8d 39 d6 3f
       0.62715614 0.7599397 0.37084496 1.6736313

layer1.0.bn2.bias f4 [16]
000000 1c ef 98 be be 92 53 bd bd 2f 34 3e 0f e2 ca 3c
       -0.29869926 -0.051653616 0.17596336 0.024765996
000010 9c e9 2f 3e b6 05 07 bf 69 43 39 be ce c3 e1 bf
       0.17178959 -0.5274309 -0.18092121 -1.763788
000020 b2 41 78 3e c5 fb 83 3d 0c d9 8a bf 0e 31 a9 3d
       0.24243811 0.064445056 -1.0847487 0.082613096
000030 28 9b b6 be 3c d8 05 bf 8a f5 ef 3c ca e4 79 bf
       -0.3566525 -0.5228307 0.029291887 -0.9761473

layer1.0.bn2.running_mean f4 [16]
000000 94 40 7c 41 bd ed fe c0 b7 b5 a8 c1 3d a9 c3 c0
       15.765766 -7.966521 -21.088728 -6.114409
000010 0f 83 99 c1 ea c9 3f c1 fd 71 be c1 e4 6a 20 c1
       -19.188993 -11.986795 -23.805658 -10.026096
000020 f5 60 33 40 69 eb 80 c1 ee e7 35 c1 f2 a0 4d 41
       2.8027928 -16.114946 -11.369123 12.851793
000030 8a 61 06 c1 6a 26 9e c1 1c 95 9d c1 bb 65 8a c1
       -8.398813 -19.768757 -19.697807 -17.299673

layer1.0.bn2.running_var f4 [16]
000000 ed 73 06 44 38 1d 1c 44 2a 99 b0 43 69 01 ae 43
       537.81134 624.45654 353.1966 348.01102
000010 30 ec d4 43 39 64 7b 44 2b 72 20 44 77 f2 de 42
       425.8452 1005.566 641.7839 111.473564
000020 51 d4 b2 43 4b 88 b5 43 07 6d 25 44 06 f2 8e 43
       357.65872 363.0648 661.70355 285.8908
000030 66 0d df 43 02 a4 ff 43 4f 88 e3 43 9c 8e a0 44
       446.10468 511.2813 455.0649 1284.4565

layer1.0.conv2.weight f4 [16, 16, 3, 3]
000000 ca 13 c7 3e d5 bc 3a bf c9 32 1c 3e d4 04 1e 3f
       0.38882285 -0.72944385 0.15253748 0.6172612
000010 46 50 e3 3e 7d 18 03 3f 14 e9 ec 3e e5 61 75 bd
       0.4439718 0.5120924 0.46271574 -0.059907813
000020 df 32 c2 be d5 a5 78 bf 5b 0f b7 bf 7c 34 1d 3f
       -0.37929437 -0.9712804 -1.4301561 0.6140821
000030 f3 29 9d bf 80 05 bb bf 70 fd 17 bf 6e c7 66 3f
       -1.2278427 -1.4611053 -0.5937109 0.90148056
000040 54 12 b8 bf 6b 66 46 bf dd 83 59 3e 1b 3c 98 bd
       -1.4380593 -0.7750003 0.21241708 -0.07433339
000050 f4 d8 58 3f bd 7b a5 bd 7b fa 94 bf 5f 85 33 bf
       0.84706044 -0.08080242 -1.163894 -0.70125383
000060 e6 c7 e0 3f 4a 93 7e 3f 2f a9 86 bc 59 84 a1 3f
       1.7561004 0.99443495 -0.016438095 1.2618514
000070 00 82 8f 3f 5b 56 40 3f bf 42 1c 3f 51 d5 6e 3f
       1.1211548 0.7513177 0.61039346 0.93294245
000080 ed 75 19 40 88 84 99 3c 5b 48 02 3f aa ea 02 c0
       2.3978226 0.018739954 0.50891656 -2.0455728
000090 3e e0 ab 3f 4a 1a 62 3f dc 08 74 3f 74 b4 1c 3f
       1.3427808 0.88321364 0.9532602 0.6121285
0000a0 61 a1 27 be c5 4d 6b bf 2e 23 a0 bf 3c 7a 5d bf
       -0.16370155 -0.9191554 -1.2510736 -0.8651464
0000b0 49 80 35 bf 4f 5e 08 40 9f 73 6c 3e fb 69 0b bf
       -0.7089887 2.1307561 0.23090981 -0.5445859
0000c0 ca 37 19 40 63 17 53 3f 72 be 5f bf 84 b0 82 3f
       2.39403 0.8245756 -0.8739997 1.0210118
0000d0 d5 62 f7 3e 91 0b 22 bf 49 2b 7d bf 42 d5 08 3f
       0.4831759 -0.632989 -0.9889417 0.53450406
0000e0 07 1d ed bf 86 cd 22 bf a8 22 f4 3e 8c 45 a7 bf
       -1.8524483 -0.63594854 0.4768269 -1.3068099
0000f0 30 c5 2a be 13 4f 19 bf 4e 78 09 3d ae 53 06 c0
       -0.16676784 -0.5988628 0.033561997 -2.0988574
000100 7f 94 53 3f 81 0d c7 bf 28 7d bb bf ab f6 32 3f
       0.8264846 -1.5550996 -1.464757 0.69907635
000110 b1 19 39 3f 1d 2d 4d bf a4 75 31 3e 79 ba d1 3e
       0.72304827 -0.8014696 0.17330033 0.4096258
000120 8f 2c 2e 3f b9 8f 71 3f ac 1a 4b bf 37 d6 28 bf
       0.6803674 0.9435993 -0.79337573 -0.65951866
000130 03 cf 34 bf f9 46 9b bf 14 4d 18 3f e1 f2 9b 3e
       -0.70628375 -1.2131034 0.5949261 0.3045874
000140 63 72 a8 3e 83 19 16 bf 0f 03 ba be 7c 5d 3e 3f
       0.3289977 -0.5863268 -0.3633046 0.74361396
000150 6d e0 35 be f1 68 15 be eb b4 f3 bd 7d 20 b7 3e
       -0.17761393 -0.14590813 -0.11899742 0.35766974
000160 80 f9 36 3f 50 03 84 be cf 3f af be ad ff b9 3d
       0.71474457 -0.25783777 -0.3422837 0.090819694
000170 55 8f 79 3f 9d 3a 44 be 75 6c 84 bf 13 43 b8 3f
       0.9748433 -0.19162984 -1.0345598 1.439547
000180 4c 6c f8 3e 57 fe 72 bf 5e f1 96 3f 9e 0f b2 3d
       0.48520124 -0.9491934 1.179241 0.08694385
000190 5a 63 da bf b3 b7 38 bf e8 ce 4f bf c6 1c d8 be
       -1.706157 -0.721553 -0.8117509 -0.42209452
0001a0 c4 bd 39 3e db ee 84 be 52 a1 af be ea 68 14 bf
       0.18138796 -0.25963482 -0.34302765 -0.57972586
0001b0 1b 46 2b be a6 af 38 3f 8d 33 74 3f a1 06 55 3f
       -0.16725962 0.7214302 0.9539116 0.8321324
0001c0 ff 74 88 3e 3c c9 97 bf 49 8b 03 3e 46 4e f1 3c
       0.2665176 -1.1858287 0.12846102 0.029456269
0001d0 26 9a 5f bf be 26 df bd 27 1e a0 3e 4b cf f7 3e
       -0.87344587 -0.10896061 0.31273004 0.4840034
0001e0 b2 5d 89 bf 7a 37 48 bf 53 1d a0 bf c0 cb 3c bf
       -1.0731719 -0.7820965 -1.2508949 -0.737484
0001f0 72 0d 7f 3f 6c c6 58 bf 53 12 89 3e bb 8f ed 3e
       0.9962989 -0.8467777 0.26771793 0.4639872
000200 fa f8 8b bf ca e5 99 3f 1b 75 39 40 1d 82 f7 3f
       -1.0935357 1.2023251 2.8977726 1.9336582
000210 5a 2a 8e 3f ed 16 d3 3e 1b be b4 bf 0c 84 b9 bf
       1.1106675 0.41228428 -1.4120516 -1.4493423
000220 31 11 4a bf 58 f5 26 c0 b8 3d f9 3d 79 71 e6 3e
       -0.7893248 -2.6087246 0.12169975 0.45008448
000230 7f 74 88 bd 30 94 30 3d ea b3 1f bf d6 10 ab bf
       -0.06662845 0.043110073 -0.623839 -1.3364513
000240 12 e3 ae 3e 2f 9a c6 3f f7 af 15 ba 37 88 ac bf
       0.34157616 1.5515803 -0.000571012 -1.347907
000250 67 f4 eb bd 1e 9b 73 bf 5b 0c db bf bd 9e 90 bf
       -0.115212254 -0.95158565 -1.7113146 -1.1298443
000260 be 5e 72 bf b7 c6 a5 be 35 57 82 3f fa 64 db bd
       -0.94675815 -0.3237817 1.0182863 -0.10712619
000270 96 e9 5f 3f 6d 00 10 bd 5c 88 9a be 8c 8e b5 3e
       0.874658 -0.035156656 -0.3018216 0.35460317
000280 5e 38 0d 3f 3d bc 8f 3e 63 2a 04 bd 57 4c be 3f
       0.55164135 0.28073302 -0.032266986 1.4867047
000290 b0 d4 ca be 77 10 05 bf 90 1f 18 40 e6 30 84 3f
       -0.39615393 -0.5197825 2.3769264 1.0327423
0002a0 5d 5e c5 bf 97 16 64 3f bc d4 a7 be 8d c5 1a 3f
       -1.5419422 0.8909697 -0.3277949 0.6045769
0002b0 66 da b9 bc 04 4c 20 be de 14 7d bf d8 ad 11 3f
       -0.022687148 -0.15653998 -0.98859966 0.5690589
0002c0 dc f6 5a be 8e a5 db be 25 cd eb 3f 4d 96 46 3f
       -0.21383232 -0.42899746 1.842198 0.7757309
0002d0 bd c1 8a be 10 1a ed 3f e3 0e c0 3f ed a0 9f bf
       -0.27100936 1.8523579 1.5004543 -1.2470986
0002e0 42 31 d0 3f bf 49 08 3f 9c 97 83 3f a3 b3 e7 3e
       1.6265032 0.5323753 1.0280643 0.4525424
0002f0 52 9c 25 bf 31 e4 97 bf af 7c 25 bf f6 3c 15 bf
       -0.6469165 -1.1866513 -0.6464338 -0.58296144
000300 74 a4 51 3f 24 08 63 3f 5e dd 7f 3e 13 e6 51 bf
       0.8189156 0.88684297 0.24986789 -0.8199169
000310 d0 da 89 bf 2d 17 82 bf bc 4f 64 bf c2 f9 95 3d
       -1.0769901 -1.0163323 -0.89184165 0.07323028
000320 c3 58 4c bf 30 94 0f 40 06 b2 9f 3f cb 53 10 bd
       -0.7982294 2.2434196 1.2476203 -0.03523616
000330 d7 77 d9 3f 60 75 e0 3d 11 8a c6 bf f5 f7 05 c0
       1.6989697 0.109598875 -1.5510885 -2.093259
000340 9f b6 3d bf d9 21 b1 3e 7d 34 b9 be d7 ab d7 bf
       -0.7410678 0.34596136 -0.36172858 -1.6849316
000350 1b 77 26 be 84 0c db bf 0d 96 d0 be ba 55 05 bf
       -0.16256373 -1.7113194 -0.4073948 -0.52083933
000360 a7 ac c8 3f 9a 91 4a 3d db c5 52 3e ab a0 1e 40
       1.5677689 0.049455263 0.20583288 2.4785564
000370 71 fa dd 3f c6 8a a7 be 7d 3b dc 3e c3 7c c4 bf
       1.7342054 -0.32723063 0.43014136 -1.5350574
000380 70 12 e9 be 44 6a 9c 3f 54 a4 21 bf c7 8e 3f bf
       -0.4552188 1.221993 -0.6314137 -0.74827236
000390 d6 6c 42 bd 91 0b ce bf 66 e7 13 c0 bf ed fd 3f
       -0.047467075 -1.609728 -2.3109984 1.9838179
0003a0 f4 55 9a 3f 86 d9 29 bf 4a ae 6b bf 91 26 b2 be
       1.2057481 -0.6634754 -0.9206282 -0.3479505
0003b0 d9 6d c4 3e 7c 99 64 3e b3 ef c7 be 63 06 a7 bf
       0.38365057 0.22324175 -0.39050063 -1.3048824
0003c0 49 64 ba be 91 68 aa be 28 cc 01 bf 8b 6e 83 3f
       -0.36404637 -0.33282903 -0.5070214 1.026811
0003d0 2a bd 3a 3b 72 c7 2a bf c1 c6 2d 3f 66 4d 91 3f
       0.0028494098 -0.6671058 0.678814 1.1351745
0003e0 04 7d 30 3f 0f 9f d9 bf c6 ed 08 bf fb 54 a4 bf
       0.6894076 -1.7001666 -0.53487813 -1.2838434
0003f0 cb 96 86 bf e2 f9 b2 be 30 1b 58 bf 5b e9 5c 3f
       -1.0514768 -0.3495627 -0.84416485 0.8629357

layer1.1.bn1.weight f4 [16]
000000 af 84 00 40 31 85 04 40 fa 16 df 3f 6c 10 d2 3f
       2.0080984 2.0706294 1.7428887 1.6411262
000010 eb e3 e0 3f 3f 63 e9 3f f7 79 f3 3f 5c 61 aa 3f
       1.7569555 1.8233413 1.9021596 1.3310962
000020 f3 b9 0a 40 76 4f d2 3f 7c 42 1e 40 fd 53 17 40
       2.1675994 1.64305 2.472808 2.3645012
000030 db 77 82 40 32 90 d7 3f e9 5f 19 40 1e 61 e0 3f
       4.077131 1.684088 2.396479 1.7529638

layer1.1.bn1.bias f4 [16]
000000 40 10 57 3e 9a 7d 9c be 59 a6 9c 3f cd af a6 3f
       0.21002293 -0.30564576 1.2238265 1.30224
000010 ed c6 52 3f 48 d3 1c 3f 2c f5 88 3f 03 f7 be 3e
       0.82334787 0.6125989 1.069982 0.3729783
000020 3a 61 a2 bf 97 eb 92 3f 31 39 69 bf fd 8d 6b 3e
       -1.2685921 1.1478146 -0.9110289 0.23003383
000030 d0 8a 10 40 ca 60 40 bd 64 c0 11 bf 0c 5d 06 3f
       2.2584724 -0.046967305 -0.5693419 0.5248573

layer1.1.bn1.running_mean f4 [16]
000000 6f 08 f8 be 2e c8 56 40 19 98 b4 c0 b2 d3 82 c0
       -0.48443934 3.355968 -5.6435666 -4.0883417
000010 1c fc 44 40 44 47 cd 3e 95 22 50 c0 e0 13 89 c0
       3.0778875 0.40093434 -3.2521107 -4.283676
000020 3e 22 41 40 16 85 b9 40 42 57 4b bc f6 da 93 3f
       3.017715 5.797496 -0.012410941 1.1551197
000030 b6 49 40 c0 3e 94 8d bf e9 45 b0 3e 7c c0 04 41
       -3.004499 -1.1060865 0.34428337 8.296993

layer1.1.bn1.running_var f4 [16]
000000 b7 f0 6a 42 34 18 dd 41 5a d0 19 42 44 32 81 41
       58.735073 27.636818 38.45347 16.149544
000010 68 f5 1f 42 63 9a 52 42 28 8a de 41 7e 6f 8a 41
       39.989655 52.65077 27.81746 17.30444
000020 e5 bd 11 42 df 58 8e 42 87 27 40 42 4b bd 95 41
       36.435444 71.17358 48.0386 18.717428
000030 64 ec ef 41 d0 40 ca 41 fd 6a 49 42 10 7a 29 42
       29.990425 25.281647 50.35448 42.3692

layer1.1.conv1.weight f4 [16, 16, 3, 3]
000000 af 21 85 bf 5e b9 09 40 00 26 dc 3f fe 0b 95 be
       -1.0400904 2.151939 1.7199097 -0.29110712
000010 20 98 3b bf a7 f7 cc be ae 18 c0 3e 71 91 d2 3f
       -0.73279 -0.40032694 0.3751883 1.6450635
000020 96 b5 dc 3f d7 4d 43 bf 0d d0 76 bf d6 54 18 bf
       1.7242916 -0.7629065 -0.9641121 -0.5950445
000030 d6 9a ee bf 91 71 3a c0 da 6c 13 c0 f0 28 de be
       -1.8641002 -2.9131815 -2.3035188 -0.43390608
000040 d6 2d a6 3c 61 3c 0e bf 80 db 25 3f a2 7f 34 40
       0.020285528 -0.5556088 0.64788055 2.82029
000050 2c 1c 96 bf f0 db 9a be 13 6f 46 3f 8e cf eb bf
       -1.1727347 -0.30245924 0.77513236 -1.8422716
000060 91 34 94 bf b7 11 85 3f 40 3e 37 3f 9a 5c 48 3f
       -1.1578542 1.0396031 0.7157936 0.782663
000070 4d 0a 2b 40 9d 4f 96 3f d3 79 01 3f a0 19 f9 3f
       2.6725037 1.1743046 0.50576514 1.9460945
000080 36 3a 26 be f7 6a a8 3f 36 41 ce 3f 7f 3d 02 3f
       -0.16233143 1.3157643 1.6113651 0.50875086
000090 0a 7b ee bf e3 05 a6 3e 20 48 ef 3f 54 b8 dd 3e
       -1.8631299 0.32426366 1.8693886 0.43304694
0000a0 b0 37 d9 bd a3 7d 01 c0 e8 27 76 bf de 99 4a 3f
       -0.10606325 -2.0232933 -0.9615464 0.7914103
0000b0 f6 2a a1 3f 11 38 0e 3e 68 8b 52 bf f3 6d 08 c0
       1.2591236 0.13888575 -0.8224397 -2.1317108
0000c0 28 ba 84 3f f5 33 96 3e 34 0b 80 bf af 8b b8 bf
       1.036931 0.29336515 -1.0003419 -1.4417628
0000d0 a7 d1 98 bf 81 5f cb bf b9 43 59 bf f3 96 b5 bf
       -1.1938981 -1.588852 -0.8486896 -1.4186691
0000e0 3a cd ba bf 80 b9 53 bf 93 e2 7f bf 9a ca 75 bf
       -1.459388 -0.82704926 -0.999551 -0.9601227
0000f0 e4 8b fa bf 51 f7 bc bf f1 fb 4e c0 0d 42 5c 3f
       -1.9573941 -1.4762975 -3.2341273 0.86038285
000100 03 03 ae 3f e9 2e 20 40 b6 ec ee be b2 2f c2 bf
       1.3594669 2.5028632 -0.4666497 -1.5170805
000110 cd 32 6d bf 54 43 7b c0 8e 62 15 c0 4c 48 b9 bf
       -0.9265564 -3.9259844 -2.3341403 -1.4475188
000120 fe e2 d0 bd c6 f1 78 bf e9 73 63 c0 2d 55 d2 c0
       -0.10199545 -0.97243917 -3.5539496 -6.5728974
000130 29 e8 04 c0 bf e1 1f c0 e5 40 0f c0 a2 6c 89 3f
       -2.07667 -2.4981534 -2.2383358 1.0736277
000140 e7 66 dd 3f c8 05 f0 bf b5 b6 a9 bf dd 61 1e c0
       1.7297028 -1.8751764 -1.3258883 -2.474723
000150 37 a8 5b c0 93 73 38 c0 9e da 9e c0 69 b0 1c 3f
       -3.432142 -2.882054 -4.9641867 0.6120668
000160 c3 55 7f 3b 7b fb 80 bf 0d 35 31 bf c6 76 8a bf
       0.003896103 -1.0076746 -0.69221574 -1.0817497
000170 7c 3d 1d c0 c8 a9 7a c0 5b 9d 6c c0 67 f8 85 c0
       -2.4568777 -3.9166126 -3.6971042 -4.1865726
000180 2a 33 10 bf f9 c1 d0 bf 34 00 61 c0 ed 3b df bf
       -0.5632807 -1.6309196 -3.5156374 -1.7440163
000190 d5 e9 b8 bf a7 04 0b bf 72 cd fa bf a7 0a 6e c0
       -1.444636 -0.54303974 -1.9593947 -3.7194002
0001a0 91 11 01 3f f0 79 fc bc af 83 95 bf 00 5f 73 3e
       0.5041743 -0.030819863 -1.1680812 0.23766708
0001b0 25 06 fa 3f ce 71 96 bf 14 c0 e5 3e 31 21 16 3f
       1.9533125 -1.175348 0.44873106 0.58644396
0001c0 75 2a 9b 3e f1 47 1d 3f f7 9d 43 3f e0 c0 0a bf
       0.3030583 0.614379 0.7641291 -0.54200554
0001d0 29 25 ad 3e 28 b1 3c 3f e7 c4 01 c0 29 05 bc bf
       0.33817413 0.7370782 -2.027643 -1.4689075
0001e0 94 ad 9f bf 94 89 89 c0 b6 37 99 3f 80 61 ba 3e
       -1.2474847 -4.298044 1.1970127 0.36402512
0001f0 89 57 4b c0 70 4e d6 3f c0 a9 1e 3e 6c a2 8b bf
       -3.1772177 1.6742687 0.15494442 -1.0908942
000200 e6 9c d7 bf 5f 42 68 bf 58 f7 c8 bd 1c 1f ec 3f
       -1.6844757 -0.90726274 -0.09812802 1.8446994
000210 47 c6 82 bf 47 e8 07 bf ff 0e 17 40 09 2a 37 3f
       -1.021676 -0.530888 2.3602903 0.71548516
000220 96 c6 8e bf df e1 af 3f 72 bf 51 3f 49 a6 30 c0
       -1.1154354 1.3740805 0.8193275 -2.7601492
000230 b7 0c 20 bf 76 ab a7 3e e0 cb 4d c0 b2 ca 45 bf
       -0.625194 0.32748002 -3.2155685 -0.77262414
000240 98 a3 02 c0 99 23 64 c0 9b 89 ec 3d bf 4b 99 bf
       -2.041235 -3.5646727 0.11549684 -1.1976241
000250 dd 05 2b c0 37 ec d8 3e 92 3f 3c bf 4d 83 05 c0
       -2.6722329 0.42367718 -0.735345 -2.086139
000260 1b fb ff be f8 fb da 3d 3f 5f b0 bf b6 46 ab bf
       -0.49996266 0.106925905 -1.3779067 -1.3380954
000270 73 cd da bd ac c4 38 c0 fa 8e 27 c0 dd a7 a0 bd
       -0.106837176 -2.887004 -2.6181016 -0.078445174
000280 6d 66 03 c0 a4 97 15 c0 9c 0c 17 40 65 0b 8c 40
       -2.0531266 -2.3373804 2.3601446 4.376391
000290 ef 72 01 40 64 3e d5 3f 51 cc a3 40 f2 38 a4 3f
       2.02264 1.6659665 5.118691 1.2829878
0002a0 04 e1 c2 3f 1c 97 a7 40 24 4b ae 3f d3 79 4e 3f
       1.5224919 5.237196 1.3616681 0.8065464
0002b0 95 9e 0c 3e 73 d7 27 bf 4d cf f8 3e fc cc a7 bd
       0.13732369 -0.65563124 0.48595658 -0.081933945
0002c0 8e 45 03 c0 f5 05 8d 3f 0c 7f 73 3e 3c 0b c1 bd
       -2.0511203 1.1017443 0.23778933 -0.09425971
0002d0 ad 9c 00 40 68 cc 0a 3f e8 ff 92 3f df 74 f0 3f
       2.0095627 0.5421815 1.1484346 1.8785666
0002e0 fe 0f bb 3f a5 76 1c 40 5f 0f 79 3e c3 6e be 3e
       1.4614255 2.4447415 0.2432227 0.3719388
0002f0 36 33 96 3f 61 4b 87 bd 0f f0 16 bf f8 b2 09 c0
       1.1734378 -0.06606174 -0.5896005 -2.1515484
000300 65 9a 7e ba f1 e6 71 bf 2b ad 0e c0 08 47 3e 3e
       -0.00097123376 -0.94493014 -2.2293193 0.18581784
000310 e0 db eb be 7e 5b f4 bf ef 9f 78 be 9a 0c 63 bf
       -0.4606619 -1.9090421 -0.2427976 -0.88691103
000320 79 17 1b c0 81 9c 01 bf 02 65 b8 bf 3d d4 35 c0
       -2.4233077 -0.5062943 -1.4405825 -2.841079
000330 41 f1 c6 bd ba 09 5c bf eb e2 19 c0 cc 96 05 c0
       -0.09713984 -0.8595234 -2.404475 -2.087329
000340 41 24 40 c0 c5 8d e9 3f d0 b9 80 c0 f0 13 4d c0
       -3.0022128 1.824639 -4.022682 -3.204342
000350 7a cf 1e 3f bc 1d 99 bf 74 8d 8f bf 01 57 bf bc
       0.62035334 -1.1962199 -1.1215043 -0.023356916
000360 fd 08 ad 3f 8e 76 c0 be a5 25 bf be 04 c7 cc be
       1.3518368 -0.3759045 -0.37333408 -0.39995587
000370 97 7a 1b bf 80 99 a6 3e 44 d4 db be d1 2a 3a bf
       -0.6073393 0.32538986 -0.42935383 -0.7272158
000380 92 77 60 be 3b f0 61 3f 3e 50 42 40 1b ab 18 40
       -0.21920612 0.8825719 3.0361476 2.3854434
000390 28 3c 3c 3f 30 b0 82 3f 0a 12 8b 3f 28 22 f1 3f
       0.7352929 1.0210018 1.086488 1.8838549
0003a0 fe 86 11 40 5f b3 09 40 25 dc 86 3e 1c 9f b3 3f
       2.2738643 2.151573 0.26339832 1.4032931
0003b0 e7 db 8a be e6 84 eb 3e 7e e5 c7 3f f1 0c 79 bf
       -0.27120897 0.4599983 1.561691 -0.9728537
0003c0 5e 48 33 3d 6e dc 00 40 a0 b5 18 c0 1b c9 91 bf
       0.043770187 2.013454 -2.3860855 -1.1389498
0003d0 52 84 13 3f 6a 97 2b 40 11 2f 4e be 7b 63 7f 3f
       0.5762378 2.6811166 -0.20135142 0.9976117
0003e0 e7 42 01 40 3c 32 c5 3e 4e 00 1d 3f 03 2a 39 40
       2.0197084 0.38514888 0.6132859 2.8931892
0003f0 79 39 88 be bc d4 16 3f dc 14 9e 3f 83 fa 7b 3d
       -0.26606348 0.58918357 1.2350116 0.061518203

layer1.1.bn2.weight f4 [16]
000000 4e 76 d1 3e af 2f 6c 3f 8d 9e c5 3e 08 a1 00 3f
       0.40910572 0.9226026 0.38597527 0.50245714
000010 32 c1 c4 3e 51 92 33 3f 8f c8 84 3f 32 f7 be 3e
       0.38428646 0.70145136 1.0373706 0.3729797
000020 9b 5f 37 3f 57 31 04 3f c8 66 d8 3e 9f 16 c2 3e
       0.7163026 0.51637787 0.42265916 0.37907884
000030 d2 64 22 3f b3 4b 9f 3d 1b 07 03 3f 5e dc 90 3e
       0.6343509 0.0777811 0.5118272 0.28293127

layer1.1.bn2.bias f4 [16]
000000 4d ef b6 3d ca 60 29 c0 5d 0a 56 bd ce 6c bf bd
       0.08932362 -2.6465325 -0.052255977 -0.09346925
000010 ab 19 b5 bd 2d 15 2f bf 57 0e 6e bf 7d ac f0 bd
       -0.088427864 -0.68391687 -0.9299063 -0.117516495
000020 24 d6 19 bf 52 4f 7b be 89 b4 14 bc f7 7f 0c bc
       -0.6009238 -0.24541977 -0.009076246 -0.008575431
000030 2e 04 0c bf bb ce bb bf fa 21 5d be c0 81 48 3d
       -0.5469388 -1.4672464 -0.21594992 0.048951864

layer1.1.bn2.running_mean f4 [16]
000000 ea 3b 61 c2 04 fa 89 41 af ac ba 41 f7 51 4e 40
       -56.30851 17.247078 23.334318 3.2237527
000010 da ac 3a c1 fb be 3e c2 5c 50 ac c2 5e cb ba 3f
       -11.6672 -47.686504 -86.15695 1.4593313
000020 52 73 5a c2 1b a2 da c1 7b 5e 78 c2 2f 44 ee c1
       -54.612617 -27.329153 -62.092266 -29.783293
000030 af af 2b c2 5a 96 8a c1 9c 87 2f c2 8d de db 40
       -42.921566 -17.323414 -43.88243 6.870917

layer1.1.bn2.running_var f4 [16]
000000 2c ce 23 45 8b bd 8e 44 cd 69 0e 45 b4 a7 3b 45
       2620.8857 1141.9232 2278.6125 3002.4814
000010 9f f0 e3 44 22 3b 2f 45 14 f4 43 45 0d e0 ce 44
       1823.5194 2803.6958 3135.255 1655.0016
000020 a4 f7 e5 44 de 30 0a 45 da f4 04 45 8f da 06 45
       1839.7388 2211.0542 2127.3032 2157.66
000030 b2 b5 07 45 7c a3 58 44 6f 6b 4e 45 d9 97 7e 44
       2171.356 866.55444 3302.7146 1018.3726

layer1.1.conv2.weight f4 [16, 16, 3, 3]
000000 bf 5c 93 bf eb c6 ce be 32 46 10 bd f6 35 99 bf
       -1.1512679 -0.40386137 -0.035223193 -1.1969593
000010 c0 f9 5b be 57 5d 0b 3f 0e 54 e1 be 57 14 09 bf
       -0.21481991 0.544393 -0.4400944 -0.5354666
000020 23 61 97 3f ad c4 be 3f 7e 56 1e c0 97 f4 4f bf
       1.1826519 1.4903771 -2.474029 -0.8123259
000030 7c e0 d4 3f 9d 7f 68 be e5 47 a9 3f 15 d6 03 40
       1.6631007 -0.2270493 1.3225065 2.0599415
000040 f3 9e a7 bf 1a 6f 9d be 71 ee d7 bf 0f 7d 38 bf
       -1.3095382 -0.30748826 -1.6869642 -0.72065824
000050 c6 cd 3b be ae 2f 40 bf bc af 33 be 1a d0 04 3e
       -0.18340215 -0.75072753 -0.17547506 0.1297001
000060 0d e4 09 3e 11 9e 1b 3f 41 8d 19 bf a2 df 7e 3d
       0.134659 0.60788065 -0.5998116 0.06222499
000070 b5 57 98 bf 83 2d 6b be cf 06 26 bf de 48 f1 3e
       -1.1901766 -0.2296658 -0.6485414 0.47125906
000080 79 4e 13 bf 8d a9 31 3d 82 5a 6c 3f f0 8d ac bd
       -0.57541615 0.043374587 0.92325604 -0.0842551
000090 5e e9 b2 3e ac 4a 27 3f 03 b3 06 40 02 2b da bd
       0.3494367 0.65348315 2.104676 -0.10652734
0000a0 0a 00 72 bf a4 bb 8e bf 36 97 1f 3f 1b da 85 bf
       -0.9453131 -1.1151013 0.62340105 -1.0457186
0000b0 9f af 96 bf e4 4b 19 be ab 97 79 3f 88 f4 e9 3f
       -1.1772345 -0.14970356 0.9749705 1.827775
0000c0 d7 34 4c 3f 06 f9 f1 3e c1 d0 da 3f c8 8c 41 3f
       0.7976813 0.47260302 1.7094957 0.7560544
0000d0 d2 88 3e 3f 7c 2d 52 bf 3e e5 82 bf 1c d9 f6 bf
       0.7442752 -0.82100654 -1.0226209 -1.9285007
0000e0 46 c8 64 3f 77 b2 68 bf 91 09 df 3e ee 82 0e bf
       0.89368093 -0.90897316 0.43561986 -0.5566853
0000f0 0d 98 84 bf c7 56 24 be 48 11 45 3f bc 87 7c bf
       -1.0358902 -0.16048728 0.76979494 -0.98644614
000100 35 6f 9e bf db 0d e9 3e 6b 4c 3b bf 63 0b 1c 3e
       -1.2377688 0.45518383 -0.7316348 0.15238719
000110 26 e9 e4 bd 14 c6 2a 3f 87 4b 88 3f fa db 57 3f
       -0.11177282 0.66708493 1.0648049 0.8432003
000120 21 88 be 3d 5f 0a e6 3c 2c be 2e be 99 e2 f7 3e
       0.09303308 0.028081117 -0.17064732 0.48415068
000130 29 e1 44 bf 6b be 24 be 12 85 6f 3f 9a ec 64 bf
       -0.7690607 -0.16088264 0.93562424 -0.89423525
000140 86 5b 2f be 15 db bd 3f ea ec 19 3e c1 1a 37 bf
       -0.17124757 1.4832484 0.15031782 -0.715252
000150 ea 60 39 3f f9 e4 62 3c 79 be 45 3e 80 0f 41 bf
       0.72413504 0.013848537 0.19310941 -0.75414276
000160 02 dd 36 bd 0b 20 a0 be 3f 12 66 3e 75 a3 01 3f
       -0.044644363 -0.31274447 0.22467898 0.5064004
000170 2a dd 50 3e b8 0d 5d 3f 39 bc c5 3b 4a e3 b3 bf
       0.20396867 0.8634906 0.006034401 -1.4053738
000180 d7 59 9a 3f b7 08 80 bf 28 81 cf bf 12 0a 31 3f
       1.2058667 -1.000266 -1.621129 0.6915599
000190 ad d5 2c bf 6d 97 9f bd dc 16 4e bf 6b 0e 84 bf
       -0.67513543 -0.07792554 -0.8050363 -1.03169
0001a0 a0 4e 3b bd 94 0c 2c 3e d7 fb 9b bf 04 ae fe 3b
       -0.04572928 0.16801673 -1.218623 0.007772209
0001b0 bb 84 f6 be f9 ea 88 bf d8 9f 1f bf 9b 00 0b be
       -0.4814814 -1.0696708 -0.6235328 -0.1357445
0001c0 52 87 a9 3e 67 65 04 3f 6a 94 af be 18 4a f5 3e
       0.33111054 0.5171723 -0.34292918 0.47908092
0001d0 db af d7 3e 20 15 e5 be 4f 29 cd bf af df ba bf
       0.42126355 -0.4474268 -1.6028231 -1.4599513
0001e0 07 47 91 be 02 0f 48 bf 80 30 ea be e8 eb bf bf
       -0.28374502 -0.781479 -0.45740128 -1.4993868
0001f0 4d 68 35 bf 6a 6c b1 be e4 29 b5 3f f8 a8 38 3f
       -0.70862275 -0.34653026 1.4153409 0.72132826
000200 a3 98 5b 3f dc eb dd 3f e5 91 69 3f ee 8a 73 3f
       0.8577978 1.7337604 0.9123824 0.95133865
000210 c8 ee 48 3f a1 8a 90 3f 4a bf 43 bf 65 39 03 3f
       0.7848935 1.1292306 -0.7646376 0.5125945
000220 8f d2 58 3e f4 21 36 3f 75 3c c6 be 9f b5 34 bf
       0.21174072 0.7114556 -0.38718 -0.7058963
000230 78 13 28 3f 85 f9 85 3f 30 d4 9d be 83 b2 ba 3e
       0.65654707 1.0466772 -0.3082595 0.3646432
000240 ac dc d8 bf 0c c5 82 bf 53 1e c8 3f 9c 94 be bf
       -1.6942344 -1.0216384 1.5634254 -1.4889102
000250 6b 2f 14 bf f9 8a b3 3f c5 01 e0 be 63 07 5d bf
       -0.57884854 1.4026786 -0.4375135 -0.86339396
000260 9a 5a ac 3c d2 8e 2b 3f 7f 61 57 bf 69 b0 00 40
       0.021039296 0.670148 -0.8413314 2.0107672
000270 4c e7 43 3d cc fc be bf d7 7f 88 3f 12 25 8d 3f
       0.047828004 -1.4920897 1.0664014 1.1026938
000280 e2 07 be bf e0 d5 2c 40 04 58 e8 be cb 19 61 bd
       -1.4846156 2.700554 -0.4537965 -0.05495624
000290 8d d2 8d bf 35 40 25 3f 2a b7 71 3f bc 0c 74 3f
       -1.107988 0.645511 0.9442011 0.9533193
0002a0 97 13 e1 3f ea 0c 00 bf b7 ab 18 3e 52 a1 20 bf
       1.7584103 -0.50019705 0.14909254 -0.62746155
0002b0 4b 60 fb be 76 da ec be 79 21 b5 3f 93 6b 58 3f
       -0.49096903 -0.46260422 1.415084 0.84539145
0002c0 27 28 30 bf 93 f3 c8 3e 22 76 1c 3f bf cc 40 bf
       -0.6881127 0.39248332 0.61117756 -0.7531242
0002d0 45 05 df 3e ec 2d 1a bf e1 78 92 be 9a 72 29 be
       0.43558708 -0.6022632 -0.28607848 -0.16547623
0002e0 14 bc 72 bf fd 0c 5e 3f 1e e4 c7 bf 4c 38 f9 be
       -0.94818234 0.8673857 -1.5616491 -0.48675764
0002f0 e9 be 9e 3f ae b1 83 be 68 1d 8d 3e cf 23 31 3f
       1.2402011 -0.25721496 0.27561498 0.69195265
000300 ad be f9 be 1c 31 66 3f 85 12 7e be 3f b6 ea bf
       -0.48778287 0.89918685 -0.24811752 -1.8336867
000310 b4 0e 17 c0 d4 1a 34 bf 29 63 de be 3f 40 fe bf
       -2.3602724 -0.70353436 -0.43435028 -1.9863356
000320 79 1e 0e c0 75 df 3c 3e c2 b7 f9 bd fb b5 a7 3e
       -2.22061 0.18444617 -0.12193252 0.32756028
000330 4f f5 7f 3f 19 1b bc bf ae 63 a0 3e d1 b0 9a bf
       0.99983686 -1.469577 0.3132605 -1.208521
000340 8a b0 c2 3e 43 c5 69 3d 57 20 53 bf 2f 18 67 bf
       0.38025314 0.05707289 -0.8247122 -0.90271276
000350 e3 b2 73 bd 23 ba b7 bf 0f 20 43 bf d2 cc 81 be
       -0.05949677 -1.435368 -0.7622079 -0.25351578
000360 1c d1 a0 bf 61 69 8d be 6a 4b fc 3d f0 a1 21 bf
       -1.2563815 -0.2761946 0.123190716 -0.6313772
000370 bb d2 a5 bc 69 af 55 3f 05 b9 a1 3e 99 bd 09 3f
       -0.020242086 0.8347078 0.3158647 0.5380493
000380 2d dd 30 3f 48 80 14 40 09 99 92 3e 8a 9d 19 3f
       0.6908749 2.3203297 0.28632382 0.6000601
000390 2b 3c 59 40 47 28 a0 3f ab fb 09 3f 04 c3 59 3f
       3.3942974 1.2512292 0.5389964 0.85063195
0003a0 f5 03 5b 3f e1 33 a9 3e 06 15 0b c0 e5 8f 8e bf
       0.8555291 0.33047393 -2.1731582 -1.1137663
0003b0 ea 0b 80 3e 99 15 80 3f eb fa 4a bf 82 c5 97 3f
       0.2500909 1.0006591 -0.7928912 1.185715
0003c0 79 9d 0c 3f 7e 66 8a bf 66 03 25 3c 03 c8 b4 bf
       0.54927784 -1.0812528 0.010071611 -1.4123539
0003d0 f6 63 6d 3e 74 cd 89 be ac 24 16 3f 53 32 40 3f
       0.23182663 -0.2691456 0.58649707 0.7507679
0003e0 75 14 c3 3f d8 fa ae bf 90 ed c0 3e db 36 21 3f
       1.5240618 -1.3670301 0.37681246 0.6297433
0003f0 90 9c 09 bf fc 77 48 be ae 62 be bd 55 33 9f be
       -0.5375452 -0.1957702 -0.092961654 -0.3109385

layer2.0.bn1.weight f4 [16]
000000 7f a6 37 40 f1 c8 26 40 25 c4 f9 3f d7 54 08 40
       2.869537 2.6060145 1.9512984 2.1301782
000010 6d 95 99 3f 34 2f 18 40 d5 43 0f 40 d2 c0 e3 3f
       1.1998726 2.377881 2.2385151 1.7793219
000020 1f 7d 10 40 4c 17 e5 3f e3 bd 2c 40 05 77 ae 3f
       2.2576368 1.7897735 2.6990898 1.3630072
000030 d7 25 10 40 a0 d6 f3 3f 57 7a fc 3f 3d ea da 3f
       2.2523096 1.9049873 1.9724835 1.7102734

layer2.0.bn1.bias f4 [16]
000000 9e e6 c0 3e 1e 9c 96 3e 3d b4 5b be 57 6c 11 3e
       0.37675947 0.29415983 -0.21455474 0.14201485
000010 95 2b 50 3f cf 93 b7 3f da 5b db 3f 00 b8 71 3e
       0.813165 1.4341983 1.7137406 0.23605347
000020 42 3c 32 3e 45 a1 20 40 2d cc bb bf b2 b4 e7 bd
       0.17405799 2.509843 -1.4671685 -0.11313762
000030 d0 05 8c 3d 85 72 ef 3e 1d ff f6 3e e4 f8 95 3f
       0.06837046 0.4676706 0.4824151 1.171658

layer2.0.bn1.running_mean f4 [16]
000000 b3 54 8e bf 11 5d 4e 40 15 5d cc c0 17 e6 06 c1
       -1.1119598 3.2244303 -6.3863626 -8.431174
000010 b7 e8 aa 40 3a 37 49 bf 83 b0 a2 c0 f6 7a 88 c0
       5.3409076 -0.78599894 -5.084047 -4.26501
000020 da d2 3f 40 02 24 0c 41 1e dc dd 3e 51 7b 20 40
       2.9972444 8.758791 0.43332 2.5075266
000030 b7 3f 63 c0 a1 31 98 bf 23 3c bc bf b6 78 5e 41
       -3.5507638 -1.1890146 -1.4705852 13.90447

layer2.0.bn1.running_var f4 [16]
000000 c3 d6 7d 42 06 b5 0a 42 7d fd 32 42 91 d0 e6 41
       63.45973 34.67678 44.747547 28.85184
000010 43 10 16 42 4b 63 58 42 dc 67 06 42 3f bc c3 41
       37.51588 54.096966 33.601425 24.466917
000020 85 b1 1f 42 4f 4f bb 42 81 8c 2a 42 85 c0 8d 41
       39.92336 93.6549 42.63721 17.719004
000030 9e eb 1d 42 fd 0e b3 41 57 1d 70 42 66 11 5f 42
       39.480095 22.382318 60.028652 55.76699

layer2.0.conv1.weight f4 [32, 16, 3, 3]
000000 7f 7a 47 c0 df fe 25 bf 63 21 1e 3f 65 98 5f 40
       -3.1168516 -0.6484203 0.61769694 3.4936764
000010 b1 7d 29 40 ef 36 e1 be 4b 23 03 40 16 b4 de 3f
       2.6482966 -0.43987224 2.049029 1.7398708
000020 8f 9d 85 bf 29 40 cf 3f 44 4d 1a 3e bc f5 86 c0
       -1.0438708 1.6191455 0.15068537 -4.217497
000030 9c 8d c5 3e dd 26 24 be fe e5 4f 3b dc a8 15 c0
       0.38584602 -0.1603045 0.003172278 -2.3384314
000040 d4 da 62 3e d6 c2 58 40 ca 0d 2e bf d5 ba d5 be
       0.22153789 3.3868918 -0.6798979 -0.41744104
000050 fe 23 16 c0 5f 5a ac 3e f5 a9 8b bf d8 a2 bc 3e
       -2.3459468 0.33662698 -1.0911242 0.3684299
000060 96 99 b0 bf bb cc f6 3e 55 e2 a9 3f 10 33 d4 bf
       -1.3796871 0.48203072 1.3272196 -1.6578083
000070 1d 41 8d be f8 b6 8d be d5 6f 86 be bc c5 0a 40
       -0.2758874 -0.27678657 -0.26257196 2.1683187
000080 00 69 03 40 5d 98 5c 40 ab 84 65 40 58 26 11 40
       2.0532837 3.4467995 3.5862224 2.2679653
000090 48 8f 07 3f 16 dc 92 be 2a 5c 40 c0 71 63 ec bd
       0.52953005 -0.28683537 -3.0056252 -0.115424044
0000a0 bd 60 63 c0 90 bd 4b c0 a6 7f e4 be 79 73 37 3f
       -3.5527794 -3.183445 -0.44628638 0.7166057
0000b0 43 d4 52 40 74 dc 1e 40 cb 11 9b 3f 9c 3c 2e 3f
       3.2942054 2.4822054 1.2114805 0.6806123
0000c0 b5 dc 8c 3f 23 2e ce 3e 52 91 44 3e cf 58 2f be
       1.1004854 0.40269575 0.1919606 -0.17123722
0000d0 8f 4e 09 3f c6 4d 89 3f d1 b9 0c 3f 15 22 c9 3f
       0.53635496 1.072686 0.54971033 1.5713526
0000e0 09 a4 60 3f 8e 59 50 bf 83 9b 1b bf 1f 55 07 c0
       0.877503 -0.8138665 -0.6078417 -2.1145704
0000f0 bb d1 b3 be 31 20 00 bf 55 77 c8 bf 3a 6c 5a 3f
       -0.3512095 -0.5004912 -1.5661417 0.8532139
000100 42 23 a7 3f c8 36 05 be 5e cd 58 40 41 1f ea 3f
       1.3057635 -0.13009179 3.3875346 1.8290788
000110 62 99 7c bf cc 16 a3 bf 6f ad 4b bf 2e a0 bf 3f
       -0.98671544 -1.2741332 -0.79561514 1.4970758
000120 5f 01 9e bd d0 ce a8 bf 6a f5 17 c0 5c c0 2e c0
       -0.07715105 -1.3188114 -2.374354 -2.7304907
000130 32 33 31 bf a6 0a 80 3e 90 c9 69 3f db d8 34 40
       -0.6921874 0.25008124 0.91323185 2.8257358
000140 95 f4 8e 40 ad 0e ba bf fa b5 3d c0 63 83 50 c0
       4.467356 -1.4535729 -2.964232 -3.2580192
000150 5a 09 18 3e e4 2a 31 bf 8f 53 20 be a1 ed 12 bf
       0.14847317 -0.6920607 -0.15656875 -0.5739384
000160 be 53 6d 3e eb be 05 40 95 47 6c bf fa 34 86 bf
       0.23176476 2.0897777 -0.92296726 -1.0484917
000170 71 5a 99 bf 8e 23 ad 3e d6 72 bf 3f 5b e5 ca 3e
       -1.1980726 0.3381619 1.495692 0.3962811
000180 a0 d5 0c bf 63 01 0f 40 4c 98 80 40 32 ee 6b 3f
       -0.55013466 2.2344596 4.018591 0.9216033
000190 2a 90 7e 3f ca 05 76 3f cc fe 77 3f 20 75 d0 3e
       0.99438727 0.96102583 0.96873164 0.4071436
0001a0 43 a6 ee bf a0 42 c2 be 72 33 6f 3e c4 80 72 3f
       -1.8644489 -0.37941456 0.23359469 0.9472773
0001b0 5d 16 04 bc 23 03 26 40 00 fb 09 40 9d d7 86 3f
       -0.008061972 2.5939415 2.1559448 1.053455
0001c0 45 8b b0 3f 8a c2 20 bf e0 b8 db 3f d3 07 2b 3f
       1.3792502 -0.62796843 1.7165794 0.66808814
0001d0 50 52 00 c0 4a 27 bc bf cc e3 0f 3d 9d bb 84 3f
       -2.005024 -1.469949 0.035129353 1.0369755
0001e0 02 16 96 3f ca 78 f2 3f a2 d8 b5 3f 7f 42 19 40
       1.1725466 1.8943112 1.4206736 2.3946836
0001f0 ea 57 7b 40 df 50 c7 bf 9e 0d 4f bf bd a0 7c 3f
       3.9272408 -1.5571555 -0.80880153 0.9868277
000200 9b 94 73 40 8f 3c 64 bf 19 e5 8f bf bf a5 ba bf
       3.8059452 -0.89154905 -1.124179 -1.4581832
000210 76 07 fe 3d 0d 87 41 be 51 16 0e bf 7b 4b be 3f
       0.12403767 -0.18899174 -0.555028 1.4866785
000220 fc 94 23 3e d7 21 01 bf 02 3a 70 bf 80 7d 39 c0
       0.15974802 -0.5044226 -0.9383851 -2.898285
000230 a8 fc 20 c0 52 73 d4 3f ea 1b 2c bf 4e 4c b4 be
       -2.515421 1.6597693 -0.67230093 -0.35214466
000240 b2 42 52 c0 9e d2 1f c0 69 30 44 bf 00 ce 12 c0
       -3.2853208 -2.49723 -0.7663637 -2.2938232
000250 11 df 47 c0 c5 2a 43 c0 f3 75 1e c0 f6 65 67 bf
       -3.12299 -3.0494854 -2.475949 -0.90389955
000260 ac 94 b6 bf c1 50 ff be f0 14 20 3f 5d bc 68 3f
       -1.4264121 -0.49866298 0.6253195 0.9091242
000270 50 f0 16 bf 47 58 d5 3e 73 31 f3 3f ba 93 c9 bf
       -0.5896044 0.41668913 1.8999466 -1.5748208
000280 9b 2b 50 bf 69 0e 17 3e 13 9e 75 bf a0 91 c3 bf
       -0.81316537 0.14751591 -0.9594433 -1.5278816
000290 1d ff 9b 3f f5 0f 8a 3e 7b eb 36 be 98 82 06 3f
       1.2187229 0.269653 -0.17863266 0.5254302
0002a0 e1 56 b7 3f 30 c2 11 3e fa 8c b7 3f 35 bd 51 bf
       1.4323388 0.14234233 1.4339898 -0.8192933
0002b0 c4 12 e7 3f f6 d2 f1 be 3a 1d 4d 3f 46 d0 ec 3f
       1.8052602 -0.47231263 0.8012272 1.850106
0002c0 08 47 b9 be 30 54 8f bf 24 e1 ff 3e 6f 5a 83 bf
       -0.36187005 -1.1197567 0.49976456 -1.0261973
0002d0 3a bf e0 bf 9a 45 86 3e 9a 4b 02 bf 39 52 03 c0
       -1.7558358 0.26224977 -0.5089661 -2.0518935
0002e0 ea 7b 40 bf 12 55 ba bf df 03 f9 bf 49 09 07 bf
       -0.7518908 -1.4557211 -1.9454306 -0.52748543
0002f0 6b b5 3f 3e 51 7f 11 c0 34 a4 d4 bf 2b 83 7b bf
       0.18721549 -2.2733958 -1.6612611 -0.9824702
000300 4c e8 1d 3f f8 81 0b 40 29 58 35 40 e4 38 89 bf
       0.6168258 2.1798077 2.8335059 -1.0720487
000310 74 95 a0 3e a1 e1 a0 3e 04 ba 68 be d8 0e 85 3d
       0.31364024 0.3142214 -0.2272721 0.06496972
000320 3b 91 91 3e b8 d3 ca 3f d3 61 08 40 c6 e4 a9 3f
       0.28431115 1.5845861 2.1309707 1.3272941
000330 31 79 2f 40 02 47 e7 3f 3d 8f 86 be 78 b0 f8 bf
       2.741772 1.8068545 -0.26281157 -1.9428854
000340 c2 da 2f bf 49 1f fe 3e a7 d2 17 c0 df fa e3 bf
       -0.6869317 0.49633244 -2.3722322 -1.7810935
000350 0f 02 8e bf 94 94 1e c0 dd 70 36 c0 c6 42 c0 be
       -1.1094378 -2.4778185 -2.8506386 -0.37550944
000360 c8 90 de 3f c4 18 5f bf 2f a2 96 bf a7 3e 3a 40
       1.7387934 -0.87147164 -1.1768245 2.910074
000370 ba 3b c4 be f5 e3 aa bf f6 eb 24 40 1d 6a ab be
       -0.38326818 -1.3350817 2.576902 -0.33479396
000380 a3 bb bf bf 31 18 bb bf 78 47 e2 be 82 df 7c 40
       -1.4979137 -1.4616758 -0.4419515 3.9511418
000390 b0 a1 5c c0 1d 1b 83 c0 25 3c b9 3e 04 58 50 c0
       -3.4473686 -4.0970597 0.361787 -3.255372
0003a0 a8 d5 b8 bf b0 a2 0e 40 91 a9 35 c0 82 ff e8 be
       -1.4440203 2.2286797 -2.8384745 -0.45507437
0003b0 d0 12 a8 3f ee ca b2 c0 d2 a9 29 bf 71 40 52 40
       1.3130741 -5.5872717 -0.6627475 3.2851832
0003c0 d5 8c 56 c0 b6 e3 9c bd 49 db e2 3f ef 66 52 be
       -3.3523457 -0.0766062 1.772317 -0.20547079
0003d0 5e f1 08 c0 4e b2 fc 3f f4 33 99 bf c5 f5 ca bf
       -2.139732 1.9741914 -1.196898 -1.5856253
0003e0 4b b3 24 40 1c 4e 41 c0 e6 4b 5b bf 75 db cd 3e
       2.5734432 -3.0203924 -0.85662687 0.40206495
0003f0 94 1c fa bf c0 dc b7 bf 80 e1 1e c0 e0 f8 9b be
       -1.9539971 -1.4364243 -2.4825134 -0.30463314

layer2.0.bn2.weight f4 [32]
000000 21 a0 64 3f 6e 60 8b 3f 9c 10 9e 3f 3c a6 4d 3f
       0.8930684 1.0888803 1.2348819 0.8033178
000010 66 18 4d 3f 22 83 8c 3f 6e d3 89 3f 6f cc 6d 3f
       0.80115354 1.0977519 1.0767648 0.92890066
000020 44 db 61 3f 24 47 cf 3f 6b a6 35 3f ec fe 15 3f
       0.882252 1.6193585 0.7095706 0.58592105
000030 bc ce 44 3f b2 87 26 3f ff a3 2e 3f 1e d8 6b 3f
       0.7687795 0.65050805 0.6821899 0.92126644
000040 48 8e 5e 3f bf aa 30 3f 6b 64 61 3f 66 f1 45 3f
       0.86935854 0.6901054 0.8804385 0.7732147
000050 c8 2c 3b 3f 88 1f 32 3f e9 77 1c 3f f5 03 18 3f
       0.73115206 0.6957936 0.6112047 0.5938104
000060 c6 28 3c 3f 98 77 79 3f 61 f4 46 3f 0d 97 85 3f
       0.73499715 0.9744811 0.7771664 1.0436722
000070 c9 da 9e 3f 8a 18 30 3f 42 55 47 3f e3 2f 23 3f
       1.2410518 0.68787444 0.7786447 0.63744944

layer2.0.bn2.bias f4 [32]
000000 17 16 32 bc 36 a1 a1 be be f5 15 bf e8 e9 9b bd
       -0.010869524 -0.31568307 -0.585781 -0.076129735
000010 58 a1 ef 3c ba db 26 be cf 98 33 3e 8f 8a e4 bb
       0.02925174 -0.16294757 0.1753876 -0.0069745253
000020 88 ca 77 3e 6e 1a c9 bf fc 0e f9 bd 86 5c 8a bc
       0.24198353 -1.5711191 -0.12161061 -0.016889822
000030 8f bc 4d be 33 1f 62 3f f8 55 35 3f c2 14 88 bd
       -0.2009146 0.88328856 0.708343 -0.06644584
000040 b5 fa 0e bf c0 c8 88 3d 2e 72 c8 be cf d3 a1 3e
       -0.558513 0.06678915 -0.39149612 0.3160691
000050 b9 6a a1 3e 65 62 11 b9 4f e0 d0 3f 59 7a 40 3e
       0.31526735 -0.00013864932 1.6318454 0.18796672
000060 0c 7c df be ad 35 8e bf 84 f8 67 be 8b be 50 bf
       -0.43649328 -1.111013 -0.22653395 -0.81540745
000070 57 39 6d bf fa e6 d1 bd 21 0b ad 3d 73 b2 57 3d
       -0.9266562 -0.102491334 0.08449388 0.052660417

layer2.0.bn2.running_mean f4 [32]
000000 ff f5 6f 41 6f bb f7 c1 d6 bf 7a c2 04 5a a2 c1
       14.997558 -30.96652 -62.68734 -20.293953
000010 db d8 83 42 7c 71 6a c2 0e fb af c2 d9 a9 8a c2
       65.923546 -58.610825 -87.99034 -69.33173
000020 3d cf c8 c2 48 6d a6 c2 b9 9a 14 42 dd 7a 38 be
       -100.40476 -83.21344 37.151096 -0.18015619
000030 f5 ea 90 c2 ad f5 20 c1 a8 d8 9f be 2b 78 19 c2
       -72.4589 -10.059979 -0.31219983 -38.36735
000040 e9 02 02 c2 86 8b 6d 42 f0 ff d3 c1 a7 f6 9e c2
       -32.502842 59.386253 -26.49997 -79.48174
000050 dd f1 10 c1 46 19 c9 41 cb 80 51 42 35 d8 51 3d
       -9.059049 25.13734 52.375774 0.05123158
000060 bc 86 5f 42 4f b0 41 42 fc 4d 09 c2 67 2a 2c c2
       55.881577 48.422176 -34.326157 -43.04141
000070 20 fc eb c1 10 3d 26 42 d5 b0 fb c0 a5 1c 74 40
       -29.498108 41.55963 -7.865336 3.8142483

layer2.0.bn2.running_var f4 [32]
000000 91 7e 49 45 27 82 07 45 91 84 e6 44 ae 3b 0c 45
       3223.9104 2168.1345 1844.1427 2243.73
000010 b4 1a a7 44 67 1f 5e 45 61 f1 77 45 f3 7a 1e 45
       1336.8345 3553.9626 3967.0862 2535.6843
000020 91 11 1e 45 c9 ca 11 45 31 55 fa 44 14 bb 68 44
       2529.098 2332.674 2002.6622 930.9231
000030 9a 6d e2 44 a0 18 f0 44 17 d4 01 45 26 59 38 45
       1811.425 1920.7695 2077.2556 2949.5718
000040 48 b5 85 44 24 36 1f 45 b0 10 db 44 91 fd 5b 45
       1069.665 2547.3838 1752.5215 3519.848
000050 4f e3 10 45 20 3a 23 45 4f 9f 1f 45 81 d1 cf 44
       2318.2068 2611.6328 2553.9568 1662.547
000060 f8 5b aa 44 02 99 f3 44 33 c5 b6 44 12 7f dc 44
       1362.874 1948.7815 1462.1625 1763.971
000070 49 02 06 45 21 56 f4 44 c2 88 e2 44 19 bc bc 44
       2144.1428 1954.6915 1812.2737 1509.878
