Our_code/Pytorch/Other_datasets_experiments/trained_students/MNIST-stud-t-40-2-student-16-1.pth (torch_old, 717449 bytes, 69 tensors)

conv1.weight f4 [16, 1, 3, 3]
00000000: b086 123f 23ed 5b3f f8d2 0f3f 8343 6f3f
00000010: 4dc1 353e 67f9 fdbc d921 2c3e eb8d 81bf
00000020: 1d8a c3bf 1ea1 90be 9d5f 453d 7533 a5be
00000030: 9eca 90be 66a2 fa3e d911 543f ad08 d9be
00000040: bb16 d23e d3d9 9b3e 2de9 0a3f 97cd be3d
00000050: a0ff 74bf 691f 973f 51b1 3e3f 0142 80bf
00000060: 8739 a03d 8442 863e e5ba d8be fb1e b4bd
00000070: 0095 a9be c4be 7ebf 53d5 6bbe 4d60 d23e
00000080: 76fe 443f 4615 5cbe d163 993f d7ad f83f
00000090: 0333 343f 55a2 c63e 2156 82be 3ff4 6c3f
000000a0: 2667 04bf 9687 40bf aa3b fa3e 8644 4cbe
000000b0: efae 88be 1b2c fb3c 95e1 f3be 9c6b 1dbf
000000c0: 0982 0b3f 0872 27bf 9e93 43bf bc15 353f
000000d0: 49d6 163e ab13 bbbb a5fb 04bf 8baf 74be
000000e0: 0f12 913f d2f7 c1be 7279 4ebe b085 a73f
000000f0: a436 afbe 15f2 5abe 4bba c2bd 8c4f 07bf
00000100: 4290 04bf 30dc f7be 3fe4 88bf a724 8e3d
00000110: cad5 a23e a91e 54bf 11ac ba3e 05bf 823c
00000120: ca5f 143e 73f5 333f 6187 463f 59a9 0a3e
00000130: af83 223f 4917 9d3f 6fce 98bf 9a25 b0bf
00000140: 87e1 e6be 43b6 e3be eaa3 cfbe 8e80 443f
00000150: facb 3dbf 5819 edbe b7d2 543f 8ba1 e8be
00000160: 19f1 943e 8441 513f df0e 233d edbe 5dbe
00000170: 01d9 c7bd 7237 d1be 8219 c2bc e952 43be
00000180: 3c43 8bbc 8482 6ebe 0e86 05be 90c0 b63e
00000190: e240 a9be f5dd a3be eae1 f9bd 2b45 21bf
000001a0: 39a7 d4be 8f6c f3bc 00fe 5abe fc90 c83e
000001b0: 14c9 08bf 471a a7be 1b2a 153f 53e3 603c
000001c0: 5554 52bf 3558 2abf c44b 0a3f 9006 68be
000001d0: e1ca 0cbf cdd7 c6be 20e6 073e 54c0 583f
000001e0: 9bcb 07bf bed8 a3bd a534 0b3f 77fb 06bf
000001f0: 2034 4abf 1466 8abe 0478 2a3e 3f3e 0abf
00000200: 9a2b 11bf 9187 88be 582c cdbe eb9a 31bd
00000210: ebb5 2ebf 4827 34be 6131 8ebf 99d6 383e
00000220: 0de7 603f 442f c5be 9308 f9be 68d9 c83e
00000230: b16c 003f 4d8d 1bbf 9a23 6a3d 3615 c43e
0.57236767 0.85908717 0.5618129 0.9346239 0.1774952 -0.031002713 0.16809787 -1.0121435
-1.5276524 -0.28247923 0.048186887 -0.3226582 -0.28279585 0.48952025 0.82839733 -0.42389432
0.41032967 0.30439624 0.5426205 0.09316557 -0.9570255 1.1806461 0.74489313 -1.0020143
0.078234725 0.26222622 -0.4233009 -0.087949716 -0.3312149 -0.99509835 -0.23030595 0.41089097
0.76950777 -0.2149249 1.1983587 1.9428052 0.7039034 0.38795725 -0.25456336 0.9256019
-0.5171989 -0.7520689 0.48873645 -0.19948015 -0.26695964 0.03066068 -0.47633043 -0.61492324
0.5449529 -0.6540837 -0.7639712 0.7073629 0.14730181 -0.0057091317 -0.5194648 -0.2389509
1.1333636 -0.37884384 -0.20163515 1.3087673 -0.34221375 -0.2138141 -0.09508189 -0.52855754
-0.5178262 -0.48410177 -1.0694655 0.06940585 0.31803733 -0.82859284 0.364594 0.015960226
0.14489666 0.702964 0.7755032 0.13541164 0.63482183 1.2272731 -1.1937999 -1.3761475
-0.4509394 -0.44474992 -0.40554744 0.7675866 -0.7413937 -0.46308398 0.83134025 -0.45435748
0.29090193 0.81740594 0.039809104 -0.21654864 -0.09758187 -0.40862614 -0.023693804 -0.19074596
-0.016999833 -0.23291975 -0.13039419 0.3569379 -0.33057314 -0.32005277 -0.12201293 -0.62996167
-0.4153383 -0.02971485 -0.21385956 0.39173114 -0.5343182 -0.32637236 0.5826737 0.013726073
-0.8215993 -0.66540843 0.5402186 -0.22658753 -0.5499707 -0.38836518 0.1327138 0.8466847
-0.5304505 -0.08000325 0.54377204 -0.52727455 -0.78985786 -0.27031004 0.16647345 -0.5400123
-0.56707156 -0.2666593 -0.40072894 -0.043360632 -0.68246335 -0.1759311 -1.1108819 0.18050613
0.87852556 -0.38512623 -0.48639354 0.39228368 0.5016585 -0.6076248 0.05716286 0.38297433

layer1.0.bn1.weight f4 [16]
00000000: 3229 2240 bbc2 983f da3b c43f 7925 963f
00000010: 210a fa3f 9a23 bc3f ec59 fe3f d160 0040
00000020: b5a6 0140 4ca9 e83f 5a41 c33f aab2 9c3f
00000030: 6fc1 1440 2e74 c63f 96b0 f73f 7e1b 9a3f
2.5337644 1.1934427 1.5330765 1.1730186 1.9534341 1.4698365 1.9871192 2.0059092
2.0258 1.8176665 1.5254319 1.2242024 2.3243062 1.5504205 1.9350765 1.203964

layer1.0.bn1.bias f4 [16]
00000000: e0b5 39bd d34e 1cbf de97 9fbd 4a3a b73d
00000010: e765 07bd 623e c03e a2c6 2e3d 2262 c73e
00000020: c5da 60be 5810 86be 5998 0cbd 814b 963e
00000030: 4081 dc3e 911b 61bc ba73 ce3e 2591 39be
-0.045339465 -0.61057776 -0.07792638 0.08946665 -0.033056166 0.37547594 0.0426699 0.38942057
-0.21958454 -0.26184344 -0.034324978 0.2935448 0.4306736 -0.0137394825 0.40322667 -0.18121774

layer1.0.bn1.running_mean f4 [16]
00000000: eac6 17be 2411 08be 125b b8bd 2fa4 c2be
00000010: 35fb a1bd a20f 503e a147 aebd ddc3 de3e
00000020: 0261 16be 1d6b cbbc aff4 573e 0e51 6b3e
00000030: 913f ad3e abd5 1f3e 6c99 153f 8a79 29be
-0.14821973 -0.13287789 -0.09001745 -0.38015887 -0.07909242 0.20318463 -0.08509756 0.43508807
-0.14685443 -0.024831349 0.21089433 0.22980139 0.3383756 0.15608852 0.5843723 -0.1655027

layer1.0.bn1.running_var f4 [16]
00000000: 4d39 3141 38f8 4740 ccce fb40 6ef2 8b41
00000010: a772 a040 d20d c640 9935 c140 e511 3541
00000020: dc0c 5841 550f d040 13aa 0940 b9cf 5a40
00000030: db11 d840 9d3f bd40 c0ab 8841 93cb 4240
11.076489 3.124525 7.8689938 17.493374 5.0139956 6.189187 6.0377927 11.316869
13.5031395 6.5018716 2.1510055 3.4189284 6.7521796 5.9140153 17.083862 3.0436752

layer1.0.conv1.weight f4 [16, 16, 3, 3]
00000000: 0631 093f 76e3 173f 66b8 633e 763a 233e
00000010: 5578 323f f3b3 35bf 2835 40bf f79e 023f
00000020: 2730 5dbf 8aff 9b3e b6d1 46bf f6a8 4f3f
00000030: 1db7 b23f 3611 6abf 6178 c83f d467 513f
00000040: 802f 30c0 07e6 81be 4dec b63c 0685 11bf
00000050: da42 25bf 2946 f23e 5dc7 203f 6d5d 23bf
00000060: c672 b43d 34e3 d73e f09d 08c0 f8ef d4bd
00000070: 7aa5 153e 2e98 6dbd 751b 62be 1bb6 67bf
00000080: 50aa 03c0 cecc 793f 2d53 d63d a008 89bf
00000090: 28a7 123f 5eb6 06bf 091a 2bbe c2df 333f
000000a0: b668 8ebe d68c acbf 6f37 043f c6f3 573f
000000b0: 562e 433e c3c4 9a3d 91b1 c0bd 3fe5 813f
000000c0: b6ec 7c3f 3df8 2d3e b3bb a63e 2ee9 3f40
000000d0: 42f4 0240 57aa 953f e3ce b0bf fd3b b3bf
000000e0: 5870 c0bf 13a7 b43d 4a82 01bf 7be1 8dbf
000000f0: 2624 583f 86d6 8dbf bbde cbbf 1d50 1bbe
00000100: 0d49 84be 5c26 8fbe 73a0 183e c36b 2d3f
00000110: 0715 c33f dddb a2bf 430f d5be c91e c03f
00000120: b06d 46bf 2145 30bf 066a 55bf 08aa 02c0
00000130: 1acb f8bf 016d d2bf a827 3bbf a90e b2bf
00000140: 46cb a0bf ecbf c5bf f279 92bf 8d82 b8be
00000150: 9a8e 1c3e 86cb 30bf 917f 583d 657f c0be
00000160: 4397 bfbf 0dc7 6c3f 4184 d2bd 21b9 883f
00000170: d6c2 a23f 0d44 8ebe 86c3 cf3f d52d e63f
00000180: 9b13 18bf 9e99 d23f a140 1e40 d4f6 38bd
00000190: acca 683f ee42 cd3f b592 963d 6d70 4f3f
000001a0: 9bb0 1940 9779 e6bf 8452 013f c305 1a40
000001b0: f010 243d b36e 723f 18fd f03f 9f70 293f
000001c0: 43bd c93f f958 2140 c309 de3e 4074 1a40
000001d0: 09a0 2140 26f4 bf3d e8b2 303e d817 f53c
000001e0: ac13 33bd 7311 2abe fe10 1b3e 4285 363f
000001f0: e8ec 0d3d 5e82 733f 6119 7a3c 4c2c b43e
00000200: 2fa8 843e b93a cc3e de02 0a40 d7cd 4c40
00000210: 402a cabc de84 9e3f e32c a73f 2ae2 01bf
00000220: 3e81 b2bf c523 55bf 01cc 8c3e 7ab5 58bf
00000230: 07ab 8ebc d2f7 9ebe a697 e2bf dc83 afbf
00000240: 80c0 f03f c9be d73f e27e 73bd d97b 483f
00000250: 8d99 263f 940a b4be 768c a53d a0a0 95bf
00000260: 571b 22c0 e17f 0dbf 9052 e7bf 2c6a 75c0
00000270: 7530 3dbf 62f1 1dbf 3e03 533f 0819 d1be
00000280: 577c 5cbf 2a5a 853f 1e99 b83f 144d fa3f
00000290: 4e85 8b3f a391 7ebf 3d84 ddbe a108 a0bf
000002a0: e29f 1bc0 0020 8dbf 4a9e cdbf a477 d6bf
000002b0: 0fd6 b7bf fea1 fdbe c9f6 35c0 5107 f6bf
000002c0: e412 553e ba0d febe 2851 32be 1eae f73e
000002d0: 5047 f23f 89ee d13f 2c43 1d3f e3a3 d2be
000002e0: 2ee5 923e a6a0 193e 37a7 b4bf 0e28 e3bf
000002f0: 2487 89bf cf12 253e 3122 c03e bae0 623f
00000300: 0f09 573f cd7c 41bf a80e 33bf 7b68 413f
00000310: 034f 74be 7820 753e 191e 953f 6b11 80bf
00000320: 1f5f 3cc0 35f7 27bf 58f5 13c0 0b02 31c0
00000330: 81be b5bf 25f6 26bf 6b40 1340 d43b f3bf
00000340: 19d5 853e c8a3 eb3f 8345 1c3d bf01 543f
00000350: 7e69 8e3f 41b2 2e3e c587 4c3f 118f 1f3f
00000360: 1e8c ac3f 0958 a5be 7955 9dbf 45ba aa3f
00000370: 438d 71bf 23d4 23c0 327d 2cbd 6594 72bd
00000380: 6afe 043f 888e f93e 4a73 a13f 6a10 94bf
00000390: 83d4 2b3e f4e1 a13f a2b8 bf3f 951a b7bf
000003a0: ae0b 20bf aa6f f33f 5e59 22bf dd8c 5cbd
000003b0: e91f 0dbe f83f 9dbf 7ada 56bf 37bd 57bf
000003c0: 1bb3 61bf d735 dcbe b8ae a3be 3226 cc3f
000003d0: ce3d 0540 36df a03f 1192 0f40 22aa e43f
000003e0: 1f9e d73f 0acd 5b3f 5dd6 6e3f ff29 ca3f
000003f0: 8cb7 ccbf 7a14 e2bf 8328 e8be e137 c6bb
0.5359043 0.5933145 0.22238311 0.1594027 0.6971486 -0.70977706 -0.7508111 0.5102381
-0.864016 0.30468398 -0.77663743 0.8111719 1.3962132 -0.9143251 1.5661737 0.81799054
-2.7528992 -0.2537081 0.022329474 -0.568436 -0.6455513 0.47319153 0.62804204 -0.6381443
0.08810954 0.4216553 -2.1346397 -0.10397333 0.14613906 -0.058006458 -0.22080787 -0.90512246
-2.05727 0.9757813 0.10465083 -1.0705757 0.5728631 -0.5262202 -0.1670915 0.702633
-0.27814263 -1.348048 0.51647085 0.84356344 0.19060645 0.075570606 -0.09408868 1.0148085
0.9879869 0.16989227 0.32565078 2.9986072 2.0461583 1.1692609 -1.3813137 -1.4002682
-1.5034285 0.088209294 -0.5058943 -1.1084436 0.8443016 -1.1081092 -1.5927347 -0.1516728
-0.25836983 -0.27958953 0.14904957 0.67742556 1.5240792 -1.2723347 -0.41613206 1.5009395
-0.7751112 -0.6885548 -0.83364904 -2.041628 -1.9436982 -1.6439515 -0.73107386 -1.3910724
-1.2562034 -1.5449195 -1.1443465 -0.36037102 0.15288773 -0.6906055 0.05285603 -0.37597194
-1.4968036 0.9249123 -0.10279132 1.0681497 1.2715709 -0.27786294 1.6231544 1.7982737
-0.59404916 1.645313 2.4726946 -0.04515727 0.9093425 1.603605 0.07352201 0.81030923
2.4014041 -1.8005856 0.50516534 2.4066017 0.040055215 0.94700164 1.8827238 0.6618747
1.5760883 2.5210555 0.43366823 2.4133453 2.5253928 0.093727395 0.17255747 0.029918596
-0.043719932 -0.16608219 0.15143201 0.71297085 0.03464976 0.951208 0.01526484 0.35190046
0.25909564 0.39888552 2.156425 3.2000635 -0.02467835 1.2384298 1.3060573 -0.50735724
-1.3945692 -0.83257705 0.27499393 -0.8465191 -0.017415537 -0.31048447 -1.770253 -1.3712115
1.8808746 1.6855098 -0.059447177 0.78313977 0.6507805 -0.3516432 0.080834314 -1.1689644
-2.5329187 -0.5527325 -1.8072071 -3.8346052 -0.73902065 -0.61696446 0.8242682 -0.4083941
-0.8612723 1.0418141 1.4421728 1.9554772 1.0900056 -0.99440974 -0.43264952 -1.2502633
-2.4316335 -1.1025391 -1.6063931 -1.6755261 -1.43622 -0.49537653 -2.8431876 -1.9220983
0.20807987 -0.49619848 -0.17413771 0.48375028 1.8928013 1.640092 0.6143062 -0.4114066
0.28690475 0.15002689 -1.411353 -1.7746599 -1.0744367 0.16120456 0.37526086 0.88624156
0.839982 -0.75581056 -0.6994424 0.7555005 -0.23858266 0.23938167 1.164981 -1.0005316
-2.9433057 -0.65611583 -2.3118496 -2.7657497 -1.4198762 -0.65219337 2.3008068 -1.9002633
0.26139143 1.8409357 0.03815223 0.82815164 1.1125944 0.17060186 0.7989467 0.62327677
1.348026 -0.32293728 -1.2291709 1.3338095 -0.94356173 -2.5598228 -0.042111583 -0.05922355
0.51950705 0.48741555 1.2613308 -1.1567509 0.16780286 1.264708 1.497822 -1.4304987
-0.6251782 1.9018452 -0.63417614 -0.053845275 -0.13781704 -1.2285147 -0.8392712 -0.84273094
-0.8816392 -0.43009827 -0.31969237 1.5949156 2.0818973 1.2568119 2.2432902 1.786442
1.684513 0.8585974 0.9329584 1.5794066 -1.5993514 -1.7662499 -0.45343408 -0.0060491418

layer1.0.bn2.weight f4 [16]
00000000: 2bb3 043f 0f5f a63e 2826 0a3f 3905 df3e
00000010: e00e bb3e 464f d73e 3c1b ed3e 342d f73e
00000020: e4e9 e93e 7375 ed3e 5674 d83e 23b6 f53e
00000030: 627e 033f 78fd c13e ad59 ea3e 0757 fa3e
0.5183589 0.324944 0.5396447 0.43558672 0.36534786 0.42052668 0.4630984 0.48276675
0.45686257 0.4637867 0.42276257 0.47990522 0.5136472 0.37888694 0.45771542 0.48894522

layer1.0.bn2.bias f4 [16]
00000000: ba41 0c3e 88a5 1dbd aeaa 96be 1d8b c73d
00000010: ea1b 1dbd 86dd 053d d208 a73c 8f5e 4cbe
00000020: b598 c13d f9aa d93d f086 48bd dfc1 54be
00000030: 9a05 6bbd 8c97 e7bd 73cc bb3d a804 bdbd
0.13696948 -0.03848794 -0.29427093 0.09743331 -0.0383567 0.032681964 0.020389948 -0.19957946
0.09452955 0.106283136 -0.04895681 -0.20777081 -0.05737839 -0.11308202 0.09169855 -0.09229404

layer1.0.bn2.running_mean f4 [16]
00000000: 402b 9c41 faae e7bf 0276 22c2 9204 0b41
00000010: 27b5 5441 7c60 8140 b0ad 11c1 9a31 17c2
00000020: 353e 8140 fe02 1c42 98f2 b3c1 a9c8 46c2
00000030: 22a1 dcc0 5216 fbc1 17b0 4941 57ed 19c2
19.521118 -1.8100274 -40.615242 8.688616 13.294227 4.043028 -9.104904 -37.79844
4.0388436 39.002922 -22.493454 -49.695957 -6.8946695 -31.385899 12.605491 -38.481777

layer1.0.bn2.running_var f4 [16]
00000000: 1c5e 0f45 2c51 2d44 7a4f a944 4bc6 4d44
00000010: 35bc 3444 71ef 8044 2772 e244 1ef7 8e44
00000020: 93bd 8e44 0e34 aa44 d6ca 9d44 6c00 b544
00000030: 7288 3644 d6e2 8244 2390 6044 d894 bb44
2293.8818 693.2683 1354.4836 823.0983 722.94073 1031.4825 1811.5673 1143.7224
1141.9242 1361.6267 1262.3386 1448.0132 730.13196 1047.0886 898.25214 1500.6514

layer1.0.conv2.weight f4 [16, 16, 3, 3]
00000000: c7ed 7ebd d89c 993e 872c f33e 5191 8fbe
00000010: 348d 443d 5d0a 0c3f d14d 24bf bd4b 09bf
00000020: 8c34 bcbe 8f7d 33be a686 443f 0255 48be
00000030: 16bf c73f c04b 8a3f 80f7 41bf 8c53 a43f
00000040: 98e9 9c3f 6c9c 4a3e 5bb2 1040 1580 db3f
00000050: 778a 6b3f 50ec 883f efef c6be d053 6ebf
00000060: 3a4a 64bf ca43 ccbf b225 2abf cd62 87bd
00000070: bacb 97be 6e9d a1bf 8cd4 d63e 9f3b 823f
00000080: af59 413f 68cc 2d3f 9e3c b73e edbf 3ebf
00000090: bcc2 4fbf 9017 94be 2b7c 59bf 092c 8bbf
000000a0: 80de 503f 4384 09be c532 70bf 3ef7 003f
000000b0: f968 20bf 0077 cbbe 28c9 c33d 2a29 34bf
000000c0: 34f7 6d3e 5ebf 0e3f 8253 8cbd f514 483f
000000d0: a4cd e2be f1b7 d0bf 5145 5abf 5de4 f53c
000000e0: 77ad eb3e d0c5 c2bf d35b 1fbf 4c79 833f
000000f0: 440f 75bf c7f7 43bf b607 473f 0e7d b0be
00000100: a991 77be 481d edbf e98e 513e 9743 7f3f
00000110: e9e1 2e3f 7742 ec3d 1812 87be e9d4 aa3f
00000120: 6d7d ac3e b410 49bd 450c 2a3f afd7 9f3d
00000130: 5bb9 a03e 86e7 763f 8b80 143d 8c52 debd
00000140: 720f fcbd 966f 013f 85b2 a6bc a950 cd3e
00000150: 67b7 743d 7f2e 05bf 9f14 253e cd5e 323d
00000160: 6296 a5bf d4f2 92bf 7555 6b3f 7106 9abe
00000170: 8b1d 17bf 9521 c33b b78c 56bf cdda f5bf
00000180: 1f37 133f 437c a13e 9d7a 6cbf 3d11 863f
00000190: f87a b43f 0218 c33e 73b9 7bbd e51b 1ebb
000001a0: 85f5 94bf 52f6 d9be 6bd7 293f 790a d53e
000001b0: 5917 41be ac20 c23e 4671 d53e a558 543f
000001c0: 0e13 233f e215 603f 6b23 583f a419 2d3f
000001d0: 413a 2b3f 4d1f 933f 0c80 6b3f 5819 3e3e
000001e0: 36c9 3abf c5ea 1fbf ee09 29bf 38f2 9ebf
000001f0: babc 6e3e 1cac 22bf dbb9 abbf 2549 c6bf
00000200: 84cf a3bf f3d4 75be da28 28be 382f 413f
00000210: 2f81 88be 9596 c2be 6150 513f ff94 5a3f
00000220: 4dc4 b23f ba76 b23e 4b55 d73e 640a 7f3d
00000230: 4b48 4bbf 4247 a2be 362f 3dbd d27f c53c
00000240: fec2 c9bf c719 8bbf 65c5 14c0 af5f d8bf
00000250: cded c6bf 501b 11c0 c3df 7bbf e0ae 88bf
00000260: 4e5f eabf 4532 a4bd 9033 8a3e 5d4d c33e
00000270: 4367 9d3e bbc9 cebd a728 523d 7390 5dbe
00000280: cf98 c1be 3376 20bf e16f 733f f685 773e
00000290: 8444 1c3f 4d1a 4bbf ad6c 0c3f 2438 883f
000002a0: 1b86 b1bf 0623 a5bd 81cd 953d 10a3 85bf
000002b0: fc70 e0bf 7754 07bf 9b36 b5bf da39 1dc0
000002c0: 5bcf 9ebf 4a54 c7bf 3c42 9dbf 25e5 6abf
000002d0: 9da9 29bf a8bf 5cbf ed1f f1bf 8eca 73bf
000002e0: 9043 88be ff56 a4bf e52e adbf e862 18bf
000002f0: ab81 06bf 8098 363f e5e4 b4bf 81e9 99bf
00000300: 0c73 843f 258c 57bf b0ac 3abf 4f43 95be
00000310: a051 b6bf 2c1e 3fbf 3741 4fbf c2df dcbd
00000320: 1569 a33e 0805 cabf 940b dabe f16a 2b3e
00000330: e0ef f1bf 776c 82bf d6ca 92bf a9a4 223e
00000340: a2a1 ab3f ba9f e23d 5dfa 533f f371 9c3f
00000350: d2e1 d4bd 25d0 d73f bd57 8e3f 2a0a 1ebf
00000360: f3ae 40bf 5628 1abf 2e91 98bf a320 03bf
00000370: e829 a9bf e018 11c0 2ad9 8abf 9c20 1fc0
00000380: 5a1a 18c0 cdec 02c0 4db2 cabf e6cb ebbf
00000390: cbe3 33bf 2095 64bf 0a0c 92bf 4fdb b4bf
000003a0: c1f5 bbbf 632e 91bf e1a3 3a3f c2fa 463e
000003b0: 5f77 b5bd e1e1 25bf 11c9 28bf e56e c4be
000003c0: de7d acbf f213 08bf 36ae 0b3d 2421 cebb
000003d0: c242 b43e c987 433f 5db7 06bf 2bff d13e
000003e0: 795f e03f 6154 e23c f351 b53f 7a83 3740
000003f0: e3f6 07c0 383a e8be 347a 92bf ce1d c1be
-0.06223848 0.30002475 0.4749491 -0.28040555 0.047986224 0.54703313 -0.6418124 -0.5363119
-0.3675884 -0.17528366 0.7676796 -0.19563678 1.560519 1.0804367 -0.7576828 1.2837996
1.2258787 0.19786233 2.260886 1.7148463 0.92008156 1.0697117 -0.3885493 -0.9309664
-0.8917576 -1.5958188 -0.6646377 -0.06610642 -0.2964762 -1.2626169 0.41959035 1.0174445
0.7552747 0.67890024 0.35788435 -0.74511606 -0.81156516 -0.28924227 -0.8495509 -1.0872813
0.8158951 -0.1342936 -0.9382747 0.5037726 -0.62660176 -0.39739227 0.09559852 -0.7037531
0.23238832 0.55760753 -0.06851865 0.7815698 -0.44297516 -1.6306134 -0.8526202 0.030016119
0.4603078 -1.5216618 -0.6224949 1.0271392 -0.9572642 -0.76549953 0.7774614 -0.3447041
-0.24176659 -1.8524561 0.20464672 0.9971251 0.6831346 0.11536115 -0.26380992 1.3346225
0.33689442 -0.049088195 0.6642497 0.0780481 0.31391415 0.96447027 0.0362554 -0.10855588
-0.123076335 0.5056089 -0.020348797 0.401006 0.05974522 -0.5202407 0.16121148 0.04354744
-1.2936518 -1.1480355 0.9192727 -0.3008304 -0.59029454 0.005954931 -0.83808464 -1.9207398
0.57505983 0.31540117 -0.92374593 1.0474011 1.4100027 0.38104254 -0.061456155 -0.0024125513
-1.1637427 -0.4257074 0.66344327 0.41609553 -0.18856563 0.37915552 0.41687983 0.8294776
0.6370095 0.8753339 0.84429044 0.6761725 0.66885763 1.1493927 0.9199226 0.18564355
-0.72963274 -0.62467605 -0.66030777 -1.2417669 0.23314181 -0.6354387 -1.3416094 -1.5491072
-1.2797704 -0.24007015 -0.16421834 0.75462675 -0.2666106 -0.3800551 0.81763273 0.853836
1.3966156 0.34856206 0.4205726 0.06226577 -0.79407185 -0.3169499 -0.046187602 0.024108801
-1.5762632 -1.0867242 -2.324548 -1.69042 -1.5541321 -2.267292 -0.9838831 -1.0678368
-1.8310335 -0.08017401 0.26992464 0.3814496 0.30742845 -0.10097071 0.0513083 -0.21637134
-0.37811896 -0.6268036 0.9509259 0.24172196 0.61042047 -0.79337007 0.54853326 1.0642133
-1.3869051 -0.08063321 0.073145874 -1.0440388 -1.753448 -0.5286326 -1.4157289 -2.456656
-1.240703 -1.5572598 -1.2285838 -0.91755897 -0.66274434 -0.86229944 -1.8837868 -0.9523095
-0.26614046 -1.2839049 -1.3529936 -0.5952592 -0.5254161 0.71326447 -1.4132353 -1.2024385
1.034761 -0.8419822 -0.7291975 -0.29152915 -1.424366 -0.74655414 -0.80958885 -0.10784866
0.3191611 -1.5782785 -0.42586958 0.16740014 -1.8901329 -1.0189351 -1.1468151 0.15883125
1.3408701 0.11065622 0.828039 1.2222275 -0.10394634 1.6860396 1.1120526 -0.6173426
-0.7526695 -0.602178 -1.1919305 -0.51221675 -1.3215914 -2.2671432 -1.0847523 -2.4863653
-2.3766084 -2.0457032 -1.5835663 -1.84216 -0.7026946 -0.89290047 -1.1409924 -1.4129428
-1.4684373 -1.1342281 0.7290631 0.19431594 -0.08860659 -0.6479779 -0.65931803 -0.38365856
-1.3475912 -0.53155434 0.034101687 -0.0062905718 0.35207182 0.76379067 -0.5262354 0.4101499
1.7529136 0.027628126 1.4165634 2.8673997 -2.1244438 -0.45356917 -1.1443543 -0.37718052

layer1.1.bn1.weight f4 [16]
00000000: 9417 cf3f c62f 1a40 5e72 0340 b8de 1a40
00000010: 9d7c f83f 62e9 ab3f 47ba d13f 7d82 b03f
00000020: 7160 c83f 19a7 f43f 2554 9f3f 27ee c03f
00000030: cc97 8a3f 4aec 0b40 b665 9c3f 4c57 cf3f
1.617907 2.4091659 2.0538554 2.4198437 1.9413029 1.3430598 1.6384972 1.3789822
1.5654432 1.9113494 1.2447554 1.5072678 1.0827575 2.186297 1.221854 1.6198516

layer1.1.bn1.bias f4 [16]
00000000: aa91 28be 1719 52bf 80a8 84be d794 5bbe
00000010: 626a 8ebe 12e9 263f ac88 11bd 8f33 563f
00000020: 0211 c6be a575 d3be c8f2 c03e 9b81 14be
00000030: 2f23 71be 6948 05be e87e 043f 8e8e cb3d
-0.16461816 -0.82069534 -0.25909805 -0.21443497 -0.2781554 0.6519939 -0.03553073 0.8367242
-0.3868485 -0.41300693 0.37685227 -0.14502566 -0.23548578 -0.13015904 0.51756144 0.099392995

layer1.1.bn1.running_mean f4 [16]
00000000: 8139 19bf a3a1 87c1 e8c8 e7bf 4d85 0fc0
00000010: bdbc e5c0 5b65 333d ab64 d6bf 3532 ad40
00000020: 00c1 3ac0 0e02 8dc0 ef7f 5f3e 23a6 a9be
00000030: 350a 033d 8337 24c0 1b00 10c1 9c21 77c0
-0.5985337 -16.953924 -1.8108187 -2.242511 -7.1792893 0.043797832 -1.6749471 5.412379
-2.9180298 -4.406501 0.21826147 -0.33134565 0.031992156 -2.5658882 -9.000026 -3.8614264

layer1.1.bn1.running_var f4 [16]
00000000: 3563 d341 691f 8243 b665 0d42 0d1a 1b42
00000010: c18e 7642 fb93 9941 6821 5741 301e 7742
00000020: c67c 0b42 0281 e941 3088 6941 0de1 0342
00000030: 9927 1242 0e10 0242 0435 5542 2bcf c241
26.42344 260.2454 35.349327 38.77544 61.63941 19.197256 13.445656 61.77948
34.87185 29.187992 14.595749 32.969776 36.53867 32.51568 53.301773 24.351156

layer1.1.conv1.weight f4 [16, 16, 3, 3]
00000000: 3484 eebd 2688 6e3f aec4 65bf 095f cd3d
00000010: 3e39 333f 81ff a4bf e4a0 1a3f 700f 0d3f
00000020: 45e2 c2bf f676 efbf 9f34 40be 5014 0e40
00000030: df56 2cc0 522b d4bf fe0d a63e 3aa8 9bbf
00000040: 502c 80bf 7db2 1bbf 4122 f7be 19c7 26bf
00000050: ad15 09bf 2909 b33f 5559 923f 313d 87bd
00000060: 9ffe 923a cf67 0abf 6099 d3bf 5c0f 00c0
00000070: ad3f 91bf dbcf 0c40 168d a2bf c7b4 a9bf
00000080: 5b90 433f 41c2 ec3e 2d0b 94bf ca92 74be
00000090: 9def 3b3f d4a8 39be cfc6 fabe 9975 10bf
000000a0: 82a2 b4bf d216 63c0 3197 c3bf 9d6e 85bf
000000b0: ef8c adbf 6e90 b73f d8ed d33f 4c56 853f
000000c0: 5b58 073f 1b59 093f 28c7 e4bf 6d4a 7cbf
000000d0: c418 6abf 2f98 26c0 e5e3 efbd 8c84 323f
000000e0: 3dca abbe 93cc a2bf 5b1b 29be e402 d7bd
000000f0: f9b0 b43f de49 3440 dcbd 6940 34e0 1b3e
00000100: 3406 4f3f 5cbc 9b3f 0512 ac3e 8d1c 1e3f
00000110: fc44 9b3f 17b4 ca3e 9021 91bd 7e2d 593e
00000120: 03f8 68bf 8f5c 9fbf 3cf1 9f3e ceb8 2cc0
00000130: 1fec fdbf 3cad 32be 5e59 2cc0 7e33 9cbf
00000140: 7604 c43d 4096 e0bf 985f 6a3f 17a4 0840
00000150: 7500 6abe 2501 8c3f 217a 313f ecc0 2c3f
00000160: b4cd 1d3f 84f1 b7bf a852 e6bf b111 b7bf
00000170: de79 d3bf db6e a93d 94e7 eebe be50 81be
00000180: 5268 f33f 6245 673f a01a a83f 1521 99bf
00000190: 2d06 7abd c2dc 533e b097 17c0 0bb5 01bf
000001a0: b8cb b43f fd3b 63bf f571 1a3f 15b3 2440
000001b0: 51eb c13e 5645 adbd 8f77 97be f011 94bf
000001c0: a15c 8abe 389f 29be 77e8 9fbf 8b84 87be
000001d0: f1a8 9ebe 84fa e1bf abd7 12c0 4981 24bf
000001e0: d4f5 3d3f 78de 87be 00fa 083f a28f fabe
000001f0: ae33 393f d0f7 7b3f b2c3 c93e 7744 9cbc
00000200: ece3 83be cfa0 0540 01b8 aa3f b007 613f
00000210: 2993 8d3f d5fd ba3e c355 4c3f 102f 133f
00000220: f11d d43f d125 f43f 04e0 b53d b664 e63e
00000230: 972c c6be b613 cfbd 52b2 70bf ed89 dcbf
00000240: 3f7b 55bf d0ce bbbf 42b5 b33f bbe5 25c0
00000250: f81c 94bf 2117 e03f 95c2 b9be 9943 0e3e
00000260: cf76 d93e 7c5f cf3f 045e 74be 0d65 c6bf
00000270: 01b8 323f fdb8 043e 4176 763e 3e6d bcbd
00000280: 0aa8 e63c e5c3 6e3f 3bf7 9cbd 191b 94bf
00000290: 1414 cf3d 7745 d7bf 7542 edbe aef1 893f
000002a0: d93c 303c 9a40 fc3f f15e 953f ac70 853f
000002b0: 868f af3f ebd6 90bd e69c 72bf 7c92 2cbf
000002c0: fcee 79bd 5e55 5cbf 187a 09bf e8d8 653f
000002d0: 4251 d6be 9a32 9cbb 8257 f63f 109b a9bf
000002e0: 9f37 65bf fc69 c13f 7f6c 66bf a2d8 3a3f
000002f0: f33f d13f 67c1 a9bf 3c00 1ac0 8252 1fbe
00000300: 69ff 13bf c82e 0cc0 5436 b63c 5d07 3ebf
00000310: 8a83 60bf 7e27 9cbe 828e a23e be31 af3e
00000320: 0865 0f3f ee08 5bbe a915 cabf 4271 1cbf
00000330: 452b 4a3f 758b 6fbf 3c86 19bf b65a 60bf
00000340: 1b2c 8cbf e9ba 01c0 ced8 3dbf 36b4 bdbf
00000350: c58b 03bf 1e90 53be 3128 a1bf 37a9 ccbe
00000360: 71bf 393f fc85 b3bf b3b8 4cc0 cc31 333e
00000370: 00a0 ddbe b5b2 cbbf 9684 70be 65a2 82bf
00000380: f6de eabf 6a07 2d40 3df5 7b3f 8ad4 0ebf
00000390: 6786 cc3f db51 9ebf ebe0 ddbf 1b2e b43f
000003a0: ed9d 4cbf 4a27 48bf 40fa 0ebf 39d2 d03f
000003b0: 50c5 a83f 7a91 5dbb 9e34 6e3f a589 833f
000003c0: 5299 40c0 f536 b6bf 4c37 10bf da1f 70bd
000003d0: 8312 74c0 45e2 643f 40f2 75bf 54be 19c0
000003e0: bf60 9a3f 9c92 fabe 080b fcbf 8ef6 d53e
000003f0: 11a3 99bf 7a7d 163f 7527 873f a0ca 9ebf
-0.116463095 0.93176496 -0.89753234 0.10027892 0.7000922 -1.2890474 0.6040175 0.5510168
-1.5225302 -1.8708179 -0.18770073 2.2199898 -2.6928022 -1.657572 0.3243255 -1.2160714
-1.0013523 -0.60819227 -0.4826832 -0.6514755 -0.535487 1.398717 1.1433512 -0.06603468
0.0011214799 -0.5406465 -1.6531181 -2.0009375 -1.1347557 2.2001865 -1.2699306 -1.3258294
0.76392144 0.46241954 -1.156591 -0.2388412 0.73412496 -0.18130809 -0.48979804 -0.5642944
-1.4112093 -3.5482678 -1.5280515 -1.0424381 -1.3558635 1.4340951 1.6556959 1.0416961
0.52869195 0.5365159 -1.7873278 -0.98551065 -0.9144404 -2.6030385 -0.11713389 0.697335
-0.33552733 -1.2718681 -0.16514342 -0.10498598 1.4116508 2.8170085 3.652213 0.15222245
0.8086884 1.2166858 0.33607498 0.61762315 1.2130427 0.39590523 -0.0708648 0.2120876
-0.91003436 -1.2450122 0.31238735 -2.6987796 -1.9837683 -0.17448896 -2.6929545 -1.2203214
0.09571163 -1.7545853 0.91552114 2.1350152 -0.22851737 1.0937849 0.6932698 0.67481875
0.61642003 -1.437058 -1.7993975 -1.4302274 -1.6521566 0.08273097 -0.46661055 -0.25256914
1.9016211 0.90340245 1.3133125 -1.1963221 -0.061041046 0.20689681 -2.3686333 -0.50666875
1.412467 -0.8876341 0.60330135 2.5734303 0.37874845 -0.084604904 -0.29583403 -1.1567974
-0.27023795 -0.16564643 -1.2492818 -0.2646831 -0.30988267 -1.7654576 -2.2944133 -0.64259773
0.7420323 -0.26536918 0.5350647 -0.48937708 0.7234448 0.98425007 0.39407116 -0.019075615
-0.25759828 2.08794 1.3337404 0.87902355 1.1060535 0.36521783 0.7981836 0.57493687
1.6571637 1.9074041 0.08880618 0.4499871 -0.38705894 -0.101111814 -0.94022095 -1.7229592
-0.83391184 -1.4672489 1.403969 -2.5921466 -1.157134 1.7507058 -0.36281267 0.13892974
0.42473456 1.6201015 -0.23863989 -1.5499588 0.6981202 0.12961192 0.24068548 -0.09200524
0.0281563 0.9326766 -0.07664343 -1.157077 0.101112515 -1.6818074 -0.46339765 1.077688
0.010756695 1.9707215 1.1669599 1.042501 1.3715675 -0.07072242 -0.9477066 -0.6741102
-0.06101893 -0.8606776 -0.53701925 0.897841 -0.4185887 -0.0047667744 1.9245455 -1.3250446
-0.89537996 1.5110469 -0.900093 0.72986805 1.6347641 -1.3262147 -2.4062643 -0.15558818
-0.578116 -2.1903553 0.022242703 -0.74229985 -0.8770071 -0.3049888 0.3174935 0.34217638
0.56013536 -0.21390125 -1.578786 -0.6111032 0.78972274 -0.9357217 -0.5997045 -0.87638414
-1.095096 -2.027033 -0.7415894 -1.4820621 -0.51385146 -0.20660445 -1.259039 -0.3997285
0.7255774 -1.4025264 -3.1987731 0.17499465 -0.43286133 -1.5913912 -0.23488078 -1.0205809
-1.8349292 2.7035775 0.9842108 -0.5579306 1.5978516 -1.236873 -1.7334265 1.407657
-0.79928476 -0.7818495 -0.558506 1.6314155 1.3185215 -0.0033808635 0.9304904 1.0276381
-3.009358 -1.4235522 -0.56334376 -0.058624126 -3.8136299 0.8940776 -0.9607277 -2.4022417
1.2060775 -0.4893998 -1.9690866 0.4178967 -1.2002889 0.5878521 1.0558916 -1.2405586

layer1.1.bn2.weight f4 [16]
00000000: 5bac c93e e2a9 073f d0d1 fa3e e4c8 f33e
00000010: 2757 063f 8374 e03e d5ef 093f b3e5 033f
00000020: c3ba d63e 9441 f23e 3945 113f fd52 0e3f
00000030: 600b f13e 5689 0a3f 8d4b 023f f5c8 e33e
0.3938931 0.52993596 0.489882 0.47614205 0.52476734 0.4383889 0.5388158 0.5152237
0.41939363 0.47315657 0.5674625 0.5559538 0.4707899 0.5411581 0.5089653 0.44489256

layer1.1.bn2.bias f4 [16]
00000000: 2fa7 263e 2bf7 9cbe 5e9d fcbd 3abd 4fbe
00000010: 6af6 23be 581d 90bc 2e7f 90be e45a 70be
00000020: a6c1 b7bd 4f42 e5bc 4380 6bbe 6338 813c
00000030: 34b8 b23d b790 72bd c8a6 06be 3532 62be
0.16274713 -0.30657324 -0.12334703 -0.20287028 -0.16011968 -0.017592117 -0.2822203 -0.23472172
-0.089724824 -0.02798572 -0.22998147 0.015773958 0.0872654 -0.059220042 -0.1314956 -0.22089465

layer1.1.bn2.running_mean f4 [16]
00000000: 34ec 97c0 8b70 42c1 ebde 69c1 426d 25c1
00000010: c12b 85c1 b4e9 f641 945d 0ac1 d25d 81c1
00000020: 9028 b2c1 193e 1540 0a0c 2ec1 75ff a9bf
00000030: a799 bdc1 4dc7 a2c1 53c5 b1be 8286 79c1
-4.7475834 -12.152476 -14.616923 -10.339174 -16.646364 30.864113 -8.647846 -16.17081
-22.269806 2.3319151 -10.877939 -1.3281084 -23.700026 -20.347315 -0.3472086 -15.595339

layer1.1.bn2.running_var f4 [16]
00000000: 1740 ed43 1c76 4a44 5d5c 0f44 0c7d e943
00000010: 690f 6a44 d568 4f44 5f71 2444 531a ff43
00000020: e131 da43 107e 2244 117a ab43 cfde 0844
00000030: 56b7 f243 f7b6 0b44 d35a 1544 bbb1 9543
474.5007 809.84546 573.4432 466.97693 936.2408 829.638 657.7714 510.20566
436.38968 649.9697 342.95364 547.4814 485.4323 558.8588 597.4191 299.38852

layer1.1.conv2.weight f4 [16, 16, 3, 3]
00000000: 5e27 5a3f 625e 32bf 72e9 07bf 6035 973f
00000010: df1a df3e f515 7d3f 30d0 9b3e 4d4b b2be
00000020: 8842 cc3e 5195 b03f 6337 cb3e 7b8b 59bd
00000030: 117c 303f 8c16 3e3f 0940 7fbe 32e4 f1be
00000040: 50a0 bb3f 2605 0c3f c113 853f 59b1 4a3e
00000050: 4565 c8be 1140 c7be 6ea5 1ebf 49de 303e
00000060: 8a85 86bf 9df9 5a3e 5a3d 9a3e 18a1 893f
00000070: edb0 653f 078a 98be 3cc3 fb3e 74f8 ed3e
00000080: a47f 73bf eafb 9d3f 06ab d03f d7ff 623f
00000090: d240 09bf 18e0 ab3e 8d43 1140 94c2 d4be
000000a0: 71bd b6be 7322 42be c058 15be bc36 1cbf
000000b0: cb68 a1be b148 023f 990b 013f 3794 633f
000000c0: 11e8 14bf 57f5 1dbe 6ad9 69be b0dd f6be
000000d0: 33bc acbe 0bd9 76bf 147a 32be 19b0 4ebc
000000e0: afcf 0940 fe58 9e3f 415f 003f c3cf d53f
000000f0: dcaa 6f3f 6fdb 093f 409f a93f cec9 27be
00000100: 0df8 88bf cd6c 8fbf 8e7e 8b3e c223 8dbf
00000110: 4fef babf da5c 963e 5445 0cbf beb4 9dbe
00000120: 41a8 68be c9d8 98be 1db7 5ebf bf51 3d3f
00000130: 14a4 91bd b9c1 84bf 4291 a23f fc6c 463d
00000140: edee 55bf a863 113f ffa5 4a3f 5e26 ae3f
00000150: 1296 b73e c7d0 4e3e 86aa 203e 562a 2bbf
00000160: ea5b 20bf 749a bebe ccc5 3fbe ecf9 e6be
00000170: f6f5 6ebf 2fd5 133e 06dc 45be 6ecc b3bd
00000180: 03cf bbbf 7b6b 9cbe 5dc0 57bf 0512 b1bf
00000190: 0f2c 883e 2e72 8d3f 31ff dbbf 702a 553d
000001a0: c704 cc3e 1882 37c0 73c7 14bf 0c82 9bbe
000001b0: 3a4f debd 68da 013f e6db 68bf 8fe8 123f
000001c0: 6390 e53f 940a a43f 71a0 bebe b7ab a03e
000001d0: 37b7 04bf 65a1 72bf 2ad0 39bd 623b 83be
000001e0: 4464 d03f d36e 3d3f 90eb 81be d0e2 503f
000001f0: 7b66 263f dcd4 0ebf 8bd9 64be 65d6 023f
00000200: de46 e33f d6d6 43bf 5c29 87be 0bac 6cbe
00000210: 7637 253f fdf6 4f3e ee34 d03e 6772 88bf
00000220: 9a06 28be 6989 47be 9256 9fbe 7067 34bf
00000230: 359a b5be 31a6 9a3f 53be 83bd a4f5 b83f
00000240: 0233 87bf cbca 3cbe ffca 493f 539b 75bf
00000250: 8927 2dbf 9f80 9fbc e0c8 ffbf 30bc c2bf
00000260: 8c67 bbbf 2154 1abf b8ec 53bf 6816 fcbe
00000270: 3517 2bbf 8714 fabe e0ed 39be 67b5 c03e
00000280: f39b 8f3e 9423 71be 119a 103f 905d a33f
00000290: 1fdb cd3f e942 eb3e 395f 233f d518 db3f
000002a0: 21b4 ca3e 5294 713f f0a6 ed3f 09c7 e8bd
000002b0: 6bcc b23f a83d be3f b5a0 ed3e 3557 6a3f
000002c0: a630 183e 1b65 793f 6a80 0e3f 5abd a63d
000002d0: 59ab 0abe 66ed 9a3e 3fc0 b43f 54b6 dabe
000002e0: a18f 66be bff9 3bbf c82a 30bf 1928 43bf
000002f0: d922 bcbf 3726 d33e 8b08 15bc 20d7 113e
00000300: 413c a63e 2485 3c3e 766b f0be 0f17 b3be
00000310: d094 93bf 9b84 b8bf 9353 793e 6216 683f
00000320: 7ffa 883f 9d9d b43e 824d 1c3f 4dc3 753f
00000330: b590 623f e76f 533f 7019 153f b2a0 f73e
00000340: f244 dcbd 9eeb b73e b9f4 55bf ae21 45bf
00000350: 6515 9b3e 53a2 5f3e 3b3c 32bf eefe c4be
00000360: f41e d6bf b448 84bf b193 9abf a98c 2fbf
00000370: de30 71be dc14 a8be 4e5a 19bf 040b 6a3f
00000380: 4b97 fa3e 737d c6be 94b3 76bf a53f 20bf
00000390: 4f16 2e3e c8a6 74be af8f 603e 4885 b5be
000003a0: 140b 5ebf f475 4abf ee79 de3e 5e31 a43e
000003b0: 2243 003d c94f fa3e 5999 a33e 7656 533f
000003c0: 19f6 0d3f f379 a63e fa51 033f e6ec 0ebf
000003d0: 7691 12bf 5b92 aabe eda1 a33e 2d56 983c
000003e0: 734f de3e db3b e9be de20 23bf 882d 32bf
000003f0: 222e cbbe 5f31 2dbe 4164 80bf e857 163f
0.8521632 -0.69675267 -0.53090584 1.1813164 0.4357519 0.9886163 0.30432272 -0.34823075
0.3989451 1.3795568 0.39690694 -0.053111535 0.6893931 0.74253154 -0.24926771 -0.47244412
1.4658298 0.54695356 1.0396653 0.19794215 -0.39139763 -0.38916066 -0.61971176 0.17272295
-1.0509503 0.21384282 0.30124933 1.0752287 0.8972309 -0.29792807 0.4917239 0.46478617
-0.9511664 1.2342503 1.6302192 0.8867163 -0.5361453 0.33569407 2.269748 -0.415547
-0.35691407 -0.18958454 -0.14584637 -0.6102102 -0.31525263 0.5089217 0.5040832 0.8889803
-0.58166605 -0.15425621 -0.22836843 -0.4821601 -0.33737335 -0.9642493 -0.17429382 -0.012615227
2.153301 1.2370908 0.50145346 1.6704029 0.93620086 0.53850454 1.3251724 -0.16385576
-1.0700699 -1.1205078 0.2724499 -1.1026537 -1.4604281 0.29367715 -0.54793286 -0.30801958
-0.22720434 -0.29852894 -0.8699816 0.7395286 -0.071113735 -1.037162 1.2700579 0.04844378
-0.83567697 0.5679269 0.7915954 1.3605459 0.35856682 0.2019683 0.1569005 -0.66861475
-0.6264025 -0.37227213 -0.18727797 -0.4511255 -0.93344057 0.14436792 -0.19322214 -0.08779226
-1.467255 -0.3055075 -0.842779 -1.3833624 0.26596114 1.105047 -1.7187253 0.052042425
0.39847395 -2.8673153 -0.58116835 -0.30372655 -0.10854955 0.50723886 -0.9096054 0.57386106
1.7934688 1.2815728 -0.37231782 0.31381008 -0.51842064 -0.9477752 -0.045364536 -0.25631243
1.6280599 0.7399723 -0.25375032 0.8159609 0.6500012 -0.5579355 -0.22348611 0.5110839
1.7756002 -0.7649969 -0.26398742 -0.23112504 0.6453775 0.20309062 0.40665382 -1.0659913
-0.16408768 -0.19486012 -0.31120735 -0.70470333 -0.35469213 1.2081968 -0.06432786 1.4449964
-1.0562441 -0.18436734 0.7882537 -0.9594013 -0.6763845 -0.019470511 -1.9983177 -1.521368
-1.4640975 -0.6028462 -0.8278308 -0.49235845 -0.66832286 -0.48843786 -0.18157148 0.376384
0.28048667 -0.23548728 0.56485087 1.2762928 1.6082495 0.45949486 0.63817173 1.7116953
0.39590552 0.94366944 1.856657 -0.11366088 1.3968633 1.4862566 0.46411672 0.9153932
0.14862308 0.974199 0.55664694 0.08141585 -0.13541926 0.30259246 1.4121169 -0.4271723
-0.22515728 -0.7342796 -0.6881528 -0.7623306 -1.4698135 0.41240093 -0.009096275 0.1424222
0.32467845 0.18410164 -0.46956986 -0.3497853 -1.1529789 -1.4415468 0.24348287 0.90659153
1.0701445 0.352765 0.6105577 0.9600113 0.88502055 0.82592624 0.5824194 0.48364788
-0.10755338 0.3592195 -0.8357654 -0.77004516 0.3028976 0.21839266 -0.69623154 -0.38475746
-1.6728196 -1.0334687 -1.2076322 -0.68574005 -0.23553798 -0.32828414 -0.5990342 0.9142306
0.48943552 -0.38767585 -0.96367764 -0.62597114 0.17000698 -0.23891747 0.21929811 -0.35453248
-0.86735654 -0.7908623 0.434524 0.32068914 0.031314023 0.48888996 0.31952932 0.82553804
0.5545364 0.32514915 0.5129696 -0.5583023 -0.57253206 -0.33314785 0.31959477 0.01859578
0.4341999 -0.4555348 -0.63722026 -0.69600725 -0.39683634 -0.16913365 -1.0030595 0.58727884

layer2.0.bn1.weight f4 [16]
00000000: f8d1 d93f 6789 1240 d7d7 c13f 2da1 d73f
00000010: d818 e13f 077b df3f d79c a03f a975 933f
00000020: c867 db3f 909a 0f40 e033 d43f e58c c83f
00000030: ddac af3f 54bf ee3f 4ce0 a73f 2f58 e23f
1.7017202 2.2896364 1.5143994 1.6846062 1.7585707 1.745942 1.2547864 1.1520282
1.7141047 2.2438087 1.6578331 1.5667998 1.3724629 1.8652139 1.3115325 1.7683161

layer2.0.bn1.bias f4 [16]
00000000: d296 893e db53 9bbb faab e03d c4b8 92be
00000010: ec8f 98be 62e3 203f 0047 1d3f 85c7 aa3f
00000020: 828a 9abd ebcf 4ebe f33f 883f c5fa e53e
00000030: c6c7 33bc 2ed6 d9be ef58 043f 8965 f1be
0.2687288 -0.004740221 0.10970302 -0.2865659 -0.29797304 0.6284696 0.6143646 1.3342139
-0.075459495 -0.20196502 1.0644516 0.44917884 -0.010972923 -0.4254622 0.516982 -0.47147778

layer2.0.bn1.running_mean f4 [16]
00000000: 7f88 1d3f 415e 9cc1 1331 a9be 548b 21c0
00000010: 300d 26c1 00b0 923e e0c6 063f 7846 fd40
00000020: 60b5 a3c0 8765 d7c0 f0f2 0440 e4e0 12c0
00000030: 7b76 8abf cc7d 9ac0 5eb6 3cc1 8a0f aec0
0.615364 -19.546022 -0.33045253 -2.524129 -10.37822 0.28649902 0.5264721 7.914852
-5.1158905 -6.7311435 2.0773277 -2.2949762 -1.0817407 -4.827856 -11.794523 -5.439397

layer2.0.bn1.running_var f4 [16]
00000000: 8674 2642 8595 ab43 0847 6a42 2d00 6042
00000010: b4fb 9942 7977 3a42 7e84 1d42 7570 4742
00000020: ac4b 7042 d4d5 1e42 a1b1 6842 77ba 8142
00000030: 8b14 7242 2e3c 6f42 784b 9942 fe0a 4e42
41.613792 343.16812 58.569366 56.00017 76.99161 46.616673 39.379387 49.85982
60.0739 39.708817 58.173466 64.86419 60.52006 59.80877 76.6474 51.510735

layer2.0.conv1.weight f4 [32, 16, 3, 3]
00000000: 5d95 2fbf 87f5 b5bf 0d23 83bf 3460 afbf
00000010: 97d1 c9bf 6ed6 d7bf 2d1c 253e 9367 dabe
00000020: 362f 96bf f782 33bf 3bfb ec3e 4cb2 b23f
00000030: 8cac bc3d be30 49be a2fe 103d 6a8c ee3e
00000040: 2ecd aabe 26f0 093e a861 cabe 15f7 bdbd
00000050: 15cc 82bd 98f7 993f 8783 813f a62f 853d
00000060: def1 0e40 9da6 b83f 5820 9d3e 6a57 a8bf
00000070: 1173 003d b934 a03e 7ec5 563e a12a ce3f
00000080: fea9 d83f e62c 733e efb2 a23e 2bbe b03f
00000090: ce47 8140 eee6 6840 8d08 3840 22bf b53f
000000a0: 05e5 a43f 65bd 2940 07b0 853f 394e b7be
000000b0: 66aa 8a3f 3687 fcbe c3cd 3bbf 5939 ffbe
000000c0: 1356 28bf 6ed5 71bf 4200 60bf 1c96 9bbf
000000d0: 10c4 a0bf aea4 43bf 2174 6bbe c7e6 c8bf
000000e0: 040e 59bf b62e c8bf fc1a b33e f0b3 16be
000000f0: c958 1cc0 2799 9f3e 8ef4 e73c c581 71bf
00000100: 5ed6 0dbf 17f2 f43f 6e95 34bf 9f13 37bc
00000110: 0b2f a73f 5f38 81bb bf6f 8bbf b612 9bbf
00000120: 1bfa e23f f9f5 cc3f b889 cc3f 2382 3e3d
00000130: b9e7 6b3f 73e7 943f 892f 8cbf d201 4ebe
00000140: 968a 45bf 30de fc3f 7ca9 fd3f bd44 de3f
00000150: 0bd6 b33f 6dd7 4340 2b93 1e40 1c95 533e
00000160: 96ce 983f 0df3 5d3d a557 0540 da50 6d3f
00000170: 937a d33d f67e bf3f a2b5 20be db82 d9bf
00000180: 829b 6bbf cbaf 6bbf f7f7 81bf 21cd 7b3f
00000190: 2339 b93f 6bce ac3b 907b 44be c112 ba3f
000001a0: 41aa 763e efe4 643f 0f85 ba3f c7a5 2cbd
000001b0: 30f5 c7be 58d5 5dbc 8b48 a8bc f5ca 15bf
000001c0: 3b16 71be 714b d7bf 6ada 413f a462 823f
000001d0: 0453 8cbf 529d babf 0d7a d7bf 8b83 d7bf
000001e0: 43df 093f d4dd 1ebf d47c 2cbf 10d8 1140
000001f0: 02ca 8b3f 2b75 a0be 85c0 c03f 0332 1d3f
00000200: 2c14 323e 60dd 4fbf fdf2 ecbf 6bfe 3dbf
00000210: a756 773f eea0 803f 09eb 3240 d90b 76bf
00000220: f623 c7bf 2823 b73f 6f17 de3e 00da 533f
00000230: 1c92 3040 0747 2cbd 1621 f1be 0778 953f
00000240: a926 c2bc 7d97 56bf 2478 15be f878 edbf
00000250: 2242 11c0 1bb8 69bf e2ed a1bf 3d59 b0be
00000260: e3d4 2f3f 2b5e 013e 80af 423e ffb0 c73f
00000270: f45c 1e3f 1bc3 bc3e afa2 b03f 1e1e 8c3f
00000280: a1a2 ff3e 61dd 1d3f 8288 4abe 0921 43bd
00000290: d6c0 1ebe 1254 b6be e1ac febe c590 95bf
000002a0: c3cc 1dbf 6a93 6dbf 803f 8abf 9595 e6bd
000002b0: 20ef 9a3e e40d 1f3f 94f5 74be cf8e f7be
000002c0: 52e5 953e af2f 353f b997 12c0 2b7d 2fc0
000002d0: ff80 c13f c4ba d1bf 4af4 41c0 85f8 f13f
000002e0: 2e1c febf e20c 75c0 554a 703e 162e 05c0
000002f0: cf42 25c0 17f3 eabe f05a ebbd b028 f33f
00000300: 9508 813f ba05 85bd 5637 0a3f 7f4f 6f3f
00000310: b329 013c 9c61 333e 7db0 7dbe c684 b03c
00000320: ea38 1bbf a796 33bd cd6f 113e 5938 fbbe
00000330: a253 383f 8948 de3c 1137 a3bf bc82 b63e
00000340: 6940 0640 f273 853f 8513 453f 9209 ef3f
00000350: 0da2 b03e c63e cb3f 7441 fc3f 083a 993e
00000360: 3145 f3bf 4b99 89bf 9dcb b7bf 11b2 23c0
00000370: 0f94 82be 9b1d 953f a16d 2fc0 9903 1fbd
00000380: 60c7 713f b2a6 17bf ae91 6cbe daaa 49be
00000390: 5dbc b03e 5a9c 0940 26f3 3340 adc0 b43e
000003a0: dcd2 fc3f 702e 4340 0fcd c33f 9ca2 cbbe
000003b0: d562 98bf 9c56 603f 3498 62bf e18b afbf
000003c0: 80b2 ad3f 65b4 98bf ca72 08c0 2353 8a3d
000003d0: ace6 bc3e 1a72 a1bd d41d ecbd b97f c23e
000003e0: 1e42 ed3e d1cd edbf 33c1 34bf ac9b 083f
000003f0: 60ac 51bd a4d7 ac3f c084 35bf bdd1 79bf
-0.68587285 -1.4215554 -1.0245072 -1.3701234 -1.5767087 -1.6862314 0.1612403 -0.42657146
-1.1733158 -0.7012171 0.46285424 1.3960662 0.09212598 -0.196475 0.035399087 0.46591502
-0.33359665 0.13470516 -0.3952763 -0.09275643 -0.06386582 1.2028685 1.0118264 0.06503229
2.2335124 1.4425846 0.3068874 -1.3151677 0.031359736 0.31290224 0.20973775 1.6106759
1.6926877 0.23747596 0.3177714 1.3808035 4.040015 3.6390948 2.875522 1.4198954
1.2882391 2.6521847 1.0444344 -0.35801867 1.0833251 -0.49321908 -0.7336084 -0.4984844
-0.6575634 -0.9446629 -0.87500393 -1.2155185 -1.2559834 -0.76423156 -0.22993518 -1.5695428
-0.8478701 -1.5639255 0.34981525 -0.14717078 -2.442919 0.31171533 0.028314855 -0.9433864
-0.55405223 1.913638 -0.7054051 -0.011174112 1.3061231 -0.0039434875 -1.0893477 -1.2115085
1.7732576 1.6012565 1.5979528 0.046510827 0.92150456 1.1633133 -1.0952007 -0.20117882
-0.7716459 1.9755306 1.9817348 1.7364727 1.4049696 3.0600235 2.4777324 0.2066235
1.1938045 0.05418687 2.0834744 0.92701495 0.103261136 1.496062 -0.15694287 -1.6993059
-0.9203416 -0.92065114 -1.0153798 0.98359877 1.4470562 0.0052736304 -0.1918776 1.4536973
0.24088384 0.89411825 1.4571856 -0.042150285 -0.3905425 -0.013539635 -0.020542404 -0.5851281
-0.23543637 -1.6819898 0.757239 1.0186353 -1.0962834 -1.457926 -1.6834122 -1.6837019
0.53856295 -0.6205723 -0.6737797 2.2788124 1.0921023 -0.31339392 1.5058752 0.61404437
0.17390507 -0.81197166 -1.8511654 -0.74216336 0.96616596 1.0049112 2.7955954 -0.9611183
-1.555785 1.4307604 0.43377253 0.82754517 2.7589178 -0.042059924 -0.47095555 1.1677254
-0.023700075 -0.838249 -0.14596611 -1.8552542 -2.2696614 -0.9129655 -1.2650721 -0.34443083
0.68684214 0.12633578 0.1901226 1.560089 0.61860585 0.36867604 1.3799647 1.0946691
0.49928764 0.6166592 -0.19778636 -0.047638927 -0.15503249 -0.35611016 -0.4974127 -1.1684805
-0.61640567 -0.9280306 -1.0800629 -0.11258999 0.30260563 0.6213057 -0.23921806 -0.48351142
0.2927652 0.70775884 -2.2905104 -2.7420146 1.5117491 -1.6385121 -3.0305352 1.8903967
-1.985235 -3.8289113 0.23465855 -2.0809379 -2.5822027 -0.45888588 -0.11491954 1.8996792
1.0080744 -0.06495233 0.53990686 0.93480676 0.007883477 0.17517704 -0.24774356 0.021547686
-0.6063372 -0.043844845 0.14202805 -0.49066427 0.72002614 0.027134197 -1.275118 0.35646617
2.0976813 1.0426009 0.7698291 1.8674796 0.34498635 1.5878532 1.9707475 0.29927087
-1.900549 -1.0749906 -1.4359013 -2.5577433 -0.25503585 1.164966 -2.7410662 -0.03882179
0.9444485 -0.5923873 -0.23102447 -0.19694081 0.3451871 2.150168 2.8117156 0.3530325
1.9751849 3.0497093 1.5296954 -0.397725 -1.1905161 0.87632155 -0.88513494 -1.3714563
1.3570099 -1.1930052 -2.1320062 0.06754138 0.3689474 -0.07883091 -0.11529127 0.3798807
0.46339506 -1.8578435 -0.706073 0.53362536 -0.05118978 1.3503308 -0.70905685 -0.9758566

layer2.0.bn2.weight f4 [32]
00000000: 25c0 293f c6d9 3f3f 17ee 1f3f 736d 0c3f
00000010: 3f3f 473f 9149 2d3f 9e21 283f 39ab 333f
00000020: 7318 293f 4dda 733f 4305 463f 57b2 073f
00000030: c235 3a3f 4b71 233f 98ee 333f d928 353f
00000040: 0c8a 2d3f 82ff 373f 5dea 293f c6a5 103f
00000050: c8ec 253f 312a 463f ad5c 253f 9c65 313f
00000060: 9a78 1a3f 921b 5e3f 4f53 5a3f 2d46 323f
00000070: 97d4 363f 5aa8 513f 8183 303f 6570 4f3f
0.66308814 0.7494167 0.6247267 0.54854506 0.7783088 0.6769038 0.65676296 0.7018314
0.6605293 0.95254976 0.7735178 0.530065 0.7273828 0.63844746 0.7028594 0.70765454
0.6778877 0.7187425 0.66373235 0.5650295 0.64814425 0.7740813 0.64594537 0.6929567
0.60340273 0.8676082 0.8528337 0.6963833 0.71418136 0.8189751 0.6895066 0.81030875

layer2.0.bn2.bias f4 [32]
00000000: 28d4 c4be fbd4 8a3d ffa7 2c3e 53e5 7cbd
00000010: ba51 2bbe 28f7 a53c 2cf9 28bd 464a 323d
00000020: a63c fabe ffff 0ebe 78d6 55be 02fc 1c3e
00000030: f0f8 2d3e 2caf b2be 5449 aebe efbe 643e
00000040: e4bf 2dbe c73e 5abe 5adb bbbc dafc c7bd
00000050: 87bf d53d 26a3 96bd 8f71 e73e 6255 2cbe
00000060: 1416 ab3e a2a3 e2be 4c1c 90be cb74 93bc
00000070: 6c2c ea3e b2a4 a2be 5777 ef3d 54a6 e33d
-0.38443112 0.06778904 0.1686096 -0.061742138 -0.16730395 0.020259455 -0.041253254 0.043527864
-0.48874396 -0.13964842 -0.20882595 0.15330508 0.16989493 -0.3489927 -0.3404032 0.2233846
-0.16967732 -0.2131301 -0.022931743 -0.097650245 0.104369216 -0.07355337 0.45203826 -0.16829446
0.33415282 -0.44265467 -0.2814659 -0.018000027 0.45737016 -0.31766278 0.11692684 0.11115709

layer2.0.bn2.running_mean f4 [32]
00000000: a116 4f41 060a fa3f 84fa 3dc0 855f 8e40
00000010: 4160 fbc1 4fce 9e40 c548 eac1 2138 d5c1
00000020: 78e0 5b41 5491 56c2 3ce0 bbc1 f8fd ea41
00000030: d1c7 4cc1 0430 f341 98e8 89c1 4885 33c1
00000040: 9d9a 20c0 6a6b b341 1223 5540 3d1f 3541
00000050: 5aab 9ec0 5c1e 9241 e796 d041 6b5c f241
00000060: a120 afc1 65b2 5dc2 36b0 c3c1 82f3 e93f
00000070: b1b1 41c1 8aaf 6741 bda5 62c2 5fea a9c1
12.943025 1.9534309 -2.9684153 4.44916 -31.421999 4.962684 -29.285532 -26.652407
13.742302 -53.641922 -23.48449 29.374008 -12.798783 30.398445 -17.238571 -11.220039
-2.5094368 22.427448 3.3302655 11.320127 -4.958417 18.264824 26.073683 30.295126
-21.890932 -55.424213 -24.46104 1.8277438 -12.105882 14.480356 -56.661854 -21.239439

layer2.0.bn2.running_var f4 [32]
00000000: 7854 1a44 d1f4 1344 a53f e243 1e3d d843
00000010: ccbf 2e44 c674 3c44 9344 4444 8521 3844
00000020: 63d8 2644 917d 2844 89f9 1044 02f4 df43
00000030: cff7 8a44 0b1c 2244 cb04 5944 42db 0d44
00000040: 7f67 f843 20c1 3144 a5cc 5744 a8ed 5644
00000050: 8a15 8944 e2c7 9d44 3549 1944 f685 f743
00000060: 7bee 3a44 094c 3744 0b45 5844 662a 8444
00000070: 35ed 2644 bdb1 3d44 f1d4 5544 c82a 9c44
617.3198 591.82526 452.49722 432.47748 698.9968 753.8246 785.0715 736.52374
667.38104 673.962 579.899 447.9063 1111.744 648.4382 868.0749 567.4259
496.80856 711.0176 863.1976 859.7134 1096.6731 1262.2463 613.14386 495.04657
747.72626 733.18805 865.0788 1057.325 667.70636 758.77716 855.3272 1249.3369

layer2.0.conv2.weight f4 [32, 32, 3, 3]
00000000: 9fff 863f 456c 7e3f 479a 6ebf 31af 0dbf
00000010: 211b eabe 1c44 edbe f251 01c0 3aa9 dfbf
00000020: fba1 1ebf 90e7 123f 0e72 2e3f 3646 123f
00000030: 2427 133f bb2c c73f a71f 1640 3c83 0ebf
00000040: e3f2 1abf 28b3 e03c 9fd8 6a3e 3eb1 013f
00000050: d285 d7be 6cec c23e 37a5 46be bce6 a33e
00000060: ba45 0140 3da1 c63f a292 77be e2f9 a93f
00000070: b84b 123d e320 6a3e b511 493e c756 2a3e
00000080: f9a1 e5be 2166 c33f fa49 a53f 3b56 e03f
00000090: ab09 5ebe e906 c03f e9d1 de3f 5297 ca3e
000000a0: 57fa 0a40 56e8 ec3f 163b 92bf c927 943f
000000b0: 2a15 953f cda9 8cbe 108c bdbf 039a 05be
000000c0: 28af a03f 0c09 263f 108e 95be 282e 7e3f
000000d0: 6166 88bf 7897 66be 0b49 653e deed 8b3d
000000e0: e48c a5bf 5197 0e40 9a61 f13f 5366 643e
000000f0: dc6e 5b3f c7a8 873e 86b9 d5bd 35e5 27bf
00000100: dfba abbf 04b3 16c0 1811 bb3f 663c 223f
00000110: 7843 743e 1c4a c83e 190e 743f 3f10 8a3e
00000120: d994 8b3f 80b4 083f 772b a23f 635e e63f
00000130: 9790 2d40 0499 cf3f 7ef8 0040 b292 e83f
00000140: 9af1 063f 2ef8 923e 7819 1f40 092e f33f
00000150: 675b 56bf 7f82 e03f b024 a93e 32f0 03be
00000160: 66ad 1040 2bb3 013f dc1c 8d3e 1774 56bf
00000170: adc0 45be ad7b 24bf 60c7 0f3f 92d5 1140
00000180: d1ec c63d 1d65 fa3f 926a 6240 5d7b 7dbf
00000190: fe7c c53f c1c4 f63f efd9 90be 357c d33f
000001a0: 513a a43f f538 30c0 26a7 d7bf ac82 39bf
000001b0: 115e 023f 10e9 3cbf 77eb 4cbf 5a88 5a3f
000001c0: 56a8 3dbe 3aee 933e 5580 103f 8f78 23bd
000001d0: 1318 1c3f 27e9 6b3f 2ea8 f63d ce77 913f
000001e0: 28f6 273f c2c6 bd3d 620d 003d 0eca 3d3f
000001f0: d85c eabe 1ea5 81be 54b6 53bf 4584 96be
00000200: afb3 35bf 28de 483f f1fa 8fbf aa81 f7bf
00000210: 62c2 b33f 863a 66bf 0928 41bf 3c67 88bf
00000220: efee 4cbf b5c2 a93e 5c05 743e d18c 37bf
00000230: 79ee d13e 2eea c23e ea26 803e ab06 cf3f
00000240: 45e5 19c0 fe7a 56be f1ca 6d3f b056 29c0
00000250: 39a0 e6bf dbc4 54be c1c9 90bf 1be2 ecbf
00000260: a134 19c0 884b 84be cf36 acbe a218 d0bd
00000270: 3958 11bf 4c9c fbbf 5e6d afbe 8593 90be
00000280: c0cf b0be 990a 36bf 3752 823e 51aa 7ebf
00000290: 2dd3 143f 81a2 8c3e 6857 68bf 7bbc aebe
000002a0: ee36 d6be 6c5e af3f 9389 a53f b48a 5ebe
000002b0: eef6 513f bdf4 5c3f 2cd2 ccbe 0936 ea3f
000002c0: 338f a73f dc9d 6cbf 7cad e7be 9fa4 a53f
000002d0: 6eb3 023f b998 3d3f d27f fb3e 88bb aabe
000002e0: 4e06 c53d 6c6f ec3d 7663 92bd 250d 8a3f
000002f0: c952 1340 e584 063f a8dc 37be a1e7 b9bf
00000300: c69e 903f 08f2 03be d294 243e dd77 4a40
00000310: a0e1 1a40 ded2 893f ff82 dcbf 75c4 00bf
00000320: ba33 91be af0f 91bf 09e3 3bbf b1c2 303e
00000330: 38d7 41be daa0 59bf c628 9ebe 4f5f 793e
00000340: 5fba a8be 6905 18bf 71db a6bf 9c41 c3bf
00000350: 96ac dcbf 31be 9dbe acff e8bf bab8 2ac0
00000360: c026 78bf c1f9 5a3e 0ecf 913e 9707 63bf
00000370: 7082 253f b401 d03e f941 d1bf 25c4 3c3d
00000380: fd6c 9c3e f1ca 4fbd 397c 323e e2a2 62bf
00000390: ee67 89bf 3539 53bf 3a50 01c0 7b1d 813f
000003a0: 00db 4940 af68 413f 11ad e1bf e6c8 00be
000003b0: 7d6e 763e 0d64 5abf 1df1 b23f 3f4e aa3f
000003c0: 134e e8bf fc0a 0b3f 6556 af3f 3e69 963e
000003d0: b1f5 a1be 2e60 0abf 62a1 ea3f 45e0 fd3f
000003e0: 35b5 923f bd89 1b40 1715 a83f 45a8 62bd
000003f0: acef abbf 1c16 e7bf 2367 86bf b2e3 aabf
1.0546759 0.99383956 -0.9320416 -0.55345446 -0.45723823 -0.46341026 -2.0206265 -1.7473519
-0.6196591 0.57384586 0.68142784 0.57138383 0.574816 1.5560526 2.345682 -0.55669
-0.60526866 0.027429178 0.22934197 0.50661075 -0.42094284 0.38071 -0.19398962 0.32011974
2.0198808 1.5517956 -0.2417703 1.3279383 0.035716742 0.22864108 0.19635661 0.16634665
-0.44850138 1.5265542 1.2913201 1.7526315 -0.21683376 1.5002109 1.740781 0.39568573
2.1715295 1.8508403 -1.1424282 1.1574641 1.1647084 -0.27473298 -1.4808369 -0.13047032
1.2553453 0.64857554 -0.29209948 0.9928918 -1.0656244 -0.22518718 0.22391145 0.06832479
-1.2933621 2.2279856 1.8857911 0.22304659 0.85716033 0.26495954 -0.104357764 -0.6558412
-1.3416404 -2.3546762 1.4614592 0.6337341 0.23853862 0.3911904 0.9533401 0.2696552
1.09048 0.5340042 1.2669514 1.7997555 2.71195 1.6218572 2.0151668 1.8169768
0.52712405 0.2870497 2.4859295 1.8998424 -0.8373322 1.7539824 0.33035803 -0.12884596
2.2605834 0.50664014 0.2756108 -0.8377089 -0.19311781 -0.64251214 0.561636 2.2786603
0.09713138 1.9562107 3.5377545 -0.9901636 1.542877 1.9278795 -0.2829127 1.652228
1.2830297 -2.7534764 -1.6847885 -0.72465014 0.50924784 -0.73793125 -0.8004679 0.85364306
-0.18521246 0.2889269 0.5644582 -0.039909896 0.60974234 0.9215264 0.120437965 1.1364686
0.6560998 0.09266426 0.031262763 0.74136436 -0.4577396 -0.25321287 -0.82700086 -0.2939779
-0.709773 0.78463984 -1.1248456 -1.9336445 1.4043696 -0.8993305 -0.75451714 -1.0656505
-0.80052084 0.33156362 0.2383017 -0.71699244 0.41002253 0.3806929 0.2502969 1.617391
-2.4046185 -0.20945355 0.9288779 -2.645916 -1.8017646 -0.2077822 -1.131157 -1.8506502
-2.3938372 -0.25838876 -0.33635566 -0.10160948 -0.5677524 -1.9657073 -0.34263128 -0.28237548
-0.345335 -0.7110992 0.2545335 -0.9947863 0.5813473 0.2746773 -0.9075837 -0.34128174
-0.41838783 1.370069 1.2932609 -0.21732599 0.8201741 0.8631094 -0.40004098 1.829774
1.3090576 -0.92428374 -0.45249546 1.2940863 0.5105504 0.7406116 0.49120957 -0.333462
0.09620343 0.115446895 -0.07147877 1.0785261 2.3019278 0.5254653 -0.17955267 -1.4523813
1.1298454 -0.12885296 0.16072395 3.1635659 2.420021 1.0767477 -1.7227477 -0.5029977
-0.28359777 -1.1332911 -0.73393303 0.17261769 -0.18929756 -0.85011065 -0.30890483 0.24352764
-0.3295469 -0.59383255 -1.3035718 -1.5254397 -1.7240169 -0.30809167 -1.8203025 -2.6675248
-0.9693413 0.21384336 0.28478283 -0.88683456 0.64652157 0.406263 -1.6348258 0.046085496
0.305519 -0.05073065 0.174302 -0.8852979 -1.0734842 -0.82509166 -2.0205216 1.0087122
3.1539917 0.7555036 -1.7630941 -0.12576637 0.24065585 -0.85308915 1.3979832 1.3305129
-1.8148826 0.54313636 1.369824 0.29377168 -0.3163276 -0.5405301 1.83305 1.9834067
1.146155 2.4302819 1.3131436 -0.055336256 -1.3432517 -1.8053622 -1.0500225 -1.3350737
