Our_code/Pytorch/Other_datasets_experiments/trained_students/SVHNstud-t-40-2-student-16-1.pth (torch_old, 718602 bytes, 69 tensors)

conv1.weight f4 [16, 3, 3, 3]
000000 05 76 0c c0 7d 88 2d be cd 5b 08 40 5c 8e 31 c0
       -2.1947033 -0.16946597 2.130603 -2.774314
000010 ef 9c 38 bc df f0 67 40 a2 57 07 c0 34 62 85 3d
       -0.011267885 3.6240766 -2.1147237 0.065128714
000020 eb 9b 04 40 95 f0 08 c0 57 91 5e be 71 b8 3b 40
       2.0720165 -2.139684 -0.2173513 2.9331324
000030 70 63 46 c0 98 29 55 ba 1f 11 6c 40 37 d3 50 c0
       -3.0998192 -0.0008131503 3.688545 -3.2628915
000040 b0 6f ab be 3c 62 48 40 ba 98 0f c0 bf 7b a3 be
       -0.33483648 3.1309958 -2.2436967 -0.31930348
000050 40 47 18 40 4d 70 30 c0 21 5b 63 be 0d 79 46 40
       2.3793488 -2.7568543 -0.22202732 3.1011384
000060 c1 c8 31 c0 7c e4 ad bd 9b b3 15 40 c2 66 0d c0
       -2.777878 -0.084908456 2.3390872 -2.2093968
000070 1d c3 d9 bf fb fd b8 bf a3 23 c0 bf b3 c7 e9 be
       -1.7012669 -1.4452509 -1.5010875 -0.4566017
000080 c8 0f 24 3c 5b 70 1a c0 76 f7 b1 bf 7b 00 49 bf
       0.010013528 -2.4131076 -1.3903644 -0.7851636
000090 91 0e 46 c0 36 c2 32 c0 3f 37 ab bf 74 ba 1f c0
       -3.094639 -2.7931037 -1.3376235 -2.4957552
0000a0 04 36 16 c0 bf 81 a4 bf 10 ef 03 c0 3b 14 c0 bf
       -2.3470469 -1.2852095 -2.0614662 -1.5006174
0000b0 c2 d8 13 3e ca bc f5 3f 30 c9 21 40 03 d5 26 40
       0.14438155 1.9198239 2.5279045 2.6067512
0000c0 0c 79 3f 40 21 a5 8b 40 4e 4f 96 40 d8 f7 7c 40
       2.991763 4.3639073 4.6971807 3.9526272
0000d0 f3 d0 88 40 2a 69 a1 40 29 ed 2b 3f 72 5d 16 bd
       4.2755065 5.0440874 0.6715875 -0.03671021
0000e0 6f 1f 8d bf 8b e3 f0 3e 2e cf 59 3e 0c 08 d4 bf
       -1.1025218 0.47048602 0.21270439 -1.6564956
0000f0 2e 07 bb 3f c0 e5 75 3e 5c 6a 8d bf 12 a7 0d 3f
       1.4611566 0.24013424 -1.1048083 0.55333054
000100 c9 99 87 3d b9 de eb bf dd aa 07 3f aa 8a 24 3f
       0.06621129 -1.8427345 0.5299509 0.64274085
000110 cb 6a d1 bf 94 cd ab 3f 01 56 82 3f f2 fd ce bf
       -1.6360716 1.3422112 1.0182496 -1.6171248
000120 b0 81 8f 3f 86 9f 0e 3e 3f 6f 81 bf 58 26 f0 be
       1.1211452 0.13928041 -1.0112075 -0.46904254
000130 cd 97 d1 3e 92 80 10 c0 7a 8d 06 40 85 ae 45 3f
       0.40936127 -2.2578473 2.102385 0.7721942
000140 9f fc 03 bf c4 0b f4 3e 68 ea 71 bf 9d 30 b8 3d
       -0.51557344 0.47665226 -0.944983 0.08993647
000150 ab 48 83 bf 71 a2 a4 40 4c 08 16 bf 5d 00 c2 be
       -1.0256552 5.1448293 -0.5860641 -0.37890902
000160 30 91 00 c0 f6 f2 4a bf d6 7d 04 bf 81 24 24 bf
       -2.0088615 -0.7927698 -0.5175451 -0.641182
000170 94 78 3c bf 88 5e 89 be 83 fa ed 40 fc 78 87 3f
       -0.7362149 -0.26829934 7.43683 1.0583797
000180 17 07 4f bf ad 8f 03 c0 ec 75 b1 bf 81 8c 01 3e
       -0.80870193 -2.0556443 -1.3864112 0.12651254
000190 f6 f5 9a bd d4 18 32 3d 4d 90 15 c0 80 be 77 40
       -0.075664446 0.04348071 -2.3369324 3.8710022
0001a0 e3 78 bc bf dc cf 63 3e 9b 0c 87 bf 7d 64 c9 3d
       -1.4724392 0.22247261 -1.0550722 0.0983362
0001b0 e0 08 bf 3f d0 fe cb 3f 98 9b 8f 3f 3d 51 48 3e
       1.4924583 1.5937138 1.1219358 0.1956224
0001c0 a9 b3 b2 bf e9 5f 88 bf ab e6 54 3d 2c c5 ea be
       -1.3961078 -1.065427 0.051977795 -0.45853555
0001d0 e3 46 f9 be 6d 43 06 40 9d 5f 69 3f 4a fb 1d 3f
       -0.48686895 2.0978653 0.9116152 0.6171156
0001e0 39 71 ef bd ba e3 16 c0 31 0e c1 bf 8c 29 74 3e
       -0.116915174 -2.3576493 -1.5082456 0.23843974
0001f0 ee 72 b0 bf c4 a3 af bf fd 21 98 3f 02 87 76 3f
       -1.3785074 -1.3721852 1.1885372 0.96299756
000200 ec fa 09 3f 44 67 67 3f 47 8a ce be eb 79 d4 bd
       0.538985 0.90391946 -0.40339872 -0.103748165
000210 98 b8 72 3d b7 c9 aa bf 2d c9 3f bf 8b 77 48 bf
       0.059258074 -1.3342808 -0.74916345 -0.7830741
000220 4a 88 02 c0 7d 32 fb bf cf cb e7 3e cb ac 9d bf
       -2.0395684 -1.9624783 0.4527268 -1.2318357
000230 25 2d 42 bf e2 fc 30 40 14 69 ed 3f b5 c7 b3 3f
       -0.75850135 2.7654347 1.8547692 1.4045321
000240 0e 3a 16 bf 1c 86 19 c0 33 11 f2 bf 4a d2 36 be
       -0.58682334 -2.3988104 -1.8911499 -0.17853656
000250 07 14 37 c0 83 d0 c5 bf 8f b1 67 40 fb 44 ee 3f
       -2.8605974 -1.5454258 3.6202123 1.8614801
000260 08 cb d5 3f e0 d1 36 3e 9c 89 06 c0 f6 06 c7 bf
       1.6702585 0.17853498 -2.102149 -1.5548999
000270 a0 2c 00 40 14 0f ed be f5 53 b5 3b ed 4c 0a 40
       2.0027237 -0.46300566 0.00553369 2.1609452
000280 e9 83 b5 3f 22 b2 cf 3f 72 94 b6 bf 99 80 c6 bf
       1.4180881 1.6226237 -1.4264052 -1.5507995
000290 06 68 0b bf cc 76 c2 3e a2 be dc 3e aa 4a 5a 3f
       -0.544556 0.3798126 0.4311419 0.8527018
0002a0 76 15 95 3e 4c 47 52 3f c1 64 9f 3f ed bc e3 bf
       0.29117936 0.8214004 1.2452623 -1.779203
0002b0 78 1d 0c c0 20 59 43 bf af 5e 0d 3e da 7d 20 3e
       -2.1892986 -0.7630787 0.1380565 0.15673009
0002c0 1b f3 79 3f 0f 61 a3 3e 5e fb 8f 3f ec 8d d7 3f
       0.97636575 0.31909987 1.1248586 1.6840186
0002d0 fa 40 d7 bf 49 06 f5 bf fd 8e 54 bf c3 d0 0c 3e
       -1.6816704 -1.9142543 -0.8303068 0.13751511
0002e0 5e e8 7a bd f0 8d 69 3f 01 d4 88 3e 0e 3d 16 3f
       -0.06125676 0.91232204 0.26724246 0.5868691
0002f0 a9 e6 78 3f 00 a1 1a bb 3e c9 60 be d3 b8 0d 3d
       0.9722696 -0.0023594499 -0.21951768 0.03460009
000300 60 09 1c bf e7 47 f9 be 62 64 cd be fc 4b ef 3e
       -0.60951805 -0.4868767 -0.40115649 0.4673766
000310 6d e5 fe 3c 06 32 01 3f 36 c8 cd 3e 24 74 8f 3e
       0.031115258 0.50466955 0.4019181 0.28018296
000320 50 8c 8c 3e 15 10 28 3e c9 9a 1a be 2f 6c bd 3d
       0.274508 0.16412385 -0.15098108 0.0924915
000330 58 7b 89 3f 2a 71 31 be 28 4c 96 3f 04 23 1d bf
       1.0740767 -0.17328325 1.1741991 -0.61381555
000340 6f 17 3b bf 6c 6a 51 be 22 5f 2c bf f1 dd a1 bf
       -0.7308263 -0.20450753 -0.6733266 -1.2645856
000350 a4 d5 6a 3c 7c e4 57 bd 1c fb 80 bd 7d aa f9 3d
       0.014333162 -0.052708134 -0.06297895 0.12190721
000360 fa a3 c4 bd 51 53 f9 3c 49 43 79 be e4 df f3 bd
       -0.096015885 0.030435236 -0.24342074 -0.11907938
000370 05 31 21 40 07 80 1f 3f 98 af 8f be ae 32 42 bf
       2.518617 0.6230473 -0.28063655 -0.7585858
000380 8a fd 11 be 91 46 0f be ed 18 d8 be ed 50 5e 3d
       -0.14256874 -0.13991763 -0.42206517 0.054276396
000390 b4 a0 b2 3e aa b3 29 40 ab 86 45 3f e4 30 9c bf
       0.34888232 2.6515908 0.7715861 -1.220242
0003a0 51 ad 44 bf 59 35 90 bf 9c 77 12 bf e8 3b a7 be
       -0.7682696 -1.126628 -0.5721376 -0.32662892
0003b0 41 3d d7 bc bb e3 7a be 45 85 08 40 3f d4 4c 3e
       -0.026274325 -0.24500935 2.1331341 0.2000284
0003c0 91 51 49 bf 6b c6 a7 bf 7f 9b 0d bf 34 02 9b be
       -0.78640085 -1.3107427 -0.55315393 -0.30275118
0003d0 ed 06 da bd 5f 1b 61 bf 3a 66 af 3f d1 19 07 40
       -0.10645852 -0.8793239 1.3703072 2.1109507
0003e0 e7 b3 e6 be ec f4 8a be 29 bd 48 3e 1f f7 98 bf
       -0.4505913 -0.27139986 0.19603409 -1.1950415
0003f0 70 35 13 be bb 71 15 3f c3 f7 02 bf 1c 1f 3a 40
       -0.14375854 0.58376664 -0.51159304 2.9081488

layer1.0.bn1.weight f4 [16]
000000 c3 a5 19 40 af 5f 87 3f 22 1c c0 3f 5a 42 cb 40
       2.4007423 1.0576075 1.5008585 6.3518496
000010 ca 8a a9 3f 24 a3 85 3f ea 05 d9 3f 58 a8 ac 3f
       1.324548 1.0440412 1.695493 1.3488874
000020 0d 73 77 3f 61 5e 28 40 71 1a 62 40 28 ca cc 3f
       0.9665993 2.6307604 3.5328639 1.5999193
000030 dc e1 4e 40 1b 0f 0f 40 e2 e4 bc 3f d1 21 a9 3f
       3.2325354 2.235297 1.475735 1.3213445

layer1.0.bn1.bias f4 [16]
000000 a5 27 d8 3e 4d 2f 90 bd 54 3a 97 be 0d 74 d8 3f
       0.42217746 -0.07040272 -0.29536688 1.6910416
000010 04 2f 96 bd e0 7d c7 bd a0 41 85 bf 6c 19 93 bf
       -0.07333186 -0.097408056 -1.0410652 -1.1492133
000020 8b 0f 99 3f ca 24 74 3f 20 4f 2c 3f 86 c2 6f 3f
       1.1957868 0.95368636 0.67308235 0.93656194
000030 3c 9d 1c c0 5b e9 64 c0 42 fa 00 bf 09 0c 8d be
       -2.4470968 -3.576743 -0.50381863 -0.27548245

layer1.0.bn1.running_mean f4 [16]
000000 82 bc 4c bf 3e 94 0e 40 54 35 ae be d1 19 02 bf
       -0.7997514 2.227798 -0.3402506 -0.5082064
000010 c3 6d 04 40 44 7c ab 3f 10 f3 cd be 37 a6 1e c0
       2.0691993 1.3397298 -0.40224504 -2.478895
000020 2a c4 61 3f c7 5e 81 bf b9 36 95 c0 fe 54 47 3e
       0.8818995 -1.0107049 -4.66293 0.19466016
000030 af 69 c0 c0 6e a6 81 c0 04 a2 d1 bd d0 7b 5f bf
       -6.012901 -4.051566 -0.1023598 -0.872983

layer1.0.bn1.running_var f4 [16]
000000 05 af 13 44 02 98 72 44 d0 99 db 42 a2 9e 84 42
       590.7347 970.3751 109.800415 66.30983
000010 c2 74 62 42 b2 bc d5 42 78 a5 01 42 cf 4d d4 41
       56.61402 106.868546 32.41159 26.537992
000020 eb b6 9c 41 f6 ad e7 42 8e 2c b9 43 66 cd e8 41
       19.589315 115.83977 370.34808 29.100292
000030 40 4e 07 43 2f fc eb 41 3b 8d e8 42 29 71 b7 42
       135.30566 29.498137 116.27584 91.721016

layer1.0.conv1.weight f4 [16, 16, 3, 3]
000000 b5 da 64 3f d4 f7 d0 3f 9a bf 0a 3f eb 5c 83 40
       0.8939622 1.6325631 0.5419861 4.1050925
000010 01 0b 06 40 11 76 0f c0 c4 ee 18 40 85 3a 6f 3f
       2.0944216 -2.2415812 2.389573 0.9344867
000020 e3 d3 4c c0 31 61 52 c0 94 6e 43 bf 34 56 c8 bf
       -3.2004325 -3.287182 -0.76340604 -1.5651307
000030 eb 7a 67 bf 9b 58 1b 3f dc de b4 be 78 e8 ab be
       -0.9042193 0.60682076 -0.35326278 -0.33575797
000040 97 34 7a bf 76 be e0 bf c2 57 fc bf 3f 8d 16 3f
       -0.97736496 -1.7558124 -1.9714282 0.58809274
000050 a6 8e a2 bf 61 03 dc bd 37 04 db 3f b9 96 f2 bd
       -1.2699783 -0.10742832 1.7110661 -0.11845154
000060 06 41 e9 3e 94 a3 32 3f 09 44 fd bf 1a 26 8f be
       0.4555742 0.6978085 -1.9786388 -0.27958757
000070 c5 7a 14 c0 cc 17 2e c0 49 24 82 c0 25 12 d0 40
       -2.3199933 -2.7202024 -4.0669293 6.502215
000080 02 17 03 40 1f 01 7f bf 44 02 e6 3e 48 25 89 be
       2.0482793 -0.99611086 0.44923604 -0.26786256
000090 72 88 19 c0 0e c4 dd 3e 02 fb 70 be 76 e0 d0 bf
       -2.398953 0.4331364 -0.23533252 -1.63185
0000a0 43 18 81 3f fe f8 89 be 7c 40 78 c0 eb 1a 4b 3f
       1.0085529 -0.26947778 -3.8789358 0.7933795
0000b0 28 2d 74 bf 3d 3e 93 be 7d 95 ef bf 4b aa d3 bf
       -0.953814 -0.28758422 -1.8717495 -1.6536344
0000c0 e9 fd d1 3f b7 da a6 bf bc 45 63 3f 9c db be bf
       1.6405612 -1.3035496 0.8877828 -1.491077
0000d0 97 56 89 3f d0 4e 25 3e 6f bd ad 3e f0 52 85 be
       1.072955 0.16143346 0.3393359 -0.2603984
0000e0 80 66 b6 3f 91 54 5d c0 70 7e 36 c0 5b bc ce be
       1.425003 -3.4582865 -2.8514671 -0.4037808
0000f0 ed df 29 c0 8a be 9b bf b2 00 fb 3f f7 ff 91 be
       -2.6542923 -1.2167523 1.9609587 -0.28515598
000100 3b 54 2f c0 0a 85 be bf 48 2a b4 3f 97 c2 27 3f
       -2.739516 -1.488435 1.4075403 0.65531296
000110 45 90 c7 3f e6 58 bf bd 76 1d 39 be 06 87 20 bf
       1.5590903 -0.09343128 -0.18077645 -0.6270603
000120 82 72 93 3e 83 12 0e 3f c3 52 93 3f 4a 96 89 bf
       0.287983 0.55496997 1.1509632 -1.074899
000130 f6 ae 3d 40 5f 49 a9 3f aa e1 bf be 9a ba 9c 3f
       2.9638038 1.3225516 -0.37476856 1.2244446
000140 82 7d a4 3f a7 88 13 c0 83 ec 1d 3e a8 0c 52 3f
       1.2850802 -2.3052156 0.15422253 0.8205056
000150 52 92 ab c0 63 60 3b 40 a9 b7 3b 40 0e 32 24 c0
       -5.3616114 2.927758 2.9330847 -2.565555
000160 7c 4f 3c 3f 8b b5 f5 3e e7 ad 0e bf 1d dc a5 3f
       0.73558784 0.4799007 -0.55734104 1.2957798
000170 9b 59 87 3f ba 01 56 bf d3 85 26 40 98 01 04 40
       1.057422 -0.83596385 2.601918 2.0625973
000180 70 32 5e bf b3 a6 4f 3f f4 b3 00 40 d3 3e 2d be
       -0.8679571 0.8111374 2.0109835 -0.16918497
000190 ee 5c 12 c0 c8 11 34 c0 76 53 b7 bf ae 35 c5 bf
       -2.286922 -2.8135853 -1.4322345 -1.5407007
0001a0 4a b4 fd bf ef c2 ce bd cf 1a cb 3f 99 82 59 3e
       -1.9820645 -0.100957744 1.5867556 0.21241225
0001b0 c1 b9 67 c0 0d ef 00 c0 a6 fa 47 bd 5c 7f 22 c0
       -3.6207125 -2.0145905 -0.04882302 -2.5390234
0001c0 41 a6 d2 be a5 f4 10 40 ee 17 d2 bf cf 26 98 3f
       -0.41142467 2.264932 -1.6413553 1.1886843
0001d0 59 0f 0e 40 bf ab c0 bf ab c4 50 3f 6b 3f 0d 3f
       2.2196867 -1.5052413 0.8155009 0.55174893
0001e0 39 c8 bf 3f ce 6d 8b 3e e8 27 78 bd 77 92 37 3f
       1.4982978 0.27232212 -0.060584933 0.7170786
0001f0 8a 9b 7d 3e 9f 25 d3 bf 77 19 01 c0 4c 35 4c bd
       0.24766365 -1.6495856 -2.0171793 -0.049855515
000200 77 78 25 bf 37 a5 e9 be b2 be d9 3d 01 73 6e 3f
       -0.6463694 -0.4563386 0.10632075 0.9314423
000210 3e ac 45 bb c4 9c 44 bf ff 94 98 3f 77 c8 63 3f
       -0.0030162479 -0.76801705 1.192047 0.8897776
000220 9b a6 05 bf 92 57 88 3e a3 ca 53 bf 2d 8b e3 3f
       -0.52207345 0.2662931 -0.82731074 1.7776848
000230 f0 0a cf be a6 e3 16 3f c6 ee 5a be be c8 af bf
       -0.40438032 0.58941114 -0.21380147 -1.3733137
000240 35 15 be 3f 29 88 94 bf ed 30 48 bf 3f 30 61 40
       1.4850222 -1.1604053 -0.78199655 3.5185697
000250 7f 7e fc bf 6f 57 83 c0 5d 55 12 3f 90 7e e4 3e
       -1.9726104 -4.104423 0.57161504 0.4462781
000260 94 7d 08 c0 14 a5 a9 3e ea 07 6f bf 3f fe 24 c0
       -2.1326647 0.33133757 -0.9337145 -2.578018
000270 80 4c 55 3f 4c c7 0e 3d a3 e6 87 3e 03 f6 88 bf
       0.83319855 0.034858033 0.2654315 -1.0700077
000280 72 23 be be e2 f1 fd 3e 6c 8e 22 bf 89 ef 30 bf
       -0.37136418 0.49598604 -0.6349857 -0.691155
000290 6c e7 d5 bf b1 2a de 3e 2c 12 00 bf dc 0b 15 c0
       -1.6711249 0.43391946 -0.5002773 -2.3288488
0002a0 c4 23 02 bf 8c 78 15 c0 7f 06 45 c0 92 96 9a bf
       -0.50835824 -2.3354826 -3.0785215 -1.20772
0002b0 7d 7a 89 bf 42 e3 28 3f 52 f3 88 3e c6 48 cc 40
       -1.0740505 0.6597177 0.2674814 6.3838835
0002c0 99 44 a3 c0 ad 1d 04 c0 38 e8 fd bf f6 9f 48 bf
       -5.1021237 -2.0643113 -1.9836493 -0.7836908
0002d0 6b e9 a7 bd 38 2a b2 bf a5 9f e2 bf 29 28 5c bf
       -0.08198818 -1.3919134 -1.770497 -0.8599878
0002e0 ac ad a9 3e 12 22 74 bf 13 09 e0 bf 1b 24 61 bf
       0.33140314 -0.9536449 -1.7502769 -0.8794572
0002f0 d4 80 f4 be 5e ae b3 3f 27 55 36 3f 6d 3b be bf
       -0.47754538 1.4037588 0.7122368 -1.4861885
000300 a6 2e b1 3f 74 5f 15 c0 33 9c 3d bf 06 75 7a bf
       1.3842361 -2.333951 -0.74066466 -0.97834814
000310 19 fa b9 3c 17 f1 67 bf 9b 1c 34 be 72 42 38 3f
       0.022702264 -0.9060225 -0.17589037 0.7197639
000320 d5 ad 30 bf 85 07 3c c0 58 19 25 c0 35 03 82 bf
       -0.69015247 -2.937959 -2.5796719 -1.0157229
000330 8a b9 39 c0 50 f8 34 c0 01 03 a4 bf 95 fc 0a 3f
       -2.9019494 -2.8276558 -1.2813417 0.5429166
000340 5f 3b 10 40 ad 96 a9 3d e4 7d 45 3f e5 fb a3 40
       2.2536237 0.08280692 0.7714522 5.124499
000350 ee ab 53 be 17 9a 81 c0 fd 98 f4 3c 95 ae 8b c0
       -0.20671055 -4.05006 0.029858107 -4.3650613
000360 b7 39 04 c0 be 88 b8 bf 54 59 58 3f a7 3d ef 3e
       -2.0660226 -1.441673 0.84511304 0.46726725
000370 f0 0d 02 3f 9d 84 56 c0 4c 08 08 3e e8 27 cc 3e
       0.50802517 -3.351844 0.13284415 0.39874196
000380 54 88 e9 3e 95 2e 6f 3f 25 fe 39 bf 0d d6 8e bc
       0.45611823 0.93430454 -0.7265342 -0.017436052
000390 29 13 79 3f a0 0f 4c 40 ba 49 74 3f 6d c1 80 3f
       0.9729486 3.1884537 0.95425 1.0059029
0003a0 8e 91 5a c0 e3 c0 8a bf 25 b2 60 3f cb 53 91 3f
       -3.415134 -1.0840114 0.87771827 1.1353697
0003b0 d2 dd 05 bf f4 76 75 40 12 c7 5d 40 f4 6b 91 bf
       -0.52291596 3.8353853 3.4652753 -1.136107
0003c0 b5 67 ad bf 9d 69 cd bf 5e 8f 08 c0 71 1d d7 be
       -1.3547274 -1.6047856 -2.1337504 -0.4201465
0003d0 14 5f 0a c0 91 96 df 3e 21 3c 82 bf c8 52 30 bf
       -2.162053 0.4366956 -1.01746 -0.68876314
0003e0 1d c8 e0 be d6 f9 f8 3f d0 8d 45 40 da a9 fe 3b
       -0.43902674 1.9451244 3.0867805 0.0077717127
0003f0 70 fe 91 bf 2e c0 b0 bf f6 7a 24 c0 85 02 3a bf
       -1.1405773 -1.3808649 -2.570005 -0.72660094

layer1.0.bn2.weight f4 [16]
000000 47 2a 7d 3f 7d 86 7c 3f 95 65 70 3f 0a 35 b8 3e
       0.98892635 0.9864271 0.93905 0.35977966
000010 e6 e1 27 3f c3 b5 0c 3f 43 a5 1a 3f 89 86 2d 3f
       0.6557907 0.54964846 0.6040842 0.6778341
000020 85 c8 5d 3f 8b e5 5c 3f ec 9a 3c 3f c4 da 3a 3f
       0.86634094 0.86287755 0.7367389 0.7299006
000030 19 72 1f 3f e9 dc dc 3e 29 0e 84 3f 90 46 39 3f
       0.62283474 0.4313729 1.0316821 0.72373295

layer1.0.bn2.bias f4 [16]
000000 e1 ea e1 3d 23 53 0d be c0 88 9d bc 70 08 e0 3e
       0.11031128 -0.13801245 -0.019230247 0.43756437
000010 8e 7f 5f 3e e9 de 35 bd 73 4c fc be 98 c7 17 bf
       0.21826002 -0.044402037 -0.49277076 -0.5928893
000020 d0 9b 66 3b f8 58 64 be c2 5c 4f bf 1c cb dd be
       0.0035188086 -0.22299564 -0.8100091 -0.43319023
000030 90 cb 41 be 6f 43 a8 3d 11 4b 36 be 53 b6 39 3e
       -0.18925309 0.08215987 -0.17802073 0.18135957

layer1.0.bn2.running_mean f4 [16]
000000 02 56 95 3f 16 0a ee c1 10 11 5a 42 2b fd 27 42
       1.1666873 -29.754925 54.516663 41.997234
000010 8e 32 4c c1 bb a2 2c 40 9c af 96 c0 c5 ef 63 c1
       -12.762342 2.6974323 -4.7089367 -14.2460375
000020 a3 86 0f c2 38 e4 53 40 48 7d b0 c1 14 44 0d 40
       -35.88148 3.3108044 -22.061172 2.2072802
000030 66 e0 19 c2 4f 31 6a 41 3a fc 5d c2 4c c1 3b c1
       -38.46914 14.637038 -55.496315 -11.734692

layer1.0.bn2.running_var f4 [16]
000000 4e 0d 5c 45 db 5c 04 45 e7 a3 29 45 75 d6 d2 44
       3520.8315 2117.8035 2714.244 1686.7018
000010 90 27 cd 44 73 05 6b 45 dc 09 ab 44 64 a8 cd 44
       1641.2363 3760.3406 1368.3081 1645.2622
000020 84 4b 5c 45 1e cd 6e 45 70 8e 76 44 59 ad d3 44
       3524.7197 3820.8198 986.2256 1693.4171
000030 d1 34 26 45 6d 64 2a 45 68 fd 45 45 88 18 93 45
       2659.301 2726.2766 3167.838 4707.0664

layer1.0.conv2.weight f4 [16, 16, 3, 3]
000000 ca 0e 80 3e ae 61 9e 3f 53 19 2e 3f c6 69 06 bf
       0.25011283 1.237356 0.6800739 -0.5250515
000010 b3 b4 cf 3f 84 1b 81 40 ce 3a 2d 3f b1 bf ce 3f
       1.622702 4.034609 0.67667854 1.615225
000020 03 24 f3 3f 2a 29 25 c0 5e 34 b6 be 00 1b 45 3f
       1.8995365 -2.5806375 -0.35586828 0.76994324
000030 2a 34 fa bf 91 6d 26 c0 83 30 99 3f 77 85 33 c0
       -1.9547169 -2.6004374 1.196793 -2.805021
000040 38 0a 4c bd 68 e5 1e 40 00 51 ca bf cc e2 7b 3e
       -0.049814433 2.4827518 -1.5805969 0.24598235
000050 4d 9f 04 3f 99 44 8b bf 4b 47 73 3e aa a2 dc 3f
       0.51805574 -1.0880309 0.23757665 1.7237141
000060 93 15 9c bf 48 a7 0b bf 4b 65 c9 3f 06 fc b8 3e
       -1.2194084 -0.54552126 1.5734037 0.3612978
000070 79 a9 31 bf 47 2d 94 be 7b be 98 3f 17 94 99 3f
       -0.6939922 -0.28940794 1.193313 1.1998318
000080 06 86 c8 3f d4 15 88 3e f0 76 49 3d b4 ce 40 be
       1.5665901 0.26579154 0.049185693 -0.18828851
000090 63 7e 05 c0 7f 2a 46 bf c2 81 b4 3e d0 26 dc bf
       -2.085839 -0.77408594 0.35255247 -1.7199345
0000a0 52 9c db 3d 44 5a d9 3f 5d 33 3b 3f 20 f9 93 bf
       0.10723175 1.6980672 0.7312525 -1.1560402
0000b0 6b 8e 2d c0 43 73 37 40 af da 8e bf 21 b3 7e 3e
       -2.7118175 2.86641 -1.1160487 0.2487302
0000c0 1e 0c 0c 40 b6 4f 0f be d0 b7 d4 3f cb ac 49 40
       2.1882396 -0.13995251 1.6618595 3.1511714
0000d0 75 f1 96 be c0 21 c0 be ec a8 c2 bf d2 dc 71 bf
       -0.29481092 -0.3752575 -1.5207801 -0.9447757
0000e0 31 86 16 40 1c 63 bd bf de e4 cb bf 27 1f 3a 40
       2.3519404 -1.4795871 -1.592922 2.9081514
0000f0 9c 97 92 bd 24 96 96 bf b3 d9 d9 3e 46 75 6e 3e
       -0.071578234 -1.1764569 0.42548904 0.23286924
000100 12 f9 60 bf 43 bd de 3e d6 bf 8b bf 5f ec c5 bf
       -0.8788005 0.4350377 -1.0917919 -1.546276
000110 2a 2c 37 3f e5 3c 91 bf d4 bf e2 bf 86 04 f1 be
       0.71551764 -1.1346709 -1.7714791 -0.47073764
000120 bf f9 17 c0 c8 7d 93 bf 0b 93 b8 3e c1 b0 95 bf
       -2.3746183 -1.152276 0.36049685 -1.1694566
000130 bc 33 7c bf 85 16 79 bf 0d ff 2f c0 b9 6c 3a c0
       -0.9851644 -0.9729999 -2.749942 -2.912886
000140 ee fa 6b bf b2 11 bd 3f 1b 37 dc bf a3 d7 f2 bf
       -0.92179763 1.4771025 -1.7204317 -1.8972057
000150 ec d0 9b 3e c6 3f 3f c0 70 b4 8c bf 77 75 84 3f
       0.30432832 -2.9882674 -1.0992565 1.0348347
000160 6a 06 f6 bf fc 21 c5 bf 7b fb db 3c 59 61 53 3e
       -1.9220707 -1.5400996 0.026853314 0.20642604
000170 f5 53 68 3f 42 d4 f1 be fd 72 e9 3e 98 b0 58 bf
       0.9075311 -0.47232252 0.45595542 -0.8464446
000180 1c 09 90 bf 4c b7 2e 3a 1b 29 11 c0 84 76 21 be
       -1.125278 0.00066648866 -2.2681339 -0.15767866
000190 d1 88 8b be c4 ef c1 3f 72 9f e4 be c5 b3 08 bf
       -0.2725282 1.5151296 -0.44652897 -0.53399307
0001a0 dc dc a9 3e 32 e5 a8 be d5 e3 08 bf 22 e6 02 c0
       0.33176315 -0.32987362 -0.53472644 -2.0452962
0001b0 7e 9f 47 be 75 83 e4 bf 45 fb e7 3e 34 c4 6f 3e
       -0.19494435 -1.7852618 0.4530889 0.2341469
0001c0 71 76 39 40 56 98 10 bf 6e e3 5f bd b0 f6 23 40
       2.897854 -0.56482446 -0.054660253 2.5619316
0001d0 22 07 b9 3f ca e6 85 3f 21 14 ac 3e a5 ec 9f 3f
       1.4455302 1.0461056 0.33609107 1.2494093
0001e0 4d 29 87 be af cd 14 40 16 bb 2a 3e f2 be 2f 40
       -0.26398697 2.325054 0.1667293 2.7460294
0001f0 08 bc 1f 40 a4 f5 1e 40 b9 86 a0 3f 33 4e 1f c0
       2.4958515 2.4837427 1.2541114 -2.489148
000200 91 01 b2 bf 36 d6 95 3f 0c af db be 10 90 4c c0
       -1.3906728 1.1705997 -0.42906988 -3.1962929
000210 a6 17 07 40 81 b8 89 be 83 1a b5 be b2 da 1c bf
       2.1108184 -0.26898578 -0.3537179 -0.612712
000220 56 a1 f0 3e b7 2a bd 3f 26 aa 9d be 19 13 ad 3f
       0.4699809 1.477866 -0.30793875 1.3521453
000230 79 d2 12 40 fa f0 19 c0 13 9d 5d 3f 89 4f eb 3f
       2.2940962 -2.405333 0.865678 1.8383647
000240 1a 2c 8b be 5d 2a c0 3e b0 c8 07 3f 29 d6 e2 3e
       -0.27182084 0.3753232 0.530406 0.44304016
000250 3e 08 3f be 0c 34 2b bf 74 f0 02 3f 1c 59 0e bf
       -0.18655488 -0.6687629 0.5114815 -0.5560472
000260 60 c7 1c bf 23 7a 1f bf 33 61 9c 3d 93 d3 0b 3f
       -0.6124172 -0.6229574 0.07635727 0.5461971
000270 27 67 6c bf 91 5d 5a 3f aa 95 6d bf 00 c0 06 be
       -0.923449 0.8529902 -0.92806494 -0.1315918
000280 50 ca ef be a3 e1 8b 3f c5 87 4e be 42 b4 19 be
       -0.4683404 1.0928234 -0.2016898 -0.15010169
000290 9c 72 29 be a9 1c ea 3d 3d 64 61 3f 78 a7 e6 3e
       -0.16547626 0.11431248 0.88043576 0.45049644
0002a0 52 36 64 be 98 71 12 3e de cd 53 3e e2 18 83 bf
       -0.22286347 0.14301145 0.20684001 -1.0241969
0002b0 eb 40 1d c0 3c f3 58 bf 27 35 c4 3e 25 fd ff be
       -2.4570873 -0.84746146 0.38321802 -0.4999782
0002c0 78 91 26 bf 2b 5f 40 be e7 ec 8b bf e4 df 26 bf
       -0.6506572 -0.18786304 -1.0931672 -0.6518538
0002d0 f9 e2 6e 3e bd 29 63 be 98 28 f3 3d 9e a9 72 bf
       0.2332877 -0.2218389 0.11872977 -0.94790065
0002e0 6e ca 50 bf df b4 99 bd f0 39 42 bf de 89 d1 3d
       -0.81558883 -0.075052015 -0.75869656 0.10231374
0002f0 5f 9d ef bd 8e fd 96 3f 9f 9a 5a 3f 13 3b 5b bf
       -0.11699938 1.1796129 0.85392183 -0.85637015
000300 f8 d4 59 3f fa 21 9f 3f e2 3a a8 3f 26 14 78 3e
       0.8509059 1.2432244 1.314297 0.24226436
000310 e6 06 f6 3f 5d b9 7e 3f aa d3 a1 3e 2c fc 77 bf
       1.9220855 0.9950159 0.316068 -0.9686916
000320 f1 47 96 3e 8d 10 4a bf d8 b3 a4 bf 5e 8b 98 bd
       0.29351762 -0.78931504 -1.2867384 -0.07448457
000330 20 00 05 3f 0f 9e 43 bf 98 f3 f8 3e 2c 97 23 40
       0.51953316 -0.76413053 0.48623347 2.5561018
000340 e2 cf ca 3e b7 9e 75 3f 11 9e 0b 40 0f ef 81 3f
       0.39611727 0.95945305 2.1815226 1.015108
000350 76 f3 8c 3f 7d 1a 0a 40 b0 e1 22 40 7d e7 ce 3e
       1.1011798 2.1578667 2.5450249 0.40410987
000360 b7 c6 06 3f 64 e7 31 bc 8d 31 74 bf 15 43 d2 bc
       0.52646965 -0.0108583905 -0.9538811 -0.025666753
000370 24 77 0f 3e 5b ff 12 3f e5 a3 d3 bf d1 16 12 bf
       0.14010292 0.5742089 -1.6534392 -0.57066065
000380 06 09 84 be 14 d2 98 bf 72 9c 77 bf 24 f6 fd bd
       -0.25788134 -1.1939111 -0.9672309 -0.12400463
000390 03 be 7b bf 1d fb 00 c0 5f 2f ad 3d 83 31 dc bf
       -0.9833681 -2.0153267 0.08456301 -1.720261
0003a0 8a 6a 17 bf 23 07 a7 3e d1 05 f0 3d e8 2d b9 3f
       -0.5914694 0.32622632 0.117198594 1.4467134
0003b0 86 08 fc 3e 53 ca 4c 3e 7b b3 9a 3f 22 00 b5 3f
       0.49225253 0.19999056 1.2086023 1.4140666
0003c0 91 ff 04 3f 37 07 26 3e 08 1b f8 3e 34 70 8a bf
       0.51952463 0.1621369 0.48458123 -1.0815492
0003d0 40 ac 9a 3d 97 76 b3 3d 6d bd d1 3e 23 5d 5e bf
       0.07552385 0.087628536 0.40964833 -0.86860865
0003e0 50 dd a9 3f 2f 63 82 bf 3f 86 20 3c 27 09 38 3e
       1.3270664 -1.0186518 0.009797632 0.17972241
0003f0 5a cc 5a bf b6 df 24 c0 bc 34 39 bd 96 d1 8d be
       -0.85468066 -2.5761542 -0.045216307 -0.27698964

layer1.1.bn1.weight f4 [16]
000000 b5 c6 29 40 54 86 8e 3f df 11 3e 40 f2 3d ad 40
       2.652753 1.1134744 2.9698408 5.4138117
000010 13 5c 6c 40 1e 07 93 3f 3b 78 09 40 3a 36 eb 3f
       3.6931198 1.1486547 2.1479633 1.8375924
000020 42 58 64 40 d2 fb 2e 40 11 67 f1 3f 02 0b 49 40
       3.5678868 2.73412 1.8859578 3.1412969
000030 40 d8 18 40 f5 86 42 40 32 75 2b 40 ae 0c 82 40
       2.3881989 3.0394871 2.679028 4.064048

layer1.1.bn1.bias f4 [16]
000000 47 e0 39 3e 1a a7 36 3f e7 9b 1d bf a3 bc 84 3e
       0.18151961 0.71348727 -0.61566013 0.25925168
000010 19 b6 12 40 85 27 70 40 62 f3 1e 3f c9 78 f4 3e
       2.2923644 3.752412 0.6209012 0.47748402
000020 46 81 6f 3f 71 3a 37 3f d7 56 59 3f 29 63 9f 3e
       0.9355663 0.7157355 0.8489813 0.3113034
000030 48 24 bd bf c5 60 03 be 8d 8f 9d 3f 27 41 b3 be
       -1.4776697 -0.12829883 1.2309433 -0.35010645

layer1.1.bn1.running_mean f4 [16]
000000 4c bb da 3e d8 67 3a bf 0a 61 44 3e 9e 8c 54 c1
       0.4272102 -0.72814703 0.19177642 -13.28433
000010 bf 34 20 40 bf 0f e4 3f 2e bc c5 40 6e 48 09 c1
       2.5032194 1.7817305 6.179221 -8.580183
000020 85 09 bc bf 79 d2 97 40 c6 a2 19 41 9a 12 1d c0
       -1.4690405 4.7444425 9.60224 -2.4542603
000030 0a 48 d2 c0 34 03 24 41 0b e5 80 be 51 26 76 c1
       -6.571294 10.250782 -0.25174746 -15.384355

layer1.1.bn1.running_var f4 [16]
000000 3f a7 24 44 cf 1f 68 44 22 f8 47 43 d5 26 3c 43
       658.6132 928.497 199.96927 188.15169
000010 00 91 5b 43 b3 37 58 43 16 a7 b5 42 a0 66 b0 42
       219.5664 216.21758 90.82634 88.20044
000020 54 a3 b3 42 4b 7c 8b 43 64 a6 be 43 02 2e c7 42
       89.819 278.97104 381.29993 99.58986
000030 bd f6 31 43 0b 2f ac 43 c6 a6 5a 43 5b a3 59 43
       177.96382 344.36752 218.65146 217.6381

layer1.1.conv1.weight f4 [16, 16, 3, 3]
000000 69 51 d9 bf 3c d5 d3 3f 41 47 80 be 30 2d ab 3d
       -1.697797 1.6549449 -0.25054362 0.08358228
000010 56 3c b1 bf e1 50 37 be c7 c5 2d bf 4b ba 12 c0
       -1.3846538 -0.17901947 -0.6787991 -2.2926204
000020 a4 73 09 bf 05 62 87 3f 53 6a 6d bf ab fc 51 bf
       -0.5369208 1.0576788 -0.9274036 -0.82026166
000030 17 5a 8a 3f dc 65 b9 3d ad 1a a5 3e 5d 39 e1 be
       1.0808743 0.09052631 0.32246915 -0.43989077
000040 5e a1 66 bf f1 13 56 bf 07 98 33 40 b1 10 58 c0
       -0.90089977 -0.8362418 2.806154 -3.3760188
000050 cb 7b 2b bf bd 6e a2 be 56 4f bc bd 21 31 bb 3f
       -0.6698577 -0.31725112 -0.0919482 1.4624368
000060 06 fa cc 3f 47 8f 49 c0 f6 fd 90 be 90 64 f6 be
       1.6013801 -3.14937 -0.28318757 -0.48123598
000070 d9 3b ad c0 3b 30 e0 be d0 70 19 40 6f eb ac 40
       -5.4135556 -0.43786797 2.3975105 5.4037395
000080 12 14 b1 c0 a5 44 c4 be 89 e1 f3 3f 45 8e 77 c0
       -5.5337 -0.38333622 1.9053203 -3.8680584
000090 95 66 67 bf ab e2 a5 3c 3c c4 5a bf f7 9c 09 c0
       -0.903909 0.020249685 -0.8545568 -2.1502054
0000a0 7a 2e c5 c0 fa 8d 11 3f ab 38 df 3f 89 d4 ed bd
       -6.1619234 0.56857264 1.7439169 -0.116128035
0000b0 41 a1 1a 3f 08 a9 b8 3e 33 b8 a5 bf 39 b0 df 3f
       0.60402304 0.3606646 -1.2946838 1.7475654
0000c0 37 60 6f 3f 8d 65 3e bf 7e 81 8a 40 0d 9f bc bd
       0.9350619 -0.74373704 4.328307 -0.09210024
0000d0 2e e1 44 bf 28 9f 10 40 be 75 00 c0 d8 47 38 bf
       -0.76906097 2.2597141 -2.0071864 -0.71984625
0000e0 f2 d5 d9 be ae 6e ef bf 4e 5d e8 3d 4e 83 75 be
       -0.4254604 -1.8705652 0.113459215 -0.2397587
0000f0 63 80 42 c0 75 ba fb c0 33 c7 dd bf 37 52 1f 3d
       -3.039086 -7.866511 -1.7326416 0.038896766
000100 e2 a9 3d bd 7d 81 2b 3f e3 57 cd be 82 68 7e 3d
       -0.04630459 0.6699446 -0.40106115 0.062111385
000110 20 dc e6 3f de ae 45 40 07 42 44 40 cd a4 8b 3f
       1.8035927 3.088798 3.06653 1.0909668
000120 45 cd ae bf c9 28 c8 bd 08 5f 55 be d9 5e 18 c0
       -1.3656393 -0.09773404 -0.20837033 -2.380789
000130 68 41 87 3f e4 e5 1c c0 87 18 1d c0 98 93 d7 3e
       1.0566835 -2.4515314 -2.454622 0.42104793
000140 5e e3 0a c0 dd c6 e5 3c 9d 50 a0 3f b3 91 83 c0
       -2.1701274 0.028048927 1.2524601 -4.1115355
000150 a4 e5 c5 3e 34 12 48 40 e7 21 2d 3f 1b 21 e1 3f
       0.38651764 3.126111 0.67629856 1.7588228
000160 73 2d 55 3e 3e e8 96 3f 07 85 30 c0 f2 13 05 c0
       0.20818119 1.1789625 -2.7581193 -2.0793424
000170 0a 5c ee be d6 45 c4 be 2c 8c 6e 40 4a 9b 97 bf
       -0.46554595 -0.3833453 3.7273054 -1.1844265
000180 18 49 4a c0 2b 88 95 3e f7 b0 63 bf 89 89 80 3f
       -3.1607113 0.2920545 -0.889419 1.0041972
000190 c6 43 0a c0 41 58 41 bf 75 04 07 3f c1 24 94 c0
       -2.1603866 -0.7552529 0.52741176 -4.6294866
0001a0 4d 9d 99 be 52 f1 a0 3f 30 df eb 3e d0 e7 c8 3f
       -0.30002823 1.2573645 0.46068716 1.5695744
0001b0 d7 dc c9 3e 94 22 a5 bf 5a 89 6b 3e 57 31 ac bf
       0.394263 -1.2901177 0.23001614 -1.3452557
0001c0 f9 e8 c2 c0 d6 ed ed bf 94 ef 3f 3f 1b 53 61 c0
       -6.090939 -1.8588207 0.7497494 -3.5206974
0001d0 fb bb 7e bf 4f 4a 07 c0 15 ee 5d c0 02 87 48 bd
       -0.99505585 -2.1139104 -3.4676564 -0.04895688
0001e0 ea 68 61 bf 8f 87 8d 3d 7f 21 cf 3f 86 67 85 c0
       -0.8805071 0.069106214 1.6182097 -4.168887
0001f0 e0 d8 2a 3f 7c 18 1c bf ed 14 b7 bf b6 50 f3 3f
       0.66737175 -0.6097486 -1.4303261 1.9009006
000200 98 ea 27 40 48 20 77 3f ae 3b f7 3e 98 3b 47 c0
       2.6236935 0.9653363 0.4828772 -3.1130123
000210 a4 f9 26 3f 5d fa 07 be c1 77 7d bd 66 d4 8c 3e
       0.6522467 -0.132791 -0.061881784 0.27505797
000220 7b 87 3e be eb cb eb 3f e0 d9 18 c0 6e c4 82 3f
       -0.18606369 1.8421606 -2.388298 1.0216196
000230 3d ff 34 c0 a1 bf aa be 02 f7 ca be 06 3b f5 3f
       -2.8280785 -0.33349326 -0.39641577 1.9158638
000240 92 df 8f 3f 73 ff 57 bf ca 1c f5 3f 48 6b 31 3f
       1.1240103 -0.8437416 1.9149411 0.69304323
000250 cc 34 fa bf 3d ef 43 bf de bb 31 bf 09 54 d9 3e
       -1.9547362 -0.76536924 -0.6942729 0.42446926
000260 d5 2b 22 bb 5e 1e 4e 40 bf 42 32 3f 9e bd db bf
       -0.0024745364 3.2206035 0.69633096 -1.7167242
000270 98 2a 17 40 c6 43 8c bf eb e2 7d bf f2 fa d7 3f
       2.3619747 -1.0958183 -0.99174374 1.6873457
000280 66 e6 e1 3c 59 dc a0 3e 4d e5 3e 40 0d 35 83 c0
       0.027575683 0.31418112 2.9827454 -4.100226
000290 ab b9 7d 3e b6 77 dd 3f ee 95 ec bf 1a 71 db bf
       0.24777858 1.7302158 -1.8483255 -1.7143891
0002a0 2c 60 a7 3f 07 23 83 c0 57 0d 42 3e 00 c0 41 3f
       1.3076224 -4.098026 0.18950401 0.75683594
0002b0 8d c1 37 3f 23 65 24 bd 6b 75 7d c0 5d 03 e3 40
       0.7177971 -0.040135514 -3.9602916 7.0941606
0002c0 b6 23 1e c0 6a dc 81 c0 07 75 b0 40 2e e4 de bf
       -2.4709296 -4.058156 5.5142856 -1.7413385
0002d0 65 cd 36 bf 8d 51 fc be 6a bc a8 3f ee 6b 03 40
       -0.7140716 -0.49280968 1.31825 2.0534625
0002e0 9c f9 d7 bd e4 77 5a 3e 45 b6 00 40 8d f1 41 c0
       -0.10545656 0.21334797 2.0111248 -3.030368
0002f0 cf b2 1c be 57 8a 99 bf ee 26 65 3e 92 a6 47 be
       -0.15302585 -1.1995343 0.22378132 -0.19497135
000300 ee 5d ae 3d a2 0a 46 be 45 8d 60 40 49 3f 5a c0
       0.085140094 -0.19339994 3.5086224 -3.4101126
000310 bc 94 93 bf ee 1b 66 40 57 b6 42 3f fc b4 71 3f
       -1.1529765 3.5954547 0.7605948 0.94416785
000320 6b f5 19 3f a5 59 65 bf 95 5a 16 3e 29 4d 2f c0
       0.60140103 -0.8958991 0.14682992 -2.7390845
000330 29 e8 63 3f 3a 20 58 c0 92 fb 65 be 90 a3 07 40
       0.89026123 -3.376967 -0.22459248 2.119358
000340 da 47 9b be a5 58 52 c0 0d e2 18 40 7b e8 51 3e
       -0.30328256 -3.2866604 2.388797 0.2049884
000350 61 2c 51 bf 88 0b 3c 40 42 2b e9 3f db d3 e7 bf
       -0.8170834 2.9382038 1.8216326 -1.8111528
000360 ee 88 bd bf 64 37 1b be 4c 77 61 3f 13 08 3a c0
       -1.4807413 -0.15157849 0.8807266 -2.9067428
000370 68 58 06 40 a6 0c 22 3e e6 f7 6a c0 38 d7 c6 3f
       2.099146 0.15825137 -3.6713805 1.553443
000380 61 f1 94 bf aa 4d 86 3d e7 1f c6 bf cb 9d 95 3e
       -1.1636163 0.06557782 -1.5478486 0.2922195
000390 dd 05 81 bd fc f6 89 3f fe 88 a7 3f 34 e8 8b bf
       -0.062999465 1.0778499 1.3088682 -1.0930238
0003a0 1c 20 85 bf e6 a8 44 40 bf f1 40 c0 47 76 3d 3f
       -1.0400424 3.0728087 -3.014755 0.740086
0003b0 df 67 56 bf 75 b9 51 c0 2f 4b eb 3f 02 1f c5 bf
       -0.83752245 -3.2769444 1.8382319 -1.5400088
0003c0 66 e0 07 c0 ad a8 88 3e 68 12 1c bf a0 f3 88 be
       -2.1230712 0.2669119 -0.60965586 -0.2674837
0003d0 32 b4 c4 be 96 db 8a 3f 1a 3a 01 c0 98 7e cf bf
       -0.38418728 1.0848262 -2.0191712 -1.6210508
0003e0 e1 aa da 3f d7 f5 dc bf 72 75 d3 bf 6b 33 a7 40
       1.7083398 -1.7262524 -1.6520216 5.2250266
0003f0 e0 79 4a 40 38 bf 39 3f 95 b2 31 40 4b f7 31 40
       3.1636887 0.725574 2.7765248 2.7807186

layer1.1.bn2.weight f4 [16]
000000 59 8a 5f 3f 78 ce 4a 3f 30 e0 e2 3e 77 40 69 3f
       0.87320477 0.79221296 0.44311666 0.9111399
000010 18 c8 c6 3e 30 b7 1f 3f 9e ea 4c 3f 5f af 4f 3f
       0.38824534 0.62388897 0.800455 0.8112697
000020 4b 89 12 3f d8 1c 0f 3f e1 9e 39 3f f0 ea b4 3e
       0.5724074 0.5590339 0.72508055 0.35335493
000030 08 fa 99 3f 65 d1 7d 3f 24 30 39 3f fb c5 c4 3e
       1.2029428 0.99147636 0.7233908 0.38432297

layer1.1.bn2.bias f4 [16]
000000 5b 41 cd be ee f1 98 be da c5 c8 3d ad a8 e3 be
       -0.40088925 -0.29872078 0.09803362 -0.44464627
000010 1d 80 95 3e 45 22 d6 bd 81 85 ea be 88 d6 c5 be
       0.29199305 -0.10455755 -0.4580498 -0.38640237
000020 18 d6 0e 3d cc 99 4b 3f a8 d8 cc be 15 b5 7b 3e
       0.034872144 0.7953155 -0.40009046 0.24580796
000030 93 06 9c bf 41 26 50 bf c8 62 ee be 86 bb bd 3d
       -1.2189506 -0.8130837 -0.4655974 0.09264283

layer1.1.bn2.running_mean f4 [16]
000000 94 4e 75 c2 5b ee 6f 41 e4 a5 97 c2 80 3d 46 c0
       -61.326736 14.995692 -75.824005 -3.0975037
000010 a1 64 a5 c1 c6 56 06 c1 43 7f 8e c2 81 8d 7e 40
       -20.674135 -8.396185 -71.24856 3.9773867
000020 dd f5 3e c1 95 c6 eb 42 24 c7 29 40 9f b7 a5 42
       -11.935025 117.887856 2.6527796 82.858635
000030 5a af 16 c2 62 0e a2 c2 43 dc 3d c2 22 f2 3e c1
       -37.67124 -81.02809 -47.4651 -11.934114

layer1.1.bn2.running_var f4 [16]
000000 2b f1 68 45 59 49 aa 45 82 51 6b 45 d0 a5 16 46
       3727.073 5449.1685 3765.0942 9641.453
000010 b1 0c 53 45 9b ad b7 45 89 e1 01 46 83 c8 cf 45
       3376.7932 5877.7007 8312.384 6649.064
000020 0b f7 71 45 23 ef d6 45 79 e3 47 45 71 c4 2f 45
       3871.4402 6877.892 3198.217 2812.2776
000030 fd fd 07 45 4d bb 73 45 d9 47 87 45 35 ab 18 45
       2175.8743 3899.7063 4328.981 2442.7004

layer1.1.conv2.weight f4 [16, 16, 3, 3]
000000 84 58 9f 3d 49 ca 10 3f b0 9f a5 3f 43 c6 1f bf
       0.07780555 0.5655866 1.2939358 -0.624119
000010 34 28 be 3e 0d c8 a0 3f d0 34 64 3f 33 20 cc 3d
       0.37140048 1.2561051 0.89143085 0.09967079
000020 48 1a c4 3f e3 41 b2 3f 91 b5 a2 be 17 9a 71 3e
       1.532052 1.3926357 -0.3177915 0.23593937
000030 e0 77 54 bf b8 82 f5 bf 90 ff d1 be 60 e4 9a 3f
       -0.82995415 -1.9180517 -0.4101529 1.2100945
000040 bd a0 5d be c7 09 85 3f 64 53 22 bf bc 0c 41 c0
       -0.21643348 1.0393609 -0.63408494 -3.0164022
000050 ae e2 0d 3d 31 c0 66 bf f9 30 3f bf 04 5f be 3f
       0.034640007 -0.9013701 -0.746841 1.4872746
000060 44 9b 92 bf 66 fc 49 be 4e ef f8 bf e4 8d 36 3f
       -1.1453633 -0.19725189 -1.944803 0.7131026
000070 cc 34 c9 3f 36 42 3c 3f 7b b9 81 40 68 1a a3 40
       1.5719237 0.7353853 4.0538917 5.0969734
000080 f5 c7 18 40 82 c9 44 40 0d 5e 77 40 9f 23 92 3f
       2.3872044 3.074799 3.8651154 1.1417121
000090 f5 81 38 bf 51 45 39 3f 3f 61 8a bf b1 37 b4 3e
       -0.720733 0.72371393 -1.0810927 0.3519874
0000a0 a2 77 13 3f 9f 9e ac be 5e eb 55 3f 7b f1 6d 3f
       0.5760442 -0.33714768 0.83562267 0.92946595
0000b0 ee be a0 3e 12 81 e8 3f 34 0f 31 40 63 f1 17 40
       0.31395668 1.8164389 2.766553 2.374108
0000c0 f1 11 5e 40 18 43 1a 40 bf e9 3a 40 b8 04 07 40
       3.469845 2.410345 2.9205167 2.109663
0000d0 8a 3d 52 40 ba 15 07 40 e5 4e 4d bf 67 1f d9 be
       3.285006 2.110701 -0.8019851 -0.4240677
0000e0 a1 55 f1 3e cc 71 9e bf 4f 5d 00 c0 20 71 fe be
       0.47135642 -1.2378478 -2.005695 -0.49695683
0000f0 34 44 ed be 99 2e db bf 08 39 d8 bf c9 c8 32 be
       -0.46341097 -1.7123595 -1.6892405 -0.17459406
000100 92 cd 63 3f fa bf ac bf 78 d7 eb be d3 7d 66 40
       0.8898555 -1.3496087 -0.46062827 3.6014297
000110 f0 bf f8 3f 9f 36 30 3f ea cc 17 40 ec 9a 6e be
       1.9433575 0.68833345 2.371882 -0.23301286
000120 55 d2 28 bf 9e 0a 1b bf c2 fe 3d bf 9f 22 f2 bf
       -0.6594594 -0.60563076 -0.74216855 -1.8916816
000130 e9 9f 38 c0 5d 18 fc bf 91 fa a8 be f8 2f 93 3e
       -2.8847601 -1.9694935 -0.33003667 0.28747535
000140 8e 5c 1d 3d 30 5a ef 3f 51 4b b6 3e 95 c0 27 40
       0.038418345 1.8699398 0.35604337 2.6211293
000150 83 d1 cf 3e 50 60 33 c0 6a 06 d8 3f 1c 38 ec 3f
       0.40589532 -2.8027534 1.6876957 1.8454623
000160 3b bf 50 c0 2d b7 ea bf a3 3e 9e 3e 35 ff d8 bf
       -3.2616718 -1.8337151 0.30907163 -1.6952883
000170 1f 2c 14 c0 39 b0 f6 3e 2e 33 47 3f 9c 2f 45 3d
       -2.315193 0.48181322 0.7781247 0.048141107
000180 d1 3d f6 bf e0 12 56 3e a2 de b0 3f 8a 55 7d bd
       -1.9237615 0.20905638 1.3817942 -0.061849155
000190 e7 d7 1d bf 4c a1 bd 3e c3 0e 20 c0 b2 8b b5 be
       -0.61657566 0.37037122 -2.500901 -0.35458142
0001a0 d8 ae fb 3f 83 c9 c0 bf 42 51 e5 3e f9 2d 0c 40
       1.9662733 -1.5061496 0.44788557 2.190306
0001b0 13 48 d6 3b ca fc 0c c0 77 eb a1 bf 2f 1f 1c 3f
       0.0065393536 -2.202929 -1.2649983 0.6098508
0001c0 e2 cb 61 bf 02 f3 6a bf 66 74 26 3f 01 7c 8b 3f
       -0.88201725 -0.9177705 0.6502136 1.0897218
0001d0 3c 82 a2 3f fe 9e ce bd 15 62 c8 be 53 d1 56 3f
       1.2695994 -0.10088919 -0.3913733 0.83913153
0001e0 23 26 2c 3e 3d 41 9d bf b4 d2 bb 3f 5b a3 b8 bf
       0.16811423 -1.2285534 1.4673676 -1.4424852
0001f0 f1 4b 03 c0 73 ed 2e 40 69 06 c7 3f 72 bc 2a 3f
       -2.05151 2.7332428 1.5548831 0.66693795
000200 ce 40 87 bf 6c a9 b5 be e6 2c c2 3e 2a 26 65 3f
       -1.0566652 -0.3548082 0.3792488 0.8951136
000210 b9 1a 9b bf 1a 80 3c bf ff e9 25 3e 26 0b 24 3f
       -1.211753 -0.7363297 0.16202544 0.6407951
000220 7b 19 8e 3f dd 13 78 bf 24 bb ea 3f 5c 1f 41 40
       1.1101526 -0.9690531 1.8338361 3.017539
000230 07 af 27 be ea b3 2d be 84 f7 96 3f a3 8c b6 bf
       -0.16375361 -0.16963163 1.1794286 -1.4261669
000240 87 60 82 3e 81 6a 1f 3f cb c7 dc 3d 6b 9e 78 be
       0.2546427 0.6227189 0.10780295 -0.24279182
000250 0f 21 24 bf 5d f3 17 bf be fe 7c 3e c2 a3 1d bf
       -0.64112943 -0.5935572 0.24706551 -0.61578
000260 38 5b 8d bd fd b0 b0 bf 1c eb 09 bf ec 4e b9 bf
       -0.06902164 -1.3804013 -0.53874373 -1.447721
000270 e4 5c ba bf b4 83 ad be b1 3b 8d bf f8 a8 ab be
       -1.4559598 -0.33889544 -1.1033841 -0.3352735
000280 84 45 4a bf ce 0f bc be a4 3a a8 bf f1 5c 8f 3e
       -0.7901232 -0.36730808 -1.3142896 0.28000596
000290 ad c6 c6 3e 87 fb 6f bf d2 7e 87 3f 7d d8 bc bf
       0.38823453 -0.93743175 1.0585577 -1.4753567
0002a0 c4 c4 20 bf 72 3a 63 3e cf e1 32 be 5f 83 bc 3d
       -0.6280024 0.22190264 -0.17468952 0.092047445
0002b0 51 9c d5 3b df 71 e0 be 1d a1 32 3f 11 de c4 be
       0.0065188785 -0.43836877 0.6977709 -0.38450673
0002c0 28 0c 04 3f 2c 9f 80 3f 60 d1 43 3f 97 ca e0 3e
       0.5158105 1.0048575 0.76491356 0.43904564
0002d0 ff 77 94 3d f2 41 61 bf e8 94 5b 3d 8a 53 8e bf
       0.0724945 -0.8799125 0.053608805 -1.1119244
0002e0 1b 95 c2 bf db e1 de be 2a ef 34 bf 9d 0d 42 bf
       -1.5201753 -0.4353169 -0.70677435 -0.7580202
0002f0 21 32 91 be 22 53 33 3f 41 5c 53 3f d7 1b c1 3d
       -0.28358558 0.70048726 0.82562643 0.09429138
000300 7a 3a a6 bd 65 44 1c 3f ad bc 1b 3f 74 e1 42 3e
       -0.08116622 0.6104186 0.6083477 0.19031316
000310 6c e4 6d 3f 05 a8 fc 3e 9d 07 85 3e bd 34 30 bf
       0.9292667 0.4934694 0.2598237 -0.6883047
000320 74 4d 9b 3e 65 de 73 be 75 d0 02 3f c6 aa 6c 3f
       0.3033253 -0.23815306 0.5109933 0.9244808
000330 55 d4 ec be 3b f3 04 bf bc e0 ec 3d 58 3f 80 bf
       -0.46255746 -0.5193364 0.11566302 -1.0019331
000340 3b 5a 71 3e 05 17 33 be 5d 20 f2 3e 0e 0b 41 bf
       0.23569576 -0.1748925 0.47290316 -0.75407493
000350 09 12 12 3f 92 f2 a6 bf df a2 6d bf c9 22 c7 bd
       0.5705877 -1.3042777 -0.92826647 -0.097234316
000360 1b 0d 45 3f fd aa 05 3f 52 bd 4b 3f 66 5c e1 3f
       0.7697312 0.5221403 0.79585755 1.7606323
000370 a7 35 1b 40 3e d9 d8 3f c3 68 b8 3e fb 63 0f 3d
       2.4251497 1.6941297 0.36017427 0.03500746
000380 8e 3b 7d 3e 2b 86 4f 3e ab 3d d0 be bd 7c 29 3f
       0.2472975 0.20266025 -0.4067205 0.6620596
000390 94 7d 45 be 68 dc 53 bf 4b 5c 15 be 85 7c 96 3f
       -0.19286186 -0.8275819 -0.14585988 1.175675
0003a0 6b 4f 9c bf 1a 51 d4 3e 40 ce 0e 3f 8e 50 2b 3f
       -1.2211736 0.41468126 0.5578346 0.6691979
0003b0 87 8e 8b 3f cd 62 69 3e 11 c5 d6 3e f0 1a 90 3f
       1.0902871 0.22791596 0.41947225 1.1258221
0003c0 17 6a 70 bf ac 7d ab bf 88 cf 37 3f 97 e9 91 3e
       -0.9391188 -1.3397727 0.7180104 0.28498527
0003d0 c4 4f 53 bf 0f 51 a6 3f f2 61 9c be 9c 24 e2 be
       -0.8254359 1.2993487 -0.30543476 -0.44168556
0003e0 a7 63 30 3c a1 3e 3b bf df b3 49 bf 60 cf 03 bf
       0.0107659465 -0.7314244 -0.78790087 -0.51488304
0003f0 57 41 9a 3f 6c ff 08 40 91 ac 17 40 66 d7 d5 3e
       1.205119 2.1405897 2.3699076 0.41765898

layer2.0.bn1.weight f4 [16]
000000 64 52 23 40 a9 44 34 40 7b c8 e0 3f a2 6f 2b 40
       2.5519037 2.8166907 1.7561182 2.6786885
000010 46 bc 59 40 45 e1 2f 40 b8 6e 05 40 74 09 09 40
       3.4021163 2.7481244 2.0848827 2.141202
000020 bf 2d 5c 40 e2 77 36 40 a3 b5 04 40 7d 7d 2b 40
       3.4402921 2.851067 2.0735862 2.6795342
000030 81 f1 f0 3f 90 3d da 3f 08 24 4b 40 05 47 48 40
       1.8823701 1.7050037 3.1740742 3.1293347

layer2.0.bn1.bias f4 [16]
000000 45 16 90 3f 49 26 ad be 3c ed 9e 3f 52 db 4a bf
       1.1256796 -0.33818272 1.2416148 -0.79240906
000010 a6 5f 99 3f af 27 17 40 f6 3c 90 3f 0f 46 5d be
       1.1982315 2.361797 1.1268604 -0.21608756
000020 08 2a c0 bf 1a 97 94 3f 84 b6 d0 40 e2 99 94 3d
       -1.5012827 1.1608613 6.5222797 0.07255913
000030 9a 30 8a bf de 0f 18 40 c8 bd 97 bc 8c 43 00 bf
       -1.0796082 2.3759685 -0.018523112 -0.5010307

layer2.0.bn1.running_mean f4 [16]
000000 e9 81 fe 40 1c f5 f4 bf a6 e9 b8 40 86 04 d0 c1
       7.953358 -1.9137301 5.7785215 -26.002209
000010 bd 81 28 c1 9d c8 10 40 95 cf 7f 41 0b 38 2b c1
       -10.531674 2.2622445 15.988179 -10.701182
000020 3b af 98 c0 34 e9 29 be 5f 91 c1 40 56 b7 63 bf
       -4.7713904 -0.16592866 6.0489955 -0.88951623
000030 2e f5 d5 c0 6e fe 82 41 a2 94 d1 c0 c3 1e d4 c1
       -6.686179 16.374233 -6.5493937 -26.51502

layer2.0.bn1.running_var f4 [16]
000000 fd d6 28 44 58 ca 6a 44 50 02 63 43 bb 13 92 43
       675.3592 939.1616 227.00903 292.15414
000010 7b 2d 46 43 e6 19 78 43 8d de 27 43 40 55 58 43
       198.17766 248.10117 167.86934 216.33301
000020 79 6c 9f 42 a9 57 4f 43 d2 70 a7 43 56 95 cd 42
       79.71186 207.34242 334.8814 102.79167
000030 7b 37 12 43 a5 fb 94 43 97 21 5d 43 5f 31 86 43
       146.21672 297.96597 221.13121 268.3857

layer2.0.conv1.weight f4 [32, 16, 3, 3]
000000 ce a5 a1 bf 90 b9 01 c0 86 ea a2 bf d4 7f d7 bf
       -1.2628725 -2.0269508 -1.2727821 -1.6835885
000010 35 ac 8f bf 64 b1 d3 bf 84 ea c9 be 0d 69 1e 3f
       -1.1224428 -1.653851 -0.39436734 0.61879045
000020 fb a6 b7 3f 6d 56 90 40 76 84 c2 40 ff 75 9d 40
       1.4347833 4.51055 6.0786695 4.920654
000030 1f a8 e9 40 f1 0d 2e 41 54 6f dd 40 3e d7 cf 40
       7.3017726 10.878404 6.91984 6.4950247
000040 f3 36 03 41 ae d2 c2 40 0e 4b 46 bf 7c fa f6 bd
       8.200915 6.0882177 -0.77458274 -0.12059495
000050 6c 20 08 c0 ba 26 e5 bf 56 d7 b0 bf f9 fd 26 c0
       -2.1269789 -1.7902443 -1.3815715 -2.6092513
000060 c8 c2 e0 3e 3f 08 10 3e 92 04 07 40 20 7d 8e bf
       0.43898606 0.14065646 2.109654 -1.1131935
000070 32 b8 9c bf a3 99 2b bf c5 e5 91 3d f8 8c d0 bf
       -1.2243712 -0.67031306 0.07123903 -1.629302
000080 e1 e3 b7 3f 8f 42 c5 bf 39 e1 a6 3e 54 f6 88 be
       1.4366418 -1.5410937 0.32593706 -0.26750433
000090 6c 2b 3e 3f cb 02 39 c0 1e 40 2d c0 ed ba 16 3e
       0.74285007 -2.8907955 -2.7070384 0.14719744
0000a0 98 19 61 be 66 28 ca 3f 6d a8 6e be f3 30 51 3f
       -0.2198242 1.5793579 -0.23306437 0.81715316
0000b0 7c 43 44 40 69 f4 fe bf ec 04 00 40 38 63 09 40
       3.066619 -1.9918338 2.0003004 2.1466808
0000c0 cb 5f 13 bf 8a c4 57 40 bc bc d7 3f 8b 9a de 3f
       -0.57568043 3.3713708 1.6854472 1.7390913
0000d0 41 49 84 3f 22 71 a1 3e f0 a6 45 bd 92 9d 4c bf
       1.0334855 0.31531626 -0.048254907 -0.79927933
0000e0 9e 03 e1 be e0 44 65 3f c2 26 f8 3f 48 05 2e bf
       -0.43948072 0.8955822 1.9386828 -0.6797681
0000f0 f9 36 80 3c 39 9d ad 3e 60 c0 c8 bf ba 85 8e bf
       0.015651213 0.33909014 -1.5683708 -1.113456
000100 62 7b 48 3f ed d2 75 3f e1 2f 6b bf 33 5c 2e bf
       0.7831327 0.9602497 -0.9186993 -0.68109435
000110 a4 95 df 3b 84 60 1d be 66 16 3f bf ad e3 13 bf
       0.0068232585 -0.15368849 -0.7464355 -0.5776928
000120 91 89 10 be 47 df e7 bf 22 4c 36 bd b8 1a e1 be
       -0.14114977 -1.8115014 -0.0445062 -0.43965697
000130 f0 0f 09 c0 58 ad 18 3f 69 8c e9 3f 16 b0 bf bf
       -2.1415977 0.596395 1.8245975 -1.4975612
000140 16 ff c9 3f c6 a9 d8 3f 5f 93 0e 3f 8c 32 01 c0
       1.5780971 1.6926811 0.5569362 -2.0187101
000150 c2 14 80 bf 50 b6 8d bf e7 27 36 3f 9f 53 2f 3e
       -1.0006335 -1.1071262 0.71154636 0.17121743
000160 b5 ab 59 3f f2 49 c5 3f 9b bb 80 bf ea 8c 7a bf
       0.8502763 1.5413191 -1.0057253 -0.9787127
000170 d6 aa 85 be 63 ef ad 3e 6c f1 83 3f a0 24 81 3e
       -0.261069 0.339717 1.0308051 0.25223255
000180 a4 d1 c7 bf 4c 0c 19 c0 74 ca 32 c0 41 4e 6e bf
       -1.5610852 -2.3913755 -2.7936068 -0.93088156
000190 b5 cf 9c bf 2e 47 50 bd 3e d9 0c c0 8e a4 ba be
       -1.2250887 -0.050849132 -2.2007594 -0.3645367
0001a0 ff a4 02 c0 85 93 c7 bf 2e 77 02 3f 2c 14 9e be
       -2.0413206 -1.5591894 0.50963104 -0.30874765
0001b0 c4 de 05 3f b6 a3 0c c0 4a 81 66 c0 e1 33 b0 3f
       0.5229304 -2.1974921 -3.6016412 1.3765832
0001c0 66 c6 b1 c0 07 99 78 c0 ae a8 4c 3f 01 aa 86 c0
       -5.5554686 -3.88434 0.79944885 -4.2082524
0001d0 c0 b5 10 bf 81 3f 9d 3f db f3 1b c0 cd 09 13 bf
       -0.5652733 1.2285005 -2.4367588 -0.5743683
0001e0 e1 f9 9e be c9 39 d3 bf 98 30 9d bf 06 7d 5a 3f
       -0.31050017 -1.650201 -1.2280455 0.8534702
0001f0 b9 80 c0 3f 2f 65 9c bd ca 69 df be f8 3f e9 3c
       1.5039283 -0.07636487 -0.43635398 0.028472885
000200 8a 33 fd be 46 21 93 3f 02 e3 7e 3f 21 76 b3 bf
       -0.49453384 1.1494529 0.99565136 -1.4020425
000210 55 bd 94 3e b2 7b c3 3f 80 8e 35 bf 09 45 4c bf
       0.290507 1.5272124 -0.7092056 -0.7979284
000220 09 08 0f c0 83 36 e4 3f 63 37 93 3f e5 b4 fa be
       -2.2348654 1.7829136 1.1501278 -0.48966137
000230 20 1b ce 3f 4f 99 6d 3f c4 31 bf 3e 0c 08 ad 3f
       1.6102028 0.92812055 0.37342656 1.3518081
000240 3d 51 9d bf 43 47 26 3e 1e 89 97 bf 0c c0 c9 3f
       -1.2290417 0.16238122 -1.183872 1.5761733
000250 da 47 42 3f 2c d1 2c 3f fb 78 17 3f 11 c5 84 bf
       0.75890887 0.6750667 0.59168977 -1.037264
000260 37 b6 32 bf 13 a4 dd 3f 50 07 79 3e df d3 bf bd
       -0.6980929 1.7315696 0.24319196 -0.09366583
000270 42 58 ed 3f 50 b2 b4 3f c9 49 87 be 37 28 08 c0
       1.8542559 1.4116917 -0.2642348 -2.1274545
000280 1c 10 6c bf 95 03 c4 bf 73 55 d4 bd 84 98 10 40
       -0.9221208 -1.5313593 -0.10367861 2.2593088
000290 3b 02 a8 be 0e e9 53 40 da 3e 6a 40 f1 88 60 3f
       -0.32814202 3.3110995 3.6600862 0.87708956
0002a0 c9 6b 8e be 21 c5 fe 3d 7c 34 cd 3e a6 76 80 bf
       -0.2781661 0.12439943 0.40079105 -1.0036209
0002b0 2f 16 25 3f d2 42 8a bf 7e 78 09 c0 da ee d3 3f
       0.64486974 -1.0801642 -2.1479793 1.6557267
0002c0 b0 f4 0a 3f 0a ea 3b 3f 3c aa 9d bd 2b 77 9e 3f
       0.54279613 0.7340399 -0.07698485 1.2380117
0002d0 56 c3 2f bf d8 14 4e 3f 42 02 60 3f 1c 31 84 3f
       -0.68657434 0.80500555 0.87503445 1.0327487
0002e0 7d 07 0f bf 77 74 df 3f f7 b1 06 c0 06 37 88 3f
       -0.558708 1.7457417 -2.104612 1.0641792
0002f0 6d 37 31 40 32 69 c3 3f 74 e0 96 40 3c 8e c8 3e
       2.769008 1.5266478 4.714899 0.39171016
000300 2e 77 b2 40 83 aa 31 41 b3 89 e9 40 7c 11 cc 3e
       5.5770483 11.104129 7.298059 0.3985709
000310 5b b3 e7 3f 30 81 c9 3f 8b 1e 6f 3f bb 6f b8 3f
       1.810161 1.574255 0.9340598 1.4409097
000320 06 24 fc 3e cc d4 0b 40 23 db 63 40 88 8d b3 3f
       0.49246234 2.184863 3.56025 1.4027567
000330 b5 b8 8e 3e fa aa c7 3f 74 bc 14 3e 66 05 ee bf
       0.27875295 1.5599053 0.14525014 -1.8595397
000340 fa 21 08 3f 8a 19 98 bf 1b 32 e5 bf a3 13 55 bf
       0.53176844 -1.1882794 -1.7905916 -0.8323309
000350 d3 9f cd be 38 7c 18 3f 69 04 45 3f 75 06 53 be
       -0.40161 0.5956454 0.76959854 -0.20607932
000360 19 20 1a be 83 25 00 bf 43 52 54 3f 06 09 03 c0
       -0.15051307 -0.5005724 0.8293802 -2.0474257
000370 9e 71 9c c0 74 dd 16 c0 bd ac 76 bd f1 db 9c c0
       -4.8888693 -2.3572664 -0.06022333 -4.9018483
000380 ac bd 4d c0 ee 7b c2 bf 8f aa 99 bf b0 95 11 c0
       -3.2147017 -1.519407 -1.2005175 -2.2747612
000390 3d 01 08 bf 5a fa 23 3f e1 e5 94 bf e4 85 08 be
       -0.5312689 0.6405388 -1.1632653 -0.13332325
0003a0 35 cd 95 3f 3e d3 ca 3f 76 89 93 3f d6 db 03 3c
       1.1703249 1.5845716 1.1526325 0.008048018
0003b0 32 db e4 3e 4f 59 26 40 75 a2 90 40 3d a3 c8 3f
       0.44698483 2.599201 4.519831 1.5674816
0003c0 ec 3f 65 bf 20 67 6f bf b8 9c c4 be 6f 0e ae 3f
       -0.8955066 -0.9351673 -0.38400817 1.3598155
0003d0 15 72 b0 bf 9f 2f 9f be 9c 47 de bf 38 5d 81 c0
       -1.3784815 -0.3109102 -1.7365603 -4.0426292
0003e0 72 69 35 c0 21 2c 52 3f f4 23 20 c0 24 31 42 bf
       -2.8345609 0.82098585 -2.5021944 -0.7585623
0003f0 3d c5 92 3f fb 1b 19 c0 63 fb 2b c0 da dc 8e 3f
       1.1466442 -2.3923328 -2.6872184 1.1161149

layer2.0.bn2.weight f4 [32]
000000 2d a3 9b 3f fe 4a bc 3f 2d d3 b9 3f 55 03 b8 3f
       1.2159172 1.4710386 1.4517571 1.4376017
000010 c4 f7 8c 3f b8 65 80 3f 86 4c b3 3f a1 92 b4 3f
       1.1013112 1.0031042 1.4007728 1.4107248
000020 31 80 79 3f bf 04 a6 3f b9 63 96 3f 20 56 b3 3f
       0.9746123 1.2970198 1.1749183 1.4010658
000030 89 3f 9d 3f cc c2 da 3f 8c 55 c3 3f 02 ff 7d 3f
       1.2285014 1.7090697 1.5260482 0.99217236
000040 e8 99 a4 3f ee 9e 8f 3f 7f 35 b3 3f 94 0c 70 3f
       1.2859468 1.1220376 1.4000701 0.9376919
000050 aa 02 9e 3f 04 5b 99 3f 77 b8 85 3f 21 99 8b 3f
       1.2344563 1.1980901 1.0446919 1.0906106
000060 4d 52 a5 3f f4 96 ad 3f 7d 7f 8d 3f a8 02 98 3f
       1.2915741 1.3561692 1.1054531 1.1875811
000070 7f 0f 9c 3f d7 04 a7 3f a1 e5 a8 3f 45 8d b4 3f
       1.2192229 1.3048352 1.3195077 1.4105612
