Our_code/Pytorch/Basic_experiments/trained_students/t-16-2-student-16-1.pth (torch_old, 718602 bytes, 69 tensors)

conv1.weight f4 [16, 3, 3, 3]
0.95114255 -0.3613974 -3.7860034 4.0465255 0.15759966 -6.2423043 3.825652 4.4887633
-1.188372 -0.68614036 1.4181843 0.036528718 -1.4535123 0.73010826 -0.30775222 -2.0349727
0.8436904 -0.50781727 -0.19188622 0.3794865 2.7416189 -2.4413838 0.17672628 5.469825
-4.1657586 -1.9960889 1.2026865 -1.9313082 -3.2225173 -1.5798489 -0.8208278 -2.008989
-0.7749737 1.975413 1.877738 2.4216626 1.1100659 0.9164501 0.16754681 1.0414107
0.19527163 0.034522433 -0.25345567 -0.98568255 -0.28499404 0.4194066 2.1412525 1.6822275
0.5436483 0.8945228 0.3335119 -1.2049603 -1.4110955 -1.3385035 -0.3691241 0.6058804
-0.08264432 -0.15267861 -3.883661 -0.47010636 -0.61164224 4.224351 0.10440425 -0.07605221
-0.45223606 0.09386444 0.37134215 -2.959251 -1.2626525 -0.30138543 4.5333548 0.4299267
0.37350553 -0.37441552 -0.49220642 -0.38186508 -2.0105946 0.00095883117 0.023836564 3.1349254
0.13378014 0.4843 1.2592391 0.9461463 1.1908079 4.9883246 -0.42984852 -0.1903232
-2.1742225 -0.6203553 -0.7885863 0.2579244 -0.8183915 -0.53610766 3.6616452 -1.2365711
0.26622993 0.011733021 -0.09688764 -0.1825985 -0.06477477 0.583991 -0.7270307 0.9273733
-0.18519346 -0.5618762 -0.8394167 -0.92272204 -1.8504624 -2.4385672 -1.8904765 0.06450409
2.6341639 2.6507757 1.667647 6.29672 4.417024 0.82250065 0.4054148 0.37363774
-0.81234133 -2.5436091 -1.5329086 -0.9654808 -2.7156477 -2.8380485 1.6004956 2.5116522
1.7413962 0.7420897 -1.0871797 0.0067356965 -1.4894879 -3.678771 -2.6649036 -0.36967424
-0.1734883 -0.13502143 0.09234327 2.2400196 1.0281388 -0.4483948 1.4905841 1.1229615
0.8908901 -0.036303893 0.41234595 -0.31260777 -2.850429 -2.593199 0.8087878 -2.2994807
-2.4538739 -0.7729885 0.4686711 -0.4053608 0.2713574 1.4215246 1.353512 -0.06106905
0.8401221 1.7041224 0.32678306 1.2850838 0.2546816 0.83590734 -2.9451728 0.36637
-1.2738295 0.30106103 -0.8053698 -0.06386259 -0.52319247 0.014464648 0.31574956 -5.4741807
-0.41078064 0.4972995 0.12333339 0.657491 0.7181394 0.12217405 0.69296575 0.30835173
-4.600486 -0.4417448 -0.10102271 -1.1967098 -0.37225655 -2.7139065 -0.94624233 1.1681184
-5.7368917 -0.11275166 5.683495 -3.6756325 1.5210648 4.7674794 1.2248582 -0.09650327
-0.4436969 1.8275172 -1.0042908 -0.9658394 0.81934696 -0.19589214 -0.76063627 1.1905609
1.523391 -0.64126104 4.5366516 0.8803593 -4.2999945 2.0285838 -0.5509466 -4.398299
-0.25204262 -0.15272322 -0.32410493 0.4943435 5.5851445 1.3494018 0.124547146 -5.4846096
-0.46476826 0.4945779 0.96395975 -0.013191908 0.40784794 4.4190674 1.6225983 -0.71976787
-6.1418266 -1.4116913 -0.44055116 0.2657068 -0.1920301 0.71674216 2.936164 1.1366729
-0.050821714 -3.7743325 -0.18779863 0.27162278 0.5902503 -0.306741 0.18961844 -6.0009165
3.776462 0.79864085 2.0564713 -1.2706354 -0.13821064 0.7788601 0.26926452 0.8123429
00000000: 147e 733f 1409 b9be e14d 72c0 237d 8140
00000010: ce61 213e f5c0 c7c0 7bd7 7440 f3a3 8f40
00000020: 931c 98bf e5a6 2fbf 1087 b53f 239f 153d
00000030: b10c babf 60e8 3a3f b391 9dbe fe3c 02c0
00000040: 18fc 573f 5000 02bf d27d 44be 0e4c c23e
00000050: af76 2f40 a23f 1cc0 bcf7 343e ce08 af40
00000060: e54d 85c0 d77f ffbf a2f1 993f 1b35 f7bf
00000070: b93d 4ec0 7d38 cabf c521 52bf 4793 00c0
00000080: ad64 46bf 55da fc3f b859 f03f 85fc 1a40
00000090: a416 8e3f 799c 6a3f 6491 2b3e f24c 853f
000000a0: 49f5 473e 6567 0d3d f1c4 81be b155 7cbf
000000b0: bdea 91be 76bc d63e 480a 0940 3b53 d73f
000000c0: 892c 0b3f 72ff 643f 12c2 aa3e 243c 9abf
000000d0: c79e b4bf 1554 abbf d6fd bcbe fa1a 1b3f
000000e0: 6d41 a9bd c857 1cbe e78d 78c0 c8b1 f0be
000000f0: 9694 1cbf e22d 8740 e5d1 d53d 43c1 9bbd
00000100: 7c8b e7be 003c c03d 8f20 be3e 5e64 3dc0
00000110: 999e a1bf 314f 9abe 3e11 9140 5a1f dc3e
00000120: 1e3c bf3e 64b3 bfbe 7b02 fcbe d283 c3be
00000130: 95ad 00c0 125a 7b3a e644 c33c 9ea2 4840
00000140: a9fd 083e 2bf6 f73e bf2e a13f a536 723f
00000150: 656c 983f 5ba0 9f40 1b15 dcbe 16e4 42be
00000160: 7626 0bc0 9bcf 1ebf cbe0 49bf ab0e 843e
00000170: 1b82 51bf 5a3e 09bf 6558 6a40 f647 9ebf
00000180: 4a4f 883e db3b 403c 076d c6bd 1afb 3abe
00000190: a2a8 84bd 6f80 153f af1e 3abf 5668 6d3f
000001a0: 5ba3 3dbe 1ed7 0fbf 03e4 56bf 8337 6cbf
000001b0: f4db ecbf 7c11 1cc0 22fb f1bf b81a 843d
000001c0: 2496 2840 4fa6 2940 7575 d53f bb7e c940
000001d0: 4358 8d40 678f 523f 8792 cf3e 724d bf3e
000001e0: 9af5 4fbf 7eca 22c0 5936 c4bf c029 77bf
000001f0: 2ccd 2dc0 96a2 35c0 0add cc3f e9be 2040
00000200: 12e6 de3f 97f9 3d3f b428 8bbf 1eb7 dc3b
00000210: 8aa7 bebf fc70 6bc0 c88d 2ac0 f145 bdbe
00000220: eba6 31be 0f43 0abe 781e bd3d 7b5c 0f40
00000230: 0d9a 833f 0194 e5be 76cb be3f 34bd 8f3f
00000240: 6011 643f 64b3 14bd 021f d33e 200e a0be
00000250: 6e6d 36c0 f9f6 25c0 b80c 4f3f b12a 13c0
00000260: 450c 1dc0 93e2 45bf a9f5 ef3e 738b cfbe
00000270: 5bef 8a3e 85f4 b53f e23f ad3f 8a23 7abd
00000280: 3e12 573f af20 da3f 1c50 a73e a07d a43f
00000290: a065 823e 06fe 553f b67d 3cc0 d994 bb3e
000002a0: d80c a3bf ac24 9a3e b72c 4ebf 64ca 82bd
000002b0: f1ef 05bf 22fd 6c3c eda9 a13e 7d2c afc0
000002c0: d751 d2be 0a9e fe3e 3796 fc3d 5551 283f
000002d0: fcd7 373f 6336 fa3d 3466 313f 47e0 9d3e
000002e0: 2e37 93c0 602c e2be ffe4 cebd c92d 99bf
000002f0: 6998 bebe a5b0 2dc0 f03c 72bf e784 953f
00000300: 9e94 b7c0 58ea e6bd 31df b540 903d 6bc0
00000310: 40b2 c23f 318f 9840 27c8 9c3f 82a3 c5bd
00000320: 3d2c e3be 15ec e93f 9a8c 80bf 4041 77bf
00000330: b9c0 513f f397 48be 0fb9 42bf 4d64 983f
00000340: 7afe c23f af29 24bf 402c 9140 3a5f 613f
00000350: 8e99 89c0 51d4 0140 d60a 0dbf debe 8cc0
00000360: bb0b 81be 7a63 1cbe 15f1 a5be 971a fd3e
00000370: 81b9 b240 33b9 ac3f 9312 ff3d ec81 afc0
00000380: 1bf6 edbe 5139 fd3e 11c6 763f df22 58bc
00000390: 72d1 d03e 0069 8d40 4db1 cf3f b542 38bf
000003a0: d889 c4c0 4db2 b4bf ec8f e1be b90a 883e
000003b0: 8aa3 44be 6a7c 373f 1cea 3b40 7f7e 913f
000003c0: 6e2a 50bd aa8e 71c0 494e 40be 2412 8b3e
000003d0: a51a 173f 280d 9dbe 562b 423e 8207 c0c0
000003e0: 8eb1 7140 ba73 4c3f 3a9d 0340 2ea4 a2bf
000003f0: 1787 0dbe 6063 473f 0add 893e b4f5 4f3f

layer1.0.bn1.weight f4 [16]
1.8425299 2.588401 3.262286 2.5446935 2.951362 3.6516464 4.061051 2.7297776
3.263801 4.769869 2.6661432 2.0347683 1.8342322 2.4388683 2.5093598 4.376989
00000000: 05d8 eb3f 5da8 2540 4bc9 5040 42dc 2240
00000010: 1de3 3c40 93b4 6940 21f4 8140 adb4 2e40
00000020: 1ee2 5040 c4a2 9840 17a2 2a40 a539 0240
00000030: 1fc8 ea3f 6b16 1c40 5a99 2040 4b10 8c40

layer1.0.bn1.bias f4 [16]
1.7685732 1.2435135 0.03437038 0.005687729 0.37699586 2.762321 -2.0143876 1.6960486
3.315835 1.183062 -1.229702 0.94532955 -0.30457723 1.0946555 7.7295556 3.0318263
00000000: 9b60 e23f 732b 9f3f f5c7 0c3d 2160 ba3b
00000010: 9a05 c13e dec9 3040 baeb 00c0 1f18 d93f
00000020: a436 5440 936e 973f e066 9dbf 1e01 723f
00000030: 8cf1 9bbe ac1d 8c3f 8558 f740 7109 4240

layer1.0.bn1.running_mean f4 [16]
-0.35192725 0.67537713 0.0947278 -1.7612616 -1.657432 -1.1326858 2.6649296 -0.46439877
-0.40571356 0.12490448 0.2401936 -0.77817667 0.56694955 -0.37532058 -1.6078855 0.76145834
00000000: cf2f b4be 84e5 2c3f a600 c23d 0571 e1bf
00000010: bb26 d4bf d9fb 90bf 358e 2a40 adc5 edbe
00000020: b0b9 cfbe eccd ff3d 50f5 753e 9636 47bf
00000030: 9b23 113f 052a c0be 31cf cdbf efee 423f

layer1.0.bn1.running_var f4 [16]
83.723335 29.997795 59.166336 62.671986 104.55158 17.867304 150.68996 75.24001
114.54846 91.569496 42.854706 119.44661 20.475245 182.83084 191.85881 118.303375
00000000: 5972 a742 7cfb ef41 54aa 6c42 1db0 7a42
00000010: 691a d142 3df0 8e41 a1b0 1643 e37a 9642
00000020: d018 e542 9523 b742 386b 2b42 aae4 ee42
00000030: 4dcd a341 b2d4 3643 dbdb 3f43 549b ec42

layer1.0.conv1.weight f4 [16, 16, 3, 3]
1.095733 0.5981481 -2.576936 -3.1734586 1.2257354 2.6210485 -0.75721854 1.6445024
-1.5578344 -0.32953218 -0.5763773 1.3377507 0.8602685 0.0256909 2.2435458 1.2406474
1.4399868 -2.9599006 -0.15746267 -0.6027101 -2.3315372 0.4910731 3.4235098 9.569886
1.0316806 -2.1064274 -0.6452889 -5.388876 -0.24741876 2.8403335 -0.14662944 4.5972877
0.24481866 -1.1357144 0.47674605 -1.9100424 1.6051774 -1.8666757 -1.5524074 1.7801044
-0.30136046 -1.9013705 0.6416348 -1.6740421 -1.2091517 1.3356149 0.03295885 -2.2659128
0.1928759 0.9761724 0.19092917 0.50477564 -0.42870513 -1.6790787 0.6772655 0.9964033
4.253608 1.0171732 5.762482 9.0740185 -2.7992082 1.8492601 3.2394 -3.077354
-2.5038092 0.007058219 -0.27362624 2.1100125 0.055664912 -0.2823168 1.3129762 1.2286346
2.0175424 -0.17006698 4.3402133 0.7307883 -2.4137943 -4.009167 0.23226075 0.73088425
1.7669435 -0.11711333 2.919416 0.17357774 -1.160306 2.1260004 4.4107056 0.07309088
-0.6896495 4.3457365 3.2424135 0.19411764 1.2341785 0.61671144 5.8890653 7.683145
1.5804203 -1.58178 -1.1287994 -0.5267262 -1.5107656 -3.8315 -0.09435016 -2.2003503
8.597016 0.5532102 -1.8264693 2.2969062 0.17469439 3.6954615 2.5300596 0.8393439
-0.55454755 -2.5211406 -1.850233 -2.0912144 2.9849076 -2.9823768 2.099619 1.7222254
-4.5980973 3.5617352 -0.6018789 -0.6979204 0.55305475 -0.20506321 -0.17620619 -0.23242795
-0.8252379 -2.4946125 3.3191133 -5.017722 0.107093185 -0.34730688 -2.7772613 -1.9888428
0.56003445 -3.2239099 0.91677815 -1.0990463 2.1021967 0.6634593 -1.0947872 0.36537334
-0.24261479 0.27714023 0.41404483 0.082757525 -1.5315697 0.96433693 -0.34727356 0.16151124
0.7078812 0.2897786 2.1682792 -0.756304 -0.93047917 0.85209155 -0.2573886 1.1034515
-2.0007946 -0.42947024 -4.636891 -0.75030714 -1.5916382 -1.0628846 2.228611 2.3432202
-2.6124656 -0.8309325 -3.409807 3.4829135 -1.6938249 -4.5363445 0.7644582 -1.5778699
-0.96924114 0.09519866 -0.80884635 0.42493984 -1.3864645 0.9480257 -1.5880843 -0.6344955
2.3311033 0.2649572 -1.0487113 -0.34910086 -1.1113341 -3.6006806 -5.1816063 -3.6022139
0.16751926 2.3590558 2.3417041 1.5503708 5.357741 3.2786932 3.3584895 10.889158
0.98393637 -0.7881906 0.34901604 -2.7424498 -4.569846 -4.053627 -2.6815455 -1.2130513
1.8280135 1.7619131 0.0048066084 -2.9690442 -2.464526 -0.36865044 -1.3830119 0.16844325
-3.620501 -18.934797 -8.321687 -1.4710144 0.2050529 2.2273726 1.5061536 -2.40934
0.17640091 -1.4915518 2.7953029 -0.43964607 -1.3896824 1.840115 2.5586772 2.0817857
-0.2949516 1.0323644 -1.9370325 -1.09779 -2.7508433 -2.1701822 -2.629686 1.0171999
-0.017168079 2.3454716 -0.40001917 -4.983504 2.4225178 -0.9123946 -4.719079 -2.5618546
-4.112159 0.056841996 -1.0023414 -0.030870512 -1.166115 -0.9461663 -1.2811953 2.274206
00000000: fb40 8c3f 3c20 193f 85ec 24c0 f219 4bc0
00000010: e6e4 9c3f 42bf 2740 13d9 41bf 0e7f d23f
00000020: 1e67 c7bf 71b8 a8be 768d 13bf 6a3b ab3f
00000030: 8e3a 5c3f b975 d23c 4196 0f40 89cd 9e3f
00000040: 7d51 b83f 036f 3dc0 e53d 21be 364b 1abf
00000050: e837 15c0 ef6d fb3e c91a 5b40 411e 1941
00000060: 1c0e 843f b5cf 06c0 a731 25bf ac71 acc0
00000070: 585b 7dbe 06c8 3540 0726 16be fb1c 9340
00000080: beb1 7a3e 175f 91bf 0f18 f43e 457c f4bf
00000090: 7476 cd3f 3bef eebf 49b5 c6bf 76da e33f
000000a0: eb4b 9abe 1c60 f3bf 2e42 243f 0347 d6bf
000000b0: 7cc5 9abf 6ef5 aa3f dcff 063d b704 11c0
000000c0: 4381 453e 6fe6 793f f082 433e fa38 013f
000000d0: 3d7f dbbe 0dec d6bf 4661 2d3f 4914 7f3f
000000e0: 8f1d 8840 bb32 823f 4166 b840 2e2f 1141
000000f0: 3a26 33c0 8eb4 ec3f 5452 4f40 5ef3 44c0
00000100: 693e 20c0 a248 e73b bd18 8cbe 720a 0740
00000110: e400 643d d48b 90be 9b0f a83f e643 9d3f
00000120: 6a1f 0140 0a26 2ebe 07e3 8a40 f114 3b3f
00000130: 9b7b 1ac0 194b 80c0 c3d5 6d3e 3b1b 3b3f
00000140: 342b e23f 1dd9 efbd b6d7 3a40 5dbe 313e
00000150: e884 94bf 6410 0840 8024 8d40 acb0 953d
00000160: df8c 30bf 4610 8b40 b483 4f40 c6c6 463e
00000170: 90f9 9d3f cde0 1d3f 3973 bc40 53dc f540
00000180: 364b ca3f c477 cabf 807c 90bf 87d7 06bf
00000190: c460 c1bf 4c37 75c0 a83a c1bd 8ad2 0cc0
000001a0: 618d 0941 2f9f 0d3f bfc9 e9bf 8300 1340
000001b0: 16e3 323e 7182 6c40 7fec 2140 3edf 563f
000001c0: d4f6 0dbf 5e5a 21c0 6fd4 ecbf 75d6 05c0
000001d0: ba08 3f40 43df 3ec0 2860 0640 e271 dc3f
000001e0: 9d23 93c0 78f3 6340 bc14 1abf e9aa 32bf
000001f0: ff94 0d3f 17fc 51be 656f 34be 9801 6ebe
00000200: ca42 53bf bba7 1fc0 5a6c 5440 2e91 a0c0
00000210: ac53 db3d 35d2 b1be a6be 31c0 6792 febf
00000220: 6b5e 0f3f 8a54 4ec0 f9b1 6a3f 8dad 8cbf
00000230: 648a 0640 78d8 293f fd21 8cbf 3712 bb3e
00000240: 0370 78be 53e5 8d3e affd d33e c77c a93d
00000250: 7a0a c4bf c9de 763f d7cd b1be 3463 253e
00000260: b437 353f dc5d 943e 16c5 0a40 249d 41bf
00000270: e233 6ebf ac22 5a3f 70c8 83be e63d 8d3f
00000280: 050d 00c0 86e3 dbbe 6961 94c0 2114 40bf
00000290: cdba cbbf 9a0c 88bf 90a1 0e40 52f7 1540
000002a0: a332 27c0 feb7 54bf 473a 5ac0 0ee8 5e40
000002b0: 41cf d8bf bc29 91c0 88b3 433f a4f7 c9bf
000002c0: 3020 78bf 84f7 c23d 8e10 4fbf b791 d93e
000002d0: ab77 b1bf d0b1 723f 5946 cbbf 4c6e 22bf
000002e0: cc30 1540 78a8 873e 2c3c 86bf 59bd b2be
000002f0: 3240 8ebf 8d71 66c0 b8cf a5c0 ac8a 66c0
00000300: 2b8a 2b3e c5fa 1640 7bde 1540 8d72 c63f
00000310: 9d72 ab40 1cd6 5140 7ef1 5640 fe39 2e41
00000320: 41e3 7b3f dcc6 49bf 3bb2 b23e 4c84 2fc0
00000330: 2e3c 92c0 50b7 81c0 719e 2bc0 4445 9bbf
00000340: 59fc e93f 5e86 e13f c180 9d3b d204 3ec0
00000350: cbba 1dc0 c0bf bcbe 8906 b1bf 637c 2c3e
00000360: 4ab6 67c0 777a 97c1 a125 05c1 334a bcbf
00000370: 63f9 513e 468d 0e40 a4c9 c03f a032 1ac0
00000380: 71a2 343e 2beb bebf 3ee6 3240 4a19 e1be
00000390: 1de1 b1bf e388 eb3f 5ec1 2340 fa3b 0540
000003a0: e503 97be 8424 843f aef0 f7bf 6284 8cbf
000003b0: d10d 30c0 44e4 0ac0 c74c 28c0 9b33 823f
000003c0: 12a4 8cbc 351c 1640 50cf ccbe dd78 9fc0
000003d0: 880a 1b40 b192 69bf b202 97c0 6df5 23c0
000003e0: ce96 83c0 27d3 683d b94c 80bf 28e4 fcbc
000003f0: 4243 95bf f437 72bf 35fe a3bf 978c 1140

layer1.0.bn2.weight f4 [16]
0.6141015 0.39238355 0.51635814 0.4317017 0.52754724 0.37385356 0.48991585 0.48728856
0.38892552 0.3484839 0.45937672 0.8184694 0.5405314 1.3612105 0.2978132 0.61167085
00000000: c235 1d3f 7fe6 c83e 0c30 043f 0108 dd3e
00000010: 560d 073f bc69 bf3e 40d6 fa3e e37d f93e
00000020: 3f21 c73e 7b6c b23e 6d33 eb3e 3687 513f
00000030: 4460 0a3f 253c ae3f f97a 983e 7696 1c3f

layer1.0.bn2.bias f4 [16]
-0.92735255 0.29705304 0.08438776 0.4506361 0.08467919 0.06729777 -0.024588779 -0.063544095
-0.12678544 -0.0005562653 0.40545726 0.10363549 -0.43379214 -1.4079313 0.058254816 0.1352991
00000000: fa66 6dbf 5617 983e 7dd3 ac3d c6b9 e63e
00000010: 486c ad3d 6ad3 893d 686e c9bc 6823 82bd
00000020: 0bd4 01be 55d2 11ba 1898 cf3e d83e d43d
00000030: 011a debe 1837 b4bf 9a9c 6e3d d98b 0a3e

layer1.0.bn2.running_mean f4 [16]
-5.627187 -97.80908 -71.30141 247.3278 -13.890219 -24.850536 57.45289 -19.616375
-48.87554 32.68464 -112.03866 -124.91633 188.93668 -147.63835 -44.13599 34.25767
00000000: ea11 b4c0 409e c3c2 529a 8ec2 eb53 7743
00000010: 563e 5ec1 e6cd c6c1 c2cf 6542 56ee 9cc1
00000020: 8e80 43c2 12bd 0242 cb13 e0c2 29d5 f9c2
00000030: caef 3c43 6ba3 13c3 418b 30c2 db07 0942

layer1.0.bn2.running_var f4 [16]
5980.093 10100.495 10860.506 9682.232 16831.584 4713.4434 16120.945 12507.366
2619.436 8568.08 11386.491 16545.281 7107.7056 6863.486 2991.782 13555.333
00000000: bee0 ba45 fbd1 1d46 06b2 2946 ee48 1746
00000010: 2b7f 8346 8c4b 9345 c8e3 7b46 776d 4346
00000020: fab6 2345 52e0 0546 f7e9 3146 9042 8146
00000030: a51d de45 e37b d645 83fc 3a45 55cd 5346

layer1.0.conv2.weight f4 [16, 16, 3, 3]
0.015418172 -2.804525 0.1405857 -0.62578255 -1.7105376 1.6231902 0.3840965 0.7400161
0.26954663 -0.12035692 -1.1573552 0.07965386 -0.22767544 -1.1469337 -0.2868863 -2.1717412
-0.28661472 1.2065496 0.049461383 0.33785507 -1.4105203 3.317415 -1.2754575 -4.420569
7.413991 0.53665835 -5.560945 0.44347158 -2.2001143 -2.485642 1.1354144 -1.4032625
-0.3542519 1.9335605 -2.5314262 -0.5607177 0.3766044 -1.1561177 2.36725 -4.984668
-0.8072531 5.15309 -3.3715644 -1.7402698 0.40538424 -2.6590993 0.6359389 -0.0723853
0.6312099 -1.375684 -0.87884843 1.2863545 -1.003793 0.10053883 -2.5574014 -1.5392076
3.9347014 -4.193161 1.3964272 3.5722995 0.59062684 -0.4786023 1.8813686 0.73197174
-0.5473074 -1.9915206 1.3999186 -1.4961932 -1.0645558 0.52408886 0.40502188 -0.66678023
2.0488207 3.0087924 -2.5599186 1.2402296 3.114067 0.27209696 0.5505201 0.79075956
-1.0796862 -1.176288 1.3228546 -2.938124 0.14195092 -1.6323752 -4.627186 3.017881
2.3075767 -1.4022611 -3.8700373 0.21482745 5.3816056 -4.283583 -0.5396823 6.6788497
-0.41365442 0.7485401 2.0962324 1.1008166 -0.39731476 -1.3854762 1.3396212 -2.9873745
0.4781978 0.7812239 -1.5246395 -3.4587243 1.0548315 0.27333912 -2.5869913 2.1068993
-4.157316 -2.636267 -0.50767386 -0.52585346 -1.1028247 -0.518897 -0.14768478 -0.30951697
-1.8010994 -5.1378007 -3.687331 -2.2130513 1.9521582 0.3159803 1.9076085 -0.036544777
-0.8180613 1.2959021 1.2925466 -1.9821454 0.5800895 0.6220708 0.053950936 -1.989208
0.9632391 -1.2318131 1.1835417 -0.2096225 -0.43492812 -0.8514861 0.35415313 -2.0032456
1.52938 0.22760512 -0.18564574 8.417044 1.4155282 -0.06326218 3.6325893 0.45754755
0.9674672 0.68167365 0.7684332 0.2876655 1.5238717 5.372541 -3.341249 -1.5692457
-1.0580729 -1.4411973 0.08573672 1.0964677 -0.04741863 1.5690961 2.0045745 0.036087018
0.42178127 -1.1869057 -2.3341124 -0.09779759 -0.26092115 -1.3404908 0.99477947 1.2422737
-1.4502454 -1.3506852 2.631126 -2.8593264 -0.756206 -1.4692056 -1.0997611 1.1788145
-0.9355356 0.56285685 -0.49067092 1.8922346 -0.34239423 0.49772823 0.7570202 0.060754735
2.201164 -2.542862 0.52301186 0.60343605 -3.2947197 0.8461119 0.8817459 -0.26366144
0.8663085 1.3858562 -0.4926042 1.3281142 2.269844 1.0333219 0.8456928 3.1571555
4.905865 -0.4062206 -0.9184083 0.27070433 -0.32124165 0.18018469 -1.014068 -1.7410136
0.072014175 -0.8058484 -0.75745213 -0.31976992 0.6246016 -1.8957149 1.4351401 0.6478073
0.011340057 -0.0038864217 4.624989 -1.8839328 -2.6866095 4.0987773 -2.1876857 -3.5051277
1.5429609 -1.2839798 -2.2031956 -1.4144347 -0.6566217 0.1976444 -0.10173789 0.253919
-0.5071888 -0.37342906 1.7663269 -1.4676878 -0.09833352 2.1644404 -2.3422627 -1.9844999
1.1226019 0.07948393 1.5038596 2.6783879 0.41189453 1.8015603 -0.42343462 -1.8397653
00000000: 809c 7c3c 567d 33c0 b3f5 0f3e 4933 20bf
00000010: e5f2 dabf b2c4 cf3f 4ca8 c43e b271 3d3f
00000020: 0402 8a3e b07d f6bd 3724 94bf 9021 a33d
00000030: c023 69be b9ce 92bf c3e2 92be cffd 0ac0
00000040: 2abf 92be 3870 9a3f 0598 4a3d 57fb ac3e
00000050: ee8b b4bf 8750 5440 3142 a3bf 4d75 8dc0
00000060: 6a3f ed40 7162 093f 43f3 b1c0 b50e e33e
00000070: acce 0cc0 c214 1fc0 4255 913f 1b9e b3bf
00000080: 8160 b5be e97e f73f e302 22c0 328b 0fbf
00000090: 4bd2 c03e aafb 93bf 0681 1740 6682 9fc0
000000a0: 24a8 4ebf 1de6 a440 b6c7 57c0 29c1 debf
000000b0: 868e cf3e af2e 2ac0 e4cc 223f bf3e 94bd
000000c0: f996 213f 6a16 b0bf 36fc 60bf 44a7 a43f
000000d0: 4a7c 80bf 4de7 cd3d 77ac 23c0 c104 c5bf
000000e0: 26d2 7b40 602e 86c0 20be b23f 8ea0 6440
000000f0: 5233 173f 5c0b f5be b0d0 f03f 8062 3b3f
00000100: 561c 0cbf 26ea febf 8830 b33f 4283 bfbf
00000110: 5d43 88bf b02a 063f 075f cf3e 1cb2 2abf
00000120: e11f 0340 0e90 4040 b5d5 23c0 d8bf 9e3f
00000130: e04c 4740 4b50 8b3e e3ee 0c3f 386f 4a3f
00000140: 2833 8abf 9b90 96bf 4d53 a93f 390a 3cc0
00000150: 955b 113e acf1 d0bf e811 94c0 f624 4140
00000160: 56af 1340 4b7d b3bf b1ae 77c0 bafb 5b3e
00000170: 1d36 ac40 1d13 89c0 9f28 0abf 23b9 d540
00000180: 83ca d3be 53a0 3f3f ac28 0640 8fe7 8c3f
00000190: d76c cbbe 4957 b1bf b578 ab3f 2531 3fc0
000001a0: 58d6 f43e 4afe 473f 6327 c3bf bd5b 5dc0
000001b0: b804 873f 1bf3 8b3e 4491 25c0 70d7 0640
000001c0: bc08 85c0 99b8 28c0 eaf6 01bf 559e 06bf
000001d0: 5c29 8dbf 6fd6 04bf ae3a 17be 0279 9ebe
000001e0: 6d8a e6bf dd68 a4c0 3bfd 6bc0 a2a2 0dc0
000001f0: 52e0 f93f 2bc8 a13e 842c f43f faaf 15bd
00000200: 776c 51bf 1fe0 a53f 2b72 a53f f1b6 fdbf
00000210: bf80 143f 0840 1f3f a8fb 5c3d 5e9e febf
00000220: d696 763f 0dac 9dbf 4b7e 973f 48a7 56be
00000230: e6ae debe fefa 59bf 8f53 b53e 2d35 00c0
00000240: b9c2 c33f 5111 693e eb19 3ebe 36ac 0641
00000250: 0730 b53f 9a8f 81bd 587c 6840 ac43 ea3e
00000260: eeab 773f 2a82 2e3f 0ab8 443f e448 933e
00000270: 3a0e c33f dbeb ab40 06d7 55c0 0bdd c8bf
00000280: ef6e 87bf 2779 b8bf bc96 af3d 0e59 8c3f
00000290: 0a3a 42bd 24d8 c83f f34a 0040 fbcf 133d
000002a0: b7f3 d73e 87ec 97bf 1962 15c0 1a4a c8bd
000002b0: 7597 85be 3495 abbf dea9 7e3f d302 9f3f
000002c0: a4a1 b9bf 41e3 acbf 5e64 2840 34ff 36c0
000002d0: b796 41bf ee0e bcbf f9c4 8cbf 65e3 963f
000002e0: 437f 6fbf 6317 103f 3839 fbbe be34 f23f
000002f0: 4c4e afbe 3cd6 fe3e 13cc 413f f5d9 783d
00000300: dfdf 0c40 40be 22c0 1be4 053f c97a 1a3f
00000310: b0dc 52c0 ca9a 583f 19ba 613f a2fe 86be
00000320: 65c6 5d3f bc63 b13f 9e36 fcbe a5ff a93f
00000330: 2045 1140 e443 843f 537f 583f d60e 4a40
00000340: d9fc 9c40 25fc cfbe ce1c 6bbf c299 8a3e
00000350: c979 a4be 5682 383e fbcc 81bf 89d9 debf
00000360: 2b7c 933d 154c 4ebf 62e8 41bf e2b8 a3be
00000370: e4e5 1f3f c9a6 f2bf acb2 b73f b3d6 253f
00000380: a5cb 393c 56b3 7ebb e9ff 9340 b624 f1bf
00000390: 69f1 2bc0 2f29 8340 0b03 0cc0 0354 60c0
000003a0: be7f c53f 7359 a4bf 2801 0dc0 320c b5bf
000003b0: 5c18 28bf 4b63 4a3e f45b d0bd ac01 823e
000003c0: 20d7 01bf 1832 bfbe 0017 e23f 32dd bbbf
000003d0: 1663 c9bd 3186 0a40 a2e7 15c0 1804 febf
000003e0: 6bb1 8f3f 78c8 a23d 797e c03f b56a 2b40
000003f0: d7e3 d23e 8799 e63f 6ccc d8be 6e7d ebbf

layer1.1.bn1.weight f4 [16]
1.3779514 2.6591702 3.502588 1.6915083 1.4035892 1.7819359 2.330228 1.5687612
4.8965664 4.93144 2.4074259 1.5462222 1.6226189 4.004278 2.2081358 1.5533442
00000000: b660 b03f d82f 2a40 672a 6040 5883 d83f
00000010: d0a8 b33f 7a16 e43f 7522 1540 2bcd c83f
00000020: acb0 9c40 5bce 9d40 4413 1a40 9cea c53f
00000030: fab1 cf3f 0c23 8040 1952 0d40 fcd3 c63f

layer1.1.bn1.bias f4 [16]
1.1256894 -2.2300255 2.1622837 5.2004576 8.629811 5.706081 -1.2574216 0.9767337
-0.265821 5.2242947 1.1036675 2.8559155 5.6676245 4.7565527 -0.4890159 3.821093
00000000: 9716 903f bdb8 0ec0 db62 0a40 266a a640
00000010: b513 0a41 3798 b640 31f3 a0bf 380b 7a3f
00000020: b119 88be 6c2d a740 fa44 8d3f 52c7 3640
00000030: 2e5d b540 ae35 9840 4b60 fabe ca8c 7440

layer1.1.bn1.running_mean f4 [16]
-7.3531933 3.5977845 6.589296 -6.757039 -14.602948 4.6121407 5.2692695 -9.919228
-3.2382104 -0.8019594 -14.691162 10.325708 -7.2876077 2.2313988 -6.4141607 -8.125485
00000000: 5c4d ebc0 1a42 6640 83db d240 aa39 d8c0
00000010: ada5 69c1 a896 9340 db9d a840 28b5 1ec1
00000020: d73e 4fc0 364d 4dbf 000f 6bc1 1a36 2541
00000030: 1534 e9c0 3dcf 0e40 ce40 cdc0 fd01 02c1

layer1.1.bn1.running_var f4 [16]
342.48767 50.93167 99.762184 174.01335 334.4764 58.549236 180.90274 388.8494
241.14787 199.13515 186.20346 223.57173 50.15776 319.233 463.80255 298.1551
00000000: 6c3e ab43 08ba 4b42 3d86 c742 6b03 2e43
00000010: fb3c a743 6b32 6a42 1ae7 3443 b96c c243
00000020: db25 7143 9922 4743 1634 3a43 5d92 5f43
00000030: 8ca1 4842 d39d 9f43 bae6 e743 da13 9543

layer1.1.conv1.weight f4 [16, 16, 3, 3]
-2.6174862 3.7712011 0.41641238 -4.037872 8.562767 1.6710039 -1.8154219 8.271107
0.9748586 -0.42937133 1.3893821 0.44920036 -2.675602 -9.9461355 0.22675768 -1.3106272
0.9929964 2.7067902 -2.0393102 1.2150162 4.424005 -1.8739327 0.48004708 3.6226194
0.9782678 -0.90761447 0.5478868 0.024540953 -1.9119198 0.69951224 5.5069747 4.303937
2.7884817 3.9243577 0.091678455 -0.3416897 6.541369 1.7460942 -3.6683192 2.5168922
0.06387629 -4.6241436 -0.47476962 0.26828107 0.18718976 -0.1901651 0.064337574 -0.22225088
-1.1511849 -3.271172 -0.57551223 1.85309 -3.933216 0.09171586 1.2348393 0.118261844
-3.3573785 3.321379 -1.5053937 -8.836042 4.236942 1.2837487 -4.7534275 -0.20560981
-7.5125985 -10.798953 1.7611662 -6.4734054 -8.52785 -3.6623292 -2.84652 -5.317613
0.061118405 -1.2745527 -0.7172194 1.9422014 -2.693137 2.2735286 -0.6803464 -3.604067
-1.9385777 -1.2880917 1.0936073 -1.0578059 0.90408796 2.1293607 2.0647366 -2.401056
3.5549586 -1.387404 1.0555816 -1.2830446 0.91695124 2.7662714 3.1601267 -1.1247646
2.783064 -1.0221959 0.45062178 -2.9066596 1.1509591 2.5009003 -1.661337 4.6695266
5.209194 -3.5874882 4.4012794 -1.1808845 -6.3792467 2.3423185 0.26733625 -6.233933
5.906693 4.2005515 0.44427896 2.4606755 1.6339738 -2.812407 -0.48022228 0.6570443
-2.1804152 -1.602722 -0.4084891 -0.8014768 0.08481329 0.38698372 0.64765793 0.6862374
0.8032416 1.8085039 -0.45115873 1.4486165 0.8002136 -1.6009178 -2.2223566 -1.1713477
-0.79651576 1.9293721 0.14910738 0.426957 0.1366093 0.277616 -0.47302747 0.13419074
-4.863445 -8.963182 1.8044753 -4.855209 -12.465734 4.601045 -1.3702433 -8.767665
4.244227 -1.6245829 -4.9121084 -1.6055743 2.1731777 0.35437688 -1.7757612 -2.2365541
-3.789373 -0.018979402 0.28655416 2.7922232 -0.5612984 2.8880265 -1.6012396 -1.7524887
2.3491573 1.9714657 0.3866174 -1.8978343 -1.1736244 -1.2578162 -2.3020682 -0.35208836
2.555908 2.027236 1.2352444 2.1511807 -3.593585 4.888948 7.6008434 -0.7904285
4.5504584 6.2438564 -0.6951249 -1.3511413 -0.6105513 -0.047482718 -2.7568405 -2.9931583
-0.07147491 0.18951154 -0.7914006 2.5781085 0.16256183 -3.895551 2.1513586 0.6777147
2.1517146 -1.6268467 -2.6719115 -1.2763054 -2.508524 -1.1588973 1.8058876 -2.703385
5.2056904 -3.9756067 -2.7415795 6.8153577 -3.6803496 -2.8281794 3.8378744 -1.6275964
-1.8204149 -2.9087853 -1.1542397 0.85187536 2.1415615 -0.48717046 0.7304339 -2.3474233
-2.6477637 0.6260421 0.31397307 1.9315991 -0.55512965 -3.4190474 -0.82154155 0.3692073
-0.39278385 -1.4260315 1.1414341 2.023641 1.1219027 -0.77607536 -0.4494796 -0.72172344
-0.9691387 -1.5572141 0.40218166 3.2739065 1.1305032 2.3965716 5.0844307 0.80341625
-0.5492659 3.3767433 3.041256 0.46424973 4.6913013 -0.14385387 5.4961424 -2.8429737
00000000: e584 27c0 5c5b 7140 0134 d53e 3f36 81c0
00000010: 1801 0941 75e3 d53f bf5f e8bf 7456 0441
00000020: 5590 793f 8fd6 dbbe 46d7 b13f 97fd e53e
00000030: 103d 2bc0 5f23 1fc1 2a33 683e a2c2 a7bf
00000040: 0335 7e3f 0d3c 2d40 0f84 02c0 a785 9b3f
00000050: 7391 8d40 07dd efbf bbc8 f53e ffd8 6740
00000060: c26f 7a3f 6c59 68bf 4f42 0c3f 1c0a c93c
00000070: cab9 f4bf 3c13 333f 2339 b040 dab9 8940
00000080: 7c76 3240 ad28 7b40 eac1 bb3d f4f1 aebe
00000090: e552 d140 0480 df3f bec5 6ac0 c314 2140
000000a0: 93d1 823d fcf8 93c0 0115 f3be 235c 893e
000000b0: acae 3f3e a4ba 42be 6bc3 833d bc95 63be
000000c0: 075a 93bf e25a 51c0 c554 13bf 0e32 ed3f
000000d0: d0b9 7bc0 86d5 bb3d 370f 9e3f 4433 f23d
000000e0: 4adf 56c0 7991 5440 beb0 c0bf 6e60 0dc1
000000f0: 0795 8740 e151 a43f 141c 98c0 618b 52be
00000100: 3567 f0c0 83c8 2cc1 e56d e13f 2326 cfc0
00000110: 1372 08c1 9a63 6ac0 622d 36c0 e329 aac0
00000120: 4b57 7a3d 8b24 a3bf b19b 37bf 0e9a f83f
00000130: 5b5c 2cc0 7e81 1140 2f2b 2ebf 09a9 66c0
00000140: 5023 f8bf 30e0 a4bf 53fb 8b3f 2f66 87bf
00000150: 4f72 673f 7247 0840 a524 0440 e7aa 19c0
00000160: 7184 6340 7496 b1bf 4c1d 873f ce3a a4bf
00000170: 51bd 6a3f 970a 3140 843f 4a40 49f8 8fbf
00000180: b81d 3240 51d7 82bf e6b7 e63e b606 3ac0
00000190: a152 933f c00e 2040 b1a6 d4bf c36c 9540
000001a0: b8b1 a640 6899 65c0 48d7 8c40 3927 97bf
000001b0: ca22 ccc0 8ce8 1540 4ce0 883e 617c c7c0
000001c0: a103 bd40 eb6a 8640 8878 e33e b57b 1d40
000001d0: 0e26 d13f 7afe 33c0 b2df f5be 0e34 283f
000001e0: ec8b 0bc0 ff25 cdbf 7c25 d1be 952d 4dbf
000001f0: 97b2 ad3d bb22 c63e e9cc 253f 41ad 2f3f
00000200: 3ea1 4d3f 0e7d e73f 47fe e6be 446c b93f
00000210: ccda 4c3f e0ea ccbf 173b 0ec0 b9ee 95bf
00000220: 75e8 4bbf aaf5 f63f 9baf 183e 1c9a da3e
00000230: 4fe3 0b3e af23 8e3e a830 f2be 4c69 093e
00000240: 57a1 9bc0 3269 0fc1 0cf9 e63f df5d 9bc0
00000250: a573 47c1 c33b 9340 2264 afbf 5b48 0cc1
00000260: b5d0 8740 55f2 cfbf fe2f 9dc0 7583 cdbf
00000270: 5815 0b40 e370 b53e 254c e3bf b423 0fc0
00000280: 1685 72c0 b17a 9bbc 3ab7 923e c9b3 3240
00000290: 40b1 0fbf 6dd5 3840 6bf5 ccbf 8d51 e0bf
000002a0: 9858 1640 fd58 fc3f b7f2 c53e 3cec f2bf
000002b0: 5339 96bf 1f00 a1bf 1655 13c0 ed44 b4be
000002c0: ff93 2340 3cbe 0140 7d1c 9e3f f2ac 0940
000002d0: 4cfd 65c0 4372 9c40 1c3a f340 8659 4abf
000002e0: 5b9d 9140 accd c740 b5f3 31bf 33f2 acbf
000002f0: 174d 1cbf 3d7d 42bd 1370 30c0 e88f 3fc0
00000300: 7061 92bd 500f 423e 3b99 4abf bbff 2440
00000310: 9c76 263e b550 79c0 dcaf 0940 b67e 2d3f
00000320: b1b5 0940 833c d0bf 9900 2bc0 fa5d a3bf
00000330: a88b 20c0 bf56 94bf 5327 e73f 4304 2dc0
00000340: 0495 a640 5770 7ec0 0a76 2fc0 6917 da40
00000350: d98a 6bc0 e400 35c0 bc9f 7540 1455 d0bf
00000360: 5b03 e9bf 8a29 3ac0 20be 93bf 8114 5a3f
00000370: 580f 0940 686e f9be b7fd 3a3f 2f3c 16c0
00000380: f674 29c0 4c44 203f 14c1 a03e a43e f73f
00000390: fa1c 0ebf acd1 5ac0 8c50 52bf bd08 bd3e
000003a0: f71a c9be 3388 b6bf 831a 923f 5683 0140
000003b0: 829a 8f3f e0ac 46bf 3122 e6be dec2 38bf
000003c0: 7919 78bf cb52 c7bf c1ea cd3e af87 5140
000003d0: 54b4 903f 6e61 1940 a8b3 a240 b0ac 4d3f
000003e0: b19c 0cbf 901c 5840 f0a3 4240 24b2 ed3e
000003f0: 241f 9640 6e4e 13be 66e0 af40 48f3 35c0

layer1.1.bn2.weight f4 [16]
0.5555521 0.49553636 0.71974623 0.5958376 0.5749795 0.52904993 0.48803633 0.64788365
0.6242597 0.8193877 0.43659738 0.5849015 1.2001042 0.747498 0.46913588 0.71303415
00000000: aa38 0e3f f1b6 fd3e 4a41 383f d088 183f
00000010: db31 133f d16f 073f e6df f93e b4db 253f
00000020: 7ccf 1f3f 64c3 513f b189 df3e 1bbc 153f
00000030: 049d 993f 075c 3f3f 9432 f03e 6889 363f

layer1.1.bn2.bias f4 [16]
-0.17630576 -0.1679407 -0.033986453 -0.11957611 -0.26344624 -0.09907532 -0.27987736 -0.035034005
-0.6421141 -1.5385994 0.11130362 -0.086292416 0.016579513 -0.1121785 0.29163837 -0.1007428
00000000: 7f89 34be a6f8 2bbe 6135 0bbd 52e4 f4bd
00000010: 6de2 86be 00e8 cabd 164c 8fbe d17f 0fbd
00000020: 9761 24bf d3f0 c4bf 27f3 e33d 14ba b0bd
00000030: c2d1 873c d7bd e5bd a051 953e 3e52 cebd

layer1.1.bn2.running_mean f4 [16]
77.98229 155.61888 190.87541 -17.013926 247.84581 193.59273 -141.7604 -145.55844
-137.61316 -78.061714 155.20142 39.464615 79.41324 21.229492 -25.2664 -52.416203
00000000: eff6 9b42 6f9e 1b43 1be0 3e43 851c 88c1
00000010: 87d8 7743 bd97 4143 aac2 0dc3 f68e 11c3
00000020: f89c 09c3 991f 9cc2 9033 1b43 c4db 1d42
00000030: 94d3 9e42 00d6 a941 9621 cac1 31aa 51c2

layer1.1.bn2.running_var f4 [16]
9916.054 6745.109 16202.975 7451.216 4920.8076 5618.9565 4702.7344 9715.601
6357.9316 3425.2666 6382.878 8439.352 27293.945 17778.729 10341.405 9745.527
00000000: 37f0 1a46 dfc8 d245 e62b 7d46 bad9 e845
00000010: 76c6 9945 a797 af45 e0f5 9245 67ce 1746
00000020: 74af c645 4414 5645 0677 c745 68dd 0346
00000030: e43b d546 75e5 8a46 9f95 2146 1c46 1846

layer1.1.conv2.weight f4 [16, 16, 3, 3]
2.784426 1.3176999 0.49312696 6.7288985 4.7480035 0.11875224 3.766314 2.3266027
2.4086654 2.1379533 0.30449194 0.6150793 1.4527882 2.5387504 2.9530482 0.99967426
-1.4909557 1.0745053 -0.6921548 -0.9363848 -0.33956388 2.1482003 1.6464157 1.1569617
1.5204315 -1.0037274 -0.19127306 -0.52373 -1.2119293 -1.1335151 0.76447105 -1.70838
-0.74296284 1.8702316 1.2419963 -2.5275784 -1.2755042 1.5020587 0.035162535 1.7232945
-0.41268706 -1.408524 0.46370995 0.69145733 -1.032883 -1.1347464 -0.8870485 -1.7810835
0.35212797 1.8028579 0.3231167 -1.4825675 0.9997983 0.1745856 -3.3696294 -1.6101865
1.4296209 -0.9070884 1.1207778 -0.93927586 -0.45489952 -1.9740425 -0.8050391 -1.0580336
-0.6477129 -0.22912246 -0.05015798 1.7847384 -1.3484569 -0.6115168 -1.7826604 -0.48569247
-2.4522252 0.84736496 -3.8628004 -1.4129279 0.4962127 -0.44276682 -2.0001857 -0.37497398
-1.1321276 -0.49574128 -0.34934995 -0.5120942 0.6802601 -1.1920686 -1.0847023 0.3186412
0.008904645 -0.5786599 0.76740277 -0.22315922 -0.60364366 0.8572748 2.2499547 0.81151605
-1.9056357 -0.08330458 -0.49964127 0.5794443 -0.075322635 0.31630152 0.77533245 0.013366327
-2.4655147 -0.1180128 1.0152606 0.055575848 -0.915734 -0.40981463 -0.45569763 1.5563027
2.326701 0.4062368 1.0025976 0.45643443 0.622326 0.64724475 -0.71436423 0.33924764
0.77320784 -1.3355842 -0.7908476 -1.1399503 -0.569119 -0.34066704 0.2390323 -0.556301
-3.0129771 0.35534322 -2.3002806 -2.5911999 -0.43159544 0.5944392 1.7118071 0.7006153
1.0682552 -0.07874999 0.2865758 -1.5748702 -0.036925565 -0.11698223 1.8570338 0.13676512
0.79278404 -0.12342368 0.17141882 1.1955562 1.6516249 -0.5276604 -0.8546278 1.1800247
-1.4611125 -0.19899514 0.5928674 2.7570734 -0.637334 2.8489456 -1.7898453 -2.0643597
-0.60655653 0.55290204 0.35796118 1.2400451 -2.5645406 -0.53425425 5.37081 0.009825444
-1.4539758 0.29958808 0.5202972 4.976009 -0.26024997 -0.1084508 -2.200837 -1.6781397
2.2944615 4.210928 -2.4512353 1.0076511 1.4911195 -0.7708829 -1.4223522 0.100578435
-1.1869925 0.58583826 -0.15924962 -1.4795218 -3.0821733 0.20327598 1.2728304 0.30633372
3.2382588 5.213916 4.3035946 -1.1390471 1.5532745 -2.3517425 0.6584785 0.28069216
-0.048016947 -0.8727701 0.6243871 1.8899513 -2.356725 1.2044568 0.8800207 2.6017385
1.4967335 1.09155 0.48967463 -2.3969235 -1.4069152 0.042546604 -0.83334404 -0.52323204
-0.2721668 0.37356564 1.504811 0.9124719 1.5732276 0.011924983 1.0329382 1.7576926
1.6184474 3.1265817 -0.5847586 2.3882418 1.5653542 -0.73686665 1.3577716 -1.394246
1.0510393 0.9825614 0.08305829 1.0493028 -2.2294705 1.569376 2.7869146 2.8562317
-0.7519695 -1.5332361 0.7356019 -1.1926609 0.06359984 1.693705 -0.66929746 -1.6553806
-2.9239292 -2.0869215 -1.7686427 0.3856182 -3.3909707 -0.20321922 -7.079985 1.0796237
00000000: 0934 3240 64aa a83f 237b fc3e 2353 d740
00000010: a5ef 9740 6034 f33d 4a0b 7140 0fe7 1440
00000020: 9327 1a40 3ad4 0840 5ee6 9b3e d675 1d3f
00000030: f7f4 b93f e37a 2240 befe 3c40 a7ea 7f3f
00000040: a3d7 bebf 6489 893f 0f31 31bf eab6 6fbf
00000050: 51db adbe 1d7c 0940 c0bd d23f 5217 943f
00000060: 809d c23f 247a 80bf 16dd 43be 2b13 06bf
00000070: 8020 9bbf 0617 91bf 60b4 433f 32ac dabf
00000080: d032 3ebf c063 ef3f bcf9 9e3f d8c3 21c0
00000090: b943 a3bf 7643 c03f 9706 103d ea94 dc3f
000000a0: b84b d3be 844a b4bf 646b ed3e 5903 313f
000000b0: 8335 84bf 5f3f 91bf 9c15 63bf 8bfa e3bf
000000c0: 1e4a b43e 0cc4 e63f 8d6f a53e c6c4 bdbf
000000d0: c8f2 7f3f 91c6 323e 02a8 57c0 971a cebf
000000e0: d1fd b63f f236 68bf a675 8f3f 6274 70bf
000000f0: 97e8 e8be 6dad fcbf 0b17 4ebf a56d 87bf
00000100: 83d0 25bf 149f 6abe 7472 4dbd 4f72 e43f
00000110: 3c9a acbf 5d8c 1cbf 372e e4bf afac f8be
00000120: 42f1 1cc0 e9ec 583f 1f38 77c0 d2da b4bf
00000130: 970f fe3e 55b2 e2be 0b03 00c0 97fc bfbe
00000140: 8fe9 90bf cdd1 fdbe ffdd b2be 9b18 03bf
00000150: 8725 2e3f b495 98bf 86d7 8abf f024 a33e
00000160: cae4 113c 0e23 14bf 8274 443f da83 64be
00000170: 6488 1abf 5c76 5b3f 42ff 0f40 84bf 4f3f
00000180: dfeb f3bf 979b aabd fbd0 ffbe 7656 143f
00000190: c142 9abd 46f2 a13e 307c 463f 70fe 5a3c
000001a0: feca 1dc0 b2b0 f1bd 0ff4 813f 80a3 633d
000001b0: 8b6d 6abf 39d3 d1be 3351 e9be ed34 c73f
000001c0: abe8 1440 45fe cf3e 1e55 803f c6b1 e93e
000001d0: c250 1f3f d5b1 253f 93e0 36bf deb1 ad3e
000001e0: f3f0 453f 6cf4 aabf fd74 4abf e4e9 91bf
000001f0: c8b1 11bf e96b aebe e2c4 743e be69 0ebf
00000200: 9ed4 40c0 8cef b53e cc37 13c0 38d6 25c0
00000210: 14fa dcbe 2b2d 183f 7f1c db3f 865b 333f
00000220: 96bc 883f ad47 a1bd 10ba 923e 5995 c9bf
00000230: 433f 17bd 6194 efbd 49b3 ed3f 280c 0c3e
00000240: e5f3 4a3f 8ec5 fcbd 6a88 2f3e fc07 993f
00000250: 7268 d33f c114 07bf e3c8 5abf 0d0b 973f
00000260: bc05 bbbf 62c5 4bbe 28c6 173f e473 3040
00000270: 5228 23bf 2055 3640 a719 e5bf 781e 04c0
00000280: 4a47 1bbf fd8a 0d3f b046 b73e ccb9 9e3f
00000290: 6f21 24c0 e3c4 08bf addd ab40 e6fa 203c
000002a0: e11b babf 9c63 993e 3332 053f 773b 9f40
000002b0: 7c3f 85be 741b debd 83da 0cc0 48cd d6bf
000002c0: 75d8 1240 ecbf 8640 0ae1 1cc0 b6fa 803f
000002d0: 01dd be3f 9558 45bf a30f b6bf 11fc cd3d
000002e0: 5fef 97bf 7ff9 153f 5512 23be f860 bdbf
000002f0: 5442 45c0 9427 503e 1bec a23f c6d7 9c3e
00000300: a23f 4f40 66d8 a640 0cb7 8940 4ccc 91bf
00000310: b3d1 c63f f382 16c0 0c92 283f e2b6 8f3e
00000320: 6bad 44bd dc6d 5fbf d5d7 1f3f ede9 f13f
00000330: 95d4 16c0 a42b 9a3f 0949 613f e282 2640
00000340: f794 bf3f e9b7 8b3f a2b6 fa3e 3267 19c0
00000350: cc15 b4bf 5945 2e3d 0956 55bf 89f2 05bf
00000360: 7259 8bbe ff43 bf3e a69d c03f c297 693f
00000370: 865f c93f 0161 433c 5237 843f 12fc e03f
00000380: 4929 cf3f ea19 4840 bdb2 15bf f4d8 1840
00000390: 875d c83f 4ba3 3cbf 76cb ad3f a776 b2bf
000003a0: 7588 863f 2589 7b3f 771a aa3d 8e4f 863f
000003b0: a5af 0ec0 50e1 c83f cf5c 3240 80cc 3640
000003c0: 1381 40bf 1541 c4bf 6850 3c3f 1da9 98bf
000003d0: a240 823d 53cb d83f 1457 2bbf 83e3 d3bf
000003e0: a821 3bc0 1f90 05c0 e262 e2bf c06f c53e
000003f0: aa05 59c0 b318 50be 3d8f e2c0 1c31 8a3f

layer2.0.bn1.weight f4 [16]
3.3395517 2.0240185 3.350749 2.3874638 3.5666478 3.7734287 3.0543165 3.285853
4.714408 4.195407 2.4074967 2.1462693 4.481852 4.5393023 3.0764198 3.104834
00000000: 37bb 5540 8589 0140 ac72 5640 35cc 1840
00000010: f543 6440 db7f 7140 ec79 4340 6a4b 5240
00000020: 6edc 9640 c640 8640 6d14 1a40 7a5c 0940
00000030: 556b 8f40 f741 9140 10e4 4440 9ab5 4640

layer2.0.bn1.bias f4 [16]
0.8660758 0.3049703 0.6960291 2.6136537 1.7987334 1.5606421 1.9440272 0.97285426
1.8679634 -0.28605735 3.0659733 2.8201747 0.8389792 2.2284017 2.5785804 -0.66370964
00000000: 25b7 5d3f 1125 9c3e f72e 323f 1a46 2740
00000010: e53c e63f 1fc3 c73f e2d5 f83f fa0c 793f
00000020: 6d19 ef3f 1c76 92be e838 4440 be7d 3440
00000030: 57c7 563f 229e 0e40 7607 2540 e0e8 29bf

layer2.0.bn1.running_mean f4 [16]
-5.3338003 -2.1088245 6.0963593 -22.16164 -16.528841 1.808421 13.297372 -6.648074
-3.0534456 -2.3109944 -43.915657 4.2132173 -21.009245 -6.9314938 2.5978577 -8.836569
00000000: 7eae aac0 fbf6 06c0 6015 c340 0a4b b1c1
00000010: 113b 84c1 577a e73f 09c2 5441 06bd d4c0
00000020: a76b 43c0 55e7 13c0 a2a9 2fc2 add2 8640
00000030: ef12 a8c1 ccce ddc0 4d43 2640 9662 0dc1

layer2.0.bn1.running_var f4 [16]
433.34518 152.50616 136.53586 242.23698 423.51273 261.37192 268.5004 399.63962
214.92107 181.7481 423.2786 240.50159 336.81274 296.09683 450.10684 285.3905
00000000: 2fac d843 9481 1843 2e89 0843 ab3c 7243
00000010: a1c1 d343 9baf 8243 0d40 8643 dfd1 c743
00000020: cbeb 5643 83bf 3543 a9a3 d343 6880 7043
00000030: 0868 a843 650c 9443 ad0d e143 fcb1 8e43

layer2.0.conv1.weight f4 [32, 16, 3, 3]
-6.025177 -0.85915196 -2.7590196 -1.4673429 -2.5694852 -3.9227746 -2.1458685 -3.063249
-3.3839293 1.4468081 -1.4089236 -2.1892428 -2.4525177 -3.2533333 -2.9274902 -1.689101
-0.5508236 -2.93468 -0.85246253 -2.251253 -5.6682606 2.1320612 -0.6896724 -4.6683044
4.9714046 5.308631 0.49532616 -1.8723365 0.49476573 0.29457784 -0.2850932 4.258739
3.1119778 -5.366888 -1.6297746 -1.4056044 -1.5406963 0.6332112 0.60672915 -3.068848
0.11328498 -2.3622265 -0.78806305 0.7822714 -1.9629648 -2.2069993 1.8522842 -0.09616634
-2.8786657 -2.51451 1.2012515 -4.166654 -3.2923727 -1.6653237 1.5905514 -1.0181692
0.03428348 -0.2723799 -1.0372368 -2.389924 0.58121943 1.4062139 -2.1538355 -0.24119565
-4.270686 -2.9889226 0.24079862 -2.1782472 0.70418036 -2.8030188 -1.2761724 -0.373627
2.0750484 1.9914225 -0.040612806 2.8171148 -1.5005579 2.4532743 -0.30749753 -1.858908
-1.4379262 -0.67560226 0.48954764 0.8438213 -1.3473942 -1.0304413 -2.0375133 -0.24240054
-0.9986571 -2.2437282 -1.2824345 0.8903615 -1.1901804 -4.1490154 0.34255248 0.16966672
-1.7472225 -1.1207973 -0.18881436 4.2671366 2.2739887 0.23864551 -1.1581792 -0.6167459
-1.6588593 -6.4089146 -6.517297 -4.476548 5.7546806 6.940037 6.4266567 5.6432734
7.4638515 6.290266 0.38815245 5.615828 -0.49200863 -1.6360426 2.5102894 2.5632892
0.96526456 2.3068924 1.5410522 0.07694849 0.15296637 -0.10362244 -4.311616 -2.594587
0.86883664 -4.367601 -3.5333087 -2.1608734 -5.587587 -1.3341451 -1.1058415 -5.1040254
-2.6136184 0.061975047 -4.5318494 -1.7737951 -0.28768572 -5.6428313 0.64513177 2.482501
-1.2140157 0.68141496 2.528152 -0.59520775 -2.3618128 2.4724243 -0.64046526 -0.38349837
-0.6426378 -2.3952243 -3.757541 -7.3529186 -3.3066072 -3.6000173 -3.7623494 -0.62881017
-2.7121937 -2.7675314 2.865295 6.409548 1.0097486 5.2519917 5.107217 4.480688
0.19028482 3.1790006 1.5751959 -0.5024378 -2.6886456 -1.4746798 1.9970639 0.9972531
-0.30106243 0.8685712 0.93460786 -2.468064 -3.8166332 1.9898229 3.790333 -4.9646335
-2.9421518 3.9326274 -3.0453079 -4.5627503 -0.525411 0.65164155 -0.71496385 -1.4566618
-0.11411766 0.09204755 -0.8034156 -0.6514983 -0.7285239 -0.6802777 1.6785665 3.759518
1.0818015 -0.19146784 0.91928554 2.8389087 -0.4109054 -1.1129881 0.62964123 -1.3152148
0.80178195 -2.1001022 1.8428769 5.663679 2.2636087 0.89002067 2.360069 0.6633415
-1.7302071 0.9225159 2.5117264 -1.8193928 -1.5842123 1.964815 -0.24292122 -2.943942
-0.577652 -4.315327 -7.1872377 -4.4743066 -3.6741812 -7.8107142 -4.6836843 0.6356349
-2.6422877 -4.242442 -0.25541216 -0.95747674 -0.7228719 -0.18718496 2.3916686 -0.6461014
-3.3624368 -0.4335223 1.5331618 -0.445544 0.59362584 0.9558114 -1.3367882 0.4974482
0.57755333 -0.6472892 -2.1054108 -0.6328846 -1.939905 -1.3593117 1.4511619 -2.854095
00000000: 40ce c0c0 62f1 5bbf c793 30c0 e4d1 bbbf
00000010: 7272 24c0 bd0e 7bc0 e955 09c0 460c 44c0
00000020: 4c92 58c0 0231 b93f 9c57 b4bf 8e1c 0cc0
00000030: 0df6 1cc0 9d36 50c0 005c 3bc0 7634 d8bf
00000040: c702 0dbf ccd1 3bc0 fc3a 5abf 8714 10c0
00000050: 6462 b5c0 b173 0840 5f8e 30bf c062 95c0
00000060: bf15 9f40 4ee0 a940 649b fd3e b9a8 efbf
00000070: ef51 fd3e e8d2 963e bcf7 91be 9747 8840
00000080: a52a 4740 8cbd abc0 749c d0bf d8ea b3bf
00000090: 8935 c5bf 211a 223f 9a52 1b3f 0168 44c0
000000a0: f501 e83d b82e 17c0 80be 49bf f042 483f
000000b0: 6e42 fbbf 7a3f 0dc0 a617 ed3f dcf2 c4bd
000000c0: 0f3c 38c0 bbed 20c0 9cc2 993f 3b55 85c0
000000d0: 3cb6 52c0 5429 d5bf 3097 cb3f 5e53 82bf
000000e0: d66c 0c3d 6175 8bbe 2dc4 84bf 84f4 18c0
000000f0: ccca 143f d1fe b33f 71d8 09c0 fefb 76be
00000100: 76a9 88c0 824a 3fc0 ea93 763e 6768 0bc0
00000110: 2a45 343f a964 33c0 9e59 a3bf 0a4c bfbe
00000120: 98cd 0440 efe6 fe3f 9d59 26bd 9c4b 3440
00000130: 4812 c0bf 7202 1d40 5170 9dbe b3f0 edbf
00000140: f70d b8bf 45f4 2cbf fda5 fa3e ac04 583f
00000150: 6a77 acbf 80e5 83bf 9e66 02c0 d937 78be
00000160: fea7 7fbf 3e99 0fc0 d026 a4bf bbee 633f
00000170: d557 98bf bcc4 84c0 0a63 af3e 1dbd 2d3e
00000180: fda4 dfbf 4976 8fbf 8d58 41be 628c 8840
00000190: 0889 1140 7d5f 743e 373f 94bf 0fe3 1dbf
000001a0: 8055 d4bf d415 cdc0 b28d d0c0 e23f 8fc0
000001b0: 5826 b840 c814 de40 2ca7 cd40 b295 b440
000001c0: dfd7 ee40 dc49 c940 ebbb c63e ddb4 b340
000001d0: 8ee8 fbbe d869 d1bf 95a8 2040 ee0c 2440
000001e0: 941b 773f 20a4 1340 3341 c53f 2c97 9d3d
000001f0: 37a3 1c3e 0038 d4bd c2f8 89c0 b70d 26c0
00000200: 146c 5e3f 63c3 8bc0 bb21 62c0 c04b 0ac0
00000210: 83cd b2c0 44c5 aabf 378c 8dbf 2d54 a3c0
00000220: 8645 27c0 8cd9 7d3d e904 91c0 b80b e3bf
00000230: 8b4b 93be 1392 b4c0 5b27 253f 4ce1 1e40
00000240: de64 9bbf 3671 2e3f 3ecd 2140 895f 18bf
00000250: f127 17c0 333c 1e40 88f5 23bf e659 c4be
00000260: e983 24bf 5b4b 19c0 8d7b 70c0 1c4b ebc0
00000270: 749f 53c0 af66 66c0 55ca 70c0 b4f9 20bf
00000280: 9594 2dc0 3c1f 31c0 fe60 3740 041b cd40
00000290: 713f 813f 5110 a840 526e a340 cc61 8f40
000002a0: 06da 423e bf74 4b40 05a0 c93f c39f 00bf
000002b0: c512 2cc0 4fc2 bcbf ca9f ff3f fb4b 7f3f
000002c0: db24 9abe af5a 5e3f 7642 6f3f c3f4 1dc0
000002d0: b843 74c0 84b2 fe3f d194 7240 47de 9ec0
000002e0: 374c 3cc0 2bb0 7b40 53e6 42c0 0d02 92c0
000002f0: 5681 06bf fbd1 263f df07 37bf e573 babf
00000300: 85b6 e9bd 6d83 bc3d a5ac 4dbf 98c8 26bf
00000310: 8b80 3abf ae26 2ebf 44db d63f f19b 7040
00000320: 7978 8a3f 2510 44be 4c56 6b3f aeb0 3540
00000330: 3162 d2be 6576 8ebf 2b30 213f f558 a8bf
00000340: 9541 4d3f 1368 06c0 64e3 eb3f dc3c b540
00000350: f7de 1040 65d8 633f 5f0b 1740 c0d0 293f
00000360: 6d77 ddbf 012a 6c3f 20c0 2040 dde1 e8bf
00000370: 78c7 cabf 0f7f fb3f 57c0 78be 8c69 3cc0
00000380: 00e1 13bf 2917 8ac0 dafd e5c0 852d 8fc0
00000390: c925 6bc0 5ff1 f9c0 bee0 95c0 f8b8 223f
000003a0: 3e1b 29c0 16c2 87c0 62c5 82be 321d 75bf
000003b0: 220e 39bf 6aad 3fbe 1911 1940 e766 25bf
000003c0: 2a32 57c0 a3f6 ddbe a53e c43f 581e e4be
000003d0: ddf7 173f 0eb0 743f e01b abbf 88b1 fe3e
000003e0: 89da 133f bfb4 25bf 0dbf 06c0 ba04 22bf
000003f0: cf4e f8bf edfd adbf acbf b93f 7ea9 36c0

layer2.0.bn2.weight f4 [32]
0.90019625 1.1762795 1.9455386 1.6808318 1.1871495 1.2119061 1.1709377 0.8022285
1.7242944 1.4034706 1.0738025 1.4685292 1.4318229 1.1949277 1.7544761 1.3972261
1.3693753 1.5861094 1.4104049 1.2288169 1.3634032 1.3928039 1.5400248 1.6152036
1.6281967 1.3440725 1.8184277 1.3961023 1.3235698 1.4900215 0.951418 0.85507154
00000000: 4373 663f 5490 963f 6907 f93f 7f25 d73f
00000010: 84f4 973f bd1f 9b3f 49e1 953f d95e 4d3f
00000020: aeb5 dc3f eda4 b33f 5c72 893f c4f8 bb3f
00000030: f945 b73f 64f3 983f ac92 e03f 4ed8 b23f
00000040: b147 af3f a205 cb3f 2688 b43f df49 9d3f
00000050: ff83 ae3f 6647 b23f 881f c53f febe ce3f
00000060: c068 d03f 910a ac3f 3dc2 e83f 7bb3 b23f
00000070: bc6a a93f 06b9 be3f 2190 733f f8e5 5a3f

layer2.0.bn2.bias f4 [32]
1.227776 0.31394735 -0.5811738 -1.1202853 -0.20350948 -0.0372333 3.4208124 -0.087176956
0.086043164 0.049302794 0.018475743 -0.5957056 3.1121397 0.8830702 -0.27424586 -0.21832125
0.0846392 -0.1545427 -0.18892121 0.14262621 -0.014817813 -0.46635267 -0.15576413 -0.019079294
0.11526568 -0.3386026 -0.10733167 -0.07028284 0.027154412 -0.13701293 0.8129721 -0.13545293
00000000: c427 9d3f b5bd a03e cec7 14bf 8265 8fbf
00000010: ca64 50be f281 18bd 97ee 5a40 d589 b2bd
00000020: 6637 b03d baf1 493d 715a 973c 2a80 18bf
00000030: 4c2d 4740 e310 623f f469 8cbe 9b8f 5fbe
00000040: 5157 ad3d 7140 1ebe 9074 41be 9b0c 123e
00000050: 6ac6 72bc c7c5 eebe a280 1fbe 2e4c 9cbc
00000060: 6a10 ec3d 525d adbe b5d0 dbbd 73f0 8fbd
00000070: ee72 de3c 1e4d 0cbe f11e 503f 2cb4 0abe

layer2.0.bn2.running_mean f4 [32]
-176.73924 -77.21494 103.24696 -159.88625 23.406515 46.62215 -55.236504 122.96035
-51.898006 102.031265 41.18552 -104.827286 252.09526 181.27368 8.583648 -42.55929
28.244009 -19.953068 97.702354 5.4742827 30.414051 147.46487 -54.238842 -109.78357
-14.149017 65.61521 -97.99534 84.889626 -194.683 -146.53676 48.419838 -37.608406
00000000: 3fbd 30c3 0d6e 9ac2 727e ce42 e1e2 1fc3
00000010: 8b40 bb41 157d 3a42 2ef2 5cc2 b3eb f542
00000020: 8f97 4fc2 0210 cc42 f9bd 2442 92a7 d1c2
00000030: 6318 7c43 1046 3543 9f56 0941 b73c 2ac2
00000040: bbf3 e141 e29f 9fc1 9b67 c342 532d af40
00000050: fa4f f341 0277 1343 93f4 58c2 3091 dbc2
00000060: 6062 62c1 fd3a 8342 9dfd c3c2 7dc7 a942
00000070: d9ae 42c3 6989 12c3 eaad 4142 026f 16c2

layer2.0.bn2.running_var f4 [32]
11654.649 7525.88 11437.358 19439.576 10558.304 9665.946 10457.987 4842.2827
16038.825 18048.062 7715.8647 14173.253 17852.027 16149.819 17977.781 14016.764
19318.59 17361.428 15620.635 9116.78 11343.2295 8692.319 13942.191 14384.994
18840.04 11026.888 17842.188 12978.298 10994.8955 15036.227 9033.815 8927.867
00000000: 991a 3646 0a2f eb45 6fb5 3246 27df 9746
00000010: 37f9 2446 c907 1746 f367 2346 4352 9745
00000020: 4d9b 7a46 2000 8d46 eb1e f145 0375 5d46
00000030: 0e78 8b46 4757 7c46 9073 8c46 0e03 5b46
00000040: 2eed 9646 dba2 8746 8a12 7446 1f73 0e46
00000050: eb3c 3146 47d1 0746 c4d8 5946 fac3 6046
00000060: 1430 9346 8d4b 2c46 6064 8b46 31c9 4a46
00000070: 95cb 2b46 e8f0 6a46 4327 0d46 787f 0b46
