Our_code/Pytorch/Basic_experiments/trained_students/t-40-1-student-16-1.pth (torch_old, 718602 bytes, 69 tensors)

conv1.weight f4 [16, 3, 3, 3]
0.61793256 0.24305648 0.29522932 0.45760363 1.9101213 0.9252269 0.19138555 0.9731877
0.9985887 -0.80508804 -1.1038756 0.06388987 -1.6389817 -2.6918051 -1.9188741 -0.807864
-3.35952 -1.6297714 0.19255544 0.63268226 0.17408608 0.8304823 2.2413664 0.3890753
0.5403616 1.8501613 1.4988555 -3.7367382 -2.7841387 -3.2969317 1.325329 8.866342
5.383403 1.391716 8.548114 4.5330863 1.5047452 0.4375632 -0.32656682 -0.045135736
-2.0466838 -1.8405335 -0.68784183 -1.9502544 -2.2393174 3.085794 2.5123193 2.5537496
-0.28994265 -4.9103847 -2.905397 -3.0527875 -5.8684516 -3.2734592 1.1125389 -0.87761277
0.02819239 2.0051587 0.99410385 1.2495458 1.8650856 1.6072265 1.6080236 -1.2619303
-3.0687547 -1.652821 -2.4454224 -7.1832323 -4.318402 -1.657249 -4.84962 -2.8083265
1.5142989 3.2918835 1.399697 0.9582211 3.4770901 3.2619238 0.40157372 2.7538133
2.8509965 1.097035 0.1428 -0.030443877 0.75882363 -3.7179413 -3.2567205 0.32821676
-3.1684482 -2.5568247 -0.54981226 0.5595221 0.2189452 -0.31802824 1.7658689 3.4595315
0.87217814 1.8720677 2.0808282 -0.4845315 -1.0785384 -0.9973999 -0.75930774 0.6787313
1.4206944 -0.31616724 0.4387807 0.81870943 -0.7535459 -0.79014444 -1.0675477 0.5947226
1.0395278 -2.3347502 1.4919481 1.4048398 -0.13731168 0.20592172 1.5530193 0.82731366
-0.6697337 2.6958733 -0.7373365 -0.3585326 -1.7130522 -0.8981201 -0.31035137 -1.7110597
-1.5609612 -1.7451253 1.1080806 0.22406611 0.22777283 0.89686793 0.9902839 0.0011602693
0.7495864 -0.4265935 0.9428489 3.9650385 -5.062494 -0.14857739 0.75748587 -1.0807447
-0.5088332 0.79644716 -1.1776143 1.3378099 5.0123158 -5.670597 0.27054062 0.84844536
-1.2593716 -0.052673686 0.7676014 -0.78106403 0.764086 3.2793741 -3.386746 -0.18476886
1.3912454 -1.2935268 -0.16012326 -1.5341655 -0.51051176 -0.4091695 -4.4256544 -2.6774268
-1.9135616 -3.1793969 -1.5792198 -0.42901874 2.3477476 1.989525 3.2440288 9.104589
7.9976125 1.6441696 6.742525 5.1740594 1.1383653 -1.0622383 -0.18744999 -1.8922436
-7.10494 -6.144726 0.22754118 -4.0824513 -3.4223564 2.4357176 -2.9626307 -0.591554
-4.5346613 4.5374293 0.28123447 -0.29644087 0.3201821 0.25104713 2.0509188 -1.9858694
-0.29989567 -3.0771701 5.1116967 0.052768707 -0.3517939 -1.0768085 0.44092453 1.221757
-0.86941963 -0.39836192 -1.4649222 2.0627446 -0.4181864 0.3799307 -0.63721186 0.13402975
1.4238988 5.606277 6.4697576 -0.455726 0.93043095 2.5693867 -5.890729 -8.59477
-2.050833 0.33324853 -1.0971272 -0.6128861 0.98468167 0.37314045 0.5504702 1.5473689
-0.6463218 2.9278443 -3.4712136 -5.0537806 -4.8701196 0.39644614 -2.164563 -2.3789327
5.357585 4.191881 3.9668565 -0.7485477 2.2119944 0.7221546 1.2625381 -3.2918155
-0.25403526 -0.11968336 0.7748063 0.023044173 -0.9126544 2.7511318 0.5496601 1.9263756
00000000: d430 1e3f cce3 783e 4c28 973e 064b ea3e
00000010: db7e f43f acdb 6c3f 93fa 433e d422 793f
00000020: 82a3 7f3f 401a 4ebf cc4b 8dbf b1d8 823d
00000030: 27ca d1bf 8946 2cc0 ab9d f5bf 2dd0 4ebf
00000040: 6002 57c0 599c d0bf 412d 453e 77f7 213f
00000050: 9f43 323e 7d9a 543f 8c72 0f40 e134 c73e
00000060: 2355 0a3f 16d2 ec3f 7fda bf3f b826 6fc0
00000070: 542f 32c0 ee00 53c0 61a4 a93f 89dc 0d41
00000080: d644 ac40 c023 b23f 13c5 0841 0b0f 9140
00000090: 7e9b c03f 4908 e03e c433 a7be 40e0 38bd
000000a0: defc 02c0 9a96 ebbf 6716 30bf f0a1 f9bf
000000b0: fa50 0fc0 a67d 4540 d7c9 2040 a270 2340
000000c0: 5d73 94be df21 9dc0 06f2 39c0 df60 43c0
000000d0: 5bca bbc0 5b80 51c0 ad67 8e3f 3bab 60bf
000000e0: baf3 e63c 8554 0040 977d 7e3f 1ef1 9f3f
000000f0: 20bb ee3f 99b9 cd3f b8d3 cd3f ef86 a1bf
00000100: 7a66 44c0 a38f d3bf cd81 1cc0 0add e5c0
00000110: 5930 8ac0 bc20 d4bf 1630 9bc0 9fbb 33c0
00000120: 8cd4 c13f 38ae 5240 4529 b33f fa4d 753f
00000130: a588 5e40 5cc3 5040 129b cd3e 7a3e 3040
00000140: ba76 3640 a56b 8c3f 2a3a 123e 7065 f9bc
00000150: 4442 423f c0f2 6dc0 1c6e 50c0 070c a83e
00000160: dbc7 4ac0 04a3 23c0 7fc0 0cbf d73c 0f3f
00000170: 2c33 603e 99d4 a2be fe07 e23f f768 5d40
00000180: 1147 5f3f ea9f ef3f 4a2c 0540 8314 f8be
00000190: 8c0d 8abf 9a55 7fbf fe61 42bf 56c1 2d3f
000001a0: 50d9 b53f ace0 a1be dda7 e03e f196 513f
000001b0: 62e8 40bf e846 4abf 67a5 88bf be3f 183f
000001c0: 3f0f 853f 8c6c 15c0 28f8 be3f cad1 b33f
000001d0: 6f9b 0cbe 25dd 523e 56c9 c63f d4ca 533f
000001e0: ab73 2bbf 3089 2c40 16c2 3cbf 9691 b7be
000001f0: 4b45 dbbf 33eb 65bf 60e6 9ebe 0104 dbbf
00000200: 94cd c7bf 4460 dfbf 96d5 8d3f 9671 653e
00000210: 483d 693e 2399 653f 3f83 7d3f 2d14 983a
00000220: e5e4 3f3f 776a dabe 8c5e 713f 31c3 7d40
00000230: f3ff a1c0 ac24 18be 98ea 413f d855 8abf
00000240: e542 02bf f6e3 4b3f 11bc 96bf 5b3d ab3f
00000250: e464 a040 8875 b5c0 4d84 8a3e b733 593f
00000260: 1733 a1bf 5dc0 57bd 8681 443f d0f3 47bf
00000270: 249b 433f 44e1 5140 72c0 58c0 0c34 3dbe
00000280: 5414 b23f 4992 a5bf 5af7 23be 895f c4bf
00000290: e6b0 02bf aa7e d1be f69e 8dc0 f65a 2bc0
000002a0: 96ef f4bf 3d7b 4bc0 e023 cabf 58a8 dbbe
000002b0: 7f41 1640 c1a8 fe3f 2b9e 4f40 66ac 1141
000002c0: 71ec ff40 2674 d23f c4c2 d740 e591 a540
000002d0: f4b5 913f 6df7 87bf e4f2 3fbe 0a35 f2bf
000002e0: ab5b e3c0 98a1 c4c0 8e00 693e 71a3 82c0
000002f0: e307 5bc0 cce2 1b40 be9b 3dc0 1570 17bf
00000300: f21b 91c0 9f32 9140 f7fd 8f3e 19c7 97be
00000310: e9ee a33e 4089 803e 4142 0340 f830 febf
00000320: ed8b 99be 5bf0 44c0 0593 a340 0024 583d
00000330: 541e b4be dcd4 89bf dcc0 e13e 8962 9c3f
00000340: 4992 5ebf 18f6 cbbe 9282 bbbf 0204 0440
00000350: 871c d6be 4786 c23e 5120 23bf 183f 093e
00000360: 5142 b63f 9f66 b340 4108 cf40 eb54 e9be
00000370: b930 6e3f d570 2440 da80 bcc0 2e84 09c1
00000380: d940 03c0 8d9f aa3e aa6e 8cbf 1ae6 1cbf
00000390: 1914 7c3f 440c bf3e 9deb 0c3f 2f10 c63f
000003a0: 5875 25bf cd61 3b40 5d28 5ec0 92b8 a1c0
000003b0: 05d8 9bc0 fdfa ca3e 3388 0ac0 6f40 18c0
000003c0: 5671 ab40 e423 8640 fae0 7d40 d2a0 3fbf
000003d0: 5191 0d40 20df 383f d99a a13f 1bad 52c0
000003e0: e910 82be 8d1c f5bd b559 463f 22c7 bc3c
000003f0: b8a3 69bf 8b12 3040 86b6 0c3f 7a93 f63f

layer1.0.bn1.weight f4 [16]
2.5244894 2.227522 1.8309932 1.6501741 1.8236787 3.627629 2.0828056 3.3885412
1.6990361 3.4496548 1.6046215 2.253556 2.706898 2.5831707 4.5190396 2.1341183
00000000: 3c91 2140 b88f 0e40 fc5d ea3f e838 d33f
00000010: 4e6e e93f 132b 6840 b04c 0540 dcdd 5840
00000020: 047a d93f 25c7 5c40 3d64 cd3f 433a 1040
00000030: d13d 2d40 ab52 2540 f99b 9040 6595 0840

layer1.0.bn1.bias f4 [16]
2.8083818 2.5328622 -0.44625387 1.2108797 4.3805923 1.3724232 5.6122293 3.4913387
1.1423413 3.4234686 0.68102056 2.1546047 1.7678756 1.7960782 -5.5043716 0.6895478
00000000: 87bc 3340 6a1a 2240 637b e4be 1bfe 9a3f
00000010: d02d 8c40 90ab af3f 6297 b340 1872 5f40
00000020: 3d38 923f 1c1a 5b40 5d57 2e3f 0be5 0940
00000030: bf49 e23f e4e5 e53f d023 b0c0 3486 303f

layer1.0.bn1.running_mean f4 [16]
-2.536355 -0.1878736 -4.0345383 1.3842539 1.2173272 -0.34544712 5.7329736 -0.26403615
0.44361147 -0.45221958 -0.4405658 -0.2611239 0.26273522 -0.32995775 12.978348 -1.512141
00000000: a453 22c0 f061 40be f01a 81c0 3b2f b13f
00000010: 61d1 9b3f 72de b0be 8574 b740 bf2f 87be
00000020: 0b21 e33e 5389 e7be d791 e1be 08b2 85be
00000030: 3b85 863e 39f0 a8be 50a7 4f41 d68d c1bf

layer1.0.bn1.running_var f4 [16]
16.044554 221.11015 82.975204 29.412754 10.054042 72.55728 124.15821 19.716694
102.502014 10.455866 55.140186 143.99779 71.44402 54.01872 295.6435 175.83844
00000000: 3f5b 8041 331c 5d43 4ef3 a542 524d eb41
00000010: 5bdd 2041 541d 9142 0151 f842 cabb 9d41
00000020: 0801 cd42 3a4b 2741 8d8f 5c42 6fff 0f43
00000030: 57e3 8e42 2b13 5842 5ed2 9343 a4d6 2f43

layer1.0.conv1.weight f4 [16, 16, 3, 3]
-7.3746595 -2.262691 4.4175515 -5.1174693 0.488848 9.318174 -4.67868 0.16488536
5.7912164 0.9176435 2.1693447 -1.1190387 0.54619324 1.6525055 -1.6050112 -3.1358871
-2.8209307 -2.6431868 -3.197191 -4.1665983 0.65997034 -2.2248385 0.64910555 4.4967003
-2.1851578 1.375205 4.6346054 1.3344202 -0.81345737 0.477605 -2.7517169 -2.2223089
0.7377351 -5.7776527 -2.7556343 0.47545305 -2.115125 4.7594404 3.1491385 -1.093648
-0.22976802 2.64364 1.5869724 -2.0366158 -1.9952097 -1.1228027 -3.1404343 -2.1015806
1.0802163 1.2096206 2.8299391 -1.0661817 -0.10848484 0.9953878 6.043871 -2.100314
-3.8417253 6.728075 -1.0497514 -1.4966563 0.13966942 -4.574325 -5.353835 0.053219013
-0.07169842 -1.687053 0.13316603 -0.77806276 -0.9391845 -0.8052006 -1.236455 -3.106982
-2.271445 -2.4632733 -4.245807 0.06984432 -2.237554 -4.507681 1.581825 4.617391
-3.221745 0.2969601 1.072489 0.794979 0.7784664 1.4835765 2.3162487 0.10497205
-0.017566375 -0.9004621 0.6947685 -2.195248 -0.43826646 -0.6100979 0.29367536 1.1781896
-4.5155354 1.1367768 3.4467769 0.61731726 -0.49533248 2.3215585 1.3364743 -0.6408398
3.772343 1.1514517 -1.0148096 1.4937472 -0.43595868 -3.4743547 -0.7896192 0.541205
2.923753 1.496253 1.0642201 -1.1239148 -2.224738 -0.99927926 0.16754992 -2.1078959
0.6400575 -0.4159006 -2.2721791 5.71575 0.5600506 -2.5650866 -2.2915194 -0.15336573
-7.5146174 -4.838772 3.823148 -0.6809276 0.9445393 4.746154 3.2206101 3.7025836
2.3375878 -0.29335275 -1.0473124 -1.0070662 1.9300733 0.4030244 -0.507733 4.6281667
-4.047229 -6.430198 -5.970812 0.78374296 2.2266154 0.9333028 6.823823 7.732619
7.2523737 0.25109637 -0.17601247 -0.5383594 1.3064111 2.6582108 1.1494776 0.6852759
2.5042753 0.29618907 -5.995608 -5.291916 -8.052367 -0.5354126 0.5511295 -1.0657293
1.6208829 2.6527 1.6091048 4.8548326 5.531557 2.2822568 0.33934352 0.4052042
-1.4949416 -1.700618 -1.8675231 -2.7789948 0.8974244 1.9112778 -0.7225005 0.4529901
5.7203507 1.3001376 0.7472995 2.4927847 0.039693456 1.0394707 -0.6123653 0.57548916
-1.041467 0.6525892 -0.7277256 -0.7481138 -0.50893027 -0.21617094 3.273189 6.8789997
3.4226685 0.2140049 1.5211617 -1.1628097 -4.38813 -4.653558 -5.952937 -0.42696914
-0.9473237 0.30524606 -0.22787295 0.49019614 0.13621208 -0.16112444 1.8899246 0.63113195
-1.5402544 2.7757974 1.7094185 -1.1881508 3.1712518 0.8309747 -0.96534187 2.5957289
-1.4717759 0.26916113 1.1250515 -0.6656367 0.4670039 2.0288293 1.6140373 -1.3998274
1.6963446 -0.68785423 0.117833085 -2.7866628 1.4087434 0.8856901 -0.5933994 1.9557676
1.3521775 0.6904197 -2.1391926 -0.15354192 0.7750871 -1.5204034 -0.8071842 1.3541118
0.84046805 1.5983157 -1.1317056 0.11762011 -0.8552548 0.061833583 -1.7950538 -0.5956834
00000000: 36fd ebc0 eecf 10c0 955c 8d40 4fc2 a3c0
00000010: 494a fa3e 3e17 1541 bfb7 95c0 b5d7 283e
00000020: a551 b940 afea 6a3f 8bd6 0a40 a93c 8fbf
00000030: 52d3 0b3f 4d85 d33f 0271 cdbf 60b2 48c0
00000040: 218a 34c0 f929 29c0 c79e 4cc0 c654 85c0
00000050: d1f3 283f c163 0ec0 c82b 263f f8e4 8f40
00000060: a0d9 0bc0 b806 b03f b04e 9440 48ce aa3f
00000070: be3e 50bf a488 f43e 211c 30c0 4f3a 0ec0
00000080: 35dc 3c3f 88e2 b8c0 505c 30c0 956e f33e
00000090: 355e 07c0 564d 9840 7c8b 4940 a8fc 8bbf
000000a0: 4f48 6bbe 6631 2940 e921 cb3f ea57 02c0
000000b0: 0863 ffbf 00b8 8fbf e0fc 48c0 4c80 06c0
000000c0: 8744 8a3f d9d4 9a3f b91d 3540 a478 88bf
000000d0: 4d2d debd bcd1 7e3f 6467 c140 8b6b 06c0
000000e0: d4de 75c0 644c d740 415e 86bf 6f92 bfbf
000000f0: 8005 0f3e df60 92c0 9e52 abc0 2efc 593d
00000100: 9fd6 92bd 5af1 d7bf ad5c 083e 1f2f 47bf
00000110: 656e 70bf a021 4ebf 2844 9ebf cbd8 46c0
00000120: 5b5f 11c0 45a6 1dc0 a7dd 87c0 8a0a 8f3d
00000130: 1634 0fc0 ec3e 90c0 3e79 ca3f abc1 9340
00000140: 1231 4ec0 270b 983e 5247 893f be83 4b3f
00000150: 9349 473f d6e5 bd3f 6b3d 1440 96fb d63d
00000160: 5ce7 8fbc af84 66bf 59dc 313f f17e 0cc0
00000170: 7664 e0be 602f 1cbf 9e5c 963e ebce 963f
00000180: 447f 90c0 e781 913f fe97 5c40 8108 1e3f
00000190: 389c fdbe 6a94 1440 9711 ab3f 140e 24bf
000001a0: 116e 7140 c562 933f 48e5 81bf 1c33 bf3f
000001b0: fa35 dfbe d45b 5ec0 7c24 4abf 698c 0a3f
000001c0: c51e 3b40 3885 bf3f 5d38 883f 71dc 8fbf
000001d0: 1b62 0ec0 c4d0 7fbf 3592 2b3e c4e7 06c0
000001e0: cfda 233f ecf0 d4be 626b 11c0 6de7 b640
000001f0: 7a5f 0f3f 612a 24c0 41a8 12c0 e80b 1dbe
00000200: bf77 f0c0 38d7 9ac0 75ae 7440 4551 2ebf
00000210: 54cd 713f 7ee0 9740 7a1e 4e40 21f7 6c40
00000220: 0a9b 1540 5532 96be 550e 86bf 8ce7 80bf
00000230: a40c f73f 3759 ce3e cafa 01bf f119 9440
00000240: e682 81c0 2fc4 cdc0 e410 bfc0 61a3 483f
00000250: de80 0e40 efec 6e3f c25c da40 9d71 f740
00000260: 7213 e840 b48f 803e 9d3c 34be ecd1 09bf
00000270: 7b38 a73f 2020 2a40 1522 933f 3e6e 2f3f
00000280: 0c46 2040 18a6 973e 05dc bfc0 6057 a9c0
00000290: 7fd6 00c1 cd10 09bf d316 0d3f d169 88bf
000002a0: 1779 cf3f d6c5 2940 25f7 cd3f ca5a 9b40
000002b0: 8402 b140 7f10 1240 6fbe ad3e ed76 cf3e
000002c0: 3f5a bfbf daad d9bf ff0a efbf 0ddb 31c0
000002d0: 9bbd 653f c0a4 f43f cbf5 38bf 52ee e73e
000002e0: 1d0d b740 e96a a63f 054f 3f3f c989 1f40
000002f0: 9b95 223d 600d 853f f9c3 1cbf 4253 133f
00000300: ca4e 85bf 1610 273f 3a4c 3abf 6384 3fbf
00000310: 4149 02bf ea5b 5dbe ee7b 5140 c420 dc40
00000320: 000d 5b40 1a24 5b3e 6db5 c23f f3d6 94bf
00000330: 906b 8cc0 f2e9 94c0 767e bec0 b39b dabe
00000340: ce83 72bf 3649 9c3e 8757 69be fdfa fa3e
00000350: 2e7b 0b3e cefd 24be 0de9 f13f dd91 213f
00000360: 0e27 c5bf aaa6 3140 3ace da3f 5315 98bf
00000370: caf5 4a40 c2ba 543f a520 77bf 6c20 2640
00000380: 2763 bcbf 7dcf 893e b001 903f 2b67 2abf
00000390: 231b ef3e 57d8 0140 c698 ce3f 8b2d b3bf
000003a0: d221 d93f 3717 30bf 7952 f13d af58 32c0
000003b0: b451 b43f 96bc 623f 06e9 17bf 9856 fa3f
000003c0: 2714 ad3f 58bf 303f 88e8 08c0 183a 1dbe
000003d0: 1c6c 463f 949c c2bf a0a3 4ebf 8953 ad3f
000003e0: ea28 573f 9c95 cc3f bbdb 90bf d0e2 f03d
000003f0: fbf1 5abf 3645 7d3d 53c4 e5bf b57e 18bf

layer1.0.bn2.weight f4 [16]
0.24554524 0.34457096 0.39857063 0.43793806 0.49693707 0.07204394 0.2675323 0.27596146
0.46627107 1.1307933 0.28846127 0.45320827 0.2618052 0.28625926 0.30095628 0.2728153
00000000: 3670 7b3e 9b6b b03e 7311 cc3e 6b39 e03e
00000010: 896e fe3e c68b 933d fef9 883e d24a 8d3e
00000020: 15bb ee3e d6bd 903f 32b1 933e ea0a e83e
00000030: 550b 863e 9390 923e f116 9a3e 72ae 8b3e

layer1.0.bn2.bias f4 [16]
0.15884441 -0.00584897 0.010445623 0.13471444 0.1239685 -0.6317842 0.17849621 0.30128324
-0.2685849 -3.4427302 0.11074618 0.18732502 0.6678396 0.1994683 0.2643035 0.28354135
00000000: 1ca8 223e b7a8 bfbb 1e24 2b3c 95f2 093e
00000010: 32e3 fd3d 9cbc 21bf b6c7 363e cc41 9a3e
00000020: f683 89be b155 5cc0 e5ce e23d 21d2 3f3e
00000030: 89f7 2a3f 6b41 4c3e ca52 873e 552c 913e

layer1.0.bn2.running_mean f4 [16]
-44.267433 107.5259 -9.508535 -12.4677105 -206.08365 -70.43508 -84.96934 41.355648
-54.064003 78.21998 -38.016716 -112.04812 30.524176 301.64984 -3.7514338 141.24007
00000000: da11 31c2 430d d742 f622 18c1 be7b 47c1
00000010: 6a15 4ec3 c3de 8cc2 4df0 a9c2 2f6c 2542
00000020: 8a41 58c2 a170 9c42 1e11 18c2 a318 e0c2
00000030: 8331 f441 2ed3 9643 7e17 70c0 753d 0d43

layer1.0.bn2.running_var f4 [16]
4876.9067 4843.6543 13977.063 15604.159 14397.924 2946.5166 5824.4106 7659.9375
8699.191 2583.4365 5120.1797 16581.521 6695.196 9886.314 5770.591 5958.4907
00000000: 4167 9845 3c5d 9745 4164 5a46 a3d0 7346
00000010: b2f7 6046 4428 3845 4903 b645 805f ef45
00000020: c4ec 0746 fc76 2145 7001 a045 0b8b 8146
00000030: 9139 d145 4279 1a46 ba54 b445 ed33 ba45

layer1.0.conv2.weight f4 [16, 16, 3, 3]
-1.920034 -2.544604 -2.6123886 -1.2987363 -1.3203479 0.22116771 -0.2620438 -0.69664675
-0.08574314 0.61199296 1.1551863 -0.43194327 0.55454063 -0.37017694 1.1232057 -1.0042245
-0.8606847 -0.33626166 -0.074689925 2.444529 0.60894066 -1.4284929 -1.5220662 -0.3409888
-1.917378 -4.204598 -6.2352924 0.6543237 2.3035114 3.0617344 2.6683958 0.013212696
-0.42269173 0.0150246825 -4.162681 -0.82693005 -4.625291 2.0884411 3.6791651 -5.5563893
-2.567494 4.6245 -4.619572 -0.5153322 5.141197 -1.3710523 -1.0061268 -1.5590502
0.49525848 -0.107841164 -0.9532046 -0.7782594 -0.8393772 -0.236338 1.3231574 -1.5345424
1.090653 -0.79453 -3.4350278 2.2540119 0.5152001 -0.23167604 2.9384465 -0.50832766
-0.9126622 2.7696207 0.7292968 -0.06723816 1.8199142 -0.399199 -0.23808391 -1.6257069
-0.57525414 0.1891059 -2.0262506 -0.31090623 -1.139903 -0.91816795 1.229832 -4.1024704
-1.8282568 -0.725409 -2.278 -1.0312685 -2.1184235 -5.0474963 -1.5034106 -2.9592972
0.0022715882 -0.009182171 -0.39295697 -1.5345564 -0.16504532 -0.98222226 -2.8819096 -1.2031963
-0.9136355 0.254121 0.96549475 -0.7142426 -1.4408306 -1.2937118 3.3303807 -1.9614288
-1.821534 3.7731795 3.9774354 1.3332632 0.47560915 0.35164407 3.7607515 3.486507
3.8137913 4.384103 0.29900903 -1.6558764 0.9215718 0.44291005 1.7678268 3.9851148
-1.9070144 -2.118588 1.1891667 -0.13033478 0.7380087 2.2271533 0.73947763 -0.7806968
-1.0410588 0.14523813 0.7683647 1.9108081 0.67437917 1.8742989 0.6686158 -0.9378576
1.8438729 -0.28201348 0.36747327 2.9978788 -0.118394375 1.0365732 1.7775605 1.5259416
-0.7818737 -0.87997603 -1.3757331 -1.5054711 -0.23681816 0.13100521 -2.1328351 0.91867554
2.2978213 -0.2552765 -0.80080193 0.5855174 0.28779748 -0.64437926 -0.77392244 -1.8550981
-3.4825692 -2.8939664 -0.0051846183 0.96231407 -0.42797965 1.2110841 0.80623883 1.6466432
1.7725735 1.7109225 2.0559824 0.3356293 0.49676332 -0.4297801 -0.50070673 1.0421791
-1.1626412 -0.7455013 1.426689 0.22173823 1.4209833 -1.5047709 -2.0662012 0.665911
-0.5303324 -2.1109464 0.557895 -1.5088407 -2.6685839 -0.74125445 0.22630928 -0.6786064
-1.7946849 -0.703185 -0.038122915 -0.84924704 0.72751707 0.28975102 -0.09917629 0.8464266
0.36834982 0.7649076 0.9724548 2.9447713 0.6054064 2.8785272 2.5446925 1.7305326
-1.5439619 -0.82434165 0.260056 -5.264156 -6.1973133 0.7650556 -2.4223862 -4.502903
1.0734417 0.14877224 -0.25658697 3.0468643 1.5934907 -0.16052134 0.38681534 0.5792346
0.36293796 0.7564779 0.32208875 0.28117812 0.8034124 -0.3609326 0.9364733 1.1079296
0.4124226 -0.14684358 -2.6652555 -0.62154514 -3.079679 -1.8918129 -2.576059 -2.345143
-2.7459571 -4.6473045 -4.0611243 -0.21545467 0.14081296 -0.64533424 -0.9376044 2.2676768
-0.075302094 -0.18552005 1.1616151 -0.109918095 0.8685251 1.5253844 2.2022238 3.4608085
00000000: adc3 f5bf cbda 22c0 6031 27c0 fe3c a6bf
00000010: 2901 a9bf ca79 623e 9b2a 86be 7157 32bf
00000020: 199a afbd 92ab 1c3f 25dd 933f ab27 ddbe
00000030: 60f6 0d3f d587 bdbe 34c5 8f3f 6e8a 80bf
00000040: d555 5cbf 7d2a acbe 08f7 98bd 2a73 1c40
00000050: 89e3 1b3f dbd8 b6bf 11d3 c2bf 1696 aebe
00000060: a46c f5bf 118c 86c0 8487 c7c0 c281 273f
00000070: bb6c 1340 75f3 4340 ffc6 2a40 107a 583c
00000080: 0d6b d8be 162a 763c af34 85c0 b0b1 53bf
00000090: 6202 94c0 05a9 0540 7177 6b40 f1cd b1c0
000000a0: d251 24c0 e7fb 9340 89d3 93c0 d0ec 03bf
000000b0: b084 a440 a47e afbf c3c8 80bf f58e c7bf
000000c0: 8592 fd3e d4db dcbd 3705 74bf 023c 47bf
000000d0: 6de1 56bf 9702 72be 395d a93f e36b c4bf
000000e0: 849a 8b3f 5166 4bbf 7fd7 5bc0 bb41 1040
000000f0: 27e4 033f 7c3c 6dbe 820f 3c40 c321 02bf
00000100: 3ba4 69bf 7741 3140 32b3 3a3f 29b4 89bd
00000110: f3f2 e83f d063 ccbe 45cc 73be 2a17 d0bf
00000120: db43 13bf faa4 413e 17ae 01c0 1a2f 9fbe
00000130: 57e8 91bf 0e0d 6bbf 236b 9d3f 7047 83c0
00000140: 5204 eabf 67b4 39bf c1ca 11c0 9b00 84bf
00000150: 4094 07c0 1785 a1c0 c26f c0bf 2065 3dc0
00000160: edde 143b d170 16bc a831 c9be 586c c4bf
00000170: a401 29be eb72 7bbf 3571 38c0 5602 9abf
00000180: 04e4 69bf 261c 823e aa2a 773f 9ad8 36bf
00000190: 236d b8bf 5998 a5bf f524 5540 1910 fbbf
000001a0: 0728 e9bf c67b 7140 4d8e 7e40 5ea8 aa3f
000001b0: 0b83 f33e b10a b43e 27b0 7040 ee22 5f40
000001c0: 2815 7440 924a 8c40 b617 993e c2f3 d3bf
000001d0: 21ec 6b3f 1bc5 e23e 2648 e23f 1f0c 7f40
000001e0: 0c19 f4bf f296 07c0 9d36 983f 7b76 05be
000001f0: 23ee 3c3f ae89 0e40 684e 3d3f bfdb 47bf
00000200: 6a41 85bf 4eb9 143e 8db3 443f 5c95 f43f
00000210: 1da4 2c3f 07e9 ef3f 682a 2b3f 7017 70bf
00000220: 0704 ec3f 1264 90be 7525 bc3e 3fdd 3f40
00000230: c078 f2bd 6eae 843f 1a87 e33f 0e52 c33f
00000240: e028 48bf 1c46 61bf 0618 b0bf 47b3 c0bf
00000250: 7680 72be 3b26 063e 5f80 08c0 522e 6b3f
00000260: 810f 1340 9ab3 82be 5b01 4dbf 78e4 153f
00000270: 315a 933e 0af6 24bf c81f 46bf db73 edbf
00000280: 6ae2 5ec0 bf36 39c0 bbe3 a9bb 375a 763f
00000290: 2620 dbbe ce04 9b3f ab65 4e3f 34c5 d23f
000002a0: b0e3 e23f 82ff da3f 3795 0340 9bd7 ab3e
000002b0: c357 fe3e 230c dcbe 512e 00bf 2066 853f
000002c0: 6dd1 94bf 2cd9 3ebf bf9d b63f 590f 633e
000002d0: c8e2 b53f 559c c0bf a43c 04c0 2579 2a3f
000002e0: ddc3 07bf bf19 07c0 35d2 0e3f b121 c1bf
000002f0: 14ca 2ac0 dac2 3dbf 9fbd 673e 26b9 2dbf
00000300: 3cb8 e5bf ef03 34bf c626 1cbd 4168 59bf
00000310: 8f3e 3a3f 3f5a 943e f01c cbbd 6aaf 583f
00000320: 5998 bc3e fcd0 433f ccf2 783f 2277 3c40
00000330: eafb 1a3f ca39 3840 3edc 2240 1882 dd3f
00000340: 8ba0 c5bf 0e08 53bf 0f26 853e f773 a8c0
00000350: 6450 c6c0 afda 433f 6008 1bc0 c817 90c0
00000360: 8a66 893f c057 183e 5e5f 83be d3ff 4240
00000370: 81f7 cb3f b55f 24be a90c c63e b848 143f
00000380: 01d3 b93e 89a8 413f d1e8 a43e 94f6 8f3e
00000390: 6fac 4d3f 28cc b8be b7bc 6f3f a3d0 8d3f
000003a0: 0e29 d33e 2a5e 16be 8c93 2ac0 951d 1fbf
000003b0: 7619 45c0 ed26 f2bf 27de 24c0 d316 16c0
000003c0: c3bd 2fc0 b8b6 94c0 bbf4 81c0 26a0 5cbe
000003d0: 4631 103e a034 25bf d806 70bf 9e21 1140
000003e0: fc37 9abd f8f8 3dbe ceaf 943f bd1c e1bd
000003f0: a957 5e3f cc3f c33f 3cf1 0c40 e37d 5d40

layer1.1.bn1.weight f4 [16]
1.8716679 2.335123 1.819795 1.2481186 3.3657708 4.9197674 1.668357 4.80719
1.6364354 4.320982 1.1463761 2.0463417 2.579662 3.487699 2.0738688 1.8472041
00000000: d092 ef3f a872 1540 0bef e83f 5ac2 9f3f
00000010: ca68 5740 bc6e 9d40 b98c d53f 80d4 9940
00000020: b776 d13f 7c45 8a40 74bc 923f 43f7 0240
00000030: 2f19 2540 7636 5f40 44ba 0440 2f71 ec3f

layer1.1.bn1.bias f4 [16]
4.7925873 -0.58304155 -1.6324723 3.733957 1.0659364 5.986498 0.21943331 2.0177803
0.9311505 6.193272 2.839647 -0.131285 2.9501863 5.1123533 -0.8402933 -0.59852123
00000000: e05c 9940 3642 15bf daf4 d0bf 27f9 6e40
00000010: 9b70 883f 6491 bf40 20b3 603e 5023 0140
00000020: e15f 6e3f 492f c640 c7bc 3540 936f 06be
00000030: dacf 3c40 6698 a340 761d 57bf b038 19bf

layer1.1.bn1.running_mean f4 [16]
9.105667 -12.376233 1.4336674 3.0023012 -2.078811 -0.29607815 4.516311 1.3906878
-2.185642 0.9660063 4.935865 -2.8205535 4.6451097 0.6067233 20.70376 -18.614328
00000000: d0b0 1141 0d05 46c1 6a82 b73f b425 4040
00000010: 3d0b 05c0 8e97 97be 9f85 9040 0f02 b23f
00000020: 8fe1 0bc0 304c 773f 9bf2 9d40 f383 34c0
00000030: bda4 9440 3852 1b3f 4da1 a541 25ea 94c1

layer1.1.bn1.running_var f4 [16]
51.317585 507.4072 219.78725 48.309193 49.11287 124.27364 438.31253 57.428303
144.84709 67.55986 96.097534 335.70016 87.026794 82.72851 343.51672 350.10947
00000000: 3545 4d42 1fb4 fd43 89c9 5b43 9d3c 4142
00000010: 9473 4442 1b8c f842 0128 db43 95b6 6542
00000020: dbd8 1043 a61e 8742 f031 c042 9fd9 a743
00000030: b80d ae42 ff74 a542 24c2 ab43 030e af43

layer1.1.conv1.weight f4 [16, 16, 3, 3]
1.9290441 1.7006497 1.2092053 0.22017965 0.23110394 3.405593 3.4310527 -2.5515046
-1.8852834 0.6976253 -0.041478306 -0.7641004 0.95437616 1.8161731 0.74746096 0.26489845
1.019873 -0.43472978 -1.6790001 -0.9520877 0.0145364655 -0.29261175 -1.5486203 -0.5280194
1.9956312 0.83838767 2.0489297 1.5689983 1.2570574 -0.27137724 -2.7954886 -0.83472645
1.3684071 0.79918927 -0.578987 1.827917 -0.22307457 -1.0057602 -3.50681 -2.6895118
1.3519408 0.4907384 -2.003526 2.827455 1.8138134 0.39732516 -1.2873633 0.5558934
-0.82773155 -16.389107 -0.54811645 -0.90389085 3.8001819 3.9208913 2.0800145 3.2407436
0.5254284 1.2594298 0.35627937 -1.8780032 0.17756951 -0.16218476 -0.7674976 -0.1281014
-2.2750885 0.29461887 -1.9482828 0.059997883 3.8482761 0.38139462 3.2493746 -6.959175
-1.4702805 2.2677112 0.1782442 -0.1777998 1.8266499 0.627632 -2.0775163 1.2906777
-1.0441008 -1.20969 -3.0193164 1.4093646 -2.177265 1.8945605 -6.9520345 0.014471356
-4.926849 -2.980706 -1.0571543 -1.0565678 0.42994857 -3.625557 -0.41246176 0.868746
0.82227045 1.3527483 1.6015127 -0.51223487 -2.8714745 0.75765336 -1.4891535 -0.67415875
-0.4816725 -1.6947328 0.10914091 2.418306 -3.4142659 2.163551 -0.23829523 0.83837235
3.263639 -5.116307 2.5255978 2.0507593 -4.966951 3.265762 -4.080054 -1.4563433
-1.5958314 -6.9669905 4.5068693 3.3032374 -3.843404 2.2547886 0.40578058 -1.4898152
-2.7745836 1.0667895 0.8976648 -0.64610904 -1.5455394 -2.2385068 -0.42082638 2.4442017
0.7802661 -0.116758004 -0.4254691 -1.7516712 0.64052117 -0.5742745 -1.1139394 -0.4691152
-0.18622701 4.5877094 0.47656158 0.78201634 8.307093 4.738592 -0.09614505 4.9991198
0.21386553 2.0375798 -2.459884 0.2761041 0.095031425 -1.8427303 0.61319053 1.0891308
-1.4514929 0.66644156 -2.7483475 -0.8245641 -0.36605796 -1.8602967 -0.7462653 0.30697635
-3.3234496 -1.0256768 0.59920377 1.0612507 1.2753878 0.13308077 0.24692331 3.4085155
1.5121845 -2.006515 1.3662369 2.4729989 2.1867588 -0.8454144 -0.120734625 3.3617983
-3.9741082 0.19649298 1.5648465 -0.40506774 -3.4343438 -0.20978639 -9.25026 -0.31382668
2.7750306 -17.87726 -1.9227885 -0.26562768 -5.3111467 -0.022507453 -0.14720333 -2.4119713
1.8876948 1.6563303 -1.1285446 -0.60890394 2.2752335 -0.6855667 0.8508861 0.23820223
-0.8806439 1.6871097 -1.7805635 -4.824375 7.6494904 -0.52962404 -2.4232705 -1.4963386
-2.0194361 -1.0683802 -0.44760838 -1.5633787 1.7853113 -1.1155964 -1.0488707 0.7754929
0.12625024 0.6579552 -0.42262226 0.14539826 1.1581595 5.637636 -3.3986409 -0.59536916
0.20868804 0.49280223 1.7250942 1.4301685 0.47519535 -1.4112866 -0.3808777 -1.585921
-0.83302855 1.971538 0.38475135 0.48228756 -1.0780172 -1.1401783 -1.6067083 2.7842984
-2.6622677 -3.6394417 -0.8100282 0.55896765 0.17726034 -1.0801133 3.4804673 -3.9917443
00000000: ebea f63f e4ae d93f 3dc7 9a3f c676 613e
00000010: 83a6 6c3e 3cf5 5940 5e96 5b40 da4b 23c0
00000020: f750 f1bf 9297 323f 28e5 29bd 159c 43bf
00000030: ff51 743f 5c78 e83f 9a59 3f3f c5a0 873e
00000040: 338b 823f e794 debe 7ae9 d6bf 05bc 73bf
00000050: 5b2a 6e3c 35d1 95be 3139 c6bf 482c 07bf
00000060: d870 ff3f 93a0 563f aa21 0340 f0d4 c83f
00000070: 42e7 a03f f5f1 8abe 49e9 32c0 a2b0 55bf
00000080: f727 af3f ab97 4c3f 7e38 14bf 2ff9 e93f
00000090: a96d 64be c0bc 80bf 936f 60c0 f620 2cc0
000000a0: 650c ad3f 1042 fb3e c539 00c0 06f5 3440
000000b0: 0a2b e83f 346e cb3e 52c8 a4bf 084f 0e3f
000000c0: 37e6 53bf e41c 83c1 5c51 0cbf 6465 67bf
000000d0: 2e36 7340 e2ef 7a40 f51e 0540 5868 4f40
000000e0: 7a82 063f ff34 a13f 406a b63e 6962 f0bf
000000f0: c8d4 353e c313 26be b97a 44bf 032d 03be
00000100: 0d9b 11c0 49d8 963e 5561 f9bf 57c0 753d
00000110: 284a 7640 2846 c33e c1f5 4f40 90b1 dec0
00000120: 2732 bcbf 2e22 1140 a685 363e 2711 36be
00000130: aacf e93f 7eac 203f 07f6 04c0 ed34 a53f
00000140: 18a5 85bf 1fd7 9abf 7b3c 41c0 0f66 b43f
00000150: 4f58 0bc0 f580 f23f 1177 dec0 4419 6d3c
00000160: bfa8 9dc0 e3c3 3ec0 d550 87bf 9d3d 87bf
00000170: 3822 dc3e 2009 68c0 302e d3be 2366 5e3f
00000180: 5180 523f db26 ad3f 5efe cc3f d321 03bf
00000190: 3dc6 37c0 92f5 413f 959c bebf ab95 2cbf
000001a0: c79d f6be 01ed d8bf 4585 df3d 87c5 1a40
000001b0: 5583 5ac0 9f77 0a40 aa03 74be 929f 563f
000001c0: 76df 5040 c9b8 a3c0 65a3 2140 a43f 0340
000001d0: 43f1 9ec0 3f02 5140 cd8f 82c0 7569 babf
000001e0: 3444 ccbf 96f1 dec0 4638 9040 3e68 5340
000001f0: 55fa 75c0 754e 1040 79c2 cf3e 44b2 bebf
00000200: c792 31c0 8f8c 883f 5ccd 653f 6767 25bf
00000210: 3cd4 c5bf b243 0fc0 8e76 d7be cd6d 1c40
00000220: 85bf 473f d21e efbd 16d7 d9be c336 e0bf
00000230: 32f9 233f a703 13bf 9195 8ebf de2f f0be
00000240: 4bb2 3ebe 84ce 9240 e1ff f33e 3932 483f
00000250: dae9 0441 8ca2 9740 b2e7 c4bd caf8 9f40
00000260: 91ff 5a3e b567 0240 bd6e 1dc0 845d 8d3e
00000270: d69f c23d 96de ebbf 0efa 1c3f a368 8b3f
00000280: 85ca b9bf ea9b 2a3f ede4 2fc0 a216 53bf
00000290: f36b bbbe 341e eebf 3e0b 3fbf 012c 9d3e
000002a0: 66b3 54c0 6149 83bf 6b65 193f 10d7 873f
000002b0: e83f a33f 5346 083e 77d9 7c3e 1e25 5a40
000002c0: 438f c13f be6a 00c0 dae0 ae3f 9d45 1e40
000002d0: dbf3 0b40 146d 58bf b743 f7bd b427 5740
000002e0: ca57 7ec0 7535 493e e44c c83f 0a65 cfbe
000002f0: 4acc 5bc0 3ed2 56be 1101 14c1 e4ad a0be
00000300: 1a9a 3140 a104 8fc1 ef1d f6bf 5a00 88be
00000310: eaf4 a9c0 8d61 b8bc 78bc 16be bd5d 1ac0
00000320: fc9f f13f a202 d43f 2674 90bf 21e1 1bbf
00000330: 6d9d 1140 4d81 2fbf acd3 593f 49eb 733e
00000340: e171 61bf 36f3 d73f 81e9 e3bf 4861 9ac0
00000350: a0c8 f440 7195 07bf dd16 1bc0 0688 bfbf
00000360: 713e 01c0 afc0 88bf ed2c e5be cb1c c8bf
00000370: 1585 e43f ddcb 8ebf 6541 86bf b486 463f
00000380: be47 013e c16f 283f f261 d8be 48e3 143e
00000390: 923e 943f 8467 b440 5583 59c0 1d6a 18bf
000003a0: 51b2 553e 9350 fc3e e3cf dc3f c30f b73f
000003b0: ce4c f33e 0aa5 b4bf 6702 c3be 76ff cabf
000003c0: 5c41 55bf 5b5b fc3f 21fe c43e 65ee f63e
000003d0: 78fc 89bf 5df1 91bf 9ea8 cdbf f231 3240
000003e0: 9862 2ac0 9dec 68c0 025e 4fbf 8118 0f3f
000003f0: bc83 353e 2741 8abf fabf 5e40 bd78 7fc0

layer1.1.bn2.weight f4 [16]
0.69694084 0.7362257 0.64849865 0.07327117 0.49233347 0.22505093 0.28934354 0.26136383
0.36069426 0.48121768 0.05509042 0.40937963 0.4885124 0.68390185 0.32761213 0.36114654
00000000: b76a 323f 4a79 3c3f 0204 263f 320f 963d
00000010: 2213 fc3e c073 663e d624 943e 7bd1 853e
00000020: ebac b83e 2a62 f63e 7ea6 613d 359a d13e
00000030: 4c1e fa3e 3114 2f3f c7bc a73e 33e8 b83e

layer1.1.bn2.bias f4 [16]
-0.06983241 -0.0751125 -1.1570586 -0.81126034 -0.40255556 0.30159137 -0.15425844 0.35871106
-0.028724466 0.0037276067 -0.62924635 0.028574824 -0.027541969 -0.55622625 -0.22287105 -0.029307218
00000000: 4b04 8fbd 95d4 99bd 7f1a 94bf c2ae 4fbf
00000010: c31b cebe 2f6a 9a3e edf5 1dbe faa8 b73e
00000020: 924f ebbc dd4a 743b 4a16 21bf c015 ea3c
00000030: b29f e1bc d864 0ebf 4f38 64be b115 f0bc

layer1.1.bn2.running_mean f4 [16]
-187.70241 -39.085217 8.947048 -17.234842 -1.4616214 12.38305 21.40599 252.69441
-29.43855 -67.894394 -44.39859 163.32944 -152.09482 -139.44435 68.951004 26.509016
00000000: d1b3 3bc3 4357 1cc2 1c27 0f41 f5e0 89c1
00000010: 6916 bbbf f920 4641 783f ab41 c5b1 7c43
00000020: 2782 ebc1 eec9 87c2 2898 31c2 5654 2343
00000030: 4618 18c3 c171 0bc3 eae6 8942 7712 d441

layer1.1.bn2.running_var f4 [16]
21751.592 32633.19 4937.2925 606.9521 13491.442 4109.9644 5612.685 5145.521
7594.7666 15333.998 359.65033 11704.924 16908.855 4898.991 6508.0137 9363.775
00000000: 2fef a946 61f2 fe46 574a 9a45 efbc 1744
00000010: c5cd 5246 b76f 8045 7b65 af45 2bcc a045
00000020: 2256 ed45 fe97 6f46 3ed3 b343 b2e3 3646
00000030: b619 8446 ee17 9945 1c60 cb45 1a4f 1246

layer1.1.conv2.weight f4 [16, 16, 3, 3]
-1.5381453 -0.052029397 2.1032345 -1.3679687 -3.8683896 1.3312159 -2.972303 -3.2866437
0.18657765 -0.76414 -3.5267332 -0.6596687 -4.914852 -11.326592 -2.925017 -7.670406
-9.138378 -2.0433915 3.1047585 4.5846305 0.7456619 4.2307615 1.3960369 1.6738149
0.6159873 -0.52468383 0.5815475 -0.16940172 0.29962513 0.42384955 -0.077177756 0.1421339
0.5512247 0.8631381 0.40408888 1.4873713 -0.41686746 -1.546965 -2.6731482 0.5843669
1.22439 -0.8048889 0.6902697 0.87289965 1.4539858 2.0028038 0.19840659 -0.94982076
1.0855911 -0.5196468 -0.7230612 1.6114591 0.5244453 0.27159137 -1.9017345 1.4383488
-0.4784409 -2.5049179 1.3257816 -0.95464265 -2.8627067 1.6562154 -1.1891847 0.107724756
3.246024 1.5324243 -1.9612688 3.4408085 -1.2476273 0.102145985 0.60422814 -1.5886506
-0.07371997 -1.3619056 0.5623786 0.23426001 -0.44234464 1.7341801 -0.18732588 -0.95305747
0.9923926 1.1386734 -1.0910467 1.1918873 1.9470502 -0.7677891 -1.132661 0.7783989
-1.091964 -1.0996789 -1.1692973 -0.9262083 -0.96711373 0.020158663 0.14999852 0.22416086
-0.19842765 0.1816308 -0.4105598 -4.442274 -3.0664175 0.07070501 -6.704071 -1.7057388
-3.814863 -3.6120703 -6.219381 -0.6372929 0.15039392 1.4949641 2.390522 1.7230006
1.5508319 2.822792 -0.30857086 4.094694 0.8008307 0.6817532 -0.8342934 0.48896563
-0.19593517 -0.8177593 -0.5589779 0.23590687 -0.8912825 0.12671657 2.0303452 -1.2443764
0.32997665 -0.399916 -1.5996946 -1.0030408 0.5573222 0.038514607 2.0335226 -2.0111985
-0.37022698 0.46120712 -3.2659314 -3.8470464 -1.3178802 -0.61660033 -4.04686 -2.3724468
0.19522655 0.26952353 0.08236413 0.095318004 0.45299768 -0.48383364 0.20975709 -0.050476003
-0.14412168 -0.42238456 0.088279516 -0.59501106 -0.6103849 0.43599787 -0.80491 0.48366696
0.049248144 -0.8238045 0.34638348 -1.3855789 0.4768091 -0.66275203 0.010616464 -0.46197337
0.16032696 -0.3326447 0.5112285 0.46407023 -0.5202069 -0.5455294 0.3374175 0.19420475
0.22434705 1.0903782 0.56038314 0.50085175 0.020530617 -0.9268432 1.5672679 -0.462017
-1.399855 1.9274807 0.9504156 1.1790946 1.5061418 -1.5736434 -0.9603414 -0.13735218
-2.6585765 -3.2032378 -0.6152186 -0.32191187 -1.105513 0.17993273 -1.4107147 -0.017493967
-0.36313334 -1.5814289 -1.6931819 -1.6593786 -1.6260318 -1.7768153 -4.0212164 -0.08296769
-1.7198688 -1.026827 -1.5289186 -5.313752 -0.79307646 -0.3052504 -1.6639696 -0.38555735
-0.063503824 0.33830836 0.548159 -0.6667616 -0.46085027 1.2187439 -0.38508382 -0.0012988244
1.5238434 0.04261532 -1.0672089 -0.43878892 0.23428126 -0.01025192 -0.67086816 -0.01878154
0.27252558 0.36095315 0.3235364 0.10984836 -0.05899429 0.54602545 -0.20042488 -0.09500722
0.11021806 -0.079912394 0.03661321 0.13763705 -0.65324783 0.1380773 0.70411974 -2.1094306
0.8997754 -0.99320334 -0.34959224 0.0421142 0.06003682 0.6336248 -0.1744718 1.4778091
00000000: f2e1 c4bf c71c 55bd 659b 0640 9919 afbf
00000010: b293 77c0 4865 aa3f 363a 3ec0 5f58 52c0
00000020: 360e 3f3e ae9e 43bf ffb5 61c0 0ce0 28bf
00000030: 7846 9dc0 b939 35c1 7b33 3bc0 f773 f5c0
00000040: cc36 12c1 edc6 02c0 5db4 4640 4bb5 9240
00000050: b3e3 3e3f 6662 8740 56b1 b23f 913f d63f
00000060: 58b1 1d3f ae51 06bf 4ce0 143f a577 2dbe
00000070: 7768 993e cf02 d93e 5f0f 9ebd 8d8b 113e
00000080: 101d 0d3f 9ef6 5c3f bde4 ce3e 2f62 be3f
00000090: a76f d5be f302 c6bf dc14 2bc0 1299 153f
000000a0: d0b8 9c3f 330d 4ebf 84b5 303f 5a76 5f3f
000000b0: 351c ba3f f02d 0040 192b 4b3e 7427 73bf
000000c0: a6f4 8a3f 9307 05bf 8a1a 39bf 4b44 ce3f
000000d0: 0c42 063f 060e 8b3e 096c f3bf d01b b83f
000000e0: 35f6 f4be 9350 20c0 36b3 a93f 7663 74bf
000000f0: 9636 37c0 defe d33f 3437 98bf cc9e dc3d
00000100: dbbe 4f40 7b26 c43f db0a fbbf 3536 5c40
00000110: 40b2 9fbf ea31 d13d b2ae 1a3f e758 cbbf
00000120: 7ffa 96bd ec52 aebf 0bf8 0f3f dbe1 6f3e
00000130: ff7a e2be 9df9 dd3f 5bd2 3fbe 93fb 73bf
00000140: 710d 7e3f 0dc0 913f 6ba7 8bbf c38f 983f
00000150: f138 f93f d48d 44bf 09fb 90bf 2645 473f
00000160: 7ac5 8bbf 47c2 8cbf 89ab 95bf fd1b 6dbf
00000170: c494 77bf c823 a53c 3699 193e 6d8a 653e
00000180: 9e30 4bbe 6dfd 393e e534 d2be 1c27 8ec0
00000190: 2f40 44c0 cacd 903d c087 d6c0 a655 dabf
000001a0: b726 74c0 292c 67c0 2b05 c7c0 a125 23bf
000001b0: dd00 1a3e fc5a bf3f 50fe 1840 498b dc3f
000001c0: a981 c63f a0a8 3440 00fd 9dbe bc07 8340
000001d0: 3e03 4d3f 6187 2e3f 4194 55bf b459 fa3e
000001e0: 3ba3 48be ac58 51bf 2d19 0fbf 9291 713e
000001f0: 172b 64bf fdc1 013e 2df1 0140 ba47 9fbf
00000200: b3f2 a83e cac1 ccbe cbc2 ccbf a463 80bf
00000210: abac 0e3f 7ec1 1d3d 3c25 0240 7ab7 00c0
00000220: 648e bdbe 5723 ec3e 0505 51c0 0236 76c0
00000230: 4cb0 a8bf 85d9 1dbf e17f 81c0 2bd6 17c0
00000240: 78e9 473e fdfe 893e 86ae a83d 1636 c33d
00000250: 50ef e73e 0bb9 f7be 90ca 563e edbf 4ebd
00000260: a294 13be ca42 d8be e4cb b43d a552 18bf
00000270: 2f42 1cbf 1d3b df3e 950e 4ebf 32a3 f73e
00000280: 6cb8 493d dae4 52bf 2d59 b13e a65a b1bf
00000290: 5320 f43e 1eaa 29bf adf0 2d3c c687 ecbe
000002a0: c02c 243e 6850 aabe dfdf 023f 9d9a ed3e
000002b0: 482c 05bf d1a7 0bbf fdc1 ac3e 9cdd 463e
000002c0: 3cbb 653e 8391 8b3f 4575 0f3f d237 003f
000002d0: d32f a83c 9945 6dbf 3c9c c83f 7e8d ecbe
000002e0: 732e b3bf b0b7 f63f 704e 733f 92ec 963f
000002f0: 41c9 c03f 266d c9bf efd8 75bf 0da6 0cbe
00000300: 1e26 2ac0 d901 4dc0 f77e 1dbf a2d1 a4be
00000310: 7381 8dbf 4940 383e 4d92 b4bf 824f 8fbc
00000320: 9dec b9be 436c cabf 2fba d8bf 8566 d4bf
00000330: cf21 d0bf af6e e3bf cead 80c0 f7ea a9bd
00000340: a924 dcbf 116f 83bf 9bb3 c3bf 420a aac0
00000350: 0f07 4bbf c849 9cbe f5fc d4bf c667 c5be
00000360: 4b0e 82bd c136 ad3e 2654 0c3f e3b0 2abf
00000370: 91f4 ebbe cdff 9b3f b529 c5be 513d aaba
00000380: 4d0d c33f 678d 2e3d 4d9a 88bf f1a8 e0be
00000390: 6de7 6f3e abf7 27bc 04be 2bbf bfdb 99bc
000003a0: 7988 8b3e dace b83e 90a6 a53e 2df8 e03d
000003b0: ffa3 71bd 53c8 0b3f 2e3c 4dbe 2593 c2bd
000003c0: 02ba e13d 1ca9 a3bd bcf7 153d baf0 0c3e
000003d0: 403b 27bf 2364 0d3e 3141 343f e900 07c0
000003e0: ae57 663f 9342 7ebf c1fd b2be f07f 2c3d
000003f0: 2be9 753d 3c35 223f bca8 32be d928 bd3f

layer2.0.bn1.weight f4 [16]
2.6838884 3.6949623 2.0514028 1.8506048 2.4791296 5.318951 2.5135074 2.6942496
3.0154154 4.1592107 2.1611023 3.4454973 3.4340336 4.0711737 3.4350822 2.6929994
00000000: d4c4 2b40 437a 6c40 2f4a 0340 9ee0 ec3f
00000010: 0faa 1e40 d934 aa40 4edd 2040 966e 2c40
00000020: 91fc 4040 4118 8540 804f 0a40 0783 5c40
00000030: 35c7 5b40 0e47 8240 63d8 5b40 1a5a 2c40

layer2.0.bn1.bias f4 [16]
0.2294169 0.6042556 1.0507663 2.2425077 4.573147 0.72333145 0.21051371 4.0746965
3.2195249 0.6670349 4.7204757 2.714905 2.8908317 0.14540239 1.4691727 2.1154697
00000000: 44ec 6a3e 7fb0 1a3f 837f 863f 3f85 0f40
00000010: 3857 9240 402c 393f e890 573e ea63 8240
00000020: b20c 4e40 cdc2 2a3f 230e 9740 01c1 2d40
00000030: 6303 3940 5de4 143e da0d bc3f db63 0740

layer2.0.bn1.running_mean f4 [16]
-4.7847285 -21.475933 9.215666 2.2781222 -7.401011 0.4477882 7.944521 3.8794234
-4.5334716 2.0443325 9.349675 -1.9314322 5.93478 -0.08107231 19.55254 -20.155828
00000000: 7f1c 99c0 b6ce abc1 5e73 1341 c1cc 1140
00000010: 15d5 ecc0 7f44 e53e 8439 fe40 7948 7840
00000020: 3312 91c0 58d6 0240 4598 1541 2c39 f7bf
00000030: b8e9 bd40 3d09 a6bd 9a6b 9c41 233f a1c1

layer2.0.bn1.running_var f4 [16]
96.06754 529.90173 235.06096 57.08182 57.930134 85.221344 396.82144 50.004143
143.9557 59.914047 102.12573 383.96356 80.733635 72.4052 353.52036 400.78577
00000000: 9522 c042 b679 0444 9b0f 6b43 c953 6442
00000010: 75b8 6742 5471 aa42 2569 c643 3e04 4842
00000020: a9f4 0f43 fca7 6f42 6040 cc42 56fb bf43
00000030: 9f77 a142 76cf 9042 9bc2 b043 9464 c843

layer2.0.conv1.weight f4 [32, 16, 3, 3]
0.76366603 -2.3811908 -0.065321654 2.533843 -3.2603343 0.67234516 0.17491241 1.2725544
-5.148413 1.6391971 0.16050217 -0.3074549 -0.04445742 -1.14165 -1.6192176 0.23720786
0.8709313 -1.5222702 1.6819097 -2.0969262 2.0403953 0.18357408 -3.5593972 -1.9726644
2.5580447 -0.5261507 1.1416996 1.5304735 3.061042 -0.8549049 0.11311878 0.6062295
0.5239528 -0.4561349 0.8053019 -0.43555114 0.26862267 2.7260876 -0.94190264 0.29108006
5.000318 1.858871 -1.6552845 2.1737008 3.7016377 1.1359543 2.1825397 1.1009562
2.1875737 7.2946157 3.8442295 0.53374845 4.203272 4.038769 1.4911366 0.21491796
1.207228 -2.0834756 -3.5011265 1.3095627 -2.5133343 -2.9534073 -0.29790577 -5.9857817
-5.1350718 -0.7481321 0.468137 -4.546936 -9.98407 2.0822597 -3.580725 -7.0142746
-0.5752572 -0.97599286 2.8136516 -1.4261776e-05 -0.76644915 -1.4655603 0.45160306 0.4065266
-2.0052714 1.0120319 0.8617168 1.596201 0.4103357 1.0229335 0.22280917 -0.2859281
0.46624812 0.112271056 1.0051329 -0.8574508 -0.9555314 2.6981485 0.7321905 5.640392
-3.264022 -1.5593811 1.9876593 -1.729404 -3.3032074 -0.93680984 4.5509787 -2.7317562
-2.3979778 1.1983006 0.15943314 -1.0119876 3.6660652 5.438865 -4.2208166 -1.0483582
5.1063285 0.23698953 -2.2231326 3.070334 4.0878386 -2.2420254 -4.014385 1.442533
-0.6356073 -2.6617374 -5.160623 0.028182276 -1.1794119 -6.670842 -2.2932115 0.5955351
5.138749 -3.746367 -0.8140706 5.893632 -6.898297 -6.3025193 3.4819434 -0.38376215
-2.1276011 -2.1544867 -0.008516973 0.15256965 -0.4562547 1.5028231 -0.8316495 0.27296197
1.0791919 -0.17013308 -1.2301621 5.238486 5.1970196 1.692257 5.185234 1.0122778
2.2199867 0.48163652 -2.0937035 -1.772319 0.0011479099 3.4444916 1.7820503 0.8997491
0.6143523 -2.087156 -2.1280117 -0.21497178 -0.8193917 1.5126641 0.7391049 1.9410815
-1.6447312 -1.8020431 2.3111477 1.4656279 6.0647073 4.11089 2.895069 5.3127103
3.2312813 -0.13754833 0.3435806 -0.46371174 -1.5190787 -4.951621 -3.3050117 -2.3580213
-2.2703578 -2.238333 -1.3925983 -3.2181711 -1.1421924 0.79265434 -0.2021613 -0.59869695
0.6862491 1.0532624 1.1156087 -0.88147134 0.07460296 -0.6241202 0.8149381 4.4562125
0.44925255 1.3571966 8.123161 3.6046944 -2.723014 2.984199 2.5559552 -1.1702572
2.962379 0.7597686 0.07560485 2.3315961 2.0784802 1.4337326 1.7014601 0.1489763
0.15234022 0.25253755 1.4171022 -3.5496254 -4.3474236 -2.8063755 -0.71517384 -2.2899153
-2.734063 1.6142745 3.4318862 3.3496099 -0.030408982 1.585022 0.10484115 -1.9963495
-2.961974 -2.6632557 5.962453 6.5517383 6.0537157 4.1688743 7.4099846 2.174829
-2.1091528 2.365385 0.42460796 1.3149735 5.1223965 4.1029024 0.027580315 1.8158255
-1.8651513 -4.0956917 0.5301049 -0.2083282 1.0884967 1.4857205 2.2132301 1.9102187
00000000: 9e7f 433f 6e65 18c0 5cc7 85bd 7c2a 2240
00000010: 51a9 50c0 d01e 2c3f 3d1c 333e 10e3 a23f
00000020: cdbf a4c0 36d1 d13f ae5a 243e bb6a 9dbe
00000030: fc18 36bd 9621 92bf 8642 cfbf 9ee6 723e
00000040: 5bf5 5e3f c0d9 c2bf d148 d73f 0a34 06c0
00000050: d695 0240 d8fa 3b3e 2acd 63c0 4480 fcbf
00000060: 01b7 2340 d0b1 06bf 3623 923f 8ee6 c33f
00000070: 1de8 4340 0cdb 5abf d2aa e73d db31 1b3f
00000080: c521 063f 838a e9be 4428 4e3f 8f00 dfbe
00000090: e988 893e 3878 2e40 8820 71bf 7208 953e
000000a0: 9b02 a040 7cef ed3f 5de0 d3bf ea1d 0b40
000000b0: a2e7 6c40 f366 913f bbae 0b40 22ec 8c3f
000000c0: 3501 0c40 7e6d e940 db07 7640 bda3 083f
000000d0: 3481 8640 983d 8140 90dd be3f 7413 5c3e
000000e0: 7286 9a3f aa57 05c0 7512 60c0 c09f a73f
000000f0: 78da 20c0 a004 3dc0 1b87 98be 868b bfc0
00000100: 8252 a4c0 9685 3fbf a7af ef3e 8080 91c0
00000110: c0be 1fc1 be43 0540 992a 65c0 f074 e0c0
00000120: 0e44 13bf abda 79bf de12 3440 dd45 6fb7
00000130: 0336 44bf 7b97 bbbf 8438 e73e 4124 d03e
00000140: 5e56 00c0 438a 813f 7999 5c3f 5050 cc3f
00000150: 8517 d23e 7cef 823f 1628 643e 2b65 92be
00000160: 13b8 ee3e 5eee e53d 32a8 803f e581 5bbf
00000170: b59d 74bf 77ae 2c40 d670 3b3f 177e b440
00000180: bde5 50c0 cd99 c7bf 9f6b fe3f 1c5d ddbf
00000190: c067 53c0 c5d2 6fbf 9ea1 9140 18d5 2ec0
000001a0: 7878 19c0 ea61 993f 7142 233e cf88 81bf
000001b0: d0a0 6a40 2f0b ae40 ee10 87c0 9a30 86bf
000001c0: 0b67 a340 62ad 723e ce47 0ec0 5a80 4440
000001d0: 93cf 8240 587d 0fc0 d875 80c0 eca4 b83f
000001e0: 29b7 22bf e859 2ac0 d323 a5c0 84de e63c
000001f0: f8f6 96bf 8a77 d5c0 fac3 12c0 fd74 183f
00000200: a270 a440 7ac4 6fc0 ee66 50bf a298 bc40
00000210: d9be dcc0 3dae c9c0 29d8 5e40 797c c4be
00000220: 9e2a 08c0 1ce3 09c0 c68a 0bbc 383b 1c3e
00000230: 379a e9be 825c c03f fbe6 54bf acc1 8b3e
00000240: f622 8a3f 5e37 2ebe f475 9dbf ada1 a740
00000250: fc4d a640 e19b d83f 70ed a540 5292 813f
00000260: 4314 0e40 1099 f63e 3dff 05c0 59db e2bf
00000270: 7775 963a 8d72 5c40 391a e43f f555 663f
00000280: 3146 1d3f f793 05c0 5831 08c0 9021 5cbe
00000290: a8c3 51bf fa9e c13f fb35 3d3f 5c75 f83f
000002a0: 8d86 d2bf 59a9 e6bf d8e9 1340 b299 bb3f
000002b0: 1512 c240 698c 8340 cf48 3940 b901 aa40
000002c0: 50cd 4e40 78d9 0cbe cce9 af3e a06b edbe
000002d0: 2c71 c2bf ae73 9ec0 5085 53c0 d2e9 16c0
000002e0: 8b4d 11c0 d940 0fc0 a940 b2bf 84f6 4dc0
000002f0: 5c33 92bf 65eb 4a3f 5f03 4fbe 3444 19bf
00000300: 05ae 2f3f 4dd1 863f 44cc 8e3f 1ba8 61bf
00000310: 70c9 983d 57c6 1fbf c99f 503f 4b99 8e40
00000320: 6e04 e63e 9eb8 ad3f 78f8 0141 50b3 6640
00000330: dd45 2ec0 1efd 3e40 c594 2340 fdca 95bf
00000340: 9e97 3d40 3280 423f b7d6 9a3d df38 1540
00000350: d205 0540 8d84 b73f 72c9 d93f 3e8d 183e
00000360: 13ff 1b3e 9a4c 813e 9b63 b53f 102d 63c0
00000370: 181e 8bc0 a89b 33c0 a215 37bf f98d 12c0
00000380: e3fa 2ec0 8ca0 ce3f 06a4 5b40 0260 5640
00000390: 421c f9bc 00e2 ca3f f5b6 d63d 6188 ffbf
000003a0: fb90 3dc0 c872 2ac0 6acc be40 d7a7 d140
000003b0: 0ab8 c140 6b67 8540 981e ed40 6630 0b40
000003c0: 5cfc 06c0 7862 1740 3766 d93e 0d51 a83f
000003d0: acea a340 fa4a 8340 1df0 e13c f86c e83f
000003e0: 47bd eebf e80f 83c0 f4b4 073f fd53 55be
000003f0: dc53 8b3f 172c be3f 90a5 0d40 0c82 f43f

layer2.0.bn2.weight f4 [32]
1.3524594 1.1175386 1.1481092 0.98329633 1.1104159 1.5863947 1.2634335 1.0662417
1.3227549 0.6654253 1.6793292 1.1734954 1.2647951 0.85688215 1.4742057 0.91183746
0.9441135 1.3808274 1.8198259 1.348623 1.3802886 1.0027925 1.4580213 1.0405896
0.9543319 0.8190427 1.2093463 1.6626158 0.9304064 1.2898763 1.6081859 0.9458664
00000000: 641d ad3f 810b 8f3f 3ef5 923f 4fb9 7b3f
00000010: 1c22 8e3f fb0e cb3f 30b8 a13f 9c7a 883f
00000020: 0850 a93f 5059 2a3f 42f4 d63f 1935 963f
00000030: cee4 a13f a15c 5b3f c6b2 bc3f 2e6e 693f
00000040: 6cb1 713f f4be b03f 0ef0 e83f ae9f ac3f
00000050: 4cad b03f 815b 803f 71a0 ba3f 0a32 853f
00000060: 184f 743f c8ac 513f dccb 9a3f 98d0 d43f
00000070: 1d2f 6e3f ab1a a53f 09d9 cd3f 4d24 723f

layer2.0.bn2.bias f4 [32]
0.1089084 2.1780598 -0.055414297 0.37439597 0.027416863 -0.2624257 -0.6840461 0.14003156
-0.3080625 0.24846657 -0.6390372 -0.11283391 -0.48401487 -0.43978488 0.07474797 0.67122936
2.7312984 -0.29548714 -0.9438959 0.22788967 -0.09134437 0.39953834 -0.059233833 0.2245012
0.1782555 -0.07952259 0.002871616 0.48016578 1.608207 0.04879647 -0.39213336 -0.18265928
00000000: 5e0b df3d 5565 0b40 1afa 62bd d4b0 bf3e
00000010: 5499 e03c a95c 86be a51d 2fbf 6f64 0f3e
00000020: 5eba 9dbe 056e 7e3e f197 23bf 7715 e7bd
00000030: ccd0 f7be 7c2b e1be 7715 993d b0d5 2b3f
00000040: 98cd 2e40 174a 97be 29a3 71bf e95b 693e
00000050: c212 bbbd 4a90 cc3e 2d9f 72bd a4e3 653e
00000060: 9c88 363e bddc a2bd b931 3c3b 4ad8 f53e
00000070: bad9 cd3f cfde 473d b4c5 c8be 090b 3bbe

layer2.0.bn2.running_mean f4 [32]
-23.707544 373.4766 -166.92781 -11.038662 285.08957 11.72732 218.38148 -2.618863
-25.150455 -4.7213745 -67.575386 172.43242 -78.28714 128.94489 -189.73552 47.55995
-70.384895 142.0412 -81.21282 8.185035 -189.3005 -151.41248 -78.49006 -151.9262
-34.73878 -64.772575 57.771202 -108.87198 -45.367725 -147.68616 -209.94104 -144.08545
00000000: 0da9 bdc1 01bd ba43 85ed 26c3 5c9e 30c1
00000010: 778b 8e43 1aa3 3b41 a961 5a43 749b 27c0
00000020: 2234 c9c1 8015 97c0 9926 87c2 b36e 2c43
00000030: 0493 9cc2 e4f1 0043 4bbc 3dc3 643d 3e42
00000040: 11c5 8cc2 8c0a 0e43 f76c a2c2 e7f5 0241
00000050: ee4c 3dc3 9869 17c3 e9fa 9cc2 1bed 17c3
00000060: 83f4 0ac2 8f8b 81c2 b615 6742 74be d9c2
00000070: 8d78 35c2 a8af 13c3 e8f0 51c3 e015 10c3

layer2.0.bn2.running_var f4 [32]
15845.147 16909.318 17697.115 11569.707 13558.517 15786.286 13379.653 16776.426
12268.756 4090.2285 14499.934 13012.092 14541.686 6921.781 24662.758 8497.422
10107.91 18523.285 11807.856 16367.917 19594.402 16050.69 6711.9517 12631.129
14189.519 10361.785 20333.104 35588.387 19785.709 17413.344 29373.027 12943.136
00000000: 9794 7746 a31a 8446 3b42 8a46 d4c6 3446
00000010: 11da 5346 25a9 7646 9d0e 5146 da10 8346
00000020: 06b3 3f46 a8a3 7f45 bc8f 6246 5e50 4b46
00000030: be36 6346 3f4e d845 84ad c046 b0c5 0446
00000040: a4ef 1d46 92b6 9046 6d7f 3846 abbf 7f46
00000050: ce14 9946 c3ca 7a46 9dbf d145 845c 4546
00000060: 13b6 5d46 24e7 2146 35da 9e46 6304 0b47
00000070: 6b93 9a46 b00a 8846 0e7a e546 8b3c 4a46
