Our_code/Pytorch/Basic_experiments/trained_students/t-40-2-student-16-1.pth (torch_old, 718602 bytes, 69 tensors)

conv1.weight f4 [16, 3, 3, 3]
0	0x3f91ebbe	1.1400068
1	0x3fa5e275	1.2959734
2	0xbe9b93e0	-0.30386257
3	0x406ec083	3.7305
4	0xc02414e6	-2.5637755
5	0xc00fa5c1	-2.2444918
6	0x3ffca17a	1.9736779
7	0xbf13ac17	-0.57684463
8	0xbfd23640	-1.6422806
9	0xbf1a666c	-0.60312533
10	0xbe4f6809	-0.2025453
11	0x3e94a6cf	0.29033515
12	0x40752fdf	3.8310468
13	0xc0414b57	-3.0202234
14	0xc019c4c9	-2.4026358
15	0x3fc3f65b	1.5309557
16	0xbd95dae8	-0.07317144
17	0xbcd7c437	-0.02633868
18	0xbe42b888	-0.19015706
19	0x3e242d3d	0.16032882
20	0xbfadc41e	-1.3575475
21	0x404d1a80	3.2047424
22	0xbefa92af	-0.48940036
23	0xc01c9b6d	-2.4469864
24	0x3ec2709d	0.37976542
25	0x3fa0bc86	1.2557533
26	0xbd6c763b	-0.05772994
27	0x3f98ee9b	1.1947817
28	0xbf608a73	-0.87711257
29	0xbf1cc658	-0.6124015
30	0x3face215	1.3506495
31	0x400b870a	2.1801171
32	0xbf7dea28	-0.9918542
33	0x3f05fde6	0.52340543
34	0xbe9f588e	-0.3112225
35	0xbf690dfc	-0.91036963
36	0xbefa4fbd	-0.4888896
37	0xbf508558	-0.81453466
38	0x400bed6e	2.1863666
39	0xc083dfde	-4.1210775
40	0x3f938943	1.1526264
41	0x408a402d	4.320334
42	0xc05f8cf4	-3.492978
43	0xbf71d0bf	-0.94459146
44	0x3f46cb7d	0.7765425
45	0xbf516ad9	-0.8180366
46	0xc03fccea	-2.996882
47	0xc0260bb9	-2.5944655
48	0x3f6ccfce	0.92504585
49	0x3e8ec6f3	0.2788616
50	0xbf16703d	-0.5876501
51	0x402414b8	2.5637646
52	0x40544c7c	3.3171682
53	0x3fccc728	1.5998278
54	0xc06ee928	-3.7329807
55	0xc06334d0	-3.5500984
56	0xc03c1820	-2.9389725
57	0xbe73c140	-0.23804188
58	0x4001c555	2.0276692
59	0x3fcd2a62	1.6028559
60	0x3fdd3fcd	1.7285095
61	0x40ba704a	5.826207
62	0x4091d80b	4.5576224
63	0x3e7075a6	0.2348238
64	0xbd747353	-0.059680294
65	0xbf1210e9	-0.5705705
66	0xbe0f2629	-0.139794
67	0xc002b115	-2.0420582
68	0xc01915ca	-2.391955
69	0x3ed0baf2	0.40767628
70	0xbfd68a95	-1.6761042
71	0xbfabeaa2	-1.3430979
72	0x402b605c	2.6777563
73	0x40831f64	4.097582
74	0x4053cef8	3.3095074
75	0x3fbbc4f8	1.4669485
76	0xbe96930e	-0.2940907
77	0xbde878c9	-0.11351163
78	0xbfbfdf48	-1.4990015
79	0xc0a49213	-5.1428313
80	0xc0335656	-2.8021445
81	0x3fa49d90	1.2860584
82	0x3fd3be1e	1.6542394
83	0x3fcb47bd	1.5881268
84	0x3faff35f	1.3746146
85	0x3ff5a452	1.9190772
86	0x3ef00b4f	0.46883628
87	0xbf93b90f	-1.154085
88	0xc09a771e	-4.8270407
89	0xbfd55998	-1.6667967
90	0xbe145287	-0.14484607
91	0x404215a8	3.0325718
92	0xbeacf346	-0.33779353
93	0x3f817622	1.0114176
94	0x404de324	3.2169886
95	0xbe368746	-0.1782504
96	0xbff5e8dd	-1.9211689
97	0xc0904132	-4.5079584
98	0xbffe6a74	-1.9876237
99	0xbeeb8d67	-0.4600632
100	0x40185319	2.3800719
101	0x3f1de99e	0.61684597
102	0x3f411851	0.7542773
103	0x4008920c	2.133914
104	0xbee94750	-0.4556222
105	0xbfb84b3b	-1.4397959
106	0xc026c340	-2.605667
107	0xbe5b193c	-0.21396345
108	0xbf02b7fd	-0.51061994
109	0x400bdf17	2.1854913
110	0x405fbbc5	3.4958355
111	0x3dec8015	0.11547867
112	0x40143166	2.315515
113	0x3f952202	1.1651003
114	0xc0090f1d	-2.1415474
115	0xc031e192	-2.7793927
116	0xbf5dcfc7	-0.8664517
117	0x4042efa1	3.0458758
118	0x3f831cd3	1.0243171
119	0xbf986ad5	-1.1907603
120	0x404c1814	3.1889696
121	0x3f965592	1.1744864
122	0xc071a8a7	-3.7759187
123	0x3f201212	0.62527573
124	0xbfc639e6	-1.5486419
125	0xc0296efd	-2.6473992
126	0xc01b43e3	-2.4260185
127	0xc04cd037	-3.2002084
128	0x3d0a982d	0.033836532
129	0xbf89f886	-1.0778968
130	0x3f2545d2	0.6455966
131	0x3fca53df	1.5806845
132	0xbf5ea5f1	-0.86971956
133	0x3fc0df33	1.5068115
134	0x40674a43	3.6139076
135	0xbf7a9a05	-0.97891265
136	0xbf8f2c15	-1.1185328
137	0xbf966267	-1.174878
138	0xbebcad3f	-0.36850926
139	0x3f9129c8	1.1340876
140	0xbfad9ddb	-1.3563799
141	0x3e932755	0.28740945
142	0x3f8cc2b6	1.0996921
143	0xbf088e5f	-0.5334224
144	0x3f18b1a7	0.59646076
145	0x3f93d686	1.1549842
146	0x3f17fc55	0.59369403
147	0x4027efd2	2.6240125
148	0x4095ffe3	4.687486
149	0x404e1136	3.2198005
150	0x4028bcb6	2.636518
151	0x408f1231	4.4709706
152	0x405c36ad	3.4408371
153	0x3ecd7d8b	0.40134844
154	0xbea20178	-0.31641746
155	0x3f17ccc0	0.592968
156	0xbff4f81d	-1.9138218
157	0xc08f331f	-4.4749904
158	0xbff44e7b	-1.908645
159	0xc03d92ed	-2.9620926
160	0xc0cbcb97	-6.3686023
161	0xc049ee35	-3.155164
162	0x3f8d63e3	1.1046108
163	0x40592f7f	3.393524
164	0x3fbf8713	1.4963096
165	0x3ee61eb8	0.44945312
166	0xc0b3be20	-5.6169586
167	0xbf8f4128	-1.1191759
168	0xbca2aadc	-0.019856863
169	0xbf06af97	-0.5261168
170	0x3f27494c	0.6534622
171	0x3f4a97ea	0.7913805
172	0x401eea3b	2.4830463
173	0x3fdf353d	1.7438122
174	0x3f8ec542	1.1153948
175	0xc0b6f614	-5.717539
176	0xbfa8952e	-1.3170526
177	0x3e6787fe	0.2261047
178	0x3a3280fb	0.0006809381
179	0x3ee34695	0.44389787
180	0xbda71373	-0.081580065
181	0x3fdbea3c	1.7180858
182	0x3f312006	0.6918949
183	0x3f73e8d4	0.9527714
184	0xc028fd84	-2.6404734
185	0x3ed60c24	0.41806138
186	0xbecac2a0	-0.39601612
187	0xbdec1012	-0.11526503
188	0xbdbff933	-0.09373703
189	0xbf8ac0e5	-1.0840117
190	0x3f5be680	0.8589859
191	0x40031299	2.04801
192	0xc03819f6	-2.8765845
193	0xbf798d81	-0.9748154
194	0x404df048	3.2177906
195	0xc011028c	-2.2657804
196	0xbedae873	-0.4275547
197	0x3f81cf0c	1.0141311
198	0x3f4c2357	0.79741424
199	0xbe210fd2	-0.15728691
200	0xbf98bf74	-1.1933427
201	0x3f972b23	1.1810039
202	0xbf8d5ab2	-1.1043303
203	0xbfa2103c	-1.2661204
204	0x3f82904d	1.0200287
205	0x3fb07e90	1.3788624
206	0xbd528157	-0.05139288
207	0x3ed5a744	0.41729176
208	0xbe89cd06	-0.26914233
209	0xbf66ec24	-0.9020407
210	0x3fecca39	1.8499213
211	0xbf284228	-0.65725946
212	0xbfa90fa5	-1.3207899
213	0x3f7dd17f	0.9914779
214	0x3ee2c52c	0.44291055
215	0xbf63ec35	-0.890323
216	0x3ef37318	0.47548747
217	0x3e8f91da	0.28040963
218	0x3e42684c	0.18985099
219	0x3bdff027	0.0068340483
220	0xc113b245	-9.231023
221	0x3e5d9fd7	0.21643005
222	0x3f8a185c	1.0788684
223	0x3f598b56	0.84978235
224	0x3f88928f	1.0669726
225	0x3f510faf	0.81664556
226	0x3f02638f	0.50933164
227	0x3faf16f8	1.3678885
228	0x3f2653ef	0.6497182
229	0xc106cb8d	-8.424695
230	0x3f6067fa	0.87658656
231	0xbea7f9d4	-0.3280779
232	0x3ecbba3d	0.39790526
233	0x3d495002	0.049148567
234	0x3ee94bdf	0.45565698
235	0xbd0fcc79	-0.03510711
236	0x3ee772f2	0.45204884
237	0x3dc10b6a	0.09426005
238	0xc0d7940b	-6.7368217
239	0xbea79de3	-0.32737646
240	0x3f1347ea	0.5753161
241	0x3f0a5c4f	0.540471
242	0x3d5ab4ee	0.053395204
243	0x3fce2054	1.6103616
244	0xc00629c8	-2.0963001
245	0xbedb959f	-0.4288759
246	0xbf844586	-1.0333717
247	0xc080e4d6	-4.027934
248	0xc01945c3	-2.394883
249	0xbe762642	-0.24038032
250	0xc04cba3f	-3.1988676
251	0xbf9512c9	-1.1646358
252	0x3d7b942c	0.061420605
253	0xbf5aeb29	-0.85515076
254	0x3dbabb8d	0.09117804
255	0xbe01d5b9	-0.12679185

layer1.0.bn1.weight f4 [16]
0	0x400058f7	2.00543
1	0x3fd7c24c	1.685617
2	0x3fa96ef4	1.3236985
3	0x40076fc8	2.1161976
4	0x3fbaacfc	1.4584041
5	0x401240ed	2.2852128
6	0x400fe124	2.2481165
7	0x3fbf4b54	1.4944863
8	0x408b96f1	4.3621755
9	0x3fc4621f	1.5342444
10	0x3fc0a8a2	1.5051463
11	0x3ffb5e05	1.9638067
12	0x403390da	2.805716
13	0x3fbee179	1.4912559
14	0x3fb0e420	1.3819618
15	0x3fde72a3	1.7378734

layer1.0.bn1.bias f4 [16]
0	0x40018c38	2.0241833
1	0x40d3c89a	6.6182375
2	0x3f3eb96c	0.7450168
3	0xbdde15d2	-0.10844006
4	0x404dbd24	3.2146692
5	0x4026ef4c	2.6083555
6	0x3fd15fa6	1.6357315
7	0x3fea4c05	1.8304449
8	0xc0ca1d12	-6.3160486
9	0x3edbb414	0.42910826
10	0x4006a32b	2.103709
11	0x40f6056a	7.688161
12	0x40ad7568	5.420582
13	0x3ffb30c8	1.9624262
14	0x3f5cca22	0.8624593
15	0x40738df6	3.8055396

layer1.0.bn1.running_mean f4 [16]
0	0xbc32fedc	-0.010925021
1	0xbeb798af	-0.35858676
2	0x3eb6bb7f	0.35689923
3	0x3e8dd6a5	0.27702823
4	0xbec20343	-0.37893113
5	0xbfe0688b	-1.7531904
6	0x3da4814e	0.080324754
7	0xbc249c09	-0.010046967
8	0x4016fd78	2.3592205
9	0x3f294031	0.66113573
10	0x3ecd5eb0	0.40111303
11	0xbef4b3c2	-0.47793394
12	0xbf1ba0f9	-0.607925
13	0xbf82cb16	-1.0218227
14	0x3eba4014	0.36377013
15	0xbe8f0a6c	-0.2793764

layer1.0.bn1.running_var f4 [16]
0	0x429b8ec6	77.778854
1	0x418db80d	17.714869
2	0x42001ff6	32.03121
3	0x42a81c3c	84.055145
4	0x41be9ff7	23.828108
5	0x42726231	60.59589
6	0x4216ce27	37.70132
7	0x40dd0bb4	6.9076786
8	0x43549f58	212.62244
9	0x4250ff8d	52.24956
10	0x4243e51c	48.97374
11	0x41ab2995	21.395304
12	0x4275e9c7	61.4783
13	0x422fe939	43.977757
14	0x421d88ea	39.383705
15	0x41d557a8	26.6678

layer1.0.conv1.weight f4 [16, 16, 3, 3]
0	0xbf606e7b	-0.8766858
1	0xbf20798c	-0.62685466
2	0xc0afb625	-5.4909844
3	0xc0333647	-2.8001878
4	0x409249b0	4.571495
5	0x3f234ad9	0.63786083
6	0xbfb68b72	-1.4261305
7	0xbf235cbd	-0.6381338
8	0xc03e2520	-2.971016
9	0xbfc2cdfa	-1.5219109
10	0x4003ea3e	2.061172
11	0xbf35a8ad	-0.70960504
12	0xbf6c249a	-0.9224335
13	0xbfb06504	-1.3780828
14	0x3fa9eb22	1.3274882
15	0xbe6c93d1	-0.23103262
16	0x3fc4fd11	1.538973
17	0xc0043bb6	-2.0661445
18	0xc02a21bd	-2.6583092
19	0x3f65477c	0.895622
20	0xbfb8e292	-1.4444144
21	0xbf43bb47	-0.7645764
22	0x4005e1e1	2.0919116
23	0x3fe4cb2a	1.7874501
24	0xbebee5f2	-0.3728481
25	0x3f3c6ea8	0.7360635
26	0xbb8bae31	-0.0042627086
27	0x3e6a8c3d	0.22905059
28	0x3eeea2ee	0.4660868
29	0xbf6c86b7	-0.9239306
30	0x3e6caf01	0.23113634
31	0xbf219ed0	-0.63132954
32	0xc0041190	-2.063572
33	0x3d5402a6	0.05176034
34	0xc09b5ff2	-4.855462
35	0xbfdf4588	-1.7443094
36	0xbf47a79a	-0.77990115
37	0xbe1a33eb	-0.15058868
38	0x3ee100fe	0.4394607
39	0x3fc651b0	1.5493679
40	0x3fdfe95e	1.7493093
41	0x3e64e098	0.223513
42	0xbf504d59	-0.81368023
43	0x3e11d466	0.1424118
44	0x3f8d0e6b	1.1020025
45	0xbfe33c72	-1.7752821
46	0xbf3f9929	-0.7484308
47	0xbf826e6e	-1.018995
48	0xbe81078d	-0.25201073
49	0x40025e2d	2.036998
50	0x3c1a17fc	0.009405132
51	0xbec26ae8	-0.37972188
52	0xbe4e478d	-0.20144482
53	0xc0250f35	-2.5790532
54	0xbfa2ef1d	-1.2729222
55	0xbfcac974	-1.5842729
56	0xbd6e575a	-0.058188774
57	0xbfd2bd64	-1.6464047
58	0x3f8e7bf1	1.1131574
59	0xbfb88e5e	-1.4418447
60	0x3c4360fd	0.011924979
61	0x40236f3b	2.553664
62	0xbf2107ab	-0.62902325
63	0xc0132514	-2.299138
64	0x40164cfd	2.348449
65	0xbe51d8ae	-0.20492813
66	0xc029e422	-2.6545491
67	0x40879bfc	4.237791
68	0x3d20a481	0.039219383
69	0xc0027cff	-2.0388792
70	0xbf95d9f3	-1.1707138
71	0xc010e250	-2.263813
72	0x3f75302f	0.9577665
73	0x410d9e4b	8.851146
74	0x4032316d	2.7842667
75	0x41120827	9.12699
76	0x4162f952	14.185869
77	0x40ff55a2	7.979203
78	0x4001c73b	2.027785
79	0x40da129f	6.814773
80	0x40062062	2.0957265
81	0x3f034ef0	0.51292324
82	0x3fcd9536	1.606116
83	0xbf0a63d2	-0.54058564
84	0x3f3ad3a1	0.7297917
85	0x3ff1d5bf	1.8893355
86	0x3f806dab	1.0033468
87	0xbfb039c7	-1.3767632
88	0x3f06da71	0.52677065
89	0xbebfa897	-0.3743331
90	0x3ee10f38	0.43956923
91	0x3d454ed9	0.048170898
92	0xc00fd85e	-2.247581
93	0xbffbc90a	-1.9670727
94	0xbd9f8fc6	-0.077910945
95	0xbfaa9841	-1.3327714
96	0xbf92c322	-1.14658
97	0x3eb8eef7	0.36119816
98	0x3e68fbb8	0.22752273
99	0xbf31659a	-0.69295657
100	0xbeedee08	-0.46470666
101	0xbee67989	-0.450146
102	0xbf8e3502	-1.1109927
103	0x402b19b9	2.673445
104	0xc01f9db8	-2.4940014
105	0xbf4554ef	-0.77082723
106	0xbfb9b914	-1.4509606
107	0xbeb3e297	-0.35133812
108	0xbfd51340	-1.66465
109	0x3fe6c27b	1.8028101
110	0x3f972843	1.1809162
111	0x3e8cf242	0.27528578
112	0xbde18898	-0.11012381
113	0x3f1fb141	0.62379843
114	0x3ab8386c	0.0014054901
115	0x3fc85d39	1.5653449
116	0x3f9b6a2b	1.2141775
117	0xbff6820d	-1.9258438
118	0x3ec9598f	0.3932614
119	0xbfbb5493	-1.4635185
120	0xbd781dad	-0.060575176
121	0x3d3e42ee	0.046450548
122	0x3f322ded	0.6960133
123	0xbd98a079	-0.07452483
124	0xbf1daafd	-0.6158903
125	0xbf5e8131	-0.8691588
126	0xbfeb0bd7	-1.8362988
127	0x3e86ace2	0.26303774
128	0xbde94bc8	-0.11391407
129	0xc02bbb14	-2.6832933
130	0x40623974	3.5347567
131	0xbfc06d29	-1.5033313
132	0xbf90d2f9	-1.1314384
133	0x40a275d5	5.076884
134	0x3f63d9a2	0.89003956
135	0x3f17e100	0.593277
136	0x403165ed	2.771846
137	0xbed84f2f	-0.42247912
138	0x3d4ecd93	0.05048902
139	0x3f02d962	0.5111295
140	0x4030eee2	2.7645802
141	0x3fa6a5be	1.301933
142	0x40262691	2.596104
143	0x3fa4d3fe	1.2877195
144	0xbf82eb84	-1.0228124
145	0x402b48fc	2.6763296
146	0x406be121	3.6856158
147	0xbf9cc154	-1.2246499
148	0x3ed2fd88	0.41209054
149	0x3fae8a65	1.3635985
150	0x3e41f1b5	0.1893986
151	0xbda4b708	-0.08042723
152	0xbf641b4a	-0.8910414
153	0x3f158ec2	0.58420956
154	0x401e9faf	2.4784963
155	0xbe415bbd	-0.18882652
156	0x3f2bc418	0.6709609
157	0x3f9e53af	1.2369288
158	0xbfa628ad	-1.2981163
159	0xbf9c7b9a	-1.222522
160	0xc02fcb00	-2.7467651
161	0xc06e1e53	-3.7206008
162	0xbfcd6a66	-1.6048095
163	0xbf01c28c	-0.5068748
164	0xbf2b8d7c	-0.67012763
165	0xbf7b120c	-0.9807441
166	0xc00d6794	-2.209447
167	0xbfd2311d	-1.6421238
168	0xc03aa145	-2.916093
169	0xbc1df580	-0.009641051
170	0x3f3930f1	0.72340304
171	0x3e17f731	0.1484039
172	0x3e4dda66	0.20102844
173	0x3f438174	0.76369405
174	0xbfca44d2	-1.5802252
175	0x40030dba	2.0477128
176	0x3f754b7e	0.95818317
177	0xbff3ca6e	-1.9046152
178	0xbfc48934	-1.5354371
179	0xc041a431	-3.0256464
180	0xbfe6742a	-1.80042
181	0x3f01851a	0.5059372
182	0xbe029402	-0.12751773
183	0xbc3649de	-0.01112601
184	0xbf13cdbf	-0.5773582
185	0xbeff9914	-0.49921477
186	0xbf644629	-0.89169556
187	0xc0682f76	-3.6278968
188	0xc09c1e09	-4.8786664
189	0xbfe27ea2	-1.7694895
190	0xc00f426a	-2.2384286
191	0xc074e0e0	-3.8262253
192	0x400ef98d	2.2339814
193	0x3fd974d3	1.6988777
194	0x3f663868	0.8992982
195	0xbe139f0c	-0.1441614
196	0x3f255a9a	0.6459137
197	0x3f5d11b1	0.8635512
198	0x3ecd777c	0.40130222
199	0x3f390bef	0.72283834
200	0x3fb4eb5a	1.4134324
201	0xbb87cf83	-0.0041446104
202	0x3ff6c1a7	1.9277848
203	0x3fe526b0	1.7902431
204	0xbded6e21	-0.11593271
205	0x3fa4076b	1.2814764
206	0xbfb60860	-1.4221306
207	0xc087aab9	-4.23959
208	0xc047b4ad	-3.1204026
209	0x408cad9f	4.396194
210	0xc0f3ff43	-7.62491
211	0xc0a57b6c	-5.171316
212	0x4056e68f	3.3578222
213	0xbfbb3a5e	-1.4627187
214	0xc0d33c89	-6.6011395
215	0x4053ca2e	3.309215
216	0x40218a8d	2.5240815
217	0x4010628b	2.2560146
218	0x4094fece	4.656104
219	0x40006bde	2.0065837
220	0xbf291db2	-0.66060936
221	0xbffcad58	-1.97404
222	0xc05778a4	-3.3667383
223	0xbf3776f5	-0.7166589
224	0xbfd773e7	-1.6832246
225	0xc0613a60	-3.519188
226	0x3f65daaa	0.8978678
227	0x40047cc1	2.0701144
228	0xc00a6b86	-2.1628127
229	0x4024e7ac	2.5766401
230	0x40c73a17	6.225841
231	0xc0a43d97	-5.1325183
232	0xc018707e	-2.381866
233	0x3ff0ae23	1.8803142
234	0xbfd7b6a4	-1.6852612
235	0xc054c345	-3.3244183
236	0xc03aac0d	-2.9167511
237	0xc025acd7	-2.5886743
238	0xc028ae0f	-2.6356237
239	0xbf9f41b8	-1.2441931
240	0xbfc79c7e	-1.5594633
241	0xbfa0c450	-1.255991
242	0x3f31b6f1	0.6941977
243	0x3f03f7af	0.5154981
244	0xc04ef214	-3.2335253
245	0x3e077262	0.13227227
246	0x3fcf9252	1.6216528
247	0x4054ced4	3.3251238
248	0x3ff0cc6a	1.8812382
249	0x3fe3bfcb	1.7792906
250	0x40dd159f	6.9088893
251	0x40d254a1	6.5728307
252	0xbf509e56	-0.814916
253	0xbe8a4c71	-0.27011445
254	0x3f83ee93	1.0307182
255	0x40009031	2.0088007

layer1.0.bn2.weight f4 [16]
0	0x3f66f229	0.9021326
1	0x3ec6b8cc	0.38812864
2	0x3f352a56	0.70767725
3	0x3ec8423f	0.39113042
4	0x3e814b28	0.25252652
5	0x3ebcd87e	0.3688392
6	0x3ebe1dae	0.3713202
7	0x3ec57549	0.38566044
8	0x3f1c42fb	0.61039704
9	0x3f0d6ce8	0.552443
10	0x3ebfde3a	0.37474233
11	0x3f2cf435	0.6756013
12	0x3f208413	0.6270153
13	0x3ed3e748	0.4138739
14	0x3ecc503d	0.39904967
15	0x3ee6e4c7	0.45096418

layer1.0.bn2.bias f4 [16]
0	0xc0329f8d	-2.7909882
1	0x3ef62605	0.48075882
2	0xbe367c46	-0.17820844
3	0x3e6a870b	0.22903077
4	0x3eb82e44	0.35972798
5	0x3e6208e7	0.22073708
6	0x3e75fc88	0.24022114
7	0xbdb29a2d	-0.08720813
8	0x3eac19b2	0.33613354
9	0x3e9e5c7c	0.30929935
10	0x3f4b8efa	0.7951504
11	0xbd389af7	-0.04506966
12	0xbefef347	-0.4979498
13	0x3f815020	1.0102577
14	0x3ed6112d	0.4180998
15	0x3e8db294	0.27675307

layer1.0.bn2.running_mean f4 [16]
0	0xc1c0d700	-24.10498
1	0x42857ec3	66.74758
2	0x41403e9b	12.015285
3	0xc2852296	-66.56755
4	0xc2b1c863	-88.89138
5	0xc2d9691d	-108.7053
6	0xc345d71f	-197.84032
7	0x422de8c8	43.477325
8	0xc22e146f	-43.519955
9	0xc250184a	-52.02372
10	0x43974a9e	302.58295
11	0xc27d0ae1	-63.260624
12	0xc3c616e8	-396.17896
13	0xc1d8f69e	-27.120419
14	0x430908c8	137.0343
15	0xc28e9b9a	-71.30391

layer1.0.bn2.running_var f4 [16]
0	0x44a586b1	1324.2091
1	0x45df0112	7136.134
2	0x46220912	10370.268
3	0x45c14813	6185.0093
4	0x450609e4	2144.6182
5	0x45a4f93a	5279.1533
6	0x458cad0a	4501.63
7	0x45c57023	6318.017
8	0x4621868c	10337.637
9	0x460fd8a0	9206.156
10	0x45a1fe3a	5183.7783
11	0x4639899f	11874.405
12	0x4662c30f	14512.765
13	0x4591d789	4666.942
14	0x453f6ff6	3062.9976
15	0x463a1f55	11911.833

layer1.0.conv2.weight f4 [16, 16, 3, 3]
0	0x3fe39a34	1.7781434
1	0x3e6f7977	0.23386179
2	0x3ebca1a0	0.3684206
3	0xbfe1220d	-1.7588516
4	0xc0b74d9e	-5.7282248
5	0xbfbcec79	-1.4759666
6	0x400f0bcb	2.2350948
7	0xbef7108c	-0.48254812
8	0x3f08cebc	0.5344045
9	0x3e23d621	0.15999652
10	0x3f8381b1	1.0273954
11	0x3f4daecf	0.8034486
12	0x3f2d02c8	0.6758237
13	0xbfff40d4	-1.9941659
14	0xbc9b84af	-0.018984167
15	0xbf7fb347	-0.9988293
16	0xbf10e06a	-0.5659243
17	0x3f81361d	1.0094639
18	0xbff3d79d	-1.9050175
19	0x3fd0fe86	1.6327674
20	0xc026db31	-2.6071284
21	0xbf4de5bb	-0.80428666
22	0x4032c674	2.7933626
23	0xc03c287b	-2.9399707
24	0x3ee50194	0.44727767
25	0x3f22be3f	0.6357154
26	0xbfa3732c	-1.2769523
27	0xbf8ccd6f	-1.1000193
28	0x3e6c996f	0.23105405
29	0x3e32a443	0.17445473
30	0xbf7e70dc	-0.9939096
31	0x3febbd1f	1.841709
32	0x3f52be1f	0.8232135
33	0xbf82bc3f	-1.0213698
34	0x3f048bb7	0.5177569
35	0xbf1cc288	-0.6123433
36	0xbf91e17d	-1.1396939
37	0xbf45ea0b	-0.77310246
38	0x3f46aac4	0.7760432
39	0x3fb7693c	1.432899
40	0x40057041	2.0849764
41	0xbf9bfd5b	-1.2186693
42	0xbf6d0e91	-0.9260035
43	0x3e9db8e1	0.30805114
44	0xbd88ce3d	-0.06679962
45	0x3cf89b8b	0.030347606
46	0xbf817c23	-1.0116009
47	0x3fba0891	1.4533864
48	0xbef378b9	-0.47553042
49	0xc02b2f2d	-2.6747544
50	0x3eab0cb2	0.33408123
51	0xbf08ec7a	-0.53485835
52	0xbed53d82	-0.4164849
53	0x3f04b5ea	0.5184008
54	0xbf17bb0d	-0.5926979
55	0x3f498c17	0.78729385
56	0x3ea93315	0.33046785
57	0x3f46808f	0.77539915
58	0xbf26ddb6	-0.65182054
59	0xbf5cf506	-0.86311376
60	0x3f71a28a	0.9438864
61	0xbf154872	-0.5831367
62	0x3e9a43e0	0.3012991
63	0x3f820764	1.0158505
64	0x3fb0e9a8	1.3821306
65	0xbefab26b	-0.48964247
66	0x3e29df62	0.1658912
67	0x3f5d8b26	0.8654045
68	0x3e7de433	0.24794082
69	0x3ff0fbf2	1.8826888
70	0xbe2f782a	-0.17135683
71	0xbd4a6501	-0.04941273
72	0xbee7a73d	-0.4524478
73	0xc0401728	-3.0014133
74	0x3ffa6480	1.956192
75	0xbf4c96d7	-0.79917663
76	0x4050f8e9	3.2651923
77	0xbeaee4d4	-0.34158957
78	0xbf0f1582	-0.55892193
79	0xbf082640	-0.53183365
80	0x3fb2ed4e	1.397867
81	0xbde1ce94	-0.1102573
82	0xbe03f3ec	-0.12886018
83	0x40594812	3.3950238
84	0x3f90ff1e	1.1327856
85	0xc0b7f44f	-5.748573
86	0xbec3e472	-0.38260227
87	0x3e632464	0.2218185
88	0x3e16345b	0.1466841
89	0x3fb89b7a	1.4422448
90	0xbeaec7a1	-0.3413668
91	0xbecd2893	-0.40070018
92	0xbe3a4f5f	-0.1819434
93	0x3fcaebbe	1.5853193
94	0xbfe7c5be	-1.8107221
95	0xbf822db2	-1.0170195
96	0xbf97b54c	-1.1852202
97	0x3e4ae941	0.19815542
98	0x3fa87a10	1.316225
99	0x3f07bad7	0.5301947
100	0xc047d289	-3.122225
101	0xbd5b8017	-0.053588953
102	0xbf9d9eea	-1.2314122
103	0x3fe081eb	1.7539648
104	0x40889ee0	4.269394
105	0x3f56ce3e	0.8390845
106	0xbf81dba4	-1.0145154
107	0x3f48bf44	0.7841685
108	0x3eb305a4	0.3496524
109	0x3ea3cb4f	0.3199105
110	0x3ccd6309	0.025071638
111	0xc00e27f1	-2.2211878
112	0xbde6ce47	-0.11269813
113	0x3f0fc3ad	0.5615795
114	0x3eb0e9ee	0.34553474
115	0xbf41b273	-0.75662917
116	0x3f161b5c	0.586355
117	0x3fd022fb	1.6260675
118	0xbfc24cf5	-1.5179735
119	0x3e8fffab	0.28124747
120	0xc0918240	-4.5471497
121	0x4093bed8	4.6170464
122	0xbf4069e6	-0.7516159
123	0xbf3fc850	-0.7491503
124	0x3f996557	1.1984051
125	0xbebfca15	-0.37458864
126	0xbf3d3b45	-0.73918563
127	0xbb34b447	-0.0027573274
128	0xbf8737ef	-1.0563945
129	0xbe92d756	-0.28679913
130	0xbea5526a	-0.3228944
131	0x3f889f34	1.0673585
132	0x3f8d19d4	1.1023507
133	0xbf953acb	-1.1658567
134	0x3ce6c655	0.028170744
135	0xbf30646b	-0.68903226
136	0xbf955848	-1.1667566
137	0x3f860e63	1.047314
138	0x40193d02	2.3943486
139	0xbf879651	-1.0592748
140	0xbfce4851	-1.6115819
141	0x400b0c55	2.1726277
142	0xbff789f4	-1.9338975
143	0xbeccfa5e	-0.40034765
144	0xbf062ae3	-0.5240919
145	0xc038396d	-2.878505
146	0x3ea07666	0.3134033
147	0xbfb5691d	-1.4172703
148	0xc00afe3b	-2.171767
149	0x3e95a7f7	0.2922971
150	0xbfb5b87a	-1.4196923
151	0xc03184a3	-2.7737205
152	0x408d6577	4.418636
153	0xbfa1b838	-1.2634344
154	0xbe9785fb	-0.29594406
155	0x3f74d3ca	0.95635664
156	0xbf8e302a	-1.1108449
157	0x3e27f4fb	0.16402046
158	0x3f808b90	1.0042591
159	0xbb1b47ce	-0.0023693922
160	0xc03b5783	-2.9272163
161	0x3f965cac	1.1747031
162	0xc03fa1ec	-2.994258
163	0x3f6e0bad	0.92986566
164	0xbfc85f70	-1.5654125
165	0xc0587843	-3.3823402
166	0x40b41e36	5.628688
167	0x3f9216a9	1.1413165
168	0xbe64f95d	-0.2236075
169	0x3fef2543	1.8683246
170	0xbfe21f66	-1.7665832
171	0xbf05053a	-0.519611
172	0x3f1ab71e	0.60435665
173	0x3e87db41	0.26534465
174	0xbf90f0d2	-1.1323493
175	0xbdcb6801	-0.099319465
176	0xbf29019f	-0.660181
177	0x3d9921b0	0.074771285
178	0x3f49f4dd	0.78889257
179	0xbf5b65cd	-0.8570221
180	0x400e6db0	2.2254448
181	0xbe52affe	-0.20574948
182	0x3ee37a42	0.44429213
183	0x3fd05c6e	1.6278207
184	0xbf67f7b4	-0.9061234
185	0x3f879973	1.0593704
186	0xbf73ee47	-0.9528546
187	0x3fe16964	1.7610288
188	0xbdee764e	-0.116436586
189	0xbf336854	-0.7008107
190	0xbfd0ac0d	-1.6302506
191	0xbfa0fa00	-1.2576294
192	0x3f1782b2	0.591838
193	0xbecdb027	-0.40173456
194	0x3f2264e8	0.6343522
195	0x3f50e8cc	0.8160522
196	0xbfdce552	-1.7257483
197	0xbee286b3	-0.44243392
198	0xbf513bb6	-0.81731737
199	0x3f48518d	0.78249437
200	0x3efb3259	0.4906185
201	0xbfd44e75	-1.6586443
202	0xbfc43bbf	-1.5330733
203	0xbf967247	-1.1753625
204	0xbf85adbb	-1.0443643
205	0x3f953172	1.1655715
206	0xbe025874	-0.12729055
207	0xbfb37704	-1.4020696
208	0xbf955bf8	-1.1668692
209	0x3fe679b0	1.8005886
210	0xbe5a998f	-0.2134764
211	0xbf84d024	-1.037602
212	0x3ea574d2	0.3231569
213	0x3ef7e16f	0.4841418
214	0x3ee18d6e	0.44053215
215	0xbefd438d	-0.494656
216	0x40576f3d	3.3661644
217	0x4012d657	2.2943323
218	0x3d84167c	0.06449601
219	0xbffae592	-1.9601309
220	0xbe824bba	-0.254484
221	0xc0498679	-3.1488326
222	0xbe2628f0	-0.16226554
223	0x40282427	2.6272066
224	0xc005d4a2	-2.091103
225	0xbf12be43	-0.57321566
226	0x3f5eb6b9	0.8699756
227	0xbfa9a23d	-1.3252636
228	0xc02357a0	-2.5522232
229	0x40445b40	3.0680695
230	0x4122d122	10.176058
231	0xc02b83a6	-2.6799102
232	0xbfb9adba	-1.4506142
233	0x408f33dc	4.4750805
234	0xc0505dee	-3.255733
235	0xbfe240af	-1.767599
236	0x3e52e858	0.20596445
237	0xbe9ec2f7	-0.3100812
238	0xbfaf677a	-1.3703454
239	0x3f311926	0.69179
240	0xbf445a32	-0.7670013
241	0xbf6aefb6	-0.9177202
242	0x3f0ef069	0.55835587
243	0x3f6b1193	0.9182369
244	0x3e95fb91	0.29293492
245	0x3e49f096	0.19720683
246	0x402674df	2.6008832
247	0x3f4d5c2e	0.8021878
248	0x40476268	3.1153812
249	0x3fb6f00d	1.4292008
250	0x3d158a7b	0.03650902
251	0x40748da4	3.821145
252	0xbf208a4c	-0.62711024
253	0xbfeee8f1	-1.8664838
254	0xbe02baae	-0.12766525
255	0x400bd4c7	2.184862

layer1.1.bn1.weight f4 [16]
0	0x40ae130b	5.4398246
1	0x40271ffe	2.6113276
2	0x3f9b3dc8	1.2128229
3	0x40404dfd	3.00476
4	0x3fef48b2	1.869406
5	0x3f68609f	0.9077243
6	0x404ab835	3.167493
7	0x40ad86f2	5.422723
8	0x403e5f95	2.9745839
9	0x3f94a6ff	1.1613463
10	0x3f3c98c5	0.7367061
11	0x403384c9	2.8049796
12	0x4002de9a	2.0448365
13	0x3f8608fc	1.0471492
14	0x3fabdbcc	1.3426452
15	0x40aeee03	5.466554

layer1.1.bn1.bias f4 [16]
0	0x3ffc29de	1.9700277
1	0x404466b5	3.0687687
2	0x40c6ce64	6.212694
3	0x3fdcebc2	1.7259448
4	0x4063c71c	3.5590277
5	0x3f8de728	1.1086168
6	0xc0c90dba	-6.2829256
7	0x4080a504	4.0201435
8	0xc0076a75	-2.1158726
9	0xbe6f256b	-0.23354118
10	0x3fc8ba2a	1.5681813
11	0x407a68aa	3.9126382
12	0x3fc8e986	1.5696266
13	0x407b0754	3.9223223
14	0x40574521	3.3635943
15	0x3fcd0472	1.6016982

layer1.1.bn1.running_mean f4 [16]
0	0xc02e6208	-2.7247334
1	0xbf60f385	-0.8787158
2	0xc177b3b0	-15.481369
3	0x4134e408	11.305672
4	0xc1be573a	-23.792591
5	0x40b6ff27	5.7186465
6	0x4073d5fa	3.809935
7	0x409f9711	4.9871907
8	0x3f9bc48c	1.2169356
9	0x418564fc	16.674309
10	0xbf38ab21	-0.7213612
11	0x400d56af	2.2084157
12	0x4103cc65	8.237401
13	0xc1b55be1	-22.669863
14	0x400efc78	2.2341595
15	0xc06da428	-3.7131443

layer1.1.bn1.running_var f4 [16]
0	0x432ebe5f	174.74364
1	0x431d56f6	157.33969
2	0x4391156b	290.16733
3	0x42f1a468	120.821106
4	0x42d8cf2d	108.40464
5	0x43ded77d	445.6835
6	0x4255cfab	53.4528
7	0x42c3465e	97.637436
8	0x439d0d5c	314.10437
9	0x432358e4	163.34723
10	0x44210039	644.0035
11	0x429b2cda	77.5876
12	0x4348aad6	200.66733
13	0x43a513db	330.15512
14	0x434f6702	207.40237
15	0x4308de95	136.86946

layer1.1.conv1.weight f4 [16, 16, 3, 3]
0	0x3f8d5793	1.104235
1	0xbf898c51	-1.0745946
2	0x3f01faa5	0.5077308
3	0xc0045873	-2.0678985
4	0x3fcfecc5	1.6244131
5	0xbeba07cd	-0.36334077
6	0x3fccea70	1.6009045
7	0xbeb64676	-0.35600632
8	0xbef19bb2	-0.471891
9	0xc0101cf6	-2.2517676
10	0xbc13982c	-0.009008449
11	0xbe5dbced	-0.216541
12	0x3f637087	0.8884358
13	0x406c38ac	3.690959
14	0xc0670386	-3.60959
15	0xc0385b19	-2.8805602
16	0x4004a9b1	2.0728571
17	0xbfe4ab02	-1.7864687
18	0x40ae35ad	5.444052
19	0x40c78f5e	6.236251
20	0xbf5c5b30	-0.8607664
21	0x40f54645	7.664828
22	0x4115d9f1	9.365708
23	0x3febfa76	1.843581
24	0x40503cd1	3.253712
25	0x3ed45ba8	0.41476178
26	0x3f53319d	0.8249758
27	0xc05baf6d	-3.4325821
28	0xc0b39c17	-5.612804
29	0xbff0e18e	-1.8818834
30	0xbf8538e3	-1.0407985
31	0xbfecc732	-1.849829
32	0xbca7f167	-0.020500852
33	0xc00a1e71	-2.158108
34	0xc0232bf9	-2.5495589
35	0xc0223385	-2.5343945
36	0x4076a856	3.8540244
37	0xbeb3a951	-0.35090116
38	0xbf03d99e	-0.5150393
39	0x4080f8a7	4.030353
40	0x40b2038a	5.562932
41	0x3fd50e1c	1.6644931
42	0x3eb131e0	0.34608364
43	0xc0529a6c	-3.2906752
44	0xc0022815	-2.0336964
45	0x3ea96df9	0.33091715
46	0xbf865e82	-1.0497591
47	0x4017bce1	2.3709033
48	0xbfac961c	-1.348331
49	0xc05a0dbd	-3.4070885
50	0x3f15108c	0.58228374
51	0xc047a6f8	-3.119566
52	0xc0c3d00b	-6.119146
53	0xbf9b2a0e	-1.2122209
54	0xc04cc00e	-3.199222
55	0x400c0c78	2.188261
56	0xbf2732ed	-0.6531208
57	0x3f0826fe	0.531845
58	0x40a21152	5.0646143
59	0xbfd72088	-1.6806803
60	0x3f460a66	0.77359617
61	0x4020a034	2.509778
62	0xbf373dea	-0.7157885
63	0x3e06317a	0.13104811
64	0xbf9449b3	-1.1584991
65	0x3ffd292b	1.9778188
66	0x3fd546ef	1.6662272
67	0x404e8316	3.2267509
68	0x3fc7f11b	1.5620455
69	0xbdc71698	-0.09721106
70	0xbd9ecb6b	-0.07753643
71	0x40156eb3	2.3348815
72	0x3f01ee08	0.5075383
73	0xc01c1ab4	-2.4391298
74	0xbfcc6afc	-1.5970149
75	0xc0786a22	-3.8814778
76	0xc004c83a	-2.0747209
77	0xbfb5984c	-1.4187102
78	0xc04590d4	-3.0869646
79	0x4072ae40	3.7918854
80	0xbf84ec68	-1.0384645
81	0xc0f92acb	-7.7864738
82	0xc00a8cf2	-2.1648526
83	0x407565c1	3.8343356
84	0xc0ab9425	-5.361834
85	0xc03a1188	-2.90732
86	0x3fbc7990	1.4724598
87	0xc0a1e8b8	-5.059658
88	0xc07a5359	-3.9113371
89	0xc057250b	-3.361636
90	0xbf8dfac9	-1.1092159
91	0xbfec9d34	-1.8485475
92	0xc08f1936	-4.4718275
93	0xbfa00fab	-1.2504781
94	0xbe4dce50	-0.20098233
95	0xbfca089a	-1.5783875
96	0xc03a774e	-2.9135318
97	0xbf9a3db2	-1.2050078
98	0xc02509da	-2.5787263
99	0xc05b6c4c	-3.428485
100	0xc0646f31	-3.5692866
101	0xbfe38574	-1.7775102
102	0xbff85a6c	-1.9402595
103	0x40485726	3.130319
104	0x3e7d875c	0.24758667
105	0xbf99efaa	-1.2026265
106	0xbe7fec36	-0.24992451
107	0xc0823065	-4.0684075
108	0xc040e091	-3.0137064
109	0xbf02600d	-0.5092781
110	0xc05d22fe	-3.4552608
111	0xc072b588	-3.7923298
112	0x40121829	2.2827246
113	0x3ffc5256	1.9712627
114	0xc06a7ef9	-3.6639998
115	0xc08f71cb	-4.4826407
116	0xbf4eceec	-0.8078449
117	0xbf1f165a	-0.6214348
118	0xc0cf6d9c	-6.48213
119	0xbf8e576c	-1.1120429
120	0x40035be5	2.0524838
121	0xc0452dfd	-3.080932
122	0x3f919491	1.1373464
123	0xc0b28b5e	-5.5795126
124	0xc10ec510	-8.923111
125	0xc09e80dc	-4.95323
126	0xc04fa497	-3.2444208
127	0x3f742378	0.9536662
128	0x400840be	2.1289515
129	0xbfff8b5e	-1.9964406
130	0x40a9313c	5.28726
131	0x410dad14	8.854755
132	0xbf904216	-1.1270168
133	0x3fd8d015	1.6938502
134	0x4035a699	2.8382933
135	0x3f3a07bb	0.72668046
136	0x3ffb9fd5	1.9658152
137	0x3f2d2127	0.6762871
138	0xbffa3760	-1.9548149
139	0x4087390e	4.2257147
140	0xbe741733	-0.23836975
141	0x40009da4	2.0096216
142	0x40018502	2.0237432
143	0xbf019912	-0.5062419
144	0x3fb9e3c6	1.4522636
145	0xbf92a84b	-1.1457609
146	0x3f2b1a74	0.6683724
147	0x3cc3191a	0.02381568
148	0x40b4193f	5.628082
149	0x406b32b2	3.6749692
150	0xbf7be82d	-0.9840115
151	0xc0b02fa3	-5.505815
152	0xc0284097	-2.6289423
153	0xbf26d7fe	-0.6517333
154	0x3fc78849	1.5588466
155	0x3e95b3ed	0.29238835
156	0x3e681ce2	0.22667268
157	0x40350f09	2.8290427
158	0xbf64ef7c	-0.89427924
159	0xbff84a98	-1.9397764
160	0x4087a95b	4.2394233
161	0xbe2596c8	-0.161708
162	0x4078a2b7	3.8849313
163	0x3fa6184b	1.2976164
164	0xbe1122dc	-0.14173454
165	0x3e3b8746	0.18313321
166	0xc044cad3	-3.0748794
167	0x3f602df6	0.8757013
168	0x3ffec74a	1.9904568
169	0xbe352e4c	-0.17693442
170	0x3f9394a5	1.1529738
171	0xc03c4713	-2.941838
172	0x407235e5	3.7845395
173	0xc0828540	-4.078766
174	0xc09ed697	-4.963695
175	0xbefc3b92	-0.492642
176	0xbf670afe	-0.9025115
177	0xbf3fd7c6	-0.7493862
178	0x3fe194b4	1.7623506
179	0x3fce82ba	1.6133645
180	0xbeab2396	-0.33425587
181	0x4008b300	2.1359253
182	0xc092f175	-4.5919747
183	0x3eeff06e	0.4686312
184	0x409c3242	4.881135
185	0x3fe19041	1.7622148
186	0xc0074b6f	-2.113979
187	0xbd2fd71a	-0.042929746
188	0x3d6cb658	0.057791084
189	0x3ec702ec	0.38869417
190	0xbf8afc68	-1.0858278
191	0xbf483be7	-0.78216404
192	0x3f93d432	1.1549132
193	0xbf554d9d	-0.83321553
194	0xbf0b00af	-0.5429792
195	0x4096ab9f	4.70845
196	0x4029a0f2	2.6504483
197	0x3f8db214	1.106997
198	0xbe2c862c	-0.16848058
199	0xbf67b670	-0.9051275
200	0x3f43a41b	0.7642228
201	0xbf9d23a2	-1.2276499
202	0xc0a4a8bb	-5.145597
203	0xc04dacd8	-3.2136745
204	0x4082c5cf	4.0866466
205	0x3f0d21d7	0.5512976
206	0xbff18e93	-1.8871635
207	0xbf85264f	-1.0402316
208	0xbf80dd5f	-1.0067557
209	0xbf0a804f	-0.54102033
210	0x3f287627	0.65805286
211	0x3ef50a55	0.47859445
212	0xbfca1e6f	-1.5790538
213	0xbd88cd0c	-0.066797346
214	0xc01ffeb1	-2.4999201
215	0xbf968a2b	-1.1760916
216	0xbfa0a5db	-1.2550615
217	0x40f4fef9	7.6561246
218	0x3e657eb0	0.22411609
219	0xc06bdf40	-3.685501
220	0x4112ab29	9.166787
221	0x3fbf976c	1.4968085
222	0xc0c970f1	-6.295037
223	0xbf1c46ec	-0.6104572
224	0xc076657c	-3.849944
225	0x408b0478	4.3442955
226	0x3fe8a339	1.8174812
227	0x3f9ad30a	1.2095654
228	0x3f8a14bd	1.0787579
229	0x406772e4	3.6163874
230	0xbf9cb426	-1.2242477
231	0xc08fcd1a	-4.493787
232	0xbff3cda0	-1.9047127
233	0xbf5c2b85	-0.86003906
234	0x40ee66d0	7.4500504
235	0x40a0a4ec	5.020132
236	0x409c253d	4.8795457
237	0x409e9366	4.955493
238	0x3fabf1b4	1.3433137
239	0x3eca7561	0.39542678
240	0xc006cbce	-2.1061893
241	0xc0b78939	-5.735501
242	0xc070fb68	-3.7653446
243	0x3da9d318	0.08292216
244	0x3d60f210	0.05491835
245	0xbff2e7cd	-1.897699
246	0x3f94115f	1.1567801
247	0x40384c82	2.8796697
248	0xc0c293a5	-6.080523
249	0x4002e545	2.0452435
250	0x4004755f	2.0696638
251	0xc0625d16	-3.5369315
252	0x400dc29a	2.2150025
253	0x3f798648	0.9747052
254	0xc015f0bc	-2.3428183
255	0xbfb73b84	-1.4315038

layer1.1.bn2.weight f4 [16]
0	0x3e9cc075	0.30615583
1	0x3f07f2c9	0.53104836
2	0x3f0ec2a3	0.5576574
3	0x3f40f0ac	0.75367236
4	0x3eef6460	0.46756268
5	0x3f5a08ec	0.85169864
6	0x3f20b475	0.62775356
7	0x3f41634b	0.75542134
8	0x3f448a82	0.76773846
9	0x3f182fd8	0.59448004
10	0x3eae865a	0.34086877
11	0x3f6bb5cc	0.92074275
12	0x3ec06a21	0.3758097
13	0x3f0d3c86	0.55170476
14	0x3eb08925	0.34479633
15	0x3ed2449b	0.41067967

layer1.1.bn2.bias f4 [16]
0	0x3e5dd5d3	0.21663599
1	0xbe0e1945	-0.13876827
2	0xbf0834ce	-0.53205574
3	0x3c7416fb	0.014898057
4	0xbe20de22	-0.15709737
5	0xbf6d14c2	-0.926098
6	0xbdecafe2	-0.115569845
7	0xbc71396d	-0.014723164
8	0xbd10302e	-0.035202198
9	0x3c8c88a1	0.017154993
10	0x3eec7d2d	0.46189252
11	0xbc00d584	-0.007863406
12	0x3d525858	0.051353782
13	0xbe2b4665	-0.16726072
14	0x3dfa164e	0.122112855
15	0x3dce9962	0.10087849

layer1.1.bn2.running_mean f4 [16]
0	0x4293aa37	73.83245
1	0x42efd995	119.924965
2	0x4302669f	130.40086
3	0xc2b80abc	-92.020966
4	0x428fe77d	71.952126
5	0x3f688e22	0.9084188
6	0xc2ec5ce3	-118.18142
7	0xc2ff65a4	-127.69852
8	0xc2193fee	-38.31243
9	0xc1b3b3bc	-22.46276
10	0x42c37739	97.73286
11	0xc2e4895e	-114.268295
12	0x4176c186	15.422247
13	0x425893f1	54.144474
14	0x43402b36	192.1688
15	0x4225811b	41.37608

layer1.1.bn2.running_var f4 [16]
0	0x45a500af	5280.0854
1	0x452ee83e	2798.5151
2	0x46026f3f	8347.812
3	0x467b9686	16101.631
4	0x45b1dc5c	5691.545
5	0x45b1b15d	5686.1704
6	0x467b6e8b	16091.636
7	0x46f9cec5	31975.385
8	0x469e31b3	20248.85
9	0x4692ad77	18774.732
10	0x45bf5cb9	6123.5903
11	0x46ad606e	22192.215
12	0x45bce2b3	6044.3374
13	0x4665a1d7	14696.46
14	0x45c4a5c1	6292.719
15	0x45f27727	7758.894

layer1.1.conv2.weight f4 [16, 16, 3, 3]
0	0xc009280b	-2.143069
1	0x4006877b	2.102019
2	0xbf102f1e	-0.56321895
3	0xbf503165	-0.8132537
4	0x3f73ad4f	0.9518632
5	0xbed1bee8	-0.40965962
6	0x3f39fd46	0.7265209
7	0x3ee75849	0.45184544
8	0xbf6bcd2a	-0.9210993
9	0x3fad368b	1.353227
10	0xc004fc91	-2.0779154
11	0xbe83dd01	-0.2575455
12	0x40186d1a	2.381659
13	0x3fd49e8d	1.6610886
14	0xc0021e4e	-2.0330997
15	0x3f0b96f7	0.5452723
16	0xc00035a9	-2.0032752
17	0x3f51a714	0.81895566
18	0x3e801fb4	0.25024188
19	0x3fc847ac	1.5646873
20	0xbf48ec82	-0.7848588
21	0xbe3dc57f	-0.1853237
22	0x3ed25dc0	0.4108715
23	0xbfd216fa	-1.6413262
24	0xbf28236a	-0.6567904
25	0xbe97b43c	-0.29629695
26	0x3f1beb00	0.60905457
27	0xbfa4af74	-1.2866044
28	0x3f20ad9d	0.6276491
29	0xbf54c5fb	-0.83114594
30	0xbfff9dc8	-1.9970026
31	0xbfdf1230	-1.7427425
32	0xbf820c9e	-1.01601
33	0x3ee25b05	0.44210067
34	0x3eb26607	0.34843466
35	0xc054d9a3	-3.3257835
36	0xbfcc8993	-1.5979484
37	0x3f658734	0.8965943
38	0xbe561826	-0.2090765
39	0xbf2e3b24	-0.6805899
40	0x3e988c76	0.29794663
41	0xbf145a75	-0.57950526
42	0xbf4c8bb9	-0.799007
43	0x3f5a1915	0.8519452
44	0xbe3b4c7c	-0.18290895
45	0xbf1c2e63	-0.6100828
46	0xc029a675	-2.6507847
47	0xc0d7f0e1	-6.748154
48	0xbf496253	-0.78665656
49	0x3f20d23b	0.62820786
50	0xc0c2904a	-6.0801134
51	0xbf6e3cb4	-0.93061376
52	0x3e9f837e	0.31155008
53	0xbfb5d97e	-1.4206998
54	0x3f37ac37	0.71747154
55	0xc0126832	-2.2876096
56	0xbfa87ea2	-1.3163645
57	0x4007ff9e	2.1249766
58	0xbecb29e8	-0.3968041
59	0xbcb08074	-0.021545626
60	0x3e4e4037	0.20141684
61	0xbf192152	-0.5981647
62	0xbf53b617	-0.8269972
63	0x40912bbe	4.5365896
64	0x40354a70	2.8326683
65	0xbff2df84	-1.8974462
66	0x4109a60e	8.603041
67	0x40853571	4.1627736
68	0x3d0be877	0.034157243
69	0x4083c744	4.1180744
70	0x407e322b	3.971812
71	0xbfa43d15	-1.2831141
72	0x3f7386a0	0.95127296
73	0xbf970915	-1.1799647
74	0xbfc6da73	-1.5535415
75	0x3fee75e5	1.8629729
76	0xc00225ac	-2.0335493
77	0xbf826bc9	-1.0189143
78	0x400f4916	2.2388358
79	0x3e8158b0	0.25262976
80	0xbfec6d4c	-1.8470855
81	0x3f7e5e3b	0.99362534
82	0xbd9ce0b9	-0.0766005
83	0xbdfbdf87	-0.12298494
84	0x40cd49e1	6.4152684
85	0x4042c1a2	3.0430684
86	0x400a6a01	2.16272
87	0x3eb5b48e	0.35489315
88	0xbe06dc6d	-0.13170023
89	0x3ea9f515	0.33194795
90	0xbebbbf55	-0.36669412
91	0x3e9b0e51	0.3028436
92	0x3faf65b4	1.3702912
93	0xbe183e3b	-0.14867489
94	0x3e6efa31	0.23337628
95	0x3f8be152	1.0928137
96	0xbf0e1779	-0.55504566
97	0xc04fab5e	-3.2448344
98	0x3fcb6118	1.5889006
99	0x3fd5224a	1.6651089
100	0x3fe6090f	1.7971514
101	0xbeb17b57	-0.34664413
102	0x406a8506	3.664369
103	0x403cec88	2.9519367
104	0x3d01813a	0.03161738
105	0xbf00e6c9	-0.5035215
106	0xbf9903bd	-1.1954266
107	0xbf1395ad	-0.5765026
108	0x3ece4230	0.40284872
109	0xbfacbd3f	-1.3495253
110	0xbf7fb4ea	-0.9988543
111	0x3e6a1a09	0.22861494
112	0xbf7c1939	-0.98475987
113	0xbdb16094	-0.08660999
114	0xbf7aaacf	-0.97916883
115	0xbea34b0b	-0.3189319
116	0xbf7969b8	-0.9742694
117	0x3fe1cdad	1.7640892
118	0x4056bc45	3.355241
119	0xc071bcac	-3.7771406
120	0x4057f9e9	3.3746283
121	0x400d89d6	2.2115378
122	0xbed40527	-0.4141018
123	0x3fa23a3e	1.2674024
124	0x3f6a9f26	0.9164909
125	0x3f1dfe8b	0.61716527
126	0x3eb6dda3	0.3571597
127	0xbfc39ecb	-1.5282835
128	0x3f82db4a	1.0223172
129	0x3f882273	1.0635513
130	0xbfd94546	-1.6974266
131	0xbf0146ab	-0.50498456
132	0x3f687998	0.9081054
133	0xbedcf74b	-0.4315742
134	0x3f45c160	0.7724819
135	0x3d48fc8c	0.049068972
136	0xc002a607	-2.0413835
137	0xbfd0f0a4	-1.6323438
138	0x3e498c85	0.1968251
139	0x3f5bddee	0.8588551
140	0xbfff7580	-1.9957733
141	0xbf803757	-1.0016888
142	0xbe92bc2c	-0.2865919
143	0xbf312107	-0.6919102
144	0x3f07d71c	0.53062606
145	0xbfaa399d	-1.3298832
146	0x3f857cab	1.0428671
147	0xbe911d63	-0.28342733
148	0xc0628913	-3.5396163
149	0x3c9a4778	0.018832907
150	0xbe518e0d	-0.20464344
151	0x3f4ee26d	0.8081425
152	0x3f7f380b	0.9969489
153	0xbf4291e6	-0.76003873
154	0xc01088a7	-2.2583406
155	0x3ecab3f0	0.39590406
156	0xbfdf58c5	-1.7448965
157	0xc09a2b0a	-4.817754
158	0xbf46dd75	-0.77681667
159	0xbe43f8fb	-0.19137947
160	0xc03b3309	-2.92499
161	0x3f60ee1b	0.8786332
162	0xbf0e0894	-0.5548184
163	0x3f4e3814	0.8055432
164	0x3f055619	0.520845
165	0x3f39be86	0.7255634
166	0xbe708882	-0.23489574
167	0xbe5f4a1b	-0.21805613
168	0x3ec845b1	0.3911567
169	0x3f8be112	1.0928061
170	0xbfb311c2	-1.3989794
171	0xbd387281	-0.045031074
172	0xc031ec1a	-2.7800355
173	0xc0076082	-2.1152654
174	0x3f6d3eb0	0.9267378
175	0xc0515a39	-3.2711318
176	0xbf1db6db	-0.6160714
177	0x3ea4c955	0.32184854
178	0xc0496da5	-3.1473172
179	0xbfd94d85	-1.6976782
180	0xbff05a95	-1.8777643
181	0xbed8e034	-0.42358553
182	0xbe94b2d2	-0.2904268
183	0x3fc2c41b	1.5216097
184	0x3e8b95bc	0.27262676
185	0x3f159e1e	0.5844439
186	0x3f968694	1.175982
187	0xbe177d8a	-0.14793983
188	0xbf60ea2d	-0.87857324
189	0xbf127dbc	-0.57223105
190	0xbfc72af1	-1.555998
191	0xc04e9e9e	-3.2284312
192	0xbf4f5171	-0.80983645
193	0xc05d98cb	-3.4624507
194	0xc0fc8cb5	-7.892176
195	0xbf0fab61	-0.5612088
196	0xbfe9c3f6	-1.8262928
197	0xc07c6625	-3.9437344
198	0xbefb8539	-0.49125078
199	0xbe885ce7	-0.2663338
200	0x3e982ada	0.29720193
201	0x401921a0	2.3926773
202	0x4028405e	2.6289287
203	0x403411ee	2.8135943
204	0x3fa0d68f	1.2565478
205	0x3f787a9d	0.97062093
206	0xc0173c93	-2.3630722
207	0x3f99c0d9	1.2011977
208	0x40833b39	4.1009793
209	0xbef5c38c	-0.48000753
210	0x40b5061d	5.6569963
211	0x407b84a7	3.9299715
212	0x3f9cbd6a	1.2245305
213	0x40012891	2.018101
214	0x40a73656	5.225383
215	0xc034ea4e	-2.8268008
216	0xbf90919a	-1.1294434
217	0xbe1d08ed	-0.15335436
218	0x3f7a404f	0.9775438
219	0xbfcff11d	-1.6245457
220	0xc0e64868	-7.1963387
221	0xc0a395de	-5.1120443
222	0xbe9f9fb0	-0.3117652
223	0x3fa790d7	1.3091077
224	0x3f17e2e4	0.5933058
225	0xbf947d8a	-1.1600811
226	0xbf8f3f12	-1.1191123
227	0x3e8410cc	0.25794065
228	0xbf2e99c9	-0.6820341
229	0xc032d374	-2.794156
230	0x3f582324	0.8442862
231	0xbdb135f5	-0.086528696
232	0xbfb81184	-1.4380345
233	0x3ec30374	0.38088572
234	0xbe9d36bf	-0.3070583
235	0xc001d2ab	-2.0284832
236	0x3f3ef578	0.74593306
237	0x3f2ed4d3	0.68293494
238	0xbde9a58e	-0.1140853
239	0x3f805a4d	1.0027558
240	0x400224ad	2.0334885
241	0x3df1d29d	0.118077494
242	0xbfcd91aa	-1.6060078
243	0x402e5091	2.7236674
244	0x40511237	3.2667367
245	0xbf995f5a	-1.1982224
246	0x40b1fde7	5.562244
247	0x41271471	10.442491
248	0x402adbd3	2.669667
249	0xbea6f30d	-0.32607308
250	0x3fd687b7	1.6760167
251	0xbeafc9d8	-0.34333682
252	0xbf634f39	-0.8879276
253	0x3f0b8534	0.54500127
254	0x3f42362e	0.7586392
255	0xbf875df5	-1.0575548

layer2.0.bn1.weight f4 [16]
0	0x4090bb52	4.5228662
1	0x40490628	3.1410007
2	0x4071bcc2	3.7771459
3	0x4029ebff	2.655029
4	0x402edfdc	2.7324133
5	0x4048be97	3.1366327
6	0x401b3af7	2.425474
7	0x40871dc2	4.2223825
8	0x407e02c1	3.968918
9	0x400f8126	2.2422576
10	0x402a51fc	2.661254
11	0x404c87aa	3.1957803
12	0x401fbdd3	2.495961
13	0x40259e4b	2.5877864
14	0x4068975e	3.6342387
15	0x4069c981	3.6529238

layer2.0.bn1.bias f4 [16]
0	0x400b95a5	2.1810086
1	0x40332d6f	2.799648
2	0xbe4b0da4	-0.19829422
3	0x40181dd3	2.3768203
4	0x409b6603	4.8562026
5	0x40197623	2.3978355
6	0xbfd39df0	-1.6532574
7	0x3fb8dfa3	1.4443249
8	0x3f2b12cf	0.66825575
9	0x3fc9cbdb	1.5765337
10	0x3f3b20a9	0.7309671
11	0x40ab189d	5.3467546
12	0x4082abf7	4.083492
13	0x3f9341b5	1.1504427
14	0xbee5c904	-0.44879925
15	0x3f756dd2	0.958707

layer2.0.bn1.running_mean f4 [16]
0	0x40517d4a	3.273272
1	0x3f7541c5	0.9580348
2	0xc15888dc	-13.533413
3	0x40b5edc0	5.685272
4	0xc14988c4	-12.59589
5	0x40d90020	6.7812653
6	0x4120e59d	10.056058
7	0x4118d1f4	9.551258
8	0x41437fb7	12.21868
9	0x41df4078	27.906479
10	0xc0b44e27	-5.63454
11	0x41dd21ea	27.64156
12	0x417f85c4	15.970158
13	0xc1cc51ac	-25.539879
14	0xbf27c99f	-0.65542024
15	0xc094f2a9	-4.6546216

layer2.0.bn1.running_var f4 [16]
0	0x4398366f	304.42526
1	0x43103d3d	144.23921
2	0x43e33649	454.4241
3	0x432dab88	173.67004
4	0x432f3af0	175.23022
5	0x44131b02	588.422
6	0x428d3c4d	70.617775
7	0x43047b50	132.48169
8	0x43c0967e	385.17572
9	0x4350a753	208.65361
10	0x4441911c	774.26733
11	0x4380e941	257.8223
12	0x43756c8c	245.42401
13	0x43c64340	396.5254
14	0x43c7c140	399.50977
15	0x42dd653f	110.69775

layer2.0.conv1.weight f4 [32, 16, 3, 3]
0	0x3fa463ed	1.2842995
1	0xbfcb4243	-1.5879596
2	0xbeb7487b	-0.35797486
3	0x3eb44315	0.3520743
4	0xbf91025a	-1.1328843
5	0x3f716763	0.9429838
6	0x3f6f02f0	0.9336386
7	0xbe2d30cb	-0.16913144
8	0x40009efd	2.0097039
9	0xc0275880	-2.6147766
10	0x3f1a9d2a	0.60396063
11	0xbef76b08	-0.48323846
12	0xbfdfbb75	-1.7479082
13	0x3f436d65	0.763388
14	0x3f0d870b	0.55284184
15	0xbeb8ca6a	-0.3609193
16	0xbeb0bc24	-0.3451854
17	0xbfc9e124	-1.5771832
18	0x3f8fe273	1.1240982
19	0x408cf75c	4.405195
20	0xc0106957	-2.2564294
21	0x40c4fbf5	6.1557565
22	0x40b311aa	5.5959063
23	0xc0152906	-2.3306289
24	0x3fe0049a	1.7501404
25	0x3fdd7c3d	1.730354
26	0x3e9f20e6	0.31079787
27	0x3faf3d35	1.3690554
28	0xbf65fa55	-0.898351
29	0xbff53b9f	-1.915882
30	0x3fe56031	1.791998
31	0xbf07ce01	-0.5304871
32	0xbee4f80f	-0.44720504
33	0xbed940dc	-0.42432296
34	0xbfabd233	-1.3423523
35	0xbf44f8e2	-0.76942265
36	0x404d1282	3.2042546
37	0x3fabffeb	1.3437475
38	0xbe844d56	-0.25840253
39	0x3fe17e12	1.7616599
40	0x4008b2b8	2.1359081
41	0xbff8f80e	-1.94507
42	0x3fcbfffb	1.5937494
43	0x40062b7c	2.096404
44	0xc022d3c0	-2.5441742
45	0xbfabdeea	-1.3427403
46	0x40823a6d	4.069632
47	0xc09c3451	-4.8813863
48	0x407190a8	3.774454
49	0x40bba81e	5.864272
50	0xc09bcf5c	-4.8690624
51	0x3f1bbfaa	0.6083933
52	0x3f58cd5a	0.8468834
53	0xc022c874	-2.5434847
54	0x3f820c7b	1.0160059
55	0x3f0579f0	0.52139187
56	0xbff0cebc	-1.881309
57	0xbfc473f4	-1.5347886
58	0x404a2f87	3.1591508
59	0x3f12d89a	0.5736176
60	0xc00ac41b	-2.1682193
61	0x4071970e	3.7748446
62	0x3fc07955	1.5037028
63	0xbf86d7fd	-1.0534664
64	0xbe1e7dc0	-0.15477657
65	0x3f293a18	0.6610427
66	0xbeed8e26	-0.46397513
67	0x3e6ab772	0.22921541
68	0x3f87104b	1.0551847
69	0x3f63f7d7	0.8905005
70	0x3fc03a3e	1.5017774
71	0x3fd37dc3	1.6522754
72	0x405d87ba	3.461409
73	0x3ff7d9d4	1.9363351
74	0xbfdae509	-1.7101146
75	0x3eab7a5c	0.3349179
76	0xbf0a4e6f	-0.5402593
77	0xbfe28609	-1.7697154
78	0xbcec7a44	-0.028866895
79	0xbff2588d	-1.8933274
80	0xc044cfdf	-3.0751874
81	0xc01b853f	-2.4300077
82	0xc082fb43	-4.0931716
83	0x400e2e1c	2.2215643
84	0xc0631d45	-3.5486615
85	0xc0b17700	-5.5457764
86	0x4058eacf	3.3893316
87	0xc0a6a4bd	-5.2076097
88	0xc03aadc5	-2.916856
89	0x4077cf0a	3.8720117
90	0x3f3170a0	0.6931248
91	0xbf27d830	-0.6556425
92	0xc0c08be0	-6.0170746
93	0x4104bc3d	8.295957
94	0x40be8806	5.9541044
95	0xbfc96710	-1.5734577
96	0x3fe3117c	1.7739711
97	0xbfcac4bd	-1.584129
98	0xc0af897a	-5.485532
99	0xc0283978	-2.6285076
100	0xbecaf489	-0.3963969
101	0xbe47e5b2	-0.19521216
102	0xc021ce04	-2.5281992
103	0x3f39ec37	0.7262606
104	0x3f1fcd38	0.62422514
105	0x3e32b90d	0.17453404
106	0x3f8e907c	1.1137843
107	0x3f8441a2	1.033253
108	0xc067f2e0	-3.624199
109	0xc0a3fbbf	-5.1244807
110	0xc00db719	-2.2143004
111	0xbfd2faa4	-1.648274
112	0xc00c995c	-2.1968603
113	0x40595df7	3.3963602
114	0x3f25c083	0.64746875
115	0xbfe7982a	-1.8093312
116	0x4076b08c	3.8545256
117	0x402cd884	2.700715
118	0xc0559b4c	-3.3376036
119	0xbfa7abed	-1.3099343
120	0x4087e39d	4.246535
121	0xbf3f64c0	-0.7476311
122	0x400d78ee	2.210506
123	0x3e36d69f	0.17855309
124	0xbfb08ef5	-1.3793627
125	0x3e32bfb4	0.17455941
126	0xbed01e4a	-0.4064811
127	0x40c8e35a	6.277753
128	0x4082ba14	4.0852146
129	0xc00cd2c1	-2.2003634
130	0x4178abc3	15.541934
131	0x41084eb7	8.5192175
132	0xbf9c2978	-1.2200155
133	0x412398e2	10.224825
134	0x4094a813	4.645517
135	0x3fe699d5	1.8015696
136	0xbd5f0a45	-0.054453153
137	0xbf9acfcf	-1.2094668
138	0x3ff0ed76	1.8822467
139	0x3fe92bb4	1.8216462
140	0xbf5acc70	-0.85468197
141	0x3eca3d70	0.39499998
142	0x3f450e70	0.76975155
143	0xbf389d78	-0.7211528
144	0xbe9d4e94	-0.30724013
145	0x40138b8d	2.3053925
146	0x4008e546	2.1389937
147	0xbfef2a68	-1.8684816
148	0xbf5f0291	-0.8711329
149	0xbe01883c	-0.12649626
150	0xbfc1359e	-1.5094488
151	0xbf7c2824	-0.9849875
152	0xbe1dfc6b	-0.15428321
153	0x3d795df1	0.060880605
154	0x3d5a1496	0.05324229
155	0xbfa72886	-1.3059242
156	0x3f016992	0.5055171
157	0xbf61f8d5	-0.8827031
158	0x3f5e9744	0.86949563
159	0x3f28d986	0.65956914
160	0xbfb4ea4b	-1.4134
161	0xbf169364	-0.5881865
162	0xc0101a43	-2.251603
163	0xc0cb12bc	-6.346037
164	0xc07be775	-3.936002
165	0xc088dd4c	-4.277014
166	0xc09533f4	-4.662592
167	0xbfb97e1a	-1.4491608
168	0xbcb2769f	-0.021785079
169	0xc0154b3b	-2.3327167
170	0xc010de1c	-2.2635565
171	0xbfbde664	-1.4835935
172	0x3f029a01	0.5101624
173	0x3fe8fc77	1.8202046
174	0xbf29d1a6	-0.66335523
175	0x3d104daa	0.035230316
176	0x3e9d67f5	0.30743375
177	0xc02019b2	-2.5015683
178	0x3f262609	0.6490179
179	0xbfcbeb88	-1.5931253
180	0xc00d0a98	-2.2037716
181	0xc00c01d3	-2.1876113
182	0xbfd1b85a	-1.6384385
183	0x3e846bd8	0.25863528
184	0xbfd9969b	-1.6999086
185	0xbf23adc8	-0.63937044
186	0x3fe2dc8f	1.7723559
187	0x3f9bac03	1.2161869
188	0x3ec68538	0.38773513
189	0x3f397212	0.7243968
190	0x408ec2e8	4.4612923
191	0x40dbc4d2	6.867776
192	0x402c7d60	2.6951523
193	0x40b69dfe	5.706786
194	0x4110841d	9.032254
195	0x40b18516	5.547496
196	0x410ca83b	8.791072
197	0x410204e9	8.126199
198	0x40097e8d	2.148349
199	0x40a04cb2	5.009362
200	0x3eb35e35	0.35032812
201	0x4008a5b3	2.1351135
202	0x40f1c534	7.5553226
203	0x406073d0	3.5070686
204	0xbf128f26	-0.5724968
205	0x3fea14dc	1.8287616
206	0x3fc13fbb	1.5097574
207	0xbefad1b7	-0.48988125
208	0x3d8e4a75	0.06947795
209	0xbf1c6a4c	-0.61099696
210	0xc01281c9	-2.2891715
211	0xc01ca170	-2.4473534
212	0xbfdf8636	-1.7462833
213	0xbf6c1628	-0.9222131
214	0xbf695679	-0.9114757
215	0xbe3f9c80	-0.18712044
216	0xc031db5d	-2.7790139
217	0x3fe71320	1.8052711
218	0x3fc65767	1.5495423
219	0x40579c3f	3.3689115
220	0x40b40c2c	5.626486
221	0x4040b1a3	3.010842
222	0x3ff2ede4	1.8978848
223	0x40ab4ffd	5.353514
224	0x3f94354e	1.1578767
225	0xc0314853	-2.7700393
226	0xc0a7bd67	-5.2418704
227	0xc054ae17	-3.3231256
228	0xbf544cf6	-0.82929933
229	0x3ec31d85	0.3810846
230	0xc08de2f5	-4.4339547
231	0xc0323a8b	-2.7848232
232	0x3fd479d8	1.6599684
233	0xc0116038	-2.2714977
234	0x400f6368	2.2404423
235	0x40dce0a1	6.9024205
236	0x403d2c25	2.9558194
237	0x3d36bcbe	0.044613592
238	0x40b3d9e3	5.6203475
239	0x400ce220	2.2013016
240	0xc00f1d6b	-2.2361705
241	0x40d28209	6.5783734
242	0x40840771	4.1259084
243	0x40653ece	3.5819583
244	0xbfd53918	-1.6658049
245	0x3ed9c8b8	0.4253595
246	0x3fa1bacf	1.2635134
247	0xbf0e5e4c	-0.55612636
248	0xbf3ad19a	-0.72976077
249	0x3fbfd820	1.4987831
250	0xbe750caf	-0.2393062
251	0x3f849644	1.0358357
252	0x407c7d6a	3.9451547
253	0x3faefe47	1.3671349
254	0x40516f78	3.2724285
255	0xbe022b2a	-0.12711778

layer2.0.bn2.weight f4 [32]
0	0x3f823ef9	1.0175468
1	0x3fa92025	1.3212935
2	0x3f987e33	1.1913513
3	0x3f9a99ba	1.2078164
4	0x3f9f4bb5	1.2444979
5	0x3f930a6f	1.1487559
6	0x3fa9cf26	1.3266342
7	0x3fb6ea4f	1.4290255
8	0x3f699ffb	0.91259736
9	0x3f9e6053	1.2373146
10	0x3f8f4e04	1.1195683
11	0x3fb3ef78	1.4057455
12	0x3f898aab	1.0745443
13	0x400f40c9	2.2383292
14	0x3fa5b9d8	1.294734
15	0x3fa29106	1.2700508
16	0x3f7497b6	0.9554399
17	0x3fc51ea7	1.5399979
18	0x3fe6b95e	1.802532
19	0x3f994a06	1.1975715
20	0x3f6960d2	0.9116336
21	0x3f537379	0.8259807
22	0x3f95795c	1.1677661
23	0x4014151e	2.313789
24	0x3fcde05c	1.6084094
25	0x3fdfda76	1.7488544
26	0x3fa93545	1.3219382
27	0x3fc77da7	1.5585221
28	0x3fad9d9a	1.3563721
29	0x3f9703ed	1.1798073
30	0x3f8c46fe	1.0959165
31	0x3fd24628	1.642766

layer2.0.bn2.bias f4 [32]
0	0x3e6c369a	0.23067704
1	0x3f3f6d77	0.74776405
2	0xbccdab9f	-0.02510625
3	0xbc3a9bc9	-0.011389681
4	0x3cdc2df6	0.026877385
5	0x3d79b0b3	0.06095953
6	0xbf8c4554	-1.0958657
7	0xbd4c096f	-0.049813684
8	0x3ffb136f	1.9615306
9	0x3fce3e04	1.6112676
10	0x3f130559	0.57430035
11	0x3f7dc924	0.9913504
12	0x3f567a3f	0.8378028
13	0xbf97ddcc	-1.1864562
14	0x3da9dc94	0.08294025
15	0x3f477260	0.779089
16	0x3cd22622	0.025652949
17	0xbed52aab	-0.41634116
18	0xbf2da837	-0.678348
19	0x3eee6b4e	0.46566242
20	0x3c14014e	0.009033514
21	0x3f1588e0	0.5841198
22	0xbdf98754	-0.12184015
23	0xbfbb919b	-1.465381
24	0xbe1368dc	-0.1439547
25	0xbf1706e9	-0.5899492
26	0xbe7a764d	-0.2445919
27	0xbeb6ead6	-0.3572604
28	0xbeadd782	-0.33953482
29	0xc01a561a	-2.4115052
30	0x3f05cd41	0.5226632
31	0x3e59518c	0.21222514

layer2.0.bn2.running_mean f4 [32]
0	0x4234e786	45.226097
1	0x431d29c3	157.16313
2	0x419447b3	18.53501
3	0xc3a78659	-335.0496
4	0xc31b1ee9	-155.12074
5	0xc2ebefc8	-117.96832
6	0xc213b742	-36.928963
7	0x42454acd	49.323048
8	0xc27939b0	-62.306335
9	0x43e80f65	464.12027
10	0xc382755b	-260.91684
11	0x412c9799	10.787011
12	0x420430d5	33.047688
13	0xc3852fd5	-266.3737
14	0x42fb9fd6	125.81218
15	0x42b5520a	90.66023
16	0xc21957e3	-38.335827
17	0xc376e6db	-246.90178
18	0x4293fbde	73.99193
19	0xc32328f6	-163.16
20	0xc2ecff35	-118.49845
21	0xc207491e	-33.821404
22	0xc28a18e1	-69.04859
23	0xc311dc13	-145.85966
24	0xc35145a2	-209.272
25	0xc3507881	-208.47072
26	0xc29f1d91	-79.55775
27	0xc2a13d85	-80.620155
28	0x422904f7	42.25485
29	0xc3546018	-212.37537
30	0x415420b5	13.257985
31	0x433c0874	188.03302

layer2.0.bn2.running_var f4 [32]
0	0x46208654	10273.582
1	0x469add8b	19822.771
2	0x46456156	12632.334
3	0x4695a6e5	19155.447
4	0x468421c0	16912.875
5	0x467f1c31	16327.048
6	0x45605581	3589.344
7	0x469dbb1d	20189.557
8	0x461b9fe2	9959.971
9	0x464b8f18	13027.773
10	0x4683a860	16852.188
11	0x4672f9b4	15550.426
12	0x46abdfea	21999.957
13	0x46ae4b03	22309.506
14	0x469a607e	19760.246
15	0x46593c25	13903.036
16	0x4634f413	11581.019
17	0x462f38bd	11214.185
18	0x472df8cc	44536.797
19	0x467b41fd	16080.497
20	0x4640b862	12334.096
21	0x46147dae	9503.42
22	0x4675648f	15705.14
23	0x468a5504	17706.508
24	0x468c3c49	17950.143
25	0x469af5c6	19834.887
26	0x46a771ea	21432.957
27	0x46cb6828	26036.078
28	0x4624d7ef	10549.983
29	0x45e18d57	7217.6675
30	0x460a5d86	8855.381
31	0x46a51fa3	21135.818
