our_code/Pytorch/trained_students/t-16-2-student-16-1.pth (torch_old, 718602 bytes, 69 tensors)

conv1.weight f4 [16, 3, 3, 3]
0	0xbea28500	-0.31742096
1	0xbcb901e0	-0.022583902
2	0xbd870b96	-0.06594007
3	0x3e0c2fdd	0.13690133
4	0x3eb36e35	0.3504502
5	0x3b30bd47	0.0026968287
6	0x3e58afe1	0.21160842
7	0x3e15ea6d	0.14640208
8	0xbea686b0	-0.32524633
9	0x3d77a5f1	0.06046099
10	0x3e817f17	0.25292274
11	0xbe4a113f	-0.19733141
12	0x3e2c53ba	0.16828814
13	0x3e376e4c	0.17913169
14	0x3e03e1fb	0.12879173
15	0xbe4e8586	-0.20168123
16	0xbe8f0c8b	-0.27939257
17	0xbec49e43	-0.38401994
18	0xbe7980e3	-0.24365573
19	0x3e14da73	0.14536457
20	0x3e11ef97	0.14251553
21	0xbe240cc6	-0.16020498
22	0x3e8e1eae	0.27757782
23	0x3e6a3af9	0.22874059
24	0xbda1df6f	-0.07903945
25	0xbe282d9e	-0.16423652
26	0x3defb7c3	0.11704972
27	0x3ea26161	0.3171492
28	0x3e6efba3	0.2333818
29	0x3e8efe47	0.27928373
30	0x3e4c60f5	0.19958861
31	0x3db4fa54	0.08836809
32	0xbe4974b2	-0.19673422
33	0xbd7752be	-0.060381643
34	0xbed07cad	-0.4072012
35	0xbedb074b	-0.42779002
36	0xbe46ed20	-0.19426394
37	0xbe8b9bdf	-0.27267358
38	0xbe41a56b	-0.18910758
39	0x3e363ea8	0.17797339
40	0xbdc7be50	-0.09753096
41	0xbeadcc7c	-0.33945072
42	0x3e86aafd	0.2630233
43	0xbc67a085	-0.014137392
44	0x3ca85c3c	0.020551793
45	0xbd63bfe0	-0.055602908
46	0xbe1607d7	-0.14651428
47	0xbe4aadc1	-0.19792844
48	0x3e226e98	0.158625
49	0xbe242805	-0.16030891
50	0x3d8ea079	0.069642015
51	0x3ea5bbf3	0.32369956
52	0x3df4fc65	0.11962203
53	0x3e06cd5f	0.1316428
54	0xbe8f09d2	-0.2793718
55	0xbd99d292	-0.07510866
56	0xbe6c7a8b	-0.23093621
57	0xbe146714	-0.14492446
58	0x3dd52d3a	0.10409017
59	0x3e354a45	0.17704113
60	0x3e904739	0.2817934
61	0x3eb62e5d	0.35582247
62	0x3e99f9b5	0.30073324
63	0xbdc056c3	-0.093915485
64	0x3e20fa8c	0.15720576
65	0xbd0daf42	-0.034590967
66	0x3d18ebdb	0.037334304
67	0xbb56646f	-0.0032713672
68	0xbe3d5b26	-0.18491802
69	0xbe4ef54b	-0.2021076
70	0xbe85fd97	-0.26170036
71	0xbcad80b0	-0.021179527
72	0x3e347f79	0.17626752
73	0x3ea9300b	0.33044466
74	0x3d079c0c	0.033107802
75	0x3d7d695e	0.061868064
76	0xbd88f090	-0.06686509
77	0xbe4890b3	-0.19586448
78	0xbde74cc6	-0.1129394
79	0xbe874945	-0.26423088
80	0xbe10abcb	-0.14128034
81	0x3e212ea2	0.15740445
82	0x3d11d03c	0.03559898
83	0x3e4a9d1f	0.197865
84	0x3e8bee2a	0.27330142
85	0x3ef6894c	0.48151624
86	0x3df77176	0.12082188
87	0xbe945f7c	-0.289791
88	0xbe6be903	-0.23038106
89	0xbe2debff	-0.16984557
90	0xbe876604	-0.2644502
91	0x3e7e6079	0.24841489
92	0x3e549af5	0.20762236
93	0xbebd1241	-0.3692799
94	0x3e57939c	0.21052402
95	0x3f07daf3	0.53068465
96	0xbed68e78	-0.4190557
97	0xbd5523a0	-0.052035928
98	0x3c83948d	0.016062045
99	0xbe63e224	-0.22254235
100	0xbdd1691e	-0.10225128
101	0x3c8e73af	0.017389147
102	0xbcc6ab34	-0.024251558
103	0x3dd7504f	0.105133645
104	0x3e8409ea	0.25788814
105	0xbe785484	-0.2425099
106	0xbd0c09f6	-0.034189187
107	0x3db18552	0.08668007
108	0x3e898f3c	0.26867092
109	0xbd71b5bb	-0.059011202
110	0xbdc68ab2	-0.09694423
111	0xbdfcb1f0	-0.123386264
112	0x3cccc7b0	0.024997562
113	0xbe7cc5e6	-0.24684867
114	0x3d79fcb5	0.061032016
115	0x3c07a388	0.008278735
116	0xbdb0a9f0	-0.08626163
117	0xbe943f6a	-0.2895463
118	0xbdf8273b	-0.121168576
119	0xbd4e9266	-0.050432585
120	0xbda3cb7c	-0.07997796
121	0x3e494024	0.19653374
122	0x3eb9241c	0.36160362
123	0xbd289e2a	-0.041166462
124	0x3e926459	0.28592184
125	0x3ea618a9	0.3244069
126	0x3d7369d2	0.05942709
127	0xbd983968	-0.074328244
128	0x3dd9af6c	0.10629162
129	0x3bedb1bb	0.007253853
130	0x3e18f1c6	0.14935979
131	0xbc88b0a0	-0.016685784
132	0xbd776b8f	-0.06040531
133	0xbe8578c9	-0.26068714
134	0xbe7341e7	-0.23755608
135	0xbd130c0c	-0.03590016
136	0x3e00245c	0.1251387
137	0x3cc4b6e9	0.024013
138	0xbd6b82e8	-0.05749789
139	0xbe6b2416	-0.22962984
140	0x3d9d71ce	0.07687722
141	0xbd0619bb	-0.032739382
142	0xbdd097f6	-0.10185234
143	0xbe0497d3	-0.12948541
144	0xbd13d3c3	-0.036090624
145	0xbc9bc0ac	-0.019012772
146	0x3e4f2817	0.20230137
147	0xbc02b010	-0.007976547
148	0xbee9ec31	-0.45688012
149	0xbd75b181	-0.059983734
150	0x3e0adad4	0.13560039
151	0xbe4e5325	-0.20148905
152	0x3d814615	0.06312195
153	0x3e2e161b	0.1700062
154	0x3e2ae9d4	0.16690761
155	0x3d9878d5	0.07444922
156	0xbe1bbebf	-0.15209483
157	0xbe815ab4	-0.25264513
158	0x3cf02a40	0.029317021
159	0x3b93716e	0.004499606
160	0xbe356269	-0.17713322
161	0xbdd994d3	-0.10624089
162	0xbd028477	-0.03186461
163	0xbb72505a	-0.0036974163
164	0x3e5f1888	0.21786702
165	0x3c35637c	0.011071082
166	0xbce90ad1	-0.02844754
167	0x3eaa7adf	0.33296868
168	0xbd33daec	-0.043909952
169	0x3e4ae880	0.19815254
170	0x3e5f8f28	0.21831954
171	0x3ce68966	0.028141689
172	0xbd9d8a10	-0.07692349
173	0xbe951164	-0.2911483
174	0x3e786b54	0.24259692
175	0xbe9e296a	-0.3089097
176	0xbeb911f3	-0.36146507
177	0x3e900729	0.28130463
178	0xbd9fce19	-0.07802982
179	0x3d0758bc	0.033043608
180	0x3e16710d	0.14691563
181	0x3c13354a	0.008984873
182	0x3e6af23c	0.22943968
183	0x3e304556	0.1721395
184	0xbd530182	-0.05151511
185	0x3dcede5e	0.10101007
186	0xbe5ee5bc	-0.21767324
187	0xbe628351	-0.22120406
188	0x3d58710b	0.05284218
189	0xbe96e744	-0.29473317
190	0xbce1c829	-0.027561264
191	0x3db3d595	0.08780972
192	0x3d331cff	0.043728825
193	0x3c1248fc	0.008928534
194	0xbe4eefa1	-0.20208599
195	0x3e8df8e8	0.27728963
196	0xbe007c5b	-0.12547438
197	0xbe1cb41f	-0.15303086
198	0x3d8d5dbe	0.069026455
199	0x3eacca31	0.3374801
200	0x3dc4d114	0.09610191
201	0x3e095a34	0.13413316
202	0x3ef899a7	0.48554727
203	0x3e64aae1	0.2233081
204	0xbe82a824	-0.25518906
205	0x3e372c02	0.17887881
206	0x3ea7e151	0.3278909
207	0xbe044a77	-0.12919031
208	0xbe1a01fe	-0.15039822
209	0xbe28a164	-0.16467816
210	0x3dd70fa7	0.10501032
211	0xbe7266fa	-0.23672095
212	0xbea857e2	-0.3287955
213	0x3dc6f0ae	0.09713875
214	0xbe5dcc9d	-0.21660085
215	0xbec43d04	-0.383278
216	0xbe0f5bc8	-0.13999856
217	0xbebac0b3	-0.36475143
218	0x3d262d72	0.040570684
219	0xbec8daff	-0.3922958
220	0xbed05a3c	-0.40693843
221	0x3e906d35	0.28208318
222	0xbe6f751e	-0.2338452
223	0xbe2cbc1b	-0.16868632
224	0x3df0ddd1	0.11761058
225	0xbd1a37f7	-0.03765103
226	0xbdb27e95	-0.0871555
227	0x3e34c5a1	0.17653514
228	0x3dbf10dd	0.09329388
229	0x3e2def12	0.1698573
230	0x3e00aae7	0.12565194
231	0xbd441b4b	-0.04787759
232	0xbdb0c0d7	-0.08630531
233	0xbc675c22	-0.014121087
234	0x3e28ee4f	0.16497158
235	0x3deef6cf	0.11668169
236	0xbe37c7fd	-0.17947383
237	0x3e39c896	0.18142924
238	0x3ebc7a61	0.36812118
239	0x3e4a610d	0.19763584
240	0x3e32aed3	0.17449503
241	0x3e3d0322	0.18458226
242	0xbe0e5dc3	-0.13902955
243	0x3db4e860	0.088333845
244	0x3eb8ce7b	0.36095032
245	0x3e933b1b	0.2875603
246	0xbe3c338c	-0.18379039
247	0x3e62afd8	0.22137392
248	0x3dfb2bef	0.12264239
249	0xbf02f2e8	-0.51151896
250	0xbeb9f27f	-0.36317822
251	0xbedc4bae	-0.4302649
252	0x3bf614c1	0.0075097983
253	0x3e80491e	0.25055784
254	0x3b9b5595	0.004740427
255	0x3e55ee04	0.20891577

layer1.0.bn1.weight f4 [16]
0	0x3f99529d	1.1978337
1	0x3f5ec29c	0.870157
2	0x3f789913	0.9710857
3	0x3f837430	1.0269833
4	0x3f569d02	0.83833325
5	0x3f8cfc28	1.1014452
6	0x3f31c396	0.69439065
7	0x3f37ec33	0.71844786
8	0x3f552f81	0.8327561
9	0x3f632ff8	0.8874507
10	0x3f6d98ef	0.92811483
11	0x3f59a243	0.85013217
12	0x3f554ad5	0.8331731
13	0x3f660b26	0.8986076
14	0x3f818c9c	1.0121036
15	0x3f645b56	0.8920187

layer1.0.bn1.bias f4 [16]
0	0x3f25394d	0.6454056
1	0x3e6e6eb6	0.2328442
2	0x3f1a7660	0.60336876
3	0x3eab6af1	0.33480027
4	0x3f51af94	0.81908536
5	0xbf0bce9f	-0.54612154
6	0x3f1e1750	0.6175432
7	0x3ef182d5	0.4717013
8	0x3ed006aa	0.40630084
9	0x3f457088	0.77124834
10	0x3e947be1	0.29000762
11	0x3e1a2dce	0.15056536
12	0x3f48208c	0.7817466
13	0xbe61fb57	-0.22068535
14	0xbf0a1b03	-0.53947467
15	0x3ee88af7	0.45418522

layer1.0.bn1.running_mean f4 [16]
0	0xbd1000b4	-0.03515692
1	0xbca38c88	-0.019964471
2	0x3d7f3f5c	0.062316284
3	0x3d5b5ebd	0.053557146
4	0x3c9ea653	0.019366419
5	0x3cad44b1	0.021150919
6	0x3d190562	0.03735865
7	0x3e0ace32	0.1355522
8	0xbe763f18	-0.24047506
9	0xbdc26f32	-0.09493865
10	0x3b8d2cc0	0.004308313
11	0xbe599cdd	-0.21251245
12	0x3c309bcd	0.010779333
13	0x3e292342	0.16517356
14	0x3d8f7907	0.07005506
15	0x3dcc4bac	0.09975371

layer1.0.bn1.running_var f4 [16]
0	0x3ec74c16	0.38925236
1	0x3f701d79	0.9379497
2	0x3e81edc4	0.25376713
3	0x3fe451d0	1.7837467
4	0x3dc10b91	0.09426034
5	0x3f89c337	1.07627
6	0x3e80db57	0.25167343
7	0x3e928167	0.2861435
8	0x3f3a8c86	0.7287067
9	0x3f8af54a	1.0856106
10	0x3f6e2c22	0.9303609
11	0x3f459ac7	0.77189296
12	0x3e2095c7	0.15682136
13	0x3eecd627	0.46257135
14	0x3ffb5247	1.9634484
15	0x3eb355d9	0.35026434

layer1.0.conv1.weight f4 [16, 16, 3, 3]
0	0xbe4b21d1	-0.19837119
1	0xbe5fecb6	-0.21867642
2	0xbd41ba46	-0.047296785
3	0xbdc8d373	-0.09805956
4	0xbdf9d1c6	-0.12198214
5	0xbd902ba6	-0.07039575
6	0xbcf52158	-0.029923126
7	0x3d873a34	0.06602898
8	0xbdc3e3dd	-0.09564946
9	0x3dae26a7	0.08503466
10	0x3d3b203b	0.045685034
11	0x3b43348d	0.0029785961
12	0x3d79cce4	0.060986415
13	0x3d29d01d	0.041458238
14	0x3db90dc7	0.09035831
15	0x3ca0c894	0.019626893
16	0xbd125dc9	-0.03573397
17	0xbbfcfbcc	-0.007720446
18	0x3da57ef6	0.080808565
19	0x3d8f42fb	0.069951974
20	0xbe143983	-0.14475064
21	0xbd919fbd	-0.07110546
22	0xbca187a5	-0.019718
23	0xbe0276b4	-0.12740594
24	0xbdef3e48	-0.11681801
25	0xbe19ca2b	-0.15018527
26	0xbe2b1c99	-0.16710128
27	0xbd84998d	-0.064746
28	0xbe342da9	-0.17595543
29	0xbe4be5e3	-0.19911914
30	0xbe0316fc	-0.12801737
31	0xbd681fd9	-0.056670997
32	0xbdebc1b9	-0.11511559
33	0x3d8ab659	0.06773061
34	0x3dd0a860	0.10188365
35	0xbd0ff081	-0.03514147
36	0xbde9d30b	-0.114172064
37	0xbd3cc8af	-0.046089824
38	0xbde87bf1	-0.11351765
39	0xbe5f412c	-0.21802205
40	0x3d82d4d9	0.06388254
41	0xbcb28e6d	-0.02179643
42	0x3d86507a	0.065583184
43	0x3e2b7172	0.16742495
44	0x3de1d2c7	0.11026531
45	0xbe2cd4b7	-0.1687802
46	0xbd93286d	-0.07185445
47	0xbcea0ffd	-0.028572077
48	0xbe5c7e86	-0.2153264
49	0xbe55bc8b	-0.20872705
50	0xbea4bea2	-0.3217669
51	0x3d126f41	0.03575063
52	0xbdb9ca7b	-0.09071823
53	0xbe50db34	-0.2039612
54	0x3dcf0513	0.1010839
55	0x3c86e6e6	0.016467523
56	0xbe169437	-0.14704977
57	0x3d8db734	0.06919709
58	0xbe0ac613	-0.13552122
59	0xbe0676ff	-0.13131331
60	0xbc9b8845	-0.018985877
61	0xbe3ef07a	-0.18646422
62	0xbdf057f9	-0.117355295
63	0xbd775bd9	-0.060390327
64	0x3dd761fe	0.105167374
65	0x3c946dfb	0.018118849
66	0xbd0237ee	-0.03179162
67	0xbdbb0583	-0.09131911
68	0x3c1e865a	0.009675587
69	0xbdeea914	-0.11653343
70	0xbc808f09	-0.015693204
71	0x3d706d18	0.05869779
72	0xbe61115b	-0.21979277
73	0xbe217aaf	-0.15769456
74	0xbe36f976	-0.178686
75	0xbde498db	-0.11161967
76	0xbdd0d99c	-0.10197756
77	0xbc83d047	-0.016090525
78	0x3c4145ad	0.011796397
79	0x3db312a4	0.0874379
80	0x3e7be360	0.24598455
81	0xbe18544d	-0.14875908
82	0xbe2bc286	-0.16773424
83	0xbe18a021	-0.14904834
84	0xbc0960ea	-0.0083849225
85	0xbd8ba7f2	-0.068191424
86	0xbd8fd9ae	-0.07023941
87	0x3d948e3f	0.07253694
88	0x3e578236	0.21045765
89	0x3e92e4b1	0.28690103
90	0xbded7450	-0.115944505
91	0xbd638ace	-0.055552296
92	0x3ce1dd5b	0.02757137
93	0x3bb0388d	0.005377835
94	0x3baa5f61	0.0051993583
95	0x3bf09444	0.0073418934
96	0x3cab2f1e	0.02089649
97	0xbc9f9704	-0.01948119
98	0x3d5245b8	0.05133602
99	0xbdc5cefd	-0.096586205
100	0xbdc443b9	-0.095832296
101	0xbe0618c3	-0.13095383
102	0xbd24b6e1	-0.04021347
103	0x3c81338b	0.015771648
104	0x3d9e8b83	0.077414535
105	0x3ddaca36	0.106831
106	0x3dbd242f	0.09235417
107	0x3dad7965	0.0847042
108	0x3e00524d	0.12531395
109	0xbd0503ac	-0.032474205
110	0xbdf98464	-0.12183455
111	0x3dfd92e1	0.123815306
112	0x3e000a60	0.12503958
113	0xbab77058	-0.0013995273
114	0x3ce52896	0.027973454
115	0x3d810350	0.0629946
116	0xbc83354b	-0.016016623
117	0x3e171f34	0.14757997
118	0x3d085eb5	0.033293445
119	0x3e34ed2f	0.17668603
120	0xbcbdf333	-0.023187255
121	0x3db02d86	0.08602433
122	0x3df476b2	0.11936702
123	0xbe475ac4	-0.19468218
124	0xbc83bb9d	-0.016080672
125	0x3c78dea9	0.015189805
126	0xbd3e82fe	-0.046511643
127	0xbdc45dc5	-0.095881976
128	0x3d2ae916	0.041726194
129	0x3d9b6602	0.07587816
130	0x3dfb72fc	0.12277791
131	0x3d6dbc44	0.058040872
132	0xbd0b7aa8	-0.03405252
133	0xbd436a05	-0.04770853
134	0xbc6b9fc6	-0.014381355
135	0x3c023a93	0.0079485355
136	0xbc99bbd0	-0.018766314
137	0xbdb2f59c	-0.087382525
138	0xbcc3c32f	-0.023896782
139	0x3c87c2f7	0.016572459
140	0xbe5c5e63	-0.2152038
141	0xbd941d15	-0.072321095
142	0xbe039b26	-0.12852153
143	0xbd375053	-0.044754338
144	0x3dfc5564	0.123209745
145	0x3d605516	0.054768644
146	0x3d612703	0.054968845
147	0x3dcce1a9	0.10003979
148	0x3d043a60	0.032282233
149	0xbd0a5b2d	-0.03377836
150	0xbdc31ebe	-0.09527348
151	0xbd633a78	-0.055475682
152	0x3dd68d90	0.1047622
153	0x3dbbf427	0.09177428
154	0x3ba85f8b	0.0051383427
155	0xbdffbc2b	-0.12487062
156	0x3d558211	0.052125994
157	0x3dc1c7d1	0.0946194
158	0xbd435e54	-0.04769738
159	0x3df380e8	0.11889821
160	0x3e1046b8	0.14089477
161	0x3dc6f12b	0.09713968
162	0xbe9cf894	-0.306584
163	0xbe06be4b	-0.13158529
164	0xbd67cb40	-0.05659032
165	0xbdc7c606	-0.09754567
166	0x3ca7bc74	0.020475604
167	0x3c42a6c4	0.01188058
168	0x3c9e3d54	0.019316353
169	0x3cf5c57d	0.030001396
170	0xbd3b8258	-0.045778602
171	0x3dc7aac4	0.09749368
172	0x3dcdc7de	0.10047887
173	0x3d284fef	0.041091856
174	0xbd4ff82c	-0.050773785
175	0x3dd3e00b	0.10345467
176	0x3df2bdd2	0.118526116
177	0xbe038ae0	-0.12845945
178	0xbdb0b91c	-0.08629057
179	0x3d3571e4	0.044298068
180	0x3da0d1ba	0.07852502
181	0x3e7e1e20	0.2481618
182	0x3de032f9	0.10947222
183	0xbe59ba29	-0.2126242
184	0xbe393364	-0.1808601
185	0xbe38d3d7	-0.1804956
186	0xbe88dda3	-0.26731595
187	0xbe30ab7e	-0.17252919
188	0xbe5bf138	-0.21478736
189	0x3cc67a90	0.024228364
190	0x3d5952a5	0.05305733
191	0x3d114249	0.035463605
192	0x3da88076	0.08227627
193	0x3e2f552c	0.17122334
194	0x3e2d1595	0.16902764
195	0x3e28b047	0.16473494
196	0x3df4d732	0.11955108
197	0x3e582bb6	0.21110424
198	0xbebbabc9	-0.366545
199	0xbe313e90	-0.17309022
200	0x3c2ed04b	0.010669778
201	0xbe867220	-0.26258945
202	0x3b7acdaa	0.0038269558
203	0xbd2efe80	-0.04272318
204	0x39b2c0f7	0.00034094576
205	0x3daea7e5	0.08528117
206	0xbe024f47	-0.12725554
207	0x3dde1f2c	0.10845789
208	0x3dced1c7	0.100986056
209	0x3d44aeb3	0.04801817
210	0xbc5dbcfe	-0.013533829
211	0xbb7d17fe	-0.0038619037
212	0x3c841cdc	0.016127042
213	0xbe783c7d	-0.24241824
214	0xbe13758b	-0.14400308
215	0xbd47585a	-0.048668243
216	0x3ce22384	0.027604826
217	0x3defd075	0.11709682
218	0xbd6bd9dc	-0.057580814
219	0xbcc182a3	-0.023621863
220	0x3db9ae7a	0.09066482
221	0x3da890ae	0.082307205
222	0x3d6661d8	0.056245655
223	0x3e155fe5	0.14587362
224	0x3da37e2c	0.0798305
225	0x3e4bddc2	0.19908813
226	0x3e85c422	0.261262
227	0x3c2431dd	0.010021654
228	0x3de263cf	0.11054193
229	0x3e900969	0.2813218
230	0x3dace30f	0.084417455
231	0xbdd8f3d1	-0.10593379
232	0xbcce8323	-0.025209015
233	0x3ddc7a35	0.10765497
234	0xbe0b12a5	-0.13581331
235	0xbc62b6a7	-0.013837493
236	0xbdf9fbea	-0.12206252
237	0x3db71f82	0.089415565
238	0x3d87af3b	0.066252194
239	0x3cac0e5c	0.02100294
240	0x3daec0ef	0.08532893
241	0x3e04b92f	0.12961267
242	0xbdc7be2b	-0.097530685
243	0xbe3d16fb	-0.18465798
244	0xbe10b9bb	-0.1413335
245	0xbe8a4cb9	-0.2701166
246	0xbe31ff34	-0.17382509
247	0xbe1812b7	-0.14850889
248	0xbe961014	-0.29309142
249	0x3d5956f4	0.05306144
250	0x3d3528eb	0.044228476
251	0xbdcb54e3	-0.099283
252	0xbe828385	-0.25490966
253	0xbd8959ed	-0.06706605
254	0x3e00602e	0.1253669
255	0xbe23b7bc	-0.15988058

layer1.0.bn2.weight f4 [16]
0	0x3f2d2f57	0.6765036
1	0x3f3464eb	0.7046649
2	0x3f1301a1	0.5742436
3	0x3f5b0c3b	0.8556554
4	0x3f2afb40	0.6678963
5	0x3f587434	0.8455231
6	0x3f008e90	0.50217533
7	0x3f503c9b	0.81342477
8	0x3f48c703	0.7842867
9	0x3f27d53a	0.6555973
10	0x3f3936bc	0.72349143
11	0x3f5bc192	0.8584224
12	0x3f3b2d49	0.73115975
13	0x3ef55220	0.4791422
14	0x3edbf3cc	0.4295944
15	0x3f234e3b	0.63791245

layer1.0.bn2.bias f4 [16]
0	0x3da5f089	0.08102519
1	0xbd86686d	-0.065628864
2	0xbe6f90c1	-0.23395063
3	0xbe5740f9	-0.21020879
4	0x3f117c53	0.5683033
5	0x3e419ffd	0.18908687
6	0x3f09db8c	0.53850627
7	0xbf4c6c9f	-0.7985324
8	0xbebb88ee	-0.36627907
9	0xbd46edeb	-0.04856674
10	0x3e8d5ef5	0.2761151
11	0x3eb6600c	0.35620153
12	0xbdd94d83	-0.10610487
13	0x3de357d5	0.11100737
14	0x3ec2bf3f	0.38036534
15	0x3ea61b91	0.32442906

layer1.0.bn2.running_mean f4 [16]
0	0xc0153a18	-2.3316708
1	0x3d98371c	0.07432386
2	0xbd15d56c	-0.036580488
3	0xbf55a09c	-0.83448195
4	0xc00e0569	-2.2190802
5	0xbf376276	-0.71634614
6	0xbfe7ffd7	-1.8124951
7	0x406c2517	3.6897638
8	0xbfa764b4	-1.3077607
9	0x3fcf5208	1.6196909
10	0xbe4265bb	-0.1898412
11	0xbed4644e	-0.41482776
12	0x3ec06766	0.37578887
13	0xbff15681	-1.8854524
14	0xc0278660	-2.6175766
15	0xbe82cb62	-0.25545794

layer1.0.bn2.running_var f4 [16]
0	0x40641cd5	3.5642598
1	0x40710411	3.7658732
2	0x4074f8d6	3.8276877
3	0x4006d460	2.1067123
4	0x40990b0a	4.7825975
5	0x4093adfa	4.6149874
6	0x401efec2	2.4842992
7	0x4073c1ca	3.808703
8	0x4066693b	3.6001728
9	0x4030d981	2.7632754
10	0x40911112	4.533334
11	0x400f3a60	2.237938
12	0x4062e24e	3.5450625
13	0x403a2407	2.908449
14	0x40014df5	2.0203831
15	0x40a8bbe2	5.272935

layer1.0.conv2.weight f4 [16, 16, 3, 3]
0	0x3d84b6a0	0.064801455
1	0xbce9d7e5	-0.02854533
2	0x3d6ad0ab	0.057327908
3	0xbd65ebf5	-0.05613323
4	0xbd7c2b6a	-0.06156484
5	0x3d13dbf5	0.03609844
6	0x3cd947ea	0.02652355
7	0xbe011bcb	-0.12608258
8	0x3c12649e	0.008935122
9	0x3c835eab	0.016036352
10	0xbd58f304	-0.052966133
11	0x3dcadbaf	0.099051826
12	0xbd06f213	-0.032945704
13	0xbd16d224	-0.0368215
14	0x3e082472	0.13295153
15	0xbd9f09fb	-0.077655755
16	0x3df7d722	0.1210158
17	0xbccefa6f	-0.0252659
18	0xbe98903a	-0.29797536
19	0xbdbce9a6	-0.092242524
20	0x3b95b0a3	0.004568176
21	0xbdc7955b	-0.09745284
22	0x3e1330f3	0.14374141
23	0x3d3d8a78	0.046274632
24	0x3d7c9f62	0.061675437
25	0x3c87adf0	0.016562432
26	0xbcc8eb4f	-0.024526266
27	0xbcdc3139	-0.02687894
28	0xbcb86069	-0.02250691
29	0x3cff158e	0.031138208
30	0xbdd131e8	-0.10214597
31	0xbd58eb93	-0.052959036
32	0x3c5ec099	0.013595724
33	0x3dc26f5b	0.094938956
34	0x3d1201e4	0.035646334
35	0xbd06559c	-0.032796487
36	0x3dce5fb4	0.10076848
37	0xbc812176	-0.015763026
38	0x3dacbef3	0.08434858
39	0xbe039280	-0.12848854
40	0xbe406a3d	-0.18790527
41	0xbe027318	-0.12739217
42	0xbda75bd1	-0.081718095
43	0xbd88efaf	-0.06686341
44	0x3d67a202	0.056550987
45	0x3db6d03c	0.08926436
46	0x3e5385f6	0.20656571
47	0x3d396853	0.045265507
48	0xbca97ced	-0.020689452
49	0x3e87ef84	0.26549923
50	0x3c061253	0.00818308
51	0xbe8b13ad	-0.2716345
52	0x3d98eddc	0.07467243
53	0x3e2ba919	0.16763724
54	0xbe29fba2	-0.16599897
55	0xbc31a550	-0.010842636
56	0x3d81c183	0.063357376
57	0xbe551648	-0.20809281
58	0x3daae9a6	0.08345346
59	0x3def1976	0.11674778
60	0xbd9cea9e	-0.07661937
61	0x3d6abb9c	0.057307824
62	0xbc28dd24	-0.01030663
63	0xbe003228	-0.12519133
64	0xbdccdfa0	-0.100035906
65	0xbcde8667	-0.027163697
66	0xbb172c21	-0.0023067074
67	0xbdc06018	-0.093933284
68	0xbcf28a3c	-0.02960693
69	0x3c8e5253	0.01737324
70	0x3ada1052	0.0016636944
71	0xbd8dda5e	-0.06926416
72	0xbe28e6b5	-0.16494258
73	0xbb125e4b	-0.0022334035
74	0xbd736019	-0.059417818
75	0x3ce24932	0.027622793
76	0xbdf132bd	-0.11777256
77	0xbe1f9958	-0.1558584
78	0x3d45441c	0.048160657
79	0x3e212f91	0.15740801
80	0x3d9c38c9	0.076280184
81	0x3dcc5290	0.09976685
82	0xbccd91fe	-0.025094029
83	0xbd83b9bd	-0.06431911
84	0x3d13e345	0.036105413
85	0x3ccc2778	0.024921164
86	0x3d8bafb4	0.06820622
87	0x3db1c5b5	0.08680288
88	0x3d5cae5a	0.053877212
89	0xbb6f6f2f	-0.0036534776
90	0x3d704c22	0.058666356
91	0xbbf3d553	-0.0074412017
92	0xbda55332	-0.08072509
93	0x3ccc8175	0.024964074
94	0x3d97bf55	0.074095406
95	0xbd879d66	-0.06621818
96	0x3e851552	0.2599283
97	0xbd599d53	-0.05312855
98	0xbe536d98	-0.20647275
99	0xbc7cb309	-0.015423545
100	0x3d4d92fa	0.050188996
101	0xbd4a6022	-0.049408086
102	0x3e0e4c6a	0.13896337
103	0x3d9b391c	0.07579252
104	0x3da7a9a4	0.08186653
105	0x3d236daf	0.039899524
106	0xbe3fba46	-0.18723401
107	0x3d4df824	0.050285473
108	0xbc07d727	-0.008291042
109	0xbe2d0a9b	-0.16898577
110	0xbe48c174	-0.19605047
111	0xbc08067f	-0.00830233
112	0xbd173425	-0.036914963
113	0xbd9b5a57	-0.0758559
114	0xbd5d7d47	-0.054074552
115	0xbda62f52	-0.081144944
116	0xbc3c6075	-0.0114976065
117	0xbcb79e99	-0.022414492
118	0xbd1b7917	-0.037957277
119	0x3d9e49d7	0.077289276
120	0xbc86ad4d	-0.016440058
121	0xbd3235b9	-0.043508265
122	0x3d92c767	0.07166939
123	0xbdc77fe4	-0.0974119
124	0xbe37fd5e	-0.17967746
125	0x3d1daa17	0.03849229
126	0x3d950850	0.07276976
127	0xbdc795af	-0.09745347
128	0xbe61b6da	-0.22042409
129	0x3e00c769	0.12576069
130	0xbc8c89e7	-0.0171556
131	0xbe488bc8	-0.19584572
132	0x3e00ecbe	0.1259031
133	0x3e580cb3	0.21098594
134	0xbc7baf73	-0.015361655
135	0xbe5174b4	-0.20454675
136	0xbe4256fb	-0.18978493
137	0xbcbdc0fa	-0.023163307
138	0xbe733d09	-0.23753752
139	0xbd0daa8e	-0.03458648
140	0x3e3f862c	0.18703526
141	0xbe349b29	-0.17637314
142	0xbdda5614	-0.10660949
143	0x3e46bd41	0.19408132
144	0x3d81b3e3	0.06333139
145	0x3d53ed26	0.051739834
146	0x3df8c26e	0.121464595
147	0xbc987316	-0.018609565
148	0x3df059b4	0.117358595
149	0x3d30e561	0.043187503
150	0x3d3e6668	0.04648438
151	0x3d19256a	0.037389196
152	0xbb83c167	-0.004020858
153	0x3e01d56a	0.12679067
154	0x3e52ae64	0.20574337
155	0x3dd0bbba	0.10192056
156	0xbd8449bd	-0.06459377
157	0x3e43b987	0.19113742
158	0x3dd3f7b3	0.10349979
159	0x3d342a27	0.043985512
160	0x3c1f93e2	0.009739848
161	0x3d93ea2e	0.072224006
162	0xbe1093b0	-0.14118838
163	0xbdd6cc1e	-0.10488151
164	0xbe0f20f4	-0.13977414
165	0x3c49699f	0.012293248
166	0xbd0e0fd1	-0.034683052
167	0xbc195756	-0.009359201
168	0x3b771010	0.0037698783
169	0xbc4d3576	-0.012524953
170	0xbb2c260b	-0.0026267793
171	0x3de022e6	0.10944156
172	0x3e3206d3	0.17385416
173	0x3e69b72c	0.22823781
174	0x3c3b749c	0.011441376
175	0x3ddc371e	0.107527
176	0x3dc3aa57	0.09553974
177	0xbdb36fd2	-0.087615624
178	0xbdcf5385	-0.10123352
179	0xba9b9e34	-0.001187271
180	0x3dac4c04	0.08412936
181	0xbce4e0d7	-0.027939243
182	0xbdc3eb68	-0.095663846
183	0xbdd532dc	-0.10410091
184	0xbe648a0f	-0.2231829
185	0xbd122ff1	-0.03569025
186	0x3dd71058	0.10501164
187	0x3e2fd156	0.17169699
188	0x3e451a2c	0.19248265
189	0x3e25c301	0.1618767
190	0x3d0aa370	0.033847272
191	0x3d89ea0c	0.06734094
192	0xbde70bab	-0.11281522
193	0xbddcf2c7	-0.107884936
194	0x3cdd8ef9	0.027045714
195	0xbccd1df8	-0.025038704
196	0xbc7a8720	-0.015291005
197	0x3d1fd722	0.039023526
198	0x3c82394f	0.015896467
199	0xbb8a923b	-0.004228858
200	0x3e03c106	0.12866601
201	0xbd7e3e4c	-0.06207113
202	0x3e26cfe7	0.16290246
203	0x3cea29b3	0.028584337
204	0x3d4c7e2b	0.04992501
205	0x3d79c0a7	0.060974743
206	0x3b877e24	0.00413491
207	0x3a76efef	0.0009419908
208	0xbd101b61	-0.03518236
209	0x3cab6dfa	0.020926464
210	0x3bc21049	0.0059223515
211	0xbde81adf	-0.1133325
212	0xbde6073c	-0.112318486
213	0x3cd1540e	0.025552776
214	0xbd5da7ca	-0.054115094
215	0xbda4d689	-0.08048732
216	0x3e20b687	0.15694629
217	0x3dd10bb0	0.10207307
218	0x3e0e3b18	0.1388973
219	0x3b327ca7	0.0027234943
220	0x3e606d72	0.2191675
221	0x3dfaf017	0.12252825
222	0xbd74f1cc	-0.059800908
223	0x3c7a1c43	0.015265527
224	0x3da5b312	0.080907956
225	0x3c8a9c3b	0.0169202
226	0x3e0dbb31	0.13840939
227	0x3c530515	0.01287963
228	0x3c86d17e	0.016457316
229	0x3d837eff	0.06420707
230	0x3e512fac	0.20428342
231	0xbdfd5ee0	-0.123716116
232	0xbd35b1fb	-0.04435919
233	0x3d3f5eda	0.046721317
234	0x3d8abc9d	0.067742564
235	0x3e47ba0f	0.1950457
236	0x3e40069a	0.18752518
237	0x3dee00d5	0.116212524
238	0x3d538210	0.05163771
239	0x3cdd6164	0.027023979
240	0xbd98efd9	-0.07467622
241	0xbea8f246	-0.3299734
242	0xbe85f7ad	-0.26165524
243	0x3baec77b	0.0053338385
244	0xbc758751	-0.014985875
245	0xbd6b2c27	-0.057415154
246	0x3e041d58	0.12901819
247	0xbd2bf6e1	-0.04198349
248	0xbda4013c	-0.08008048
249	0xbc963658	-0.01833646
250	0xbd28db10	-0.04122454
251	0x3cd64c18	0.026159331
252	0x3da9f41f	0.082985155
253	0x3cb5c4d9	0.02218859
254	0x3d6fa5e2	0.058507808
255	0xbcd734e9	-0.026270347

layer1.1.bn1.weight f4 [16]
0	0x3f844a7f	1.0335234
1	0x3f624145	0.88380843
2	0x3f867bfa	1.0506585
3	0x3f80bb19	1.0057098
4	0x3f82e05e	1.0224721
5	0x3f8dabb5	1.1068026
6	0x3f68dd7b	0.9096295
7	0x3f8b743a	1.0894845
8	0x3f4c54e7	0.7981705
9	0x3f8470d0	1.0346928
10	0x3f859291	1.0435354
11	0x3f84327a	1.0327904
12	0x3f338760	0.7012844
13	0x3f72f4df	0.94904894
14	0x3f6c4ae9	0.92301804
15	0x3f82f1ac	1.0230002

layer1.1.bn1.bias f4 [16]
0	0x3f11db31	0.56975085
1	0xbe0112a2	-0.12604764
2	0x3f2d6e8f	0.67746824
3	0x3f068945	0.52553207
4	0xbd4105d2	-0.04712469
5	0x3de1e2b3	0.110295676
6	0x3ea016b5	0.31267324
7	0x3eaffcad	0.34372464
8	0x3e9af1e4	0.30262673
9	0x3eb44ad3	0.35213336
10	0x3f2efd26	0.68355024
11	0x3e9e2dee	0.30894417
12	0x3ec36bfa	0.38168317
13	0x3c8725cd	0.016497517
14	0x3eb89fb3	0.3605934
15	0x3e675c4b	0.225938

layer1.1.bn1.running_mean f4 [16]
0	0xbf01b344	-0.5066416
1	0x3e9b0adc	0.30281723
2	0xbf866d8a	-1.0502179
3	0xbfc06331	-1.5030271
4	0x400a4c20	2.1608963
5	0xbf240eee	-0.6408528
6	0xbed45642	-0.4147206
7	0xbfe24a3e	-1.7678907
8	0xbfa54493	-1.2911552
9	0xbefea56c	-0.49735582
10	0xbfc7845d	-1.5587269
11	0x3e16c35d	0.14722963
12	0x3e830146	0.2558691
13	0xbffec0b2	-1.9902556
14	0xbeb181e6	-0.34669417
15	0xbf4da702	-0.8033296

layer1.1.bn1.running_var f4 [16]
0	0x3fc1da08	1.5144663
1	0x40922b1d	4.567763
2	0x4006207e	2.0957332
3	0x4042e901	3.0454714
4	0x3fc9471b	1.5724825
5	0x4028a929	2.6353247
6	0x3f8d785a	1.1052353
7	0x401e378e	2.4721408
8	0x400e8309	2.2267478
9	0x402c28ae	2.689983
10	0x405cebb8	3.4518871
11	0x401c04ad	2.4377854
12	0x403b966a	2.9310555
13	0x3fbfe9fe	1.4993284
14	0x401ea846	2.4790206
15	0x3fe04a86	1.7522743

layer1.1.conv1.weight f4 [16, 16, 3, 3]
0	0xbd0d14c6	-0.03444364
1	0xbe0fc680	-0.14040565
2	0xbd1cabfa	-0.038249947
3	0xbe5d4d8a	-0.2161161
4	0xbdc7cf02	-0.097562805
5	0xbda2b097	-0.07943838
6	0xbdea0c15	-0.11428086
7	0x3dc25edb	0.094907485
8	0x3c01e290	0.007927552
9	0xbda44486	-0.08020882
10	0xbc4440f0	-0.011978373
11	0x3d86af8a	0.0657645
12	0xbd9decc4	-0.07711175
13	0x3d3ec668	0.046575934
14	0x3daf6bbe	0.08565472
15	0xbdbc998e	-0.09208976
16	0xbe0353d1	-0.12824942
17	0x3d5aac57	0.053387012
18	0xbe06dd4f	-0.1317036
19	0x3dc13908	0.09434706
20	0xbdc85983	-0.09782698
21	0xbe035ed2	-0.1282914
22	0x3e5d22ce	0.21595308
23	0xbc04fcef	-0.008116945
24	0xbd9c0eec	-0.076200336
25	0x3e8e4d5a	0.2779339
26	0x3d8c3fbd	0.068480946
27	0xbd82be50	-0.063839555
28	0x3e340f3f	0.17583941
29	0xbe13869c	-0.14406818
30	0xbe275ccc	-0.16343993
31	0xbdb00387	-0.08594423
32	0xbd947e1a	-0.072506145
33	0x3d0f6e00	0.035017014
34	0x3bb5c015	0.0055465796
35	0xbe4ab14c	-0.19794196
36	0xbe30e119	-0.17273368
37	0xbe20c2d7	-0.15699326
38	0xbe487c88	-0.19578755
39	0xbcff3c0e	-0.031156566
40	0x3dbd82e9	0.09253485
41	0xbbd95fc9	-0.006633733
42	0x3dafdabb	0.085866414
43	0x3d01ae6b	0.03166048
44	0x3da7bae6	0.08189945
45	0x3d10158c	0.0351768
46	0x3de6201f	0.11236595
47	0x3e10ef14	0.14153701
48	0xbda57b08	-0.08080107
49	0xbd26082c	-0.040535137
50	0x3e2479a0	0.16062021
51	0xbdc1be9b	-0.09460183
52	0xbdfed8e8	-0.12443715
53	0x3ddb1984	0.10698226
54	0xbce3c535	-0.027803997
55	0x3d263357	0.040576305
56	0x3cce41b8	0.025177822
57	0x3e1ef957	0.15524803
58	0x3e06efb0	0.13177371
59	0x3e29cd00	0.16582108
60	0xbd8e35b1	-0.069438346
61	0xbe05c930	-0.13065028
62	0xbd3afdf6	-0.045652352
63	0xbc94e6f3	-0.018176531
64	0xbdc77b91	-0.09740365
65	0xbe96a8be	-0.29425615
66	0x3d032181	0.032014374
67	0x3dd4b36e	0.10385786
68	0xbd9b6777	-0.07588094
69	0x3c235992	0.009970086
70	0x3e2b316a	0.16718069
71	0xbd9714d2	-0.07377018
72	0x3d958e78	0.073025644
73	0x3db3a3f7	0.08771508
74	0x3d450a43	0.04810549
75	0xbb3e934c	-0.0029079495
76	0x3db1edda	0.08687945
77	0x3e3ca013	0.18420438
78	0xbe13004a	-0.14355579
79	0xbd8abb4f	-0.067740075
80	0xbdab5727	-0.08366232
81	0xbe14d77d	-0.14535327
82	0xbc810e5d	-0.01575392
83	0xbd9dd5fd	-0.07706831
84	0xbe5cf235	-0.2157677
85	0xbd1b7c3f	-0.037960287
86	0xbe708abc	-0.23490423
87	0xbdaf1e28	-0.08550674
88	0x3bb04ba6	0.0053801117
89	0xbe13fcda	-0.14451924
90	0xbd07010b	-0.03295998
91	0xbe4f2161	-0.20227577
92	0xbe026dcf	-0.12737201
93	0xbd0f597e	-0.034997456
94	0x3d5a6730	0.053321064
95	0x3bb15ffd	0.005413054
96	0xbda1bb0d	-0.07897005
97	0x3d7c1f29	0.061553154
98	0x3c96faee	0.0184302
99	0x3d944da2	0.0724137
100	0x3d5a9f57	0.053374615
101	0x3e2f4ada	0.17118397
102	0x3e43c5ba	0.19118395
103	0x3e68ec22	0.22746328
104	0x3ea973fb	0.330963
105	0xbe4d7c2c	-0.20066899
106	0x3d87e1ee	0.066348895
107	0x39efff6a	0.0004577593
108	0xbe95d946	-0.2926733
109	0xbe2c5b21	-0.16831638
110	0xbe51ca51	-0.20487334
111	0xbdaf91d7	-0.085727386
112	0x3d7f238c	0.06228976
113	0xbcada2b6	-0.02119575
114	0xbe0ef96c	-0.13962334
115	0x3cccbd45	0.024992594
116	0xbd5c09a4	-0.05372013
117	0x3d0372c1	0.03209186
118	0x3cc14d1c	0.023596339
119	0xbb7d6303	-0.0038663752
120	0x3e258066	0.16162261
121	0x3ec3fb16	0.382775
122	0x3db94314	0.09045997
123	0x3b154c04	0.0022780905
124	0x3e42ccbb	0.19023411
125	0xbd9ee62c	-0.077587456
126	0xbde55439	-0.11197705
127	0xbc8af9c0	-0.016964793
128	0xbe32895d	-0.17435212
129	0xbd32118c	-0.043473765
130	0x3d829e9f	0.06377911
131	0xbd8dedd6	-0.06930129
132	0xbdb8b83d	-0.09019516
133	0xbe094549	-0.13405336
134	0xbe43fc9d	-0.19139333
135	0xbd45b205	-0.048265476
136	0xbcaa7ebc	-0.020812385
137	0xbca4b85a	-0.020107437
138	0x3c0b2e26	0.008494889
139	0x3e6475ab	0.22310512
140	0x3dc25c6a	0.09490283
141	0x3d8bbf06	0.06823544
142	0x3e1eb7a4	0.15499741
143	0x3d5e0c88	0.05421117
144	0x3d516aef	0.05112737
145	0xbd06dbd8	-0.032924503
146	0xbdaf8f05	-0.08572201
147	0xbb6561fa	-0.0035001026
148	0xbe006177	-0.1253718
149	0xbcf0323b	-0.029320827
150	0x3d752b00	0.05985546
151	0xbc72f870	-0.01482974
152	0x3dcff8cd	0.10154877
153	0x3cc6037c	0.024171583
154	0xbd88d7bd	-0.06681774
155	0xbe84ba5a	-0.25923425
156	0x3d998701	0.07496453
157	0x3c9454e9	0.018106895
158	0xbe83850d	-0.25687447
159	0x3d724b86	0.059154056
160	0x3d6a7276	0.057238065
161	0xbd73e2ae	-0.05954235
162	0xbb1d0855	-0.0023961265
163	0xbc522742	-0.012826743
164	0x3e4af44f	0.19819759
165	0xbbfde5f8	-0.0077483617
166	0x3d40b299	0.047045324
167	0x3ea07c30	0.31344748
168	0x3da294b8	0.07938522
169	0x3e3fe11c	0.18738216
170	0x3e3833cf	0.17988513
171	0x3cd1a7bb	0.025592675
172	0x3cc73691	0.024318011
173	0x3d817422	0.06320979
174	0xbe29a41b	-0.16566508
175	0xbda1b58e	-0.07895957
176	0x3e5768f7	0.21036135
177	0xbdfcf42c	-0.123512596
178	0xbd0a4762	-0.033759482
179	0x3e00f33f	0.12592791
180	0xbe940c8b	-0.2891582
181	0xbc3fe677	-0.011712662
182	0x3e6ff82c	0.23434514
183	0xbe19d17f	-0.15021323
184	0x3c468a58	0.012117945
185	0x3e18ae1f	0.14910172
186	0xbd6fc709	-0.058539424
187	0x3d128aaa	0.03577677
188	0x3c00362b	0.007825415
189	0x3c2f20df	0.010688989
190	0x3e36c6a3	0.17849211
191	0x3d634c68	0.05549279
192	0xbe387f83	-0.18017392
193	0x3db77ba6	0.08959131
194	0xbe887a06	-0.26655596
195	0xbe53ad5f	-0.20671605
196	0xbd3c2169	-0.0459303
197	0xbdbff280	-0.09372425
198	0xbe481ed2	-0.19543007
199	0xbccb9342	-0.024850491
200	0x3ce83c9f	0.028349219
201	0xbe2836b4	-0.16427118
202	0x3e11aaf3	0.14225368
203	0x3c823350	0.015893608
204	0xbd92b68f	-0.071637265
205	0xbd808b43	-0.06276562
206	0xbde0374e	-0.109480485
207	0xbd4d13ff	-0.050067898
208	0x3d3ac855	0.045601208
209	0x3dbdc9fe	0.092670426
210	0xbcdcadf0	-0.026938409
211	0xbe6330c7	-0.22186576
212	0x3e5e58ee	0.21713611
213	0xbde36bb2	-0.111045256
214	0xbe806b94	-0.25082076
215	0x3d897fb0	0.067138076
216	0xbe3b3a1c	-0.18283886
217	0x3d9b864b	0.07593974
218	0xbd8f4755	-0.069960274
219	0xbdca28ea	-0.09871085
220	0x3e893a59	0.26802328
221	0x3d5450c8	0.05183485
222	0xbdecdb27	-0.115652375
223	0x3d7268eb	0.05918209
224	0xbd92afbf	-0.07162427
225	0x3cfce658	0.030871555
226	0xbcbee55b	-0.023302725
227	0x3dd6a93e	0.10481499
228	0xbc24c7bf	-0.010057389
229	0xbe0cce49	-0.13750567
230	0x3e57eb73	0.2108591
231	0xbc110cf3	-0.008853185
232	0xbde0098f	-0.10939323
233	0x3e281e05	0.16417702
234	0xbe24fea5	-0.16112764
235	0x3daa683d	0.08320663
236	0xbccf1d42	-0.025282506
237	0xbc6c5d3f	-0.0144265285
238	0x3e053960	0.13010168
239	0xbe506b48	-0.20353425
240	0x3c3adfbb	0.011405881
241	0x3de806dc	0.11329433
242	0xbe3f0866	-0.18655547
243	0xbe1af67c	-0.15133089
244	0x3d327ad0	0.043574154
245	0xbe45e417	-0.1932529
246	0x3d21864b	0.039434712
247	0x3e819310	0.25307512
248	0xbd371d35	-0.04470559
249	0x3d2fd95c	0.0429319
250	0x3de1eede	0.110318884
251	0x3da596e8	0.08085424
252	0xbe03c557	-0.12868248
253	0x3bb0dff9	0.0053977934
254	0x3e1b8f1c	0.1519131
255	0x3c1bb2ee	0.009503109

layer1.1.bn2.weight f4 [16]
0	0x3f3b744b	0.73224324
1	0x3f4130ea	0.7546526
2	0x3f2e1309	0.67997795
3	0x3f43c103	0.7646639
4	0x3f39ad7f	0.7253036
5	0x3f462b95	0.7741025
6	0x3f56694c	0.8375442
7	0x3f621fe7	0.8832993
8	0x3f371083	0.7150957
9	0x3f2a8784	0.6661303
10	0x3f1102e9	0.56645066
11	0x3f18e887	0.5972981
12	0x3f136396	0.5757383
13	0x3f18ddba	0.5971333
14	0x3f258fa6	0.64672315
15	0x3f6806ba	0.90635264

layer1.1.bn2.bias f4 [16]
0	0x3e4ec3c0	0.2019186
1	0x3cc2c092	0.023773465
2	0xbde712cb	-0.11282881
3	0x3d4f5109	0.05061439
4	0x3e2f201c	0.17102093
5	0xbdfd32f4	-0.12363234
6	0xbe1defec	-0.15423554
7	0x3ea1ebe2	0.31625277
8	0xbeb53443	-0.35391435
9	0xbeb3d63b	-0.35124382
10	0x3dd3ca1f	0.10341286
11	0xbce8303c	-0.028343312
12	0xbe07caf2	-0.13261011
13	0x3dab5d6b	0.083674274
14	0x3b383aaa	0.0028111138
15	0xbe6ae407	-0.22938548

layer1.1.bn2.running_mean f4 [16]
0	0xbf969144	-1.1763082
1	0x3edbd93b	0.4293917
2	0xbfb28181	-1.3945771
3	0xbfb1d444	-1.3892903
4	0x3e4edb30	0.20200801
5	0xbe82142b	-0.25406012
6	0x3f9b3ca3	1.212788
7	0xbed20db6	-0.41026086
8	0xbef74683	-0.48295984
9	0xc00d4a0a	-2.207644
10	0xbd100d26	-0.03516879
11	0x401ca4b2	2.4475522
12	0x400410f6	2.0635352
13	0x3f0d3198	0.551538
14	0x3ffcf377	1.97618
15	0xc012ceb6	-2.2938666

layer1.1.bn2.running_var f4 [16]
0	0x40405afb	3.005553
1	0x4088d939	4.2765164
2	0x40787361	3.8820422
3	0x40592a1d	3.3931954
4	0x402af856	2.6714072
5	0x40329931	2.7906
6	0x408d7112	4.4200525
7	0x4090da2a	4.5266314
8	0x40720f74	3.7821932
9	0x407b06d1	3.922291
10	0x4087437b	4.2269874
11	0x4023c118	2.5586605
12	0x40133383	2.300019
13	0x40164b57	2.3483484
14	0x408d9e3d	4.425566
15	0x40d2c044	6.58597

layer1.1.conv2.weight f4 [16, 16, 3, 3]
0	0x3dbe2a38	0.09285396
1	0xbd21eacb	-0.039530557
2	0x3b8a84cf	0.004227258
3	0x3e2eea73	0.17081623
4	0xbd668dca	-0.056287564
5	0x3de52ae5	0.11189822
6	0xbd697bed	-0.05700295
7	0x3cb9ee75	0.022696713
8	0x3d3be103	0.045868885
9	0xbd94045b	-0.07227393
10	0xbd9bdd3c	-0.076105565
11	0xbdeb7bb3	-0.11498203
12	0xbe2cdf38	-0.16882026
13	0xbc86aaea	-0.01643892
14	0x3c627130	0.013820931
15	0xbe8b07f1	-0.27154496
16	0xbdc888a8	-0.0979169
17	0x3dcd05ba	0.10010858
18	0xbcd58ec0	-0.026069045
19	0x3df386db	0.11890956
20	0x3d6c98c8	0.05776289
21	0xbe0bdc7e	-0.1365833
22	0xbb4ef041	-0.0031576308
23	0x3cc0a36a	0.023515422
24	0xbd9001ec	-0.070316166
25	0xbb3518ec	-0.0027633263
26	0x3d80ccf6	0.06289093
27	0xbc8a1a67	-0.016858293
28	0x3e7e2d38	0.24821937
29	0x3e95c295	0.29250017
30	0x3d37b44b	0.044849675
31	0x3e0a0154	0.13477069
32	0x3e668f2d	0.22515555
33	0x3e50dc1c	0.20396465
34	0x3e0da09e	0.13830802
35	0x3dba8a23	0.09108379
36	0x3d3beaea	0.04587833
37	0x3e2df362	0.16987374
38	0xbcd29afe	-0.025708672
39	0x3dc39fdf	0.09551977
40	0x3e516b86	0.20451173
41	0x3d7fcf53	0.06245358
42	0x3dd54b56	0.1041476
43	0x3dbab039	0.09115643
44	0x3d41470f	0.047186907
45	0xbddf1008	-0.108917296
46	0x3e148fc7	0.14507972
47	0x3dfd926d	0.12381444
48	0xbe1ed543	-0.1551104
49	0xbcd79546	-0.026316296
50	0x3cce9b11	0.025220426
51	0x3d2734c1	0.040821794
52	0x3b2d88c9	0.0026479235
53	0xbc75de8d	-0.0150066735
54	0x3d69d4f9	0.057087872
55	0x3d10e781	0.03537703
56	0xbd477a48	-0.0487006
57	0xbe10ea8b	-0.14151971
58	0xbe47f0e2	-0.19525483
59	0xbe5842e5	-0.21119268
60	0x3e1202cd	0.14258881
61	0x3d97f1cc	0.07419166
62	0x3dede8c3	0.116166614
63	0xbe4df1fd	-0.20111842
64	0xbdea8be5	-0.11452464
65	0x3dc21780	0.094771385
66	0xbe995a17	-0.29951546
67	0xbd7ef4c9	-0.062245164
68	0x3e50f429	0.2040564
69	0xbea59ea2	-0.3234759
70	0xbd4ffd5c	-0.05077873
71	0x3e77882c	0.24173039
72	0xbdf07409	-0.11740882
73	0xbdc617e3	-0.09672525
74	0xbd58eca8	-0.052960068
75	0x3d77e084	0.06051685
76	0xbd58103f	-0.05274987
77	0xbda3f900	-0.08006477
78	0x3dcf6a50	0.101276994
79	0xbd826aa8	-0.06367999
80	0xbe981f70	-0.29711485
81	0x3d9c22c2	0.07623817
82	0x3de76b2a	0.11299737
83	0x3b83d12d	0.0040227384
84	0x3c81454b	0.015780112
85	0x3d378968	0.044808775
86	0xbd627a54	-0.055292442
87	0x3e3eeff5	0.18646224
88	0x3da9c5dc	0.08289692
89	0xbe472a31	-0.19449688
90	0xbe11f94f	-0.1425526
91	0xbd43d89c	-0.047813997
92	0x3e0635c9	0.13106455
93	0xbcc271ab	-0.023735842
94	0x3d28d8d0	0.041222394
95	0x3dd243ec	0.10266861
96	0x3d91a6e2	0.071119085
97	0xbd5593bb	-0.05214284
98	0x3b073984	0.0020633647
99	0x3d1bcbb9	0.038036082
100	0xbe2c5f2a	-0.16833177
101	0xbde123e0	-0.10993171
102	0x3dd40b46	0.10353713
103	0xbd33a872	-0.043861814
104	0xbdba5a16	-0.09099214
105	0xbc84c336	-0.016206365
106	0xbd9f6fd0	-0.077849984
107	0xbd570a23	-0.0524999
108	0x3e106382	0.14100459
109	0x3bb35880	0.0054731965
110	0x3c8e3a40	0.01736176
111	0x3ddf4fbd	0.10903881
112	0x3d394664	0.045233145
113	0xbd90f0aa	-0.07077153
114	0x3de5b989	0.11217029
115	0xbc3cd8dc	-0.011526313
116	0x3d08b7dd	0.03337847
117	0xbd7ec979	-0.062203858
118	0xbd10b2bb	-0.0353267
119	0x3ddc1785	0.107466735
120	0x3d4b1073	0.049576234
121	0x3e0cc1f9	0.1374587
122	0x3e4f1dc7	0.20226203
123	0x3d29ec42	0.04148508
124	0x3d639ecb	0.05557136
125	0x3d2f5cf2	0.04281325
126	0xbc7ce4f6	-0.015435448
127	0xbdd04ed3	-0.101712845
128	0xbe48afa2	-0.19598249
129	0xbd8171fd	-0.0632057
130	0x3d2760a4	0.040863648
131	0xbd80aa54	-0.062824875
132	0xbd821732	-0.063520804
133	0x3da9c8c3	0.082902454
134	0x3de56466	0.1120079
135	0x3e0693a6	0.13142261
136	0x3d1f38e8	0.03887263
137	0x3e1abfd2	0.15112236
138	0x3e180d04	0.14848715
139	0x3d58894a	0.052865304
140	0x3d5fb4b0	0.054615676
141	0x3d5e6cc7	0.054302957
142	0x3d8af951	0.067858346
143	0x3c485c59	0.012229049
144	0x3a88e07e	0.001044288
145	0xbdc1c8c0	-0.09462118
146	0x3b9bad77	0.004750903
147	0xbe335761	-0.17513801
148	0xbdb97977	-0.09056371
149	0x3ac19a54	0.0014770725
150	0xbddfd35a	-0.10928984
151	0xbdac88ad	-0.08424506
152	0x3dd4e12c	0.103945106
153	0xbd516141	-0.05111814
154	0xbd89983c	-0.067184895
155	0xbe0a7de2	-0.13524583
156	0xbe51b764	-0.20480114
157	0x3bff077b	0.007782874
158	0xbbe64aae	-0.0070279455
159	0xbe4abc2c	-0.19798344
160	0x3d9567ac	0.072951645
161	0x3d5d34b3	0.054005336
162	0xbd619381	-0.05507231
163	0xba528b76	-0.00080316456
164	0x3ca047c6	0.019565474
165	0xbd9cee1e	-0.07662605
166	0xbc1178c2	-0.008878889
167	0x3de73625	0.11289624
168	0xbdb49f68	-0.08819467
169	0xbda467f3	-0.08027639
170	0x3e26199a	0.16220704
171	0xbd750e2a	-0.05982796
172	0x3b5f40a0	0.003406562
173	0x3dd61a24	0.10454205
174	0xbd3ae01b	-0.04562388
175	0x3d04f438	0.032459468
176	0xbbeecf64	-0.0072879065
177	0xbdead61e	-0.11466621
178	0xbe43bda8	-0.19115317
179	0xbdbe4899	-0.09291191
180	0x3d8dc0f5	0.06921569
181	0x3d6df52e	0.05809515
182	0xbcd82b21	-0.026387753
183	0x3e42d436	0.19026265
184	0x3e3f4573	0.18678837
185	0x3d231583	0.039815437
186	0x3df9c989	0.12196643
187	0x3dad5a9c	0.08464548
188	0xbe4db831	-0.20089795
189	0xbd8d56dd	-0.069013335
190	0xbe472da4	-0.19451004
191	0xbd8145e0	-0.06312156
192	0xbd0dcb7d	-0.03461789
193	0x3de2eacd	0.11079941
194	0x3e1b129a	0.15143815
195	0x3dabb34e	0.08383809
196	0xbdc96719	-0.098341174
197	0xbcd53851	-0.02602783
198	0x3caa21a0	0.020767987
199	0x3d34ff6b	0.044188898
200	0x3ba3d7ad	0.005000076
201	0x3e583256	0.21112952
202	0x3dbed2cf	0.09317552
203	0x3d8f4bda	0.069968894
204	0x3da014f7	0.07816499
205	0x3d65e315	0.056124765
206	0x3ddb9dc1	0.107234485
207	0xbe14a957	-0.14517723
208	0xbd9741bf	-0.07385587
209	0xbe4ef0b8	-0.20209014
210	0xbd87e2aa	-0.066350296
211	0x3d00f37f	0.031482216
212	0x3d5a1b8c	0.053248927
213	0xbc3ecd8a	-0.011645684
214	0x3e01d1ef	0.1267774
215	0x3e2a2fa1	0.16619731
216	0xbd0bbd78	-0.03411624
217	0x3dfb141f	0.12259697
218	0x3e7cf7a8	0.24703848
219	0x3e15f974	0.1464594
220	0x3e032827	0.12808286
221	0x3e184c5a	0.14872876
222	0x3db87154	0.090059906
223	0x3df9ec13	0.12203231
224	0xbc03f537	-0.008054069
225	0xbc2ee5a5	-0.010674869
226	0x3ce65fcc	0.028121851
227	0x3da9f5ca	0.08298834
228	0x3c0c29bc	0.008554872
229	0x3cad1c83	0.02113176
230	0x3dea422d	0.11438403
231	0x3bf9c053	0.007621804
232	0xbe165b62	-0.14683297
233	0xbd886795	-0.06660382
234	0xbc14599c	-0.009054568
235	0x3df9ae5a	0.12191458
236	0x3d24e9e1	0.040262107
237	0xbacde5bc	-0.0015708725
238	0x3dde3ee0	0.10851836
239	0x3db7c7fe	0.08973692
240	0xb9918ef2	-0.00027763058
241	0xbc2a98e8	-0.010412432
242	0x3cd4f95a	0.025997806
243	0x3d64348d	0.05571418
244	0xbd5f59df	-0.054529067
245	0x3d0262b0	0.031832397
246	0xbe0b5bbd	-0.13609214
247	0xbe28f551	-0.16499831
248	0x3d18e7e3	0.03733052
249	0x3b37abed	0.002802606
250	0xbe044f1d	-0.12920804
251	0xbb8ea991	-0.00435371
252	0x3d965154	0.07339731
253	0x3e2da478	0.16957271
254	0xbd511891	-0.05104882
255	0xbd1ba593	-0.0379997

layer2.0.bn1.weight f4 [16]
0	0x3f97ab05	1.1849066
1	0x3f821da2	1.0165293
2	0x3f950654	1.1642556
3	0x3f5f3613	0.87191886
4	0x3f787682	0.9705583
5	0x3f970cf2	1.1800826
6	0x3f6e765b	0.93149346
7	0x3f63b438	0.88946867
8	0x3f72a481	0.94782263
9	0x3f66ce69	0.90158707
10	0x3f9bd6a7	1.2174882
11	0x3f6e6005	0.93115264
12	0x3f476bd4	0.7789891
13	0x3f76c049	0.96387154
14	0x3f4c0e26	0.7970909
15	0x3f834d1c	1.0257907

layer2.0.bn1.bias f4 [16]
0	0x3e0b68cc	0.13614196
1	0x3e3bcc28	0.18339598
2	0x3e815247	0.25258085
3	0x3f44c2c4	0.7685969
4	0xbea7c4e3	-0.327674
5	0x3e8c3f2a	0.2739194
6	0xbd4b0a15	-0.04957016
7	0xbe3d7ff9	-0.18505849
8	0x3f08e168	0.5346894
9	0x3f3b611c	0.7319505
10	0x3e0adbdb	0.1356043
11	0x3e1be7ca	0.1522514
12	0x3e13808e	0.14404508
13	0x3e201375	0.15632422
14	0x3eb1e9df	0.34748742
15	0x3df3a478	0.11896604

layer2.0.bn1.running_mean f4 [16]
0	0xbd1d7dd3	-0.038450073
1	0x3f692212	0.9106761
2	0xc03927ee	-2.893062
3	0xbffe452b	-1.9864858
4	0x402640f2	2.597714
5	0xbee2ffae	-0.44335693
6	0x3e9d3cac	0.3071035
7	0xc01b1c29	-2.4235938
8	0xc00d412a	-2.2071023
9	0xbf8f6029	-1.1201221
10	0xc03c33e1	-2.9406664
11	0xbf7cc781	-0.9874192
12	0x3f1cb273	0.6120979
13	0xc091d954	-4.5577793
14	0xbed19dd3	-0.40940723
15	0xc0020604	-2.0316172

layer2.0.bn1.running_var f4 [16]
0	0x4042bd12	3.04279
1	0x40bd5bf1	5.9174733
2	0x40abd3b7	5.369594
3	0x4080b0b9	4.0215726
4	0x401a4b61	2.4108508
5	0x4061399f	3.519142
6	0x3fed54f5	1.8541552
7	0x409499d0	4.643776
8	0x4092d1c4	4.588106
9	0x408812b3	4.2522826
10	0x40bf6c5d	5.981978
11	0x407e5680	3.9740295
12	0x40858ca3	4.1734176
13	0x4074c72d	3.8246567
14	0x4031a99b	2.775977
15	0x403974a1	2.8977435

layer2.0.conv1.weight f4 [32, 16, 3, 3]
0	0xbd826f4e	-0.06368886
1	0xbcc8539d	-0.024453932
2	0xbe5d1aa3	-0.21592192
3	0x3c679e19	0.0141368145
4	0x3c521b58	0.012823902
5	0xbd5219df	-0.051294204
6	0x3e009b02	0.12559131
7	0x3c8f8f94	0.017524518
8	0x3d2a1cfa	0.04153154
9	0xbdf6ee97	-0.12057226
10	0xbc898d79	-0.016791092
11	0xbe031e51	-0.12804534
12	0xbbb32301	-0.0054668193
13	0xbe621b5c	-0.2208075
14	0xbece8ab4	-0.40340197
15	0x3df11f79	0.11773581
16	0xbd476441	-0.048679594
17	0xbe8d107d	-0.27551642
18	0x3e7e3443	0.24824624
19	0x3e0efdb6	0.1396397
20	0xbd76e432	-0.060276218
21	0x3def4139	0.11682362
22	0x3ce641f4	0.02810762
23	0xbe1940c9	-0.1496612
24	0x3d939b13	0.072073124
25	0xbcbeb1cf	-0.023278145
26	0xbd8adefa	-0.06780811
27	0x3d7a3447	0.06108501
28	0x3d8d48de	0.06898664
29	0x3db981d2	0.090579644
30	0x3d98bbdc	0.07457706
31	0x3d3a8db1	0.045545284
32	0xbb287491	-0.0025704245
33	0x3c78f9ce	0.015196277
34	0xbe019c12	-0.12657192
35	0x3dc8f9ab	0.098132454
36	0xbe1b3ff5	-0.15161116
37	0xbe82a824	-0.25518906
38	0xbde9c31e	-0.11414169
39	0xbe400ddc	-0.18755287
40	0xbd949650	-0.07255232
41	0xbe137063	-0.14398341
42	0xbe1aa32c	-0.15101308
43	0xbdd9df9d	-0.10638354
44	0xbe316813	-0.17324857
45	0x3d7456e2	0.05965317
46	0x3dd75391	0.10513986
47	0xbd9ee89a	-0.07759209
48	0x3cd73200	0.026268959
49	0xbd12246c	-0.035679266
50	0xbd68acac	-0.056805298
51	0xbdfca057	-0.1233527
52	0xbd67d733	-0.056601714
53	0xbe47abea	-0.19499174
54	0x3cc7a12a	0.024368841
55	0x3d85e718	0.06538218
56	0xbdc8aab7	-0.09798186
57	0x3de44eb7	0.11147826
58	0xbd1a888e	-0.037727885
59	0xbe18b74b	-0.1491367
60	0x3dde8ea0	0.10867047
61	0xbc242e5f	-0.010020821
62	0xbda471ef	-0.080295436
63	0x3c9f21be	0.01942527
64	0xbe05c847	-0.13064681
65	0xbdf57df1	-0.11986912
66	0xbe083d00	-0.1330452
67	0xbe419aa8	-0.18906653
68	0xbde2023f	-0.11035585
69	0xbde9c935	-0.1141533
70	0xbda24630	-0.079235435
71	0xbe01596d	-0.1263177
72	0xbcba9229	-0.022774773
73	0x3dd77eaf	0.1052221
74	0xbc9eb6fe	-0.019374367
75	0xbd857a80	-0.06517506
76	0xbd26bf7c	-0.040709957
77	0xbe46f7ce	-0.19430467
78	0xbe02bf4b	-0.12768285
79	0x3c6035bc	0.013684686
80	0xbd5965fc	-0.053075776
81	0x3d1cb1f0	0.038255632
82	0xbea60dcf	-0.3243241
83	0xbe60f295	-0.21967538
84	0xbe3c3382	-0.18379024
85	0xbec68e40	-0.38780403
86	0xbeafce00	-0.34336853
87	0xbe22351e	-0.15840575
88	0xbf0882ce	-0.5332459
89	0xbeac8dbc	-0.33701885
90	0x3cd7af39	0.02632867
91	0xbe46c3d7	-0.19410644
92	0xbe25d224	-0.16193444
93	0x3e4b86e8	0.19875681
94	0xbe228d4b	-0.15874211
95	0xbe085c01	-0.13316347
96	0x3dc76216	0.09735505
97	0xbe98daea	-0.29854518
98	0xbdf12888	-0.11775309
99	0x3c612641	0.013742031
100	0x3db5dca3	0.08879974
101	0x3da33a36	0.07970087
102	0xbe3a62cf	-0.18201755
103	0xbdad17d3	-0.0845181
104	0xbd9f2bb8	-0.077720106
105	0xbdf079a2	-0.117419496
106	0xbc0ac69b	-0.008470203
107	0xbd996930	-0.07490766
108	0xbe3e8e29	-0.18608917
109	0xbe032c8d	-0.12809964
110	0xbdc86d8f	-0.09786522
111	0xbe72c34a	-0.2370731
112	0xbe894e6c	-0.26817644
113	0xbe003d24	-0.12523323
114	0xbe906fdb	-0.2821034
115	0xbe20a292	-0.15687016
116	0xbd774ffc	-0.060379013
117	0x3e0d441b	0.13795511
118	0x3e43bcf4	0.19115049
119	0x3de9ea37	0.11421626
120	0x3e120b0d	0.14262028
121	0x3e58839d	0.21143956
122	0x3de43fac	0.11144957
123	0x3e125669	0.14290775
124	0x3e3f36cd	0.18673249
125	0xbd97b059	-0.074066825
126	0xbbbeb2d3	-0.0058196574
127	0x3dd3d679	0.10343642
128	0xbd9468d3	-0.07246556
129	0x3e3fc61a	0.18727913
130	0x3dc80117	0.09765833
131	0x3d20806e	0.03918498
132	0x3d1ef81d	0.038810838
133	0x3d689ef9	0.056792233
134	0xbc827964	-0.015927024
135	0xbd3cbae8	-0.046076685
136	0xbbd030ec	-0.006353488
137	0x3c24061e	0.010011224
138	0x3d8df313	0.06931128
139	0x3d3886d0	0.045050442
140	0x3d5f9dca	0.05459384
141	0x3d238234	0.039919093
142	0x3d1c420b	0.03814892
143	0xbd574858	-0.052559227
144	0x3ca84201	0.020539286
145	0xbcbfee1a	-0.023428965
146	0x3ddefa93	0.10887637
147	0x3d64cceb	0.055859488
148	0xbcbb0f6d	-0.022834504
149	0xbd128db7	-0.03577968
150	0xbe18f067	-0.14935456
151	0xbe9e67ce	-0.30938572
152	0xbe1eb92b	-0.15500323
153	0xbdb484f0	-0.08814418
154	0x3c0c576b	0.008565764
155	0xbe26915a	-0.16266385
156	0xbcaad074	-0.020851351
157	0xbe0428b8	-0.12906158
158	0xbe040e56	-0.12896094
159	0x3c78c0bb	0.015182669
160	0xbd4bedc8	-0.049787313
161	0xbde1b10f	-0.11020099
162	0x3e5db022	0.2164922
163	0x3defe1d1	0.11712993
164	0x3e2390e8	0.15973246
165	0x3e8d5836	0.27606362
166	0x3e1a962f	0.15096353
167	0x3d9511ed	0.0727881
168	0x3d621a39	0.05520079
169	0x3d8e74be	0.069558606
170	0xbd1c4ba3	-0.03815807
171	0x3db5f521	0.08884645
172	0x3d7f9f68	0.06240788
173	0x3db9e0ca	0.09076078
174	0x3e66a8c1	0.22525312
175	0x3dc6e0eb	0.097108684
176	0x3e020ea1	0.12700893
177	0x3e9abfb8	0.30224395
178	0x3e050b8c	0.12992686
179	0x3d308c23	0.043102395
180	0x3d900720	0.07032609
181	0x3de45cfa	0.11150546
182	0xbd01a8e0	-0.031655192
183	0xbbd0bc76	-0.0063701225
184	0xbc519e0f	-0.012794032
185	0xbd992e01	-0.07479478
186	0xbd933642	-0.07188083
187	0x3d493461	0.049122218
188	0x3d7d9786	0.061912082
189	0x3e1918b4	0.1495083
190	0x3e1ad3e0	0.15119886
191	0x3dfaddec	0.122493595
192	0xbcb8dd69	-0.022566514
193	0x3b0081bc	0.0019608578
194	0x3d900b93	0.070334576
195	0x3d805853	0.062668465
196	0x3d274955	0.04084142
197	0x3bee6e82	0.007276357
198	0x3deddde9	0.11614592
199	0x3d60db64	0.054896727
200	0x3b931626	0.0044887243
201	0x3e1ce9c6	0.15323552
202	0x3e313fbe	0.17309472
203	0x3dabfbbd	0.08397625
204	0x3dc097d5	0.0940396
205	0xbcd3aece	-0.02584019
206	0x3d39e60f	0.045385417
207	0x3e2c72a4	0.16840607
208	0x3e395e39	0.1810235
209	0xbb317d35	-0.0027082686
210	0x3df4a031	0.119446166
211	0x3daad7d5	0.08341948
212	0x3c6d484a	0.014482567
213	0x3d9214e8	0.07132894
214	0x3d72233e	0.05911564
215	0x3dd1caee	0.10243784
216	0x3dd53627	0.10410719
217	0x3cbb2928	0.022846773
218	0x3d83c723	0.06434467
219	0x3c4981c4	0.012299005
220	0xbdb7e723	-0.08979633
221	0x3cffa310	0.031205684
222	0x3a515244	0.0007984976
223	0x3ccaa3b7	0.024736268
224	0x3ba40bfa	0.0050063105
225	0x3e17425b	0.14771406
226	0x3db3d80e	0.087814435
227	0x3da06e49	0.07833535
228	0xbb3e4aaf	-0.0029036214
229	0x3db85e55	0.090023674
230	0x3e628800	0.22122192
231	0x3d842994	0.06453243
232	0xbba543bc	-0.005043475
233	0x3e00ef84	0.12591368
234	0xbe5db2c8	-0.21650231
235	0xbda780ef	-0.08178889
236	0xbe1bc202	-0.15210727
237	0xbe1bedcc	-0.15227431
238	0xbd5481d8	-0.05188164
239	0xbdea63e3	-0.11444833
240	0xbe693d6a	-0.22777334
241	0xbe17c68b	-0.14821832
242	0xbe820c8e	-0.25400203
243	0x3cbf8ff4	0.023384072
244	0x3cf9acae	0.030477848
245	0xbdbc165d	-0.09183953
246	0x3cac32c7	0.021020306
247	0xbb0b813a	-0.0021286742
248	0x3e0306fb	0.12795632
249	0xbccd1bf7	-0.025037749
250	0x3c28cd5c	0.010302868
251	0x3d35475e	0.044257514
252	0x3e271370	0.16316009
253	0x3e0f2ff4	0.13983136
254	0x3e041d1c	0.1290173
255	0x3e30aa4b	0.17252462

layer2.0.bn2.weight f4 [32]
0	0x3f47cd5c	0.7804773
1	0x3f56ba2e	0.8387784
2	0x3f346443	0.7046549
3	0x3f24e9e5	0.64419395
4	0x3f564912	0.83705246
5	0x3f6825b8	0.90682554
6	0x3f830126	1.0234725
7	0x3f7cee75	0.98801357
8	0x3f239ef2	0.63914406
9	0x3f92e5ff	1.1476439
10	0x3f6da172	0.9282447
11	0x3f6679b8	0.9002948
12	0x3f775908	0.96620226
13	0x3f681584	0.9065783
14	0x3f673121	0.9030934
15	0x3f92d272	1.1470473
16	0x3f35fbe9	0.7108751
17	0x3f698625	0.91220313
18	0x3f5a3191	0.8523188
19	0x3f5837c7	0.8446011
20	0x3f85ea88	1.0462198
21	0x3f6c24ad	0.9224346
22	0x3f5c01e4	0.85940385
23	0x3f19b32f	0.6003904
24	0x3f6ce0d8	0.92530584
25	0x3f58fd1f	0.8476123
26	0x3f86b9e0	1.0525475
27	0x3f29814d	0.6621292
28	0x3f73e005	0.952637
29	0x3f5c1dc8	0.8598294
30	0x3f5fcaa9	0.8741861
31	0x3f764513	0.9619915

layer2.0.bn2.bias f4 [32]
0	0x3e9a5471	0.3014255
1	0x3cdd2484	0.026994951
2	0xbe32a4eb	-0.17445724
3	0x3cbd3672	0.02309725
4	0x3d996d37	0.07491534
5	0xbdc10600	-0.094249725
6	0xbdb39821	-0.08769251
7	0x3e67e66c	0.22646493
8	0x3e8e581f	0.27801606
9	0xbdbed574	-0.09318057
10	0xbcf6c892	-0.030124936
11	0xbea607d2	-0.3242784
12	0xbe0cec41	-0.13761999
13	0xbe23beec	-0.159908
14	0x3b83edab	0.004026135
15	0xbd6bb59b	-0.05754624
16	0x3de4d4b1	0.1117338
17	0xbe892374	-0.2678486
18	0xbea11ec9	-0.314688
19	0xbd4ff810	-0.05077368
20	0xbdcff517	-0.10154169
21	0x3e00476e	0.12527248
22	0xbddf1f34	-0.108946234
23	0xbcf2e549	-0.029650347
24	0xbc594946	-0.013262099
25	0x3df42ae9	0.11922247
26	0xbe17327a	-0.14765349
27	0xbe941a56	-0.28926343
28	0x3ddc99ae	0.107714996
29	0x3e725f1a	0.23669091
30	0xbe799b85	-0.24375732
31	0xbe8d8270	-0.27638578
